results/test-6/Drive.onnx (onnx, 80694 bytes, 7 tensors)

network_body._body_endoder.seq_layers.0.weight f4 [128, 17]
00000000: beee 03be a518 c53d a3c6 97be 73a2 80be
00000010: 9e99 953e 1f61 133f 8438 fabe 272f a73d
00000020: b0b3 fe3c cd6f c1be b41a 073f d6e2 1dbe
00000030: 51e1 f13c a355 77be 5e8f 10be ff84 adbd
00000040: 0401 04be 6901 973c 14fb 2abe 3de1 7d3e
00000050: 67ba 83b9 b3a6 cebe 4926 f8bd 30ba 863e
00000060: 7070 44bc e5f6 a83c aacf 033e 6689 463e
00000070: 7ea5 403e b061 603e 7ee4 ad3e d39b e5bd
00000080: bf6f 453d 4fb0 7a3e d235 29bd ead7 ae3d
00000090: 1abe 5d3e 0527 8fbd 20e4 07bf 8a58 813e
000000a0: d190 0fbd cb5a 5abe f3eb 85be 3144 683c
000000b0: d778 b93d 88c5 423e 7f17 41bc 2bcb 4a3e
000000c0: 1487 523f dd93 a1bd 3779 973e 07f3 d83d
000000d0: 9204 9bbe 6015 bb3d 3afa 56be 3a7c 88bd
000000e0: df9b 263e 25c4 babe 363b 8d3d 8f9f 293e
000000f0: efe1 8c3e a476 88be d344 093d e5b2 4ebe
00000100: 1083 933e 948d 803e 79c1 33be 2bee 82be
00000110: 2ed7 4abe 903b c5bd b70e a3be 7f72 2abd
00000120: 2435 af3d 2e47 9dbe c0ab 323f 8187 ad3e
00000130: a9c7 3d3e fc64 bc3d 1a94 f6bd 0757 3ebe
00000140: 6984 96be f914 0a3e 125b 30bd 7769 15be
00000150: 7d2a 9a3b c79b 583e c4db a9bd 93d9 a93d
00000160: d0bb 113d 88a6 17bd 2b1f 92bc dd59 213e
00000170: f82c 62be e306 f3bd 145a 713d f004 dd3d
00000180: 51c8 55be 6149 bcbe d10e bd3e b9ae e4be
00000190: de3f e43e 1b0b 8ebc 9ccb 59be 21d9 423d
000001a0: 89cd c2bd a8b7 56bd e76c 88be e7a6 91be
000001b0: f6e1 28be dd73 19bd e95f 5c3e f2b9 5a3d
000001c0: b063 17bd 4d98 b13e 4535 ce3d a9f2 acbe
000001d0: b043 6c3e 6e13 7b3d 7ad7 193e 7551 a53e
000001e0: 4d84 9fbd 7f7b b1be 1cf1 06bf 01e4 6abb
000001f0: ef0b 82be 213b a03e a30d f6bd 7894 df3e
00000200: f3a7 42bd 06cf 9b3e 0d6a 743b 9311 4dbe
00000210: fa11 84bc 685d 823d 62c8 8b3e 3138 8d3e
00000220: 3850 b03d 373c 893e dd3c 23bb 7e09 2b3d
00000230: 9763 4a3e ff07 f03d a741 15be a399 4bbe
00000240: 849d 3f3e e61b 0bbf 3bfa ccbd e753 e0be
00000250: f9a4 78be 592c 5f3e a404 423d 983c bc3e
00000260: 5706 c5be ca7b 5b3e 4ed6 ddbe 4efa 313e
00000270: 1de4 e3bc 4660 21be 26ef 113e fa17 83bb
00000280: 4042 873e dcc3 e0be c077 493e 805f 09be
00000290: be71 08be 59c2 b63e 7abc cbbd 2cf5 28be
000002a0: aa7f 51be a58b 20bc fab4 f93d 3074 8cbd
000002b0: f4d8 13bf e959 a23e 2c3d 6cbe 96bb 8e3b
000002c0: 9a84 d7be b49d ab3e 1632 153d f461 ce3d
000002d0: bab7 7c3e 1a2c 9bbd 217f 9e3d 6baa 72be
000002e0: ec48 7e3e 449e 65bc 1c3a 70be a78f a8be
000002f0: 7a0b e3be 5556 a53e 5e53 87be 0f52 bfbe
00000300: 0e38 01bf fea9 073f 7214 f4bb f240 c3bb
00000310: fe28 4bbe 5414 06bd 405f 8cbe 2460 893e
00000320: a72e 66be 4ac3 2a3e c8ef 513d 5478 363d
00000330: 4782 153e 4963 b23d 4f03 e9bd 557d c8be
00000340: cdcd eabe 22a3 063e b557 513e e73a d5bd
00000350: 6ac0 debd dbf5 38be 93fe 923c 6a75 de3d
00000360: a1d2 063f 4661 fa3d f80b 573e 57f5 233e
00000370: 820d 533e e469 8dbd 794c 46bc 16cb c93e
00000380: 45c7 c5be 092c 8a3e 537c 66be a2b0 be3e
00000390: f36d 8c3e 7b52 663e 2c92 dc3d b59e 8e3d
000003a0: 86d3 87be 2303 24be fb50 503e c9da 09bf
000003b0: 1324 e3be c5e3 a9be caf3 86be f091 de3e
000003c0: f2d3 473e 17f1 863d 61ff a03e 046b 89bd
000003d0: 57ca 3abe fa53 943d 9060 a8be 2b66 913d
000003e0: e934 803c 191b 68be bfd4 833e 6b52 cd3c
000003f0: e9b6 913e 9174 353e 9254 bebd 43fb 803e
-0.12884042 0.09623841 -0.29643735 -0.2512394 0.29218763 0.5757007 -0.48871243 0.081632905
0.031091541 -0.3778061 0.5277512 -0.15418562 0.029526385 -0.24153762 -0.1411719 -0.084726326
-0.12891012 0.01843329 -0.16697341 0.24792953 -0.00025125148 -0.40361556 -0.12116677 0.26313925
-0.011989698 0.020625541 0.12872186 0.19388351 0.1881313 0.21912265 0.33963388 -0.11211362
0.048202273 0.24481319 -0.041311093 0.08537276 0.21654549 -0.06989864 -0.53082466 0.25262862
-0.035050217 -0.21323697 -0.26156577 0.014176414 0.090562515 0.19020665 -0.011785387 0.19804065
0.8223736 -0.07889531 0.29584667 0.10593229 -0.30276924 0.09134936 -0.20993891 -0.06664319
0.16270398 -0.3647777 0.06896059 0.16564773 0.27516124 -0.26653016 0.0335129 -0.2018543
0.2881093 0.25108016 -0.17554273 -0.25572333 -0.19808647 -0.09630501 -0.31847164 -0.0416131
0.08555058 -0.30718368 0.6979332 0.33892444 0.18533196 0.09198949 -0.12039967 -0.18587886
-0.29397896 0.13484563 -0.0430556 -0.14591013 0.004704772 0.21153174 -0.0829387 0.08293452
0.035579503 -0.03702405 -0.017837128 0.15756936 -0.22087467 -0.11866548 0.058923796 0.107919574
-0.20877196 -0.36774734 0.36925367 -0.44664553 0.44579977 -0.01733928 -0.21269077 0.04757035
-0.09511859 -0.052421242 -0.26645586 -0.2844765 -0.16492447 -0.03746401 0.21520962 0.053399988
-0.036960304 0.3468651 0.10068754 -0.33778885 0.23072696 0.061297826 0.15023604 0.3228871
-0.07788906 -0.34664533 -0.52711654 -0.0035841467 -0.2539973 0.31295112 -0.1201432 0.4366796
-0.04752345 0.30431384 0.0037294657 -0.20026235 -0.016121853 0.06365472 0.27301317 0.27581933
0.086090505 0.26803753 -0.0024908104 0.0417571 0.19764553 0.11720275 -0.14575826 -0.19882827
0.18712431 -0.54339445 -0.10008665 -0.43814012 -0.24281682 0.21794261 0.047367707 0.3676498
-0.384814 0.2143394 -0.43327564 0.1738064 -0.027818734 -0.15759382 0.14251384 -0.004000661
0.26417732 -0.4389943 0.19674587 -0.13415337 -0.13324639 0.3569515 -0.099480584 -0.16499776
-0.20458856 -0.009798919 0.12192722 -0.068580985 -0.5775292 0.3170922 -0.2307021 0.004355858
-0.42093354 0.33518755 0.03642472 0.10077277 0.24679461 -0.07576771 0.07739092 -0.23697822
0.24832505 -0.014014784 -0.23459667 -0.32922098 -0.44344693 0.3229243 -0.26430792 -0.37367293
-0.5047616 0.5299376 -0.0074487263 -0.00595867 -0.19839856 -0.03273423 -0.2741642 0.26831162
-0.22478734 0.1667606 0.051254064 0.044548348 0.14600478 0.087103434 -0.11377584 -0.3915812
-0.4586014 0.13148168 0.20443614 -0.10411625 -0.10876544 -0.18062536 0.017943656 0.10862239
0.52665144 0.12225585 0.2100066 0.16011558 0.20610622 -0.06904963 -0.012103193 0.39412755
-0.38628593 0.2698672 -0.22508363 0.37244135 0.27427635 0.22492401 0.107700676 0.06963865
-0.26528567 -0.16016822 0.20343392 -0.53849465 -0.4436346 -0.33181587 -0.2635787 0.43470716
0.19514444 0.06588953 0.3144484 -0.06709865 -0.18241249 0.0724258 -0.3288617 0.07099565
0.01565023 -0.22666587 0.2574825 0.025063714 0.28459862 0.17720248 -0.09293474 0.25191697

network_body._body_endoder.seq_layers.0.bias f4 [128]
00000000: 13fc 393d 0206 033d 1dc6 dbbc 22a8 11bd
00000010: ca2c 86bd 447e 8a3b 5dfa b7bc bd2d d1bc
00000020: 1235 c8bc 86c2 0bbd 91ba a83c 3cdf 84bc
00000030: d784 293d bb2d 67bc 7eb5 a7bc 05fd fb3c
00000040: a9fb f1bc 66db b33c f1cf 74bc fce3 8ebc
00000050: f6cb d2bb fa90 10bd 3cd3 b0bd ebef a2bb
00000060: 8cd0 4d3d 996e a63d 43d1 51bd 5e81 093d
00000070: 68bb 013b 73be 043d 7869 02bd 080b 41bc
00000080: 5972 67bc d975 69bd d9b4 3bbd 45f7 09bd
00000090: 811a 55bd 5bbb 673c 89ca 26bc 0501 5a3c
000000a0: 0120 80bc f5a9 9a3c 0967 65bc 7d6f 3bbc
000000b0: f1a7 3bbd 2bd6 c3bb 4aa0 50bc d8cb 0fbd
000000c0: 65c9 c7bd 58b0 f9bc 19a4 75bc 6bfa 00bd
000000d0: 9f20 823b 1870 12bd 1b7a 89bd b82c 93bd
000000e0: aa73 e23c 13fb 1a3a 5e69 903c 8562 07bd
000000f0: df1f a3bc 2092 9d3c 605e bebc da90 33bd
00000100: f9ad 90bd 1b92 1bbd 81b0 5ebd 19fb b7bc
00000110: 6b37 11bd 4630 b4bc 8012 93bc 3db9 31bc
00000120: 983b 503b acd5 7ebd dc22 063d 570f f6bb
00000130: f87f aabd a103 3ebd 5019 da3c 82e4 52bd
00000140: 0005 51bc 00be 52bd e627 0cbd c2da 0a3d
00000150: 0d2d 07bd 62f2 9fbb 0bc7 a7bc 2670 b839
00000160: 159c 4fbc 1d5b e3bb 99e7 b03b fa61 6d3d
00000170: 6d94 90bd efd8 84bd 701a 13bd 1dad 75bd
00000180: 3be5 ab3c 7d2f 033d 9c60 b33c 1acb 89bd
00000190: 1154 3b3c 3c9b d83d 8788 8c3c f96d 06bc
000001a0: adab 32bd 7287 89bd 303d 053c 1d68 933a
000001b0: 3867 e3bc 50f5 fc3c caa4 80bd 75bb 343b
000001c0: 62ba 023c a1b6 89bd eab5 b9bc 04e9 993c
000001d0: 1ff4 933c 607d 863d b310 a4bc d3cf 863c
000001e0: 474b cbbd 4405 c1bd 014a 95bd 2503 cbbc
000001f0: 408c c63b a2db 97bb 7b85 75bd e08f 81bc
0.045406412 0.03198815 -0.026827866 -0.035560735 -0.065515116 0.004226478 -0.02245825 -0.025534505
-0.024439368 -0.03412106 0.020596774 -0.016219728 0.04138645 -0.014110024 -0.020472284 0.030760298
-0.029538946 0.021955203 -0.014942155 -0.017442696 -0.0064330054 -0.03529451 -0.0863404 -0.004972448
0.050247714 0.081265636 -0.05122496 0.03357064 0.001979554 0.03240819 -0.031838864 -0.011782415
-0.014126384 -0.056997154 -0.045826767 -0.03368308 -0.05202723 0.01414379 -0.010180124 0.013305907
-0.01564026 0.01887987 -0.014001616 -0.011440155 -0.04581446 -0.0059764585 -0.012733528 -0.03510651
-0.0975521 -0.030479595 -0.014992737 -0.031488817 0.003971174 -0.035751432 -0.06712743 -0.07186264
0.027643044 0.0005912047 0.017628368 -0.03305294 -0.019912658 0.019234717 -0.02323836 -0.043839313
-0.07064433 -0.037981134 -0.054367546 -0.0224586 -0.03545324 -0.021995675 -0.017953157 -0.010847387
0.0031773802 -0.062215492 0.03274809 -0.007509153 -0.08325189 -0.04639018 0.026623398 -0.051487453
-0.01275754 -0.05145073 -0.034217738 0.03390003 -0.03300195 -0.004881189 -0.020480653 0.00035178772
-0.01267149 -0.006938352 0.0053987023 0.057954766 -0.0705956 -0.06486689 -0.035913885 -0.059979547
0.020983329 0.03202771 0.021896653 -0.06728192 0.011433617 0.105764836 0.017154945 -0.00820493
-0.043620754 -0.06715287 0.008132264 0.0011246238 -0.02775918 0.030878693 -0.06281431 0.0027577553
0.007979007 -0.06724287 -0.022669751 0.018787868 0.018060742 0.06566882 -0.020027494 0.01645652
-0.099264674 -0.094248325 -0.07289506 -0.024781773 0.0060591996 -0.0046343366 -0.05994175 -0.015815675

network_body._body_endoder.seq_layers.2.weight f4 [128, 128]
00000000: 48cf aa3d db50 b0bd 5f24 da3c b24b d33c
00000010: 94db c4bd 445b 533d 5ede 21bd 6b78 853d
00000020: be38 1f3e 183b e1bc 47c8 b23d 50d1 4f3d
00000030: 57e3 2ebe df7b 70be 6d54 6cbd 60b4 233e
00000040: 6353 f63c 806a 04be 0931 9bbd 0133 29bd
00000050: 1f34 783d 7d28 223e 8666 213d afb1 f23d
00000060: c8ed 89bd 8dd0 563e 2e3b 93bd 3853 00bd
00000070: 2efe cebc a1b9 80bc 9a16 a73d 949d ecbd
00000080: 6707 c73d 015e c6bc 26c4 4b3d 5f48 b23b
00000090: 6382 113e 59f7 713d db78 29be 60cc 003e
000000a0: 6543 72be 6bd6 5bbd 2b2e 0c3e 1842 623b
000000b0: 265d fb3d f399 053d 0712 f0bd 3c95 e6bd
000000c0: 8ffc dfbd 3f57 323e 3cbb dd3d ac03 3e3d
000000d0: f2de 2abd 5c9d 9ebe 1c7e 45bc e98d 19be
000000e0: a4d0 933c 1aa9 ef3c dbcc ee3d 375b 90b9
000000f0: 33c9 4fbe 8f47 2f3e 61f9 073d 530d 5d3c
00000100: e208 e83d de62 383e 9767 a4bc e09f 8e3d
00000110: 6589 71bd d414 73bd cfaa ffbd 49b8 0fbe
00000120: af2b f93d a10b 923b d11d f53d 128b 343d
00000130: 463a 1fbc 846f d03b d35a 2abe 231f ddbc
00000140: e543 a73d b4c4 aa3d 5cf7 073e 441c 223d
00000150: d132 693d 43cf 413c 7be4 193e ca5f 96bd
00000160: 3b3a da3c 967c c1bd 6e16 12be b2e7 a43d
00000170: 5652 85bd d4cb 053e 0b05 07bc 4b03 4abe
00000180: f57d 85bd 439d 5abe 0060 833d 393c 193e
00000190: 1148 14bd 1ef9 123e e475 fcbd f37e 4f3d
000001a0: f697 b63d 0252 3d3e e446 033c 4d2c 0f3e
000001b0: 3b83 153c 16b9 dbbd a8b9 083e a1c8 3bbd
000001c0: 9cd7 9ebb b984 913d b1a5 3f3c 2621 7abc
000001d0: bc5b d8bd def8 3a3e b16f ebbb 4a8a 3739
000001e0: d555 993a a616 cc3d 8f9d 9d3d ac55 48be
000001f0: a4a7 08bd 7034 59bd bee0 b9bc 592a 8e3c
00000200: 42c7 20bd fa19 41bd 2b9d 843d 75a6 a33c
00000210: 6427 9a3d ce6c 06bd 712e 9b3d 2713 55be
00000220: 8eb0 b73d 2c22 d3bd 9ae6 bdbd 1bdb 2ebe
00000230: e378 e53d efb9 043d e013 b5bd 039b 4c3e
00000240: 61d2 6bbd da7d 93bc 0908 6e3e 91db 6c3e
00000250: 0bbc 333e 1bfe 7cbc 059d 683d 84c9 983d
00000260: b5aa 80bc 9cac 6dbd c5f3 57bd 80b9 233d
00000270: 053c 983d a1a3 b13d 9777 1b3d 3004 81bc
00000280: 036a 673e dba1 1c3e f438 f53b fac6 c13d
00000290: 116c cc3d 6bff e13c 92ab f83d 5996 73bd
000002a0: 3948 d3bc 9450 81bd 5c11 9fbd e88a 85bd
000002b0: 4a98 983d 5e83 ccbc 461b 8f3c bb7b ad3d
000002c0: 8e70 c73c 1eca ac3d 2a68 413b c04a e43b
000002d0: e51c 31bd 5fd0 b5bc 0c67 afbd 6fae 29bd
000002e0: 91a4 ebbd aef9 b33d aa3c 1bbd d98d 2a3d
000002f0: 40c8 2dbd c4cb b3bc cf8b 1fbe 282b 1a3e
00000300: bccf e0bc 506c 8e3d 1874 ae3d e7a6 97bc
00000310: e984 263b e966 ca3c cd41 773c 2673 7d3d
00000320: 77e1 cd3d 6d72 ce3c b2b8 92be a47e ccbd
00000330: 613d 1fbd 12c2 71be a57a 06bd 9adb 1cbe
00000340: 3224 fe3d 1bb5 a3bc f9fb c7bb bc4e 81bd
00000350: 5270 4bbe 10a1 eb3d 5cba 433e 245c a4bd
00000360: a360 f13b 5b60 083e f10e 35be 9a79 3f3e
00000370: 5ae7 c2bd 124a a83d 86b7 6abd 658e b7bd
00000380: e33c 3f3c 44d5 333e 6370 23be de7b 7dbe
00000390: 5079 11be 027e 113e a55c 35be e6aa a03d
000003a0: 7396 f2bd 8246 cd3b 4dfe 6abe 005b 9eb9
000003b0: c6b6 42be ef84 e53d bdac 873d bf5f 163e
000003c0: b077 27be cb34 ac3d 23e0 0f3e f7c4 863d
000003d0: a9cf d6bd ff09 073e 7027 123e 979f a83d
000003e0: 631c 01be c121 e9bc 46e2 2a3d 22db 2f3e
000003f0: df6e 7ebe 8a80 5f3d cf58 c2bd 97b6 0cbc
0.08340317 -0.08609172 0.026628671 0.02579293 -0.09612194 0.05160071 -0.039518707 0.065171085
0.15548989 -0.027493998 0.08729606 0.050736725 -0.17078911 -0.23484753 -0.057697702 0.15986776
0.030069059 -0.12931252 -0.07577712 -0.041308407 0.06059658 0.15835758 0.039404415 0.11850297
-0.06734806 0.20977993 -0.07189022 -0.031329364 -0.025267687 -0.015713515 0.08158608 -0.11553493
0.09718209 -0.024214746 0.04974761 0.005440756 0.14209895 0.05907378 -0.16550009 0.12577963
-0.23658521 -0.05367128 0.13689487 0.0034524258 0.12273626 0.03261752 -0.117221884 -0.11258933
-0.109368436 0.17416094 0.10826728 0.04639022 -0.041716523 -0.3097943 -0.012053993 -0.1499554
0.018043824 0.029255439 0.11660167 -0.0002753378 -0.20291595 0.17117141 0.03319681 0.013491946
0.11329819 0.18006465 -0.020068927 0.069640875 -0.05896892 -0.059346035 -0.12483751 -0.14035143
0.12166535 0.0044569527 0.11968578 0.04407794 -0.009718483 0.00636095 -0.16636209 -0.026992386
0.08167247 0.083382994 0.13277954 0.039577737 0.056933228 0.0118292 0.15028565 -0.07342489
0.026639095 -0.09447591 -0.14266369 0.08052005 -0.06509845 0.13066036 -0.008240948 -0.19727819
-0.06518165 -0.21349053 0.06414795 0.1496438 -0.03620154 0.14352843 -0.12327173 0.050658178
0.08915703 0.18488315 0.008012507 0.13981743 0.009125526 -0.10728662 0.13352072 -0.04584563
-0.00484748 0.07105393 0.011697219 -0.015266692 -0.10564372 0.18258998 -0.0071849455 0.00017503757
0.0011698554 0.09965257 0.076960675 -0.19563931 -0.033363 -0.053028524 -0.022690173 0.017354177
-0.039252527 -0.047143914 0.0647529 0.019976834 0.075270444 -0.032818608 0.07577217 -0.20808087
0.08969222 -0.10309252 -0.092724994 -0.1707577 0.11204698 0.032403883 -0.088416815 0.19981007
-0.05757368 -0.018004347 0.23245253 0.23130633 0.17552201 -0.015441443 0.05679037 0.07460311
-0.0157064 -0.05802594 -0.05272271 0.03997183 0.07433323 0.08673788 0.037955847 -0.015749067
0.22599034 0.15296118 0.007483596 0.0946178 0.099815495 0.027587613 0.121420994 -0.059469555
-0.025791274 -0.06314197 -0.07766983 -0.06520635 0.07450922 -0.024964985 0.01746906 0.08470865
0.024345662 0.08436988 0.002951155 0.0069669187 -0.043240447 -0.022194086 -0.085645765 -0.04142612
-0.11505998 0.08787857 -0.03789965 0.041639183 -0.0424273 -0.021947749 -0.15580676 0.15055525
-0.027442805 0.06954253 0.08518237 -0.018512202 0.002540881 0.024707275 0.015091372 0.061877392
0.1005277 0.025201047 -0.28656536 -0.09985092 -0.038876895 -0.23609188 -0.032831807 -0.15318146
0.124092475 -0.019983819 -0.0061030355 -0.063138455 -0.19867066 0.115053296 0.19114059 -0.08025387
0.0073662563 0.13318007 -0.17681481 0.18698731 -0.09516783 0.08217253 -0.057303928 -0.089627065
0.011672231 0.17561823 -0.15960841 -0.24754283 -0.14206433 0.14208224 -0.17711122 0.07845096
-0.11845102 0.0062645087 -0.2294857 -0.0003020391 -0.19015035 0.11206996 0.06624744 0.14684962
-0.16354251 0.08408507 0.14050345 0.06580537 -0.10488827 0.13187407 0.14272857 0.08233564
-0.12608485 -0.028458478 0.041719697 0.17173436 -0.24846981 0.054565944 -0.09489595 -0.008588455

network_body._body_endoder.seq_layers.2.bias f4 [128]
00000000: f270 4fbb dd8e 8a3b b232 46bd 4bb2 24bc
00000010: 17f7 23bc 5364 d7bc 9214 d5bc acf9 ceba
00000020: 679c bc3c 746f 40bc c076 1c3c 2ec7 53bd
00000030: 108f 7bbc 68da 17bd c97d e8bc e134 b3bb
00000040: a9a0 30bd ccbb b1bc c929 5bbc f62f d2bc
00000050: ead1 48bd d21d 66bb 3e35 2d3c 5933 673c
00000060: 864d cabc 6892 42bc 8c95 88bd 4a9f 5d3c
00000070: d959 c8bc e0c9 a3bc 33e5 dabc 87dc 20bc
00000080: f8e1 ce3c 7aac cabc 840f 37ba fcdd 92bd
00000090: 4456 3cbd 05b9 cdba 3d57 1a3b c966 b5bb
000000a0: 2464 04bd ba8a f2bc b1a7 2cbd b5ab 08bc
000000b0: 2883 f6bb c5ab 4fbd b69b 0ebb 2c80 42bd
000000c0: bee8 453c 7c6d f7bc d033 11bb 856b 85bd
000000d0: bd7c ccbc 6e08 51bd 25a5 babc 4b2f 00bd
000000e0: 3546 163c d9e8 713b 006b bbbc e365 e4bc
000000f0: b2d5 a13c 5f1b 5ebd 70ec bbbc 09dc 8bbd
00000100: 3ef2 9abb b593 59bd 5b94 c1bc 1430 8bbc
00000110: 69e5 edbb e505 6ebb 297a 07bd 9341 d6bc
00000120: 3d95 97bc b736 d43c 6322 68bc e851 b1bb
00000130: 36c3 9cbc 7532 5cbd d8d6 0fbc 5365 f0bc
00000140: df6e 83bc 879c b7bc 55cc 54bd cf91 4ebc
00000150: e3e0 67bc 467f 89bb d857 5dbb 8982 60bd
00000160: 29aa 23bd 3fc9 92bc 0c76 c3bc 3866 30bd
00000170: 257d 5cbd 29ba 073a e3cf 4abd dd9f 383b
00000180: 168c 82bd d012 38bd c977 a5bc fd5e 5fbc
00000190: 1e9b 35bd 7a0c dbbc 8b9a b83c 64f4 55bc
000001a0: fc2b 0cbd 2e23 763c f083 aeba 3c3f 8dbc
000001b0: efc2 a5bc 7b33 afbc 3b26 9cbc 507d 113d
000001c0: 460a fcbb 8939 63bc 3398 65bc a9b7 f8bc
000001d0: 2033 9cbb 5b91 12bc 35f2 62bd 42cf 70bd
000001e0: 7390 45bd 00d9 63bc 067e 0dbd 7bbd 54bc
000001f0: 3498 cebc 2bfb 3abd 4dc5 6a3c ccb8 eebc
-0.0031653014 0.0042284564 -0.04838819 -0.010052274 -0.010007641 -0.026292956 -0.026010785 -0.0015790961
0.023023797 -0.0117453225 0.009549797 -0.051703624 -0.015353933 -0.037073523 -0.028380292 -0.00546895
-0.043121967 -0.021695994 -0.013376662 -0.025657635 -0.049028315 -0.003511299 0.010571776 0.014111363
-0.02469517 -0.011875726 -0.06669149 0.013526747 -0.024456905 -0.019993722 -0.026720619 -0.009818203
0.025254235 -0.024740446 -0.0006983208 -0.071712464 -0.045980707 -0.0015695399 0.0023550533 -0.0055359346
-0.032322064 -0.029607166 -0.04215211 -0.008341719 -0.0075229593 -0.05070092 -0.0021760291 -0.047485515
0.012079416 -0.030203573 -0.0022156127 -0.06514648 -0.024961824 -0.05103343 -0.022783825 -0.031295102
0.009172012 0.003691247 -0.02287817 -0.027880615 0.019755218 -0.05422532 -0.02293989 -0.06829078
-0.0047285846 -0.05311938 -0.023630312 -0.016990699 -0.007260014 -0.0036319431 -0.033075485 -0.026154315
-0.01850378 0.025904996 -0.014168355 -0.0054113753 -0.019136053 -0.053759057 -0.00877925 -0.02934519
-0.016044078 -0.022413505 -0.05195268 -0.012608006 -0.014152738 -0.0041960804 -0.0033774283 -0.054811988
-0.0399572 -0.017918227 -0.02386 -0.043066233 -0.053830285 0.00051775813 -0.049514662 0.0028171458
-0.063743755 -0.044939816 -0.02019872 -0.013633487 -0.044337384 -0.026739348 0.02253463 -0.013058756
-0.034221634 0.015023036 -0.0013314467 -0.017242067 -0.020234553 -0.021386852 -0.019061198 0.035519898
-0.0076916544 -0.013868698 -0.014013338 -0.030361013 -0.0047668368 -0.008945788 -0.055406768 -0.058791406
-0.04823346 -0.013906717 -0.034544013 -0.012984629 -0.02521906 -0.04564969 0.014329267 -0.029140852

action_model._continuous_distribution.log_sigma f4 [1, 2]
00000000: dca2 65be 878d 05bd
-0.22425407 -0.032605674

action_model._continuous_distribution.mu.weight f4 [2, 128]
00000000: 719f 55bb fdf9 adbc 8c0c f13c 9495 74bd
00000010: 0a69 8f3d e1dc 68bb 6567 993c 93d0 993d
00000020: 0149 393d 2659 963c fe9b acbd c7fe c1bc
00000030: 78aa e43c c7f4 08bd 8575 b03c 9566 aa3c
00000040: fa88 19bb ea69 f0bc d84c 25bc 7f2b 74bd
00000050: 0371 1dbd b9dc b9bc afae 253d f4a3 ea3b
00000060: 9279 7f3b 0075 2abd 0b28 bfbb f368 343d
00000070: 559e b53a 93b7 a03a e3e3 22bd 084b e73c
00000080: e4a5 9d3d 99a8 89bd a60a 193d 8894 383c
00000090: 6396 913c dcc1 473d 20f4 683d 89f1 863c
000000a0: 8c79 603d eafb 363c 9be0 1a3a 4e27 0d3d
000000b0: 5ba3 06bd e001 c73c 4c6e b53c c325 21bd
000000c0: f203 29bd fcf5 08bc 9d4a ee3c 44e1 02bb
000000d0: f390 933d 4236 17bd 0813 19bd 6414 b1bc
000000e0: df6e 00bc 373f 67bd f828 7b3d c29e 663d
000000f0: 9817 a5bd e734 96bc e765 75bc ac73 4f3b
00000100: 1beb fd3b 2475 42bd 5b1f c9bc ad87 3d3c
00000110: 26ee 4a3d 7a30 ed3b 17b1 f0bc cf6a 73bd
00000120: 042b 323d 492e d0bc 41ac bdbc d64a 143c
00000130: 1521 afbc 7f69 10bc 9957 673d 5dbd 3aba
00000140: 1324 25bd 3af4 54ba 67c9 2cbd 8471 93bd
00000150: ac13 893d 898d 8e3d bc33 e3bc 5316 243c
00000160: 1357 b63b 2c04 503d 21fd c8bc e959 d8bc
00000170: acd1 b13c b4e1 e9bc 77ac 4cbc 1863 6c3c
00000180: e6f3 67bc 9ff5 50bb 737d 4ebd 1ab5 debc
00000190: 27d0 d83c acbd 69bc ef69 8a39 ef43 9f3b
000001a0: 20f1 4c3c 080b 19bc c62a b5bb 1d5f 7bbb
000001b0: 8cb3 cbbb 2600 afbc 6e2e 39ba d194 72bc
000001c0: bb14 1dbd 0ed3 b23c fc53 acbc 4c97 ddbc
000001d0: 9f66 94bb 2ad9 8dbc 50d0 8cb9 ff3f f63b
000001e0: 999a 933c dfc2 9a3c 103b 383c 81a5 5d3b
000001f0: 79e8 86bc b795 c1bc 7d19 85bc fd7f c8bc
00000200: a6f7 e73c 658c 2e3d 86a2 9b3d 9b6c 42bc
00000210: a30b fc3b 3e47 aabc 924e 863d 3a87 1e3c
00000220: 1c06 f73c 7b0f 85bd f29e 3a3d a42e 4bba
00000230: 2d8d f43c d755 a73b 52a2 3cbc 4d73 19bb
00000240: 38c2 ddbc 1c2c 1fbd fc47 03bd d43c 6d3d
00000250: 8853 cd3c f374 ba3c 750e 913b 9d1d 303d
00000260: 1bea e53d 07c0 18bd 27c5 1f3b 7589 03bb
00000270: 3b1f c53d f3ed 01bd e5aa 5dbd 9176 a1bb
00000280: 4d99 4bbd e45d 403d 14bb bdbd 4624 eebc
00000290: 7c61 32bd f00a a2bb bce1 c13c d158 7c3d
000002a0: 4d00 513c 7ffe 183d b542 1f3c 1647 703d
000002b0: a71b 7b3d c1e0 88bb 323d 51bc c315 ee3b
000002c0: 97ae 853c a2c6 253d d3d2 cd3c 5dd7 a7bc
000002d0: 8a21 b4bc 1276 463d d2a7 813b 29f7 91bc
000002e0: 59db ee3c 64dd 2fbd 5c71 c13c 4ee2 ddbc
000002f0: faa9 14bd 303d b8bc 2f5e 443c 850c 693c
00000300: 3f22 da3c 61b4 f23c 76b8 41bd 316b 79bd
00000310: e525 8d3c 7404 82bd 792b 22bd 2e3c b23b
00000320: 6c5c 4fbd 7065 8ebd c643 823d b8f5 413d
00000330: bf90 083d f82e cc3c f9e2 a1bc 9660 f23c
00000340: 9715 01bd 6e55 0f3d 52cc 023c 7a34 223d
00000350: 80a4 d9bc d205 1bbc 6c44 b3bd a94a 1c3d
00000360: 5397 143d 29b3 8e3c 685f 133d 37d4 943c
00000370: d3cd b8ba 04a3 59bd 73ff 29bc 6557 6d3d
00000380: 3553 fdbc 7ae4 8f3d 1b05 8bbc efb9 893d
00000390: b7e2 02bb 9ae0 583c 4474 40bd b55e 4d3d
000003a0: 8e1a 993c aed3 543d dec1 8b3d f265 f23c
000003b0: 5287 42bd 980f 48bd 439c 3a3d a784 33bd
000003c0: af31 823c 496b 18bc 081c 0b3d 7231 50bd
000003d0: f276 1b3d 8092 523c 6d82 643c dda5 963c
000003e0: 32e2 e2ba 7b2f 53bd d969 3c3d e760 f0bc
000003f0: 2359 41bd d3f1 303d b968 883d e676 d03c
-0.0032596255 -0.021237368 0.029424928 -0.05971296 0.070024565 -0.0035532045 0.01872606 0.075104855
0.045235638 0.018353056 -0.08428191 -0.023681058 0.027913317 -0.033436563 0.021540413 0.020800868
-0.0023427592 -0.029347379 -0.010089122 -0.059611794 -0.038437854 -0.022688257 0.040449794 0.007160658
0.0038982374 -0.041615486 -0.005833631 0.0440454 0.0013856391 0.0012261741 -0.03976811 0.02823402
0.07697657 -0.067216106 0.03736367 0.011265881 0.017771905 0.048768863 0.05687344 0.016472595
0.054803416 0.011168459 0.00059081026 0.034461312 -0.03287063 0.024292886 0.02214732 -0.039342653
-0.04126353 -0.0083594285 0.029088313 -0.0019970695 0.07205381 -0.03691698 -0.037371665 -0.021616168
-0.007838934 -0.05645677 0.061318368 0.056303747 -0.08061141 -0.018335773 -0.014977909 0.003165464
0.007748974 -0.047474995 -0.024551084 0.011567992 0.049543522 0.007238445 -0.029381318 -0.059428032
0.043498054 -0.025412695 -0.023153426 0.009051045 -0.02137808 -0.008814215 0.056480024 -0.0007123554
-0.040317606 -0.0008123551 -0.04218426 -0.07199386 0.06693205 0.069605894 -0.02773463 0.010015088
0.0055645793 0.05078523 -0.024534764 -0.02641006 0.021706425 -0.028550006 -0.012492291 0.014427923
-0.014157271 -0.0031884683 -0.050412606 -0.027185965 0.026466442 -0.014266413 0.00026400338 0.0048603932
0.012508661 -0.009341009 -0.0055287806 -0.0038356252 -0.006216472 -0.021362375 -0.00070641085 -0.014805988
-0.03834985 0.021829154 -0.02103614 -0.027049683 -0.004528835 -0.017315466 -0.00026858086 0.007514953
0.018018054 0.01889175 0.01124455 0.0033820572 -0.016468273 -0.02363096 -0.016247505 -0.024475092
0.02831633 0.04261436 0.07599358 -0.011866714 0.007691817 -0.020785924 0.06557955 0.009675795
0.03015428 -0.06497093 0.04556174 -0.00077507854 0.029852474 0.0051066685 -0.01151331 -0.0023414672
-0.02707015 -0.038860425 -0.03205107 0.05791934 0.025064245 0.022760844 0.0044267722 0.04299699
0.11226293 -0.037292507 0.0024378987 -0.0020070944 0.09625097 -0.031721067 -0.054118056 -0.0049274643
-0.049706746 0.04696454 -0.09264198 -0.02907003 -0.04355 -0.0049451515 0.023667209 0.06160814
0.012756419 0.03735208 0.009720494 0.058661543 0.06130567 -0.0041771834 -0.012770938 0.007265778
0.016318602 0.040472634 0.025124943 -0.020488435 -0.021988649 0.048452444 0.0039567733 -0.01781805
0.029157327 -0.042935744 0.023613624 -0.02708545 -0.036294915 -0.022490114 0.011985346 0.014224176
0.026627658 0.029627027 -0.047295056 -0.06089324 0.017229984 -0.063485056 -0.03959224 0.005439303
-0.05062525 -0.069529414 0.06360583 0.047353476 0.033341166 0.02492474 -0.01976155 0.029587071
-0.03151473 0.03499358 0.007983284 0.039600827 -0.026567698 -0.009461837 -0.08753285 0.03815714
0.036277127 0.017419415 0.03597966 0.018167598 -0.0014099426 -0.05313398 -0.010375845 0.057944674
-0.030923465 0.07026 -0.016970208 0.06724917 -0.0019971558 0.013237143 -0.04698588 0.050139148
0.01868942 0.051959686 0.068240866 0.029589627 -0.047492333 -0.048842996 0.04555918 -0.04382768
0.015892832 -0.0093029225 0.03396228 -0.050828405 0.037955232 0.012852311 0.013947112 0.018389637
-0.0017309843 -0.051558953 0.04599938 -0.029343082 -0.047204148 0.04319937 0.06660599 0.02544732

action_model._continuous_distribution.mu.bias f4 [2]
00000000: 9f05 fc3b a45b 0b3c
0.0076911 0.008505736
