results/test-13/Drive/checkpoint.pt (torch, 478434 bytes, 44 tensors)

network_body.observation_encoder.processors.0.normalizer.running_mean f4 [17]
10.288577 12.285738 14.906302 17.171083 17.710932 16.563269 13.544027 11.026506
8.895928 5.688715 7.8191357 3.6843624 7.431267 4.909859 13.077847 2.455021
-0.4722341
00000000: 039e 2441 6292 4441 3780 6e41 615e 8941
00000010: fdaf 8d41 9381 8441 56b4 5841 926c 3041
00000020: b955 0e41 f409 b640 5c36 fa40 98cc 6b40
00000030: f0cc ed40 911d 9d40 dc3e 5141 101f 1d40
00000040: abc8 f1be

network_body.observation_encoder.processors.0.normalizer.running_variance f4 [17]
860394.3 1.189214e+06 1.5605935e+06 1.8347881e+06 1.8548949e+06 1.8602105e+06 1.834166e+06 1.7724344e+06
1.4995652e+06 622289.94 420947.12 180523.08 464620.7 522240.56 1.2396795e+06 487688.3
61691.254
00000000: a50e 5249 f02a 9149 8c80 be49 21f9 df49
00000010: 776d e249 9413 e349 b0e5 df49 935c d849
00000020: 6a0d b749 1fed 1749 648a cd48 c54a 3048
00000030: 96dd e248 1200 ff48 fc53 9749 0a21 ee48
00000040: 41fb 7047

network_body.processors.0.normalizer.running_mean f4 [17]
10.288577 12.285738 14.906302 17.171083 17.710932 16.563269 13.544027 11.026506
8.895928 5.688715 7.8191357 3.6843624 7.431267 4.909859 13.077847 2.455021
-0.4722341
00000000: 039e 2441 6292 4441 3780 6e41 615e 8941
00000010: fdaf 8d41 9381 8441 56b4 5841 926c 3041
00000020: b955 0e41 f409 b640 5c36 fa40 98cc 6b40
00000030: f0cc ed40 911d 9d40 dc3e 5141 101f 1d40
00000040: abc8 f1be

network_body.processors.0.normalizer.running_variance f4 [17]
860394.3 1.189214e+06 1.5605935e+06 1.8347881e+06 1.8548949e+06 1.8602105e+06 1.834166e+06 1.7724344e+06
1.4995652e+06 622289.94 420947.12 180523.08 464620.7 522240.56 1.2396795e+06 487688.3
61691.254
00000000: a50e 5249 f02a 9149 8c80 be49 21f9 df49
00000010: 776d e249 9413 e349 b0e5 df49 935c d849
00000020: 6a0d b749 1fed 1749 648a cd48 c54a 3048
00000030: 96dd e248 1200 ff48 fc53 9749 0a21 ee48
00000040: 41fb 7047

network_body._body_endoder.seq_layers.0.weight f4 [128, 17]
-0.09070879 -0.17778116 0.08392698 -0.19693822 -0.3560312 0.19345964 -0.029967919 -0.0034492847
-0.3238227 -0.28597307 0.12629315 -0.10559759 -0.38511795 0.24736236 -0.19622503 0.042763524
0.07637257 0.33681884 -0.19666444 0.028343618 -0.29331118 -0.04815123 -0.2269168 0.081540436
0.5054114 -0.0055579413 -0.5590473 -0.18237981 -0.3151467 0.101551205 -0.28336808 0.2952822
0.05071084 -0.31324816 0.34351403 0.2875772 -0.6140825 -0.112646125 0.013113921 -0.12331844
-0.013766424 0.3151521 -0.17322616 0.22607513 -0.09045186 -0.12262984 0.027175473 0.29716587
0.10045679 -0.18241122 -0.1784836 -0.13139604 -0.36750144 0.2834893 0.046019692 -0.09528789
0.2294437 0.062163014 0.15040371 0.15372562 -0.41723484 0.06252716 -0.062553324 -0.054827046
0.37470874 -0.11638746 -0.60854995 -0.43188527 -0.08575904 0.19828837 0.40554845 0.30707797
-0.03718805 0.2845932 -0.10932073 0.034923207 -0.030704487 0.14747544 -0.11104819 -0.06283033
0.24108753 0.054193765 -0.07861722 -0.39051047 0.043660995 0.09670933 -0.23469272 0.42506486
-0.10626997 -0.24434836 0.29369682 -0.13187505 -0.26808888 -0.026420051 -0.2219882 0.2581563
-0.26471692 -0.4395734 -0.37705168 0.33093828 0.023560526 0.09317457 0.17704335 -0.30979756
0.05281229 -0.47338706 -0.24453543 0.038040075 -0.26683846 -0.023954207 0.10836507 -0.22526166
-0.13249956 0.07629093 -0.20934735 0.06931798 -0.127356 0.16686945 -0.13975573 -0.19565937
-0.16301024 -0.13059103 0.15705924 0.28842065 0.0953884 -0.3091348 0.17106724 0.11573605
-0.095511116 -0.62780374 -0.36776596 -0.32281202 0.022033755 -0.19893377 0.3078788 0.093455404
0.05709507 -0.24305259 0.35658082 -0.4152293 -0.09753241 0.012605604 -0.35104838 -0.28632575
-0.091201276 -0.06852228 0.41587994 -0.15356116 0.34715405 -0.6179082 0.0075346124 0.20758487
-0.26231852 0.0835499 0.07954382 -0.39986 0.0054158852 0.039766826 0.029736882 0.113298394
-0.311009 -0.041039478 0.1757517 0.1370294 -0.14880428 0.5117656 -0.42926952 -0.17774197
-0.055689808 0.071769156 0.26207992 -0.09379408 -0.071480244 0.020361265 -0.005387132 -0.010033239
0.31279796 0.013635157 0.041842464 0.0867093 0.08030744 -0.3523565 0.031969734 0.39120772
-0.19329578 -0.40873823 0.3338196 0.28508723 0.6608811 -0.04874236 -0.23279507 0.30329242
-0.42976287 0.094081484 -0.25601274 0.27829292 -0.3827253 -0.42890805 0.18689226 -0.2860571
-0.20187587 0.17139533 -0.103581086 -0.37339878 -0.30373028 -0.06565311 0.21608418 -0.35700464
0.16709062 0.40468568 0.12760888 -0.05770044 0.014920612 -0.115781456 -0.34695414 -0.16333033
-0.22331463 -0.06428464 -0.037337855 0.26029155 -0.043717824 -0.20940652 0.18706785 0.24212822
-0.41770834 0.23206955 0.21068926 0.1519618 0.10058587 -0.08702008 -0.47463372 -0.66772413
0.39259967 -0.09015938 -0.7176591 0.026967041 0.060114138 0.1290976 -0.1663309 0.15407996
0.122190975 -0.26130408 0.14626488 -0.19268101 0.084040396 -0.22857127 -0.02774964 0.009734837
-0.19182247 0.365259 -0.5811429 -0.019664334 0.19158706 0.855097 0.652568 -0.020184908
00000000: 88c5 b9bd 440c 36be e9e1 ab3d 2caa 49be
00000010: b949 b6be 491a 463e 487f f5bc 650d 62bb
00000020: 17cc a5be 106b 92be fe52 013e 8d43 d8bd
00000030: 2e2e c5be 8f4c 7d3e 37ef 48be ce28 2f3d
00000040: 3969 9c3d 8573 ac3e 6762 49be e030 e83c
00000050: e22c 96be 393a 45bd e15c 68be acfe a63d
00000060: a462 013f 641f b6bb b91d 0fbf c6c1 3abe
00000070: e95a a1be 14fa cf3d 9f15 91be 3b2f 973e
00000080: 2bb6 4f3d 1062 a0be 12e1 af3e 523d 933e
00000090: 8334 1dbf 03b3 e6bd c5db 563c 618e fcbd
000000a0: 918c 61bc 9e5b a13e 3362 31be 3d80 673e
000000b0: d33e b9bd 5b25 fbbd 199f de3c 2026 983e
000000c0: 4abc cd3d 02ca 3abe 68c4 36be af8c 06be
000000d0: 2629 bcbe 8225 913e 257f 3c3d 4c26 c3bd
000000e0: 4af3 6a3e a59e 7e3d 6e03 1a3e 406a 1d3e
000000f0: ce9f d5be 3d0e 803d f51b 80bd 5392 60bd
00000100: d3d9 bf3e 8c5c eebd eec9 1bbf 1120 ddbe
00000110: 70a2 afbd 1b0c 4b3e 0ca4 cf3e 5339 9d3e
00000120: 7f52 18bd 33b6 913e 8ce3 dfbd a30b 0f3d
00000130: fa87 fbbc cd03 173e 3c6d e3bd 30ad 80bd
00000140: a6df 763e 48fa 5d3d 1102 a1bd fdf0 c7be
00000150: dfd5 323d 8b0f c63d 4a53 70be 1aa2 d93e
00000160: 12a4 d9bd 7536 7abe 6e5f 963e 410a 07be
00000170: f242 89be dd6e d8bc e050 63be 102d 843e
00000180: fa88 87be c40f e1be eb0c c1be be70 a93e
00000190: 0102 c13c 4fd2 be3d da4a 353e c99d 9ebe
000001a0: b351 583d ca5f f2be 7f67 7abe e9cf 1b3d
000001b0: 0d9f 88be 9d3b c4bc 81ee dd3d feaa 66be
000001c0: f7ad 07be 6b3e 9c3d 275f 56be 96f6 8d3d
000001d0: 9c69 02be d3df 2a3e 201c 0fbe ee5a 48be
000001e0: 28ec 26be a8b9 05be 23d4 203e dfab 933e
000001f0: fe5a c33d eb46 9ebe 402c 2f3e 0607 ed3d
00000200: 559b c3bd bfb7 20bf d24b bcbe 9e47 a5be
00000210: 2280 b43c 4bb5 4bbe 4aa2 9d3e 8c65 bf3d
00000220: 85dc 693d c7e2 78be c391 b63e ef98 d4be
00000230: 12bf c7bd bc87 4e3c 9dbc b3be 4a99 92be
00000240: bcc7 babd 6955 8cbd 37ee d43e 233f 1dbe
00000250: 2dbe b13e 3b2f 1ebf e9e4 f63b 2191 543e
00000260: 9d4e 86be 361c ab3d dfe7 a23d 73ba ccbe
00000270: bd77 b13b 8ae2 223d c39a f33c fd08 e83d
00000280: 923c 9fbe 0319 28bd 41f8 333e 6f51 0c3e
00000290: 2660 18be 1203 033f 37c9 dbbe fe01 36be
000002a0: ff1a 64bd b5fb 923d 572f 863e 1c17 c0bd
000002b0: 3c64 92bd abcc a63c 8a86 b0bb 7462 24bc
000002c0: 0e27 a03e fe65 5f3c 0163 2b3d a594 b13d
000002d0: 3a78 a43d 1268 b4be b2f2 023d 614c c83e
000002e0: 54ef 45be 2346 d1be 67ea aa3e f4f6 913e
000002f0: 812f 293f 12a6 47bd d561 6ebe 2549 9b3e
00000300: e109 dcbe cbad c03d 1a14 83be 697c 8e3e
00000310: 92f4 c3be d699 dbbe af60 3f3e 1476 92be
00000320: 8cb8 4ebe 4282 2f3e 5222 d4bd 202e bfbe
00000330: 8982 9bbe 2375 86bd 2c45 5d3e 50c9 b6be
00000340: ce19 2b3e f632 cf3e e7ab 023e 4c57 6cbd
00000350: 9575 743c d41e edbd f9a3 b1be 1140 27be
00000360: 97ac 64be aaa7 83bd 94ef 18bd ef44 853e
00000370: 7611 33bd aa6e 56be b78e 3f3e 76f0 773e
00000380: dedd d5be a4a3 6d3e edbe 573e e09b 1b3e
00000390: f7ff cd3d 9537 b2bd 3103 f3be f8ef 2abf
000003a0: d302 c93e 7ba5 b8bd 82b8 37bf fce9 dc3c
000003b0: 3e3a 763d 2932 043e a652 2abe 23c7 1d3e
000003c0: 433f fa3d a6c9 85be 76c6 153e 2c4e 45be
000003d0: 5f1d ac3d 960e 6abe 3753 e3bc de7e 1f3c
000003e0: 1c6d 44be 3a03 bb3e c8c5 14bf 1917 a1bc
000003f0: 662f 443e a3e7 5a3f b20e 273f d25a a5bc

network_body._body_endoder.seq_layers.0.bias f4 [128]
0.019606102 0.010726906 0.020958835 0.016748745 0.0037229669 0.018754756 0.014280097 0.019874316
0.017025286 0.020923344 0.02044174 -0.012438375 0.01728308 0.010169664 -0.008183879 -0.0031965922
0.020095263 0.015218276 -0.0058394438 -0.017232236 0.017999958 -0.013011502 -0.021526663 0.018244252
-0.019771742 -0.01438275 0.018320302 0.017425492 -0.019160131 -0.0079744775 -0.009771282 0.019043645
-0.0103831235 -0.004143092 0.0014046303 0.021618418 0.019292472 -0.0047905073 -0.016510641 -0.010142235
-0.021721607 0.021185564 0.021002684 0.020309431 -0.005502369 0.014133787 -0.00789558 0.0008129716
0.02035632 0.020059112 0.021656487 -0.00905577 -0.01703006 0.017651638 0.016631827 -0.010771829
0.0084183505 -0.018786388 0.0024152254 0.016318012 0.018794123 0.018841805 0.022494992 -0.014834014
-0.0052282093 -0.015406862 0.016091362 0.02249883 0.026882824 -0.007481621 0.00102035 0.018347286
-0.01887731 0.015743172 -0.0156228095 0.019346792 -0.015916625 0.018788641 0.015774814 0.014722965
0.020421043 0.015907314 0.018660882 0.015723683 -0.013880571 -0.017130224 -0.017738504 0.019605746
-0.01666513 -0.007428457 0.018728156 0.01671875 -0.015711982 -0.012134775 0.0071620666 0.01921968
-0.005797408 -0.00014185364 0.016317341 -0.0063061616 -0.015346428 -0.01780137 0.017826166 0.01680032
0.019660002 -0.0128201675 0.01634315 -0.009987672 -0.011920911 -0.015828487 -0.004877723 0.021532841
-0.019379923 0.022023609 0.0062961364 0.017261855 -0.010400299 -0.002199087 -0.015770411 0.014234888
-0.018577797 -0.013958544 0.016790533 0.019469757 0.018902978 0.01886327 0.019672655 0.0139846215
00000000: fa9c a03c e8bf 2f3c ddb1 ab3c aa34 893c
00000010: 05fd 733b 93a3 993c 11f7 693c 76cf a23c
00000020: 9d78 8b3c 6f67 ab3c 7075 a73c 53ca 4bbc
00000030: 3f95 8d3c aa9e 263c ad15 06bc eb7d 51bb
00000040: d29e a43c 1356 793c ce58 bfbb 9e2a 8dbc
00000050: a674 933c 322e 55bc af58 b0bc f874 953c
00000060: 59f8 a1bc a0a5 6bbc 7514 963c e8bf 8e3c
00000070: b5f5 9cbc 62a7 02bc ba17 20bc 6b01 9c3c
00000080: fa1d 2abc c6c2 87bb 921b b83a 1c19 b13c
00000090: 3f0b 9e3c b0f9 9cbb 5341 87bc 9e2b 26bc
000000a0: 83f1 b1bc 598d ad3c d20d ac3c f75f a63c
000000b0: 374d b4bb 6691 673c 765c 01bc 9a1d 553a
000000c0: 4cc2 a63c 0253 a43c f268 b13c a75e 14bc
000000d0: a082 8bbc 2b9a 903c 783f 883c 537c 30bc
000000e0: 1fed 093c e9e5 99bc c248 1e3b 5aad 853c
000000f0: 22f6 993c 215a 9a3c 6b47 b83c 5d0a 73bc
00000100: 6651 abbb 106d 7cbc 08d2 833c 774f b83c
00000110: 5e39 dc3c 6328 f5bb 44bd 853a 0c4d 963c
00000120: 97a4 9abc d3f7 803c d0f6 7fbc 2a7d 9e3c
00000130: 9563 82bc a3ea 993c 2f3a 813c 9738 713c
00000140: 084a a73c 0e50 823c b5de 983c f4ce 803c
00000150: 566b 63bc af54 8cbc 5750 91bc 3b9c a03c
00000160: 5085 88bc 6a6a f3bb ca6b 993c c3f5 883c
00000170: 6ab6 80bc efd0 46bc c5af ea3b 9772 9d3c
00000180: 2ff8 bdbb 8cbe 14b9 f2ab 853c eba3 cebb
00000190: 966f 7bbc 2ed4 91bc 2e08 923c d3a0 893c
000001a0: 030e a13c ae0b 52bc 12e2 853c 55a3 23bc
000001b0: ed4f 43bc beaa 81bc 4ed5 9fbb a465 b03c
000001c0: a5c2 9ebc db6a b43c d24f ce3b bc68 8d3c
000001d0: 0466 2abc 8f1e 10bb f330 81bc 7339 693c
000001e0: 7730 98bc 60b2 64bc 4d8c 893c 0a7f 9f3c
000001f0: 6bda 9a3c 2587 9a3c 8c28 a13c c11f 653c

network_body._body_endoder.seq_layers.2.weight f4 [128, 128]
0.006897024 0.03126952 -0.01825449 0.0129295355 0.23259358 0.071922064 0.13069451 -0.12724662
0.02582664 0.16672339 0.07664933 -0.059524767 -2.6786278e-05 -0.15931098 -0.09124999 0.018615115
-0.054370534 -0.22793938 0.0022191587 -0.17724945 0.022793487 -0.19316302 -0.039181057 -0.090876594
-0.06950086 0.19863766 -0.01278945 0.18210426 0.0973905 -0.024635067 0.080393136 -0.017564377
0.17753276 -0.17448458 0.04976786 -0.096661724 -0.04719159 -0.014306076 -0.07220865 0.18650612
0.010851591 0.0826634 -0.09848514 -0.060129046 0.022151878 -0.024761768 -0.097962216 0.1163712
0.018580925 0.20965743 -0.047494657 -0.048225872 0.060055315 -0.12593059 0.058552712 0.040068254
-0.063872874 -0.11592995 0.041647553 -0.13413878 0.20714495 0.14044042 0.17939107 -0.041035045
0.07976928 -0.062384866 -0.04929632 0.025516303 0.065364406 0.21734613 0.014957675 0.027147485
-0.04222161 -0.014694764 0.27416298 0.007882084 -0.06320995 -0.12262094 0.08100328 0.12805887
-0.032896794 -0.08373593 0.14531799 0.05161179 -0.16958892 0.13517737 -0.062487334 0.09709907
-0.08464372 0.03955033 -0.01363507 -0.015982833 0.16022848 -0.07255702 -0.09592104 -0.032263078
0.0064879963 -0.041659333 0.15339446 0.012581693 0.020944964 -0.0962132 -0.14591753 0.042662293
0.05255997 0.05392905 0.09491983 0.101297624 0.11545507 -0.022031551 -0.0036529128 0.066908754
0.07335375 -0.0019403363 -0.03280545 0.087030225 -0.06485659 -0.12062552 -0.14517148 0.062537625
-0.010012575 -0.035497595 -0.11261028 0.070309125 0.0031672562 0.15068965 0.11742847 -0.2188994
0.02026188 -0.124270625 -0.1358702 -0.011649404 0.025473388 0.011774508 -0.007816846 -0.03823928
0.14358029 -0.030892672 0.07222297 0.097095065 -0.0013079137 0.110506125 -0.049097043 0.01734363
0.23083362 0.01902121 -0.14005658 0.03242728 0.04494475 0.0043071937 0.08893471 -0.0820552
0.024477288 0.03740903 -0.05905102 -0.044559687 0.19970839 -0.21874543 0.0080394205 -0.16020107
0.06592009 -0.10230637 0.14313298 -0.17299472 0.062623374 -0.15375 0.041209485 -0.15046836
-0.09068956 -0.014590825 0.02963402 -0.041022155 -0.1020343 -0.08887957 0.11042739 0.10011173
0.10829875 0.17275208 0.06296263 0.053612746 -0.051350348 -0.07187501 0.05875977 0.05892499
0.119652696 -0.08188251 0.096609786 0.21098366 0.0033063933 0.09840352 0.08885851 0.1635957
0.10734525 -0.060525298 -0.1341705 0.14381114 -0.010368985 -0.008429593 -0.075025626 -0.0032085343
0.20123258 0.16979754 0.119444266 0.042005587 -0.11601292 0.25510296 0.10789618 0.14090061
-0.063202076 -0.006406796 0.023438884 0.11326899 -0.12214725 0.043198884 0.025706993 0.067378186
0.05010302 0.13660358 -0.05108556 -0.062189694 -0.038807034 -0.0871433 -0.1022678 0.10848229
-0.10766739 0.077198856 0.015500106 -0.061977297 0.097414725 0.009093721 -0.027740411 -0.13080932
0.054015446 0.102668315 -0.03747838 -0.033097073 0.053968802 -0.017866721 0.12523781 0.010077297
0.07137662 -0.07295099 0.0046731443 0.008686616 0.15907767 0.095156014 -0.021751685 0.14686076
0.07534333 0.09419514 -0.02438106 0.027080376 0.036596593 0.18435147 -0.11141619 -0.01687829
00000000: 6e00 e23b 7814 003d 718a 95bc 67d6 533c
00000010: 032d 6e3e e04b 933d c8d4 053e f04c 02be
00000020: 6492 d33c 89b9 2a3e 53fa 9c3d 3ed0 73bd
00000030: 18b3 e0b7 6b22 23be 46e1 babd ba7e 983c
00000040: a3b3 5ebd f168 69be 4e6f 113b e180 35be
00000050: 68b9 ba3c 87cc 45be 517c 20bd 821d babd
00000060: 7856 8ebd ac67 4b3e d78a 51bc 8a79 3a3e
00000070: ac74 c73d 7bcf c9bc 28a5 a43d 2be3 8fbc
00000080: 26cb 353e 16ac 32be 62d9 4b3d 95f6 c5bd
00000090: f84b 41bd 0864 6abc 21e2 93bd 76fb 3e3e
000000a0: dfca 313c 6e4b a93d 94b2 c9bd e049 76bd
000000b0: db77 b53c 31d9 cabc 6aa0 c8bd 0654 ee3d
000000c0: 0637 983c 70b0 563e c289 42bd 7e88 45bd
000000d0: 90fc 753d f3f3 00be f8d4 6f3d 9c1e 243d
000000e0: c8cf 82bd ae6c edbd a096 2a3d ad5b 09be
000000f0: ce1d 543e 9dcf 0f3e 4bb2 373e 5d14 28bd
00000100: 145e a33d 4687 7fbd f0ea 49bd 9107 d13c
00000110: c6dd 853d fc8f 5e3e 0911 753c 6764 de3c
00000120: 91f0 2cbd 4fc2 70bc 175f 8c3e db23 013c
00000130: 3874 81bd b020 fbbd 0ce5 a53d dd21 033e
00000140: cabe 06bd be7d abbd 3dce 143e e266 533d
00000150: b8a8 2dbe f06b 0a3e b8f2 7fbd e1db c63d
00000160: b059 adbd 87ff 213d a165 5fbc 6eee 82bc
00000170: ef12 243e c698 94bd 4072 c4bd 4a26 04bd
00000180: 4299 d43b faa2 2abd 7013 1d3e 7223 4e3c
00000190: c694 ab3c 6d0b c5bd 686b 15be a8be 2e3d
000001a0: 2049 573d b5e4 5c3d 5465 c23d 2175 cf3d
000001b0: b573 ec3d 837b b4bc b565 6fbb 7507 893d
000001c0: 7e3a 963d e252 feba 025f 06bd e73c b23d
000001d0: 88d3 84bd 830a f7bd d5a7 14be ba13 803d
000001e0: c90b 24bc ed65 11bd 38a0 e6bd 3bfe 8f3d
000001f0: be91 4f3b 634e 1a3e 567e f03d 2a27 60be
00000200: 3efc a53c 9981 febd 8f21 0bbe 24dd 3ebc
00000210: 91ad d03c dee9 403c 3a12 00bc cba0 1cbd
00000220: b606 133e a112 fdbc a3e9 933d c7d9 c63d
00000230: 4d6e abba 0951 e23d fb19 49bd 3a14 8e3c
00000240: a65f 6c3e 5ed2 9b3c fe6a 0fbe 78d2 043d
00000250: fc17 383d 5c23 8d3b 6723 b63d 8f0c a8bd
00000260: 9884 c83c 363a 193d 7bdf 71bd 3884 36bd
00000270: 5b80 4c3e cdfe 5fbe c6b7 033c c00b 24be
00000280: 1d01 873d 0186 d1bd 7491 123e 8725 31be
00000290: af40 803d a470 1dbe 47cb 283d 6114 1abe
000002a0: 73bb b9bd 5b0e 6fbc 0bc3 f23c d906 28bd
000002b0: 5cf7 d0bd 7e06 b6bd c127 e23d 6107 cd3d
000002c0: bccb dd3d ece5 303e 8df2 803d 0a99 5b3d
000002d0: be54 52bd 3533 93bd 16ae 703d 555b 713d
000002e0: 790c f53d 04b2 a7bd 5adb c53d 1a0c 583e
000002f0: 13b0 583b c987 c93d 73fb b53d a285 273e
00000300: d4d7 db3d 60e9 77bd fe63 09be 3a43 133e
00000310: ade2 29bc 471c 0abc 09a7 99bd 4646 52bb
00000320: ea0f 4e3e 68df 2d3e 329f f43d 0d0e 2c3d
00000330: 2f98 edbd db9c 823e acf8 dc3d 4048 103e
00000340: 1770 81bd 1af0 d1bb e702 c03c 92f9 e73d
00000350: 5628 fabd 50f1 303d 7997 d23c 93fd 893d
00000360: d338 4d3d cfe1 0b3e 183f 51bd 9fba 7ebd
00000370: 20f4 1ebd 3078 b2bd c871 d1bd f62b de3d
00000380: b880 dcbd 6f1a 9e3d 28f4 7d3c e8db 7dbd
00000390: 5f81 c73d d5fd 143c dc3f e3bc e1f2 05be
000003a0: 4d3f 5d3d c443 d23d ee82 19bd cc90 07bd
000003b0: 640e 5d3d 3b5d 92bc 573e 003e 3f1b 253c
000003c0: e82d 923d 5467 95bd 2d21 993b 4f52 0e3c
000003d0: 42e5 223e 28e1 c23d 9730 b2bc ab62 163e
000003e0: 9b4d 9a3d 62e9 c03d caba c7bc aad7 dd3c
000003f0: 4fe6 153d a2c6 3c3e 2c2e e4bd 5744 8abc

network_body._body_endoder.seq_layers.2.bias f4 [128]
0.018538797 0.020402098 0.017440677 0.01808323 -0.023385974 -0.017719807 0.014188509 -0.016499164
0.0151394885 -0.01551898 -0.017656624 -0.018774083 0.020317597 -0.022503583 0.02004421 -0.018933073
-0.018540157 -0.014639136 0.017039374 -0.01069348 0.020124188 -0.008925446 0.013737136 0.0027353968
-0.018820457 -0.020167073 0.015277495 0.004973102 0.01811191 -0.00054494 -0.01772031 0.018815365
-0.0040533063 0.0033198453 -0.01718577 0.017853213 -0.018456228 -0.020455027 0.013772545 -0.013688511
0.015491683 0.020252846 0.017859854 0.012286397 -0.006106828 0.0030656252 -0.0036209063 0.020299677
0.020717418 0.010238093 0.018699294 -0.016262222 0.0052016927 -0.018964225 -0.020394364 0.018210256
0.007835272 0.018670842 -0.01216529 0.013706026 -0.018687114 -0.0202334 0.017490784 0.020616738
0.020565404 -0.0053364267 -0.007290371 0.020166634 0.017444413 -0.01937069 0.017312951 -0.014817483
-0.010540449 -0.019721296 -0.015690206 0.019401731 -0.017925013 -0.023829553 -0.017712757 -0.016276658
-0.01946916 -0.021312537 0.021542178 0.016812675 -0.018104348 -0.014481329 0.01580244 0.0188878
-0.015711239 -0.0011707768 0.019212058 -0.013852651 0.016775548 -0.014319022 -0.020579405 -0.017969709
-0.013475923 0.018397989 -0.0057286774 0.015599043 -0.009827191 0.018208947 0.018588973 0.016911868
0.017928082 0.017584294 0.015505657 0.01282917 0.021909755 -0.016453607 0.014807495 0.020364273
0.014629607 0.019869912 -0.01823042 0.01971235 -0.017933803 -0.014658339 -0.016681908 0.016178451
0.019195165 -0.0014317709 0.005942705 0.016784409 0.0054699737 0.018787615 -0.009596478 -0.010713161
00000000: adde 973c 4d22 a73c c0df 8e3c 4823 943c
00000010: f193 bfbc 2129 91bc ec76 683c 4129 87bc
00000020: 9e0b 783c 5243 7ebc a0a4 90bc 1bcc 99bc
00000030: 1771 a63c 6f59 b8bc c133 a43c 8819 9bbc
00000040: 87e1 97bc fdd8 6fbc 2896 8b3c b533 2fbc
00000050: 7bdb a43c 093c 12bc b911 613c 5844 333b
00000060: 5c2d 9abc 6b35 a5bc 754e 7a3c 67f5 a23b
00000070: 6e5f 943c 4eda 0eba 2f2a 91bc ae22 9a3c
00000080: 99d1 84bb c391 593b 2cc9 8cbc e740 923c
00000090: 8431 97bc 4d91 a7bc 3ea6 613c c745 60bc
000000a0: d4d0 7d3c 4ce9 a53c d44e 923c e24c 493c
000000b0: c91b c8bb a8e8 483b ba4c 6dbb 824b a63c
000000c0: 93b7 a93c adbd 273c 432f 993c 5a38 85bc
000000d0: f672 aa3b dd5a 9bbc 1512 a7bc ad2d 953c
000000e0: 835f 003c 98f3 983c ed50 47bc 3d8f 603c
000000f0: b815 99bc 84c0 a5bc d548 8f3c 6fe4 a83c
00000100: c778 a83c 31dd aebb 11e4 eebb 7f34 a53c
00000110: 96e7 8e3c 48af 9ebc e4d3 8d3c 07c5 72bc
00000120: d9b1 2cbc 8e8e a1bc bf88 80bc 61f0 9e3c
00000130: 7ad7 92bc 3236 c3bc 581a 91bc a056 85bc
00000140: ca7d 9fbc a197 aebc 3979 b03c bcba 893c
00000150: 924f 94bc 1943 6dbc 1e74 813c 96ba 9a3c
00000160: dbb4 80bc c074 99ba 9b62 9d3c 3bf6 62bc
00000170: e06c 893c 559a 6abc 2496 a8bc 3635 93bc
00000180: 1eca 5cbc 61b7 963c a1b7 bbbb 2193 7f3c
00000190: 3a02 21bc ee2a 953c e747 983c c28a 8a3c
000001a0: eadd 923c f00c 903c 700b 7e3c 7031 523c
000001b0: 167c b33c b7c9 86bc 239b 723c fad2 a63c
000001c0: 05b1 6f3c 3ac6 a23c f657 95bc cb7b a13c
000001d0: e9e9 92bc 8829 70bc 7fa8 88bc ac88 843c
000001e0: 2e3f 9d3c 42aa bbba 06bb c23b 757f 893c
000001f0: 773d b33b 7ce8 993c 8c3a 1dbc 4186 2fbc

action_model._continuous_distribution.log_sigma f4 [1, 2]
-0.012392511 -0.029125694
00000000: f509 4bbc 0299 eebc

action_model._continuous_distribution.mu.weight f4 [2, 128]
-0.014456808 0.0005789363 0.0044675693 -0.0045167077 -0.012801882 0.019184666 0.008433924 -0.028375126
-0.015279686 0.013902216 -0.01812033 -0.010470469 0.015424268 -0.0028681906 -0.0009795863 -0.014388798
-0.002856162 0.0031436963 -0.0042027025 0.043342333 0.004742926 0.033872318 0.032023545 0.0100376615
-0.01586285 -0.034811668 -0.0068856264 0.018638916 -0.0028726046 -0.018389726 -0.0020091461 0.0069592735
0.020255905 -0.02368137 -0.018486088 0.019423196 0.010597279 -0.01251639 0.02038449 -0.02356779
0.002022735 -0.026705422 0.030155316 0.04212162 -0.018328018 -0.021497436 0.03087803 -0.020943409
0.0073507517 0.0005484325 0.023433696 0.01592279 0.033966526 -0.013982028 -0.01199997 0.023287281
0.025927396 0.00912937 0.0062025418 -0.05183508 -0.002951851 0.020407995 -0.014600343 0.0016618563
-0.006272547 -0.02107703 -0.03114849 0.00082692713 0.004103428 0.0004210761 -0.02228974 -0.0029882211
0.014125289 -0.027160246 0.01517196 0.013624149 -0.009697994 -0.01609958 -0.013804857 -0.025962912
-0.0047175903 -0.0016191847 -0.0006956137 -0.0058902684 -0.008894162 0.032306265 0.028080199 0.0040496127
-0.021438116 0.002072452 -0.019760441 0.010610807 0.012028891 0.011210567 0.007668398 -0.004431735
-0.0022922093 -0.0017291852 -0.0044237943 0.031563617 0.011240958 0.018042635 -0.029252203 -0.015623385
-0.010504491 -0.029325973 0.050285544 0.0022903434 0.0055421214 -0.026421744 -0.021418257 0.012746617
0.027948504 0.030312456 -0.022483535 0.011745077 0.0068403273 -0.026370862 -0.020309234 -0.006102159
-0.014799436 0.03564889 0.011848891 0.032446332 0.0145454835 0.021433238 0.018280724 0.026453704
0.026256029 0.023993565 0.032808684 0.029692562 -0.024062466 -0.028105453 0.005343313 -0.012616744
0.008765238 -0.016157707 -0.02679415 -0.037315805 0.018428227 -0.026260072 0.020519968 -0.03354454
-0.013552983 -0.00749944 0.024989588 -0.03120137 0.04599907 -0.009645935 0.010665343 0.0039047594
-0.014567849 -0.031871296 0.016938867 -0.0036956286 0.024591684 -0.0033167535 -0.022378294 0.06704494
-0.0030433384 -0.0034386523 -0.04809134 0.011751146 -0.04300967 -0.028951673 -0.00103891 -0.008704317
0.0028651098 0.039811913 0.03026216 0.0100114895 0.0035747646 0.00041644985 0.005355631 0.037369985
0.04655823 0.0030326962 0.024277525 -0.025706409 -4.657045e-05 -0.019948386 -0.03363557 0.042923275
0.008467081 0.0186864 -0.00067814725 0.026015088 -0.02467677 -0.055750065 0.025838008 0.01679507
0.030133953 0.0014018948 -0.009076469 0.04095145 0.026271874 -0.03935832 0.03244234 -0.0038578135
-0.002783948 -0.01882877 -0.017350474 0.018476209 -0.0261217 -0.01849288 -0.016981687 -0.013450002
-0.01098863 -0.021788767 0.023224114 0.010183404 -0.018030738 -0.035867624 0.0074066296 0.029612036
-0.007981184 0.003936535 0.024915567 -0.0043678377 0.01630906 -0.0014221322 -0.03334526 -0.0075622783
-0.013118601 0.03731729 0.005197861 0.0070177848 -0.0021510306 0.019388197 0.036708254 0.022897571
0.016445935 0.052551247 0.012460753 0.006900718 0.029831383 -0.01881595 0.02201506 0.027757278
0.0002070355 0.050779335 -0.022718048 0.022733256 -0.025417471 -0.006916779 -0.06038588 0.03735853
0.026691899 -0.01881939 0.0029719847 0.017682485 0.016982744 0.028471023 -0.010185028 -0.015343066
00000000: 3fdc 6cbc c2c3 173a b064 923b e400 94bb
00000010: fcbe 51bc 2929 9d3c 712e 0a3c f472 e8bc
00000020: a657 7abc 1fc6 633c 1671 94bc 548c 2bbc
00000030: 12b6 7c3c 41f8 3bbb 7665 80ba febe 6bbc
00000040: 722e 3bbb 7906 4e3b d3b6 89bb bb87 313d
00000050: 8c6a 9b3b b3bd 0a3d 1f2b 033d 0175 243c
00000060: cff2 81bc ae96 0ebd d2a0 e1bb a4b0 983c
00000070: 4f42 3cbb 0da6 96bc e1ab 03bb 9e0a e43b
00000080: b6ef a53c 6fff c1bc 2370 97bc 651d 9f3c
00000090: 36a0 2d3c 8b11 4dbc 60fd a63c 3d11 c1bc
000000a0: dd8f 043b 54c5 dabc 4808 f73c b887 2c3d
000000b0: a424 96bc 641b b0bc ecf3 fc3c 8391 abbc
000000c0: 93de f03b afc4 0f3a 06f8 bf3c 8370 823c
000000d0: 7c20 0b3d e014 65bc 869b 44bc f8c4 be3c
000000e0: b165 d43c 5a93 153c b13e cb3b 0551 54bd
000000f0: d873 41bb ab2e a73c 4736 6fbc a5d2 d93a
00000100: f089 cdbb bca9 acbc 1e2b ffbc 24c6 583a
00000110: 0d76 863b e1c3 dc39 f998 b6bc 08d6 43bb
00000120: c26d 673c 2a7f debc d093 783c d337 5f3c
00000130: 56e4 1ebc 44e3 83bc c42d 62bc 2cb0 d4bc
00000140: 0496 9abb d33a d4ba d859 36ba 2703 c1bb
00000150: d2b8 11bc 9353 043d 7208 e63c 9db2 843b
00000160: fd9e afbc fad1 073b a6e0 a1bc f3d8 2d3c
00000170: d314 453c 87ac 373c 2f47 fb3b 1638 91bb
00000180: e438 16bb d4a5 e2ba 7af5 90bb da48 013d
00000190: ff2b 383c 26ce 933c 51a2 efbc 3af9 7fbc
000001a0: 071b 2cbc 063d f0bc 37f8 4d3d 9619 163b
000001b0: af9a b53b 6a72 d8bc 5775 afbc 30d7 503c
000001c0: 43f4 e43c d451 f83c 642f b8bc 6c6e 403c
000001d0: d324 e03b b507 d8bc 8d5f a6bc 9ff4 c7bb
000001e0: 5579 72bc 9204 123d da21 423c 72e6 043d
000001f0: 2e50 6e3c c294 af3c 75c1 953c 70b5 d83c
00000200: e216 d73c 278e c43c 6662 063d d13d f33c
00000210: a61e c5bc 683d e6bc f516 af3b 76b6 4ebc
00000220: 139c 0f3c 2b5d 84bc 687f dbbc 75d8 18bd
00000230: cbf6 963c 5d1f d7bc 7e19 a83c 0066 09bd
00000240: 550d 5ebc ddbd f5bb f7b6 cc3c 049a ffbc
00000250: 8569 3c3d fc09 1ebc b1bd 2e3c fee6 7f3b
00000260: fdad 6ebc 7a8b 02bd 61c3 8a3c 5c32 72bb
00000270: 8074 c93c e45d 59bb af52 b7bc dc4e 893d
00000280: bf72 47bb 035b 61bb 6dfb 44bd e187 403c
00000290: e82a 30bd 0f2c edbc 092c 88ba 8d9c 0ebc
000002a0: 91c4 3b3b d111 233d 59e8 f73c 3b07 243c
000002b0: 9946 6a3b f456 da39 4a7e af3b 4511 193d
000002c0: d8b3 3e3d 33c0 463b a9e1 c63c 3f96 d2bc
000002d0: a454 43b8 cc6a a3bc 74c5 09bd 51d0 2f3d
000002e0: 83b9 0a3c 3914 993c b1c5 31ba 981d d53c
000002f0: f026 cabc 2e5a 64bd 3baa d33c d195 893c
00000300: 7bdb f63c c9bf b73a 78b5 14bc b5bc 273d
00000310: 1d38 d73c 3136 21bd 42e2 043d 5fd3 7cbb
00000320: e672 36bb cb3e 9abc 9522 8ebc 6b5b 973c
00000330: 2dfd d5bc 617e 97bc 2e1d 8bbc 665d 5cbc
00000340: a809 34bc 5b7e b2bc 7f40 be3c 4bd8 263c
00000350: 33b5 93bc eee9 12bd 50b3 f23b f194 f23c
00000360: 83c3 02bc 0dfe 803b bb1b cc3c 1420 8fbb
00000370: 949a 853c d766 baba 0a95 08bd fdcc f7bb
00000380: 67ef 56bc 04da 183d d252 aa3b 72f5 e53b
00000390: 4ef8 0cbb ffd3 9e3c 655b 163d b093 bb3c
000003a0: a0b9 863c fa3f 573d 3028 4c3c 6b1f e23b
000003b0: f260 f43c e823 9abc ed58 b43c 3b63 e33c
000003c0: ab17 5939 fefd 4f3d 331b babc 183b ba3c
000003d0: 4d38 d0bc 26a6 e2bb 2f57 77bd 4205 193d
000003e0: f8a8 da3c 1f2b 9abc a1c5 423b dcda 903c
000003f0: 651f 8b3c 103c e93c 1bdf 26bc 7c61 7bbc

action_model._continuous_distribution.mu.bias f4 [2]
0.008314437 0.018225128
00000000: 4739 083c dd4c 953c

exp_avg f4 [128, 17]
3.0617277e-05 2.3356262e-05 1.814823e-05 5.080161e-05 2.9544255e-05 6.815861e-05 4.091332e-05 5.0556817e-05
3.4648114e-05 -5.501527e-05 2.6407139e-05 -2.7422051e-05 4.0021114e-05 4.8618144e-06 -2.508405e-05 -1.7097467e-05
-3.0315769e-06 -3.392454e-05 -3.08434e-05 -4.156792e-05 -2.704113e-05 -3.881653e-05 4.6369678e-08 3.2038766e-05
3.6786936e-05 4.8023943e-05 -2.6526066e-05 -6.196246e-05 -9.355257e-06 4.5648725e-05 1.9932822e-05 3.6346755e-05
3.698707e-05 -2.3536557e-05 2.74724e-05 5.3447257e-06 8.417692e-06 1.8938721e-05 -1.1698885e-06 1.415347e-05
2.0564079e-05 2.577429e-05 2.5705642e-05 -3.0598443e-05 8.067393e-05 -4.502356e-05 5.6631754e-05 -1.5080061e-05
-1.907527e-06 -5.0274284e-05 2.81988e-05 -3.683174e-05 -5.1125637e-05 -7.531966e-05 -3.3516968e-05 -7.066749e-05
-9.320942e-06 -5.179253e-06 4.497148e-05 4.983776e-05 -3.4594974e-05 -9.501604e-06 -3.3518627e-05 5.227483e-05
6.827733e-06 0.00012440194 -0.00011985152 2.295105e-05 -2.7770173e-05 -4.8134272e-05 -9.1000664e-05 -5.4397096e-05
-3.467972e-05 4.9123184e-05 4.0054852e-05 4.1504463e-05 3.15453e-05 -1.7214028e-05 1.9948404e-05 -7.905056e-06
4.3269374e-05 1.3396227e-05 6.360228e-05 -6.944071e-05 1.2625287e-06 -3.6294863e-05 -5.7697616e-05 -0.00012941641
-5.3185224e-05 -6.293377e-05 0.00011288699 5.9336457e-05 7.1270275e-05 6.842617e-05 2.791644e-05 -8.914913e-05
1.2343098e-05 2.3630539e-05 2.5129764e-05 4.850105e-06 -0.00011356731 9.361499e-05 -5.039276e-05 -5.225331e-05
-6.557009e-05 -5.845151e-05 -6.7396526e-05 -4.807712e-05 -2.000041e-05 -1.3533075e-05 1.1028648e-05 3.1888703e-05
-4.9946066e-05 3.3042706e-05 -2.966735e-05 1.92759e-05 3.365485e-05 -5.602354e-05 3.5371e-05 -2.743036e-08
-2.0538724e-05 -7.0787035e-05 -4.6969835e-05 -8.7318425e-05 7.659864e-06 -1.2083625e-05 2.3172264e-05 3.753022e-05
-3.474938e-05 7.792002e-05 -2.13881e-05 8.840287e-05 7.814693e-06 0.000119888005 -7.113283e-05 6.026986e-05
-4.604528e-05 -2.911088e-05 -5.969592e-06 -2.4097955e-05 -1.4313534e-05 -4.631803e-05 -2.935863e-05 -4.2821976e-06
-1.9233412e-06 3.5511253e-05 2.007325e-05 4.2167834e-05 3.9820912e-05 1.9497998e-05 -1.945846e-05 8.0433245e-05
-3.196963e-05 -1.5636926e-05 -1.9502248e-05 -3.3823395e-05 -1.651818e-05 -3.7668673e-05 1.2787328e-05 -2.0784315e-05
2.0401749e-05 2.4533996e-05 2.5239915e-05 -4.1081012e-07 5.544544e-05 -1.8441748e-05 2.6542679e-05 -5.625706e-05
-4.62308e-05 -1.1313551e-05 4.668309e-07 -3.3058568e-05 -5.7678335e-05 -5.027696e-06 -2.2999e-05 2.507801e-05
1.7081018e-06 -4.8524107e-06 1.8632543e-05 2.4099232e-05 7.228692e-05 -3.1841737e-05 9.486001e-06 3.2114222e-06
9.10873e-05 -4.159582e-05 1.684688e-06 4.5724673e-06 -1.0995074e-05 -3.0397792e-05 -2.7828773e-05 -2.6204212e-05
-1.4689545e-07 1.9274243e-05 1.7568473e-05 3.5792717e-05 7.247558e-06 -2.878317e-05 1.2319519e-05 4.3237e-06
2.731185e-05 2.2030776e-05 3.4690707e-05 -3.1777825e-05 5.565653e-05 5.47433e-05 4.8435846e-05 -2.0653726e-05
-9.851972e-05 -7.929481e-05 -0.00010730495 -5.0397284e-07 5.3554613e-06 1.35108185e-05 6.655822e-05 9.166369e-06
3.577597e-05 -2.384042e-06 1.1884193e-05 -9.564496e-05 0.00011656924 -2.4468682e-06 -1.6335416e-05 -4.8315258e-05
-3.9712257e-05 -9.755749e-05 -3.3726203e-05 -6.134316e-05 -1.95948e-06 3.3766097e-05 -3.114713e-05 8.5091575e-05
-1.5342594e-05 9.365367e-05 8.629797e-06 8.485728e-05 -0.00012830908 6.2917046e-05 -3.645019e-05 -7.8993915e-05
-0.00012366036 -7.749011e-05 -6.203149e-05 1.3564983e-05 5.0863673e-05 -2.0087777e-05 -3.0006086e-06 0.00011318974
-0.00015223058 7.8169774e-05 -7.226734e-05 3.7515238e-05 5.6426506e-06 -0.00012816233 -1.4341447e-05 4.7298785e-05
00000000: 0d6b 0038 31ed c337 073d 9837 d013 5538
00000010: ced5 f737 60f0 8e38 589a 2b38 f80c 5438
00000020: 2153 1138 32c0 66b8 e684 dd37 6808 e6b7
00000030: 58dc 2738 ab22 a336 966b d2b7 886c 8fb7
00000040: 1872 4bb6 334a 0eb8 d95d 01b8 3759 2eb8
00000050: 62d6 e2b7 efce 22b8 0028 4733 5d61 0638
00000060: ac4b 1a38 516d 4938 4b84 deb7 d8f1 81b8
00000070: 86f4 1cb7 f276 3f38 6935 a737 0873 1838
00000080: 9022 1b38 5f70 c5b7 8874 e637 d856 b336
00000090: b639 0d37 98de 9e37 1005 9db5 b174 6d37
000000a0: 0681 ac37 de35 d837 72a2 d737 d456 00b8
000000b0: 7d2f a938 aed7 3cb8 e287 6d38 5e00 7db7
000000c0: 1003 00b6 9add 52b8 768c ec37 c87b 1ab8
000000d0: bc6f 56b8 eff4 9db8 9294 0cb8 5233 94b8
000000e0: 2461 1cb7 72c9 adb6 c29f 3c38 e308 5138
000000f0: 121a 11b8 1469 1fb7 5a96 0cb8 ac41 5b38
00000100: c819 e536 e471 0239 cb58 fbb8 0187 c037
00000110: fef3 e8b7 c8e3 49b8 9cd7 beb8 7028 64b8
00000120: 1175 11b8 9e09 4e38 9200 2838 1415 2e38
00000130: 824f 0438 d866 90b7 df56 a737 f59f 04b7
00000140: 237c 3538 5bc0 6037 3762 8538 b3a0 91b8
00000150: 2874 a935 503b 18b8 5800 72b8 f4b3 07b9
00000160: 3313 5fb8 4ffb 83b8 bebd ec38 09e0 7838
00000170: f076 9538 0580 8f38 192e ea37 93f5 bab8
00000180: 3415 4f37 323a c637 c2cd d237 16be a236
00000190: fc2a eeb8 2a53 c438 d05c 53b8 902a 5bb8
000001a0: ad82 89b8 d529 75b8 3c57 8db8 6aa6 49b8
000001b0: 8ec6 a7b7 1d0c 63b7 af07 3937 3cc0 0538
000001c0: 2e7d 51b8 5697 0a38 26de f8b7 aeb2 a137
000001d0: 9f28 0d38 d1fa 6ab8 525b 1438 00a0 ebb2
000001e0: 934a acb7 8073 94b8 7a01 45b8 b91e b7b8
000001f0: de82 0037 c6ba 4ab7 0f62 c237 c469 1d38
00000200: ddbf 11b8 fe68 a338 986a b3b7 ee64 b938
00000210: da1b 0337 626c fb38 262d 95b8 45ca 7c38
00000220: be20 41b8 2433 f4b7 684e c8b6 f725 cab7
00000230: 2924 70b7 9b45 42b8 2e47 f6b7 ccaf 8fb6
00000240: c012 01b6 ebf1 1438 fa62 a837 5edd 3038
00000250: 6105 2738 a28f a337 ba3a a3b7 45ae a838
00000260: 2117 06b8 0b2c 83b7 c298 a3b7 98dd 0db8
00000270: 8590 8ab7 6efe 1db8 2889 5637 fa59 aeb7
00000280: 6c24 ab37 5bce cd37 4eba d337 508d dcb4
00000290: 168e 6838 5ab3 9ab7 f8a7 de37 8ff5 6bb8
000002a0: f2e7 41b8 55cf 3db7 c0a0 fa34 5ea8 0ab8
000002b0: a4eb 71b8 94b3 a8b6 faed c0b7 9e5e d237
000002c0: ee41 e535 e4d1 a2b6 154d 9c37 b528 ca37
000002d0: bf98 9738 ce8d 05b8 1026 1f37 d083 5736
000002e0: 1f06 bf38 2c77 2eb8 701d e235 326d 9936
000002f0: 7c77 38b7 c3fe feb7 d671 e9b7 1ed1 dbb7
00000300: 50ba 1db4 1faf a137 0260 9337 2320 1638
00000310: 0d30 f336 6373 f1b7 eeaf 4e37 4d14 9136
00000320: c01b e537 bbce b837 dd80 1138 2e49 05b8
00000330: be70 6938 2c9c 6538 9827 4b38 8a41 adb7
00000340: 5f9c ceb8 144b a6b8 e808 e1b8 c048 07b5
00000350: 10b3 b336 86ac 6237 2c95 8b38 41c9 1937
00000360: 280e 1638 88fd 1fb6 3862 4737 ff94 c8b8
00000370: a276 f438 e034 24b6 0a08 89b7 1da6 4ab8
00000380: b690 26b8 c797 ccb8 3c75 0db8 5ca5 80b8
00000390: 9c7f 03b6 12a0 0d38 faa3 02b8 3173 b238
000003a0: f8b3 80b7 ee67 c438 b2c8 1037 68f5 b138
000003b0: b58a 06b9 55f2 8338 18e2 18b8 89a9 a5b8
000003c0: d3aa 01b9 3082 a2b8 e716 82b8 2995 6337
000003d0: 7456 5538 2c82 a8b7 105e 49b6 4760 ed38
000003e0: 16a0 1fb9 14ef a338 3c8e 97b8 ae59 1d38
000003f0: 0056 bd36 5063 06b9 0c9c 70b7 af62 4638

exp_avg_sq f4 [128, 17]
4.433198e-09 4.3675836e-09 4.2652557e-09 4.929059e-09 5.3618563e-09 6.041297e-09 4.450295e-09 4.1290793e-09
3.3264371e-09 4.2611474e-09 6.420733e-09 3.47779e-09 1.942707e-09 5.2989586e-09 4.419836e-09 5.8428307e-09
4.148617e-09 2.3967144e-09 2.4811195e-09 2.781389e-09 2.9933507e-09 2.7967375e-09 2.8002725e-09 3.916684e-09
4.8449964e-09 4.710264e-09 9.243556e-10 1.9537043e-09 9.2942326e-10 1.1421937e-09 1.8051917e-09 4.6236024e-09
2.9212253e-09 3.106441e-09 4.5916613e-09 4.8822675e-09 5.9775496e-09 5.5963354e-09 4.0954715e-09 3.8158032e-09
4.7544786e-09 5.7062866e-09 4.927925e-09 8.08008e-09 5.163419e-09 4.642416e-09 4.656493e-09 4.6277964e-09
8.244333e-09 4.7273803e-09 4.7209605e-09 6.255635e-09 6.3934893e-09 6.0687e-09 9.867711e-09 1.432369e-08
1.808921e-08 1.1011696e-08 1.0242992e-08 1.0272554e-08 5.627117e-09 6.00451e-09 6.23265e-09 4.0796295e-09
8.279759e-09 8.758733e-09 1.0772528e-08 9.03611e-09 7.466168e-10 1.5378734e-09 4.1976973e-09 8.074383e-09
8.150563e-09 5.4865676e-09 1.7277925e-09 2.6334663e-09 3.1426366e-09 2.468502e-09 5.429181e-10 2.9599547e-09
1.4651604e-09 2.8070963e-09 1.9200002e-09 2.5524451e-09 1.4688122e-09 6.0975274e-09 8.783925e-09 2.5718082e-08
4.607954e-08 4.4262876e-08 2.700394e-08 1.092558e-08 1.7718682e-08 2.301597e-08 1.862928e-08 8.4162135e-09
2.4585438e-08 3.131758e-09 2.3776817e-08 8.443357e-09 1.6801978e-08 1.2104173e-08 1.9273554e-09 2.118637e-09
2.5556937e-09 2.6411338e-09 2.1132578e-09 1.8343529e-09 1.932386e-09 2.308696e-09 1.7719354e-09 3.1614302e-09
1.8128881e-09 2.4236069e-09 1.9693185e-09 1.0772345e-09 2.401799e-09 3.3286705e-09 2.8362366e-09 6.543399e-09
4.680692e-09 7.541195e-09 2.3714062e-08 3.4553338e-08 2.7657338e-08 5.361301e-09 6.1724843e-09 8.747585e-09
9.556537e-09 6.5090906e-09 9.163688e-09 5.8609286e-09 8.940211e-09 5.9568133e-09 1.4753901e-08 5.6438894e-09
9.667737e-09 8.539201e-09 6.396991e-09 7.451169e-09 1.0210927e-08 1.0253824e-08 5.1102025e-09 4.2578217e-09
3.7233046e-09 8e-09 8.8374925e-09 4.876469e-09 2.0519666e-08 2.845453e-09 4.535281e-09 1.368119e-08
5.083806e-09 4.6455026e-09 3.6587147e-09 3.515731e-09 7.184474e-09 9.697613e-09 8.64305e-09 3.767311e-09
3.734597e-09 4.727656e-09 7.550211e-09 6.1743552e-09 6.208236e-09 1.9173202e-08 4.5045794e-09 4.5606185e-09
1.0174696e-08 6.0879377e-09 4.7192397e-09 4.695236e-09 5.9257275e-09 7.2962556e-09 7.4072646e-09 6.588484e-09
6.2710477e-09 6.820442e-09 7.489889e-09 7.4557365e-09 5.368612e-09 5.0420796e-09 7.876839e-09 5.9454184e-09
6.779647e-09 5.090829e-09 4.3507327e-09 1.9508504e-09 1.990141e-09 1.2928162e-09 6.974027e-10 9.805072e-10
1.8403633e-09 1.9752597e-09 1.5651432e-09 1.2841166e-09 5.7803284e-10 9.116503e-10 3.4690345e-10 2.5662802e-10
4.288202e-10 1.1168856e-09 1.3061289e-09 1.0048711e-09 1.3701856e-08 1.3742609e-08 8.911935e-09 8.965751e-09
1.9387855e-08 3.5479836e-08 2.8270273e-08 1.7749665e-08 9.65628e-09 8.1903195e-09 1.14057315e-08 5.924871e-09
5.7532823e-09 5.733435e-09 7.609221e-09 2.1121096e-08 1.0192858e-08 3.903941e-09 3.4492256e-09 3.8673353e-09
7.704709e-09 1.4093438e-08 1.5474313e-08 7.8101e-09 4.6300213e-09 3.4510164e-09 5.134219e-09 3.7767705e-09
5.477701e-09 2.9942437e-09 3.8045203e-09 4.0709196e-09 1.1359982e-08 3.165827e-09 1.1539486e-08 1.4702529e-08
1.3072349e-08 1.1486976e-08 1.2495755e-08 1.3691835e-08 1.013538e-08 6.609874e-09 4.8555715e-09 1.6772013e-08
1.0640176e-08 7.727309e-09 5.889672e-09 4.1947654e-09 1.3057611e-08 2.8414252e-08 8.165967e-09 2.307441e-09
00000000: d252 9831 ac11 9631 968d 9231 765c a931
00000010: 633b b831 cf93 cf31 35e9 9831 c4df 8d31
00000020: 4d97 6431 7369 9231 5d9d dc31 eefd 6e31
00000030: 7780 0531 2212 b631 4add 9731 15c2 c831
00000040: 9f8b 8e31 72b3 2431 5180 2a31 b622 3f31
00000050: 95b3 4d31 ba30 4031 ea6e 4031 8493 8631
00000060: 0a79 a631 ecd7 a131 be15 7e30 ee41 0631
00000070: 597a 7f30 5efb 9c30 891a f830 a3dd 9e31
00000080: bdbe 4831 1779 5531 aec4 9d31 e1c0 a731
00000090: 1563 cd31 e349 c031 26b8 8c31 291c 8331
000000a0: d65c a331 0711 c431 7d52 a931 91d0 0a32
000000b0: ea69 b131 1f83 9f31 f2fe 9f31 8702 9f31
000000c0: f6a2 0d32 7a6e a231 0236 a231 26f1 d631
000000d0: baad db31 da84 d031 a786 2932 4114 7632
000000e0: 9862 9b32 f42d 3d32 28f9 2f32 2c7b 3032
000000f0: a558 c131 3a50 ce31 f826 d631 cd2c 8c31
00000100: c43e 0e32 5179 1632 1412 3932 3b3d 1b32
00000110: 7d3a 4d30 1c5d d330 563b 9031 83b7 0a32
00000120: 8e06 0c32 5c84 bc31 4b77 ed30 6ef8 3431
00000130: d9f5 5731 59a2 2931 773c 1530 1368 4b31
00000140: c05e c930 f6e6 4031 00f1 0331 1767 2f31
00000150: 3cdf c930 6b82 d131 1ce8 1632 a9ea dc32
00000160: fde8 4533 8c1b 3e33 4bf6 e732 36b3 3b32
00000170: cb33 9832 a7b4 c532 3806 a032 e696 1032
00000180: f32f d332 7836 5731 c63d cc32 470e 1132
00000190: f153 9032 b7f2 4f32 6572 0431 7597 1131
000001a0: 3da0 2f31 517f 3531 d338 1131 8e1c fc30
000001b0: e5ca 0431 02a7 1e31 6f88 f330 7840 5931
000001c0: 5429 f930 8b8c 2631 9e54 0731 d20d 9430
000001d0: e50c 2531 97be 6431 9ae7 4231 59d4 e031
000001e0: cdd3 a031 878e 0132 c6b3 cb32 cc67 1433
000001f0: 2193 ed32 8136 b831 bf15 d431 4948 1632
00000200: 182e 2432 91a6 df31 536e 1d32 4661 c931
00000210: 7797 1932 afac cc31 5878 7d32 2dec c131
00000220: 2817 2632 ceb3 1232 87cc db31 9602 0032
00000230: 226c 2f32 cb28 3032 d195 af31 324c 9231
00000240: 11dd 7f31 5f70 0932 b4d3 1732 e08d a731
00000250: 3943 b032 bd89 4331 c1d4 9b31 830a 6b32
00000260: a1ad ae31 469e 9f31 ca6c 7b31 6599 7131
00000270: 4ddb f631 8e9a 2632 897c 1432 9e71 8131
00000280: dd51 8031 e770 a231 2eb6 0132 3426 d431
00000290: 3950 d531 51b2 a432 b3c6 9a31 a0b3 9c31
000002a0: c9cc 2e32 112e d131 df26 a231 bc53 a131
000002b0: 409b cb31 8bb2 fa31 fd82 fe31 eb60 e231
000002c0: b878 d731 3e59 ea31 e1ac 0032 ad16 0032
000002d0: d076 b831 9a3e ad31 b452 0732 7448 cc31
000002e0: 68f2 e831 68eb ae31 737d 9531 b90f 0631
000002f0: eec2 0831 edae b130 5ab3 3f30 88c2 8630
00000300: 07f0 fc30 23bd 0731 951c d730 d67c b030
00000310: 72e3 1e30 b097 7a30 52b6 be2f 2f15 8d2f
00000320: 14bf eb2f eb80 9930 5383 b330 c21b 8a30
00000330: 6665 6b32 a218 6c32 1b1b 1932 ca07 1a32
00000340: 588a a632 7e62 1833 fdd6 f232 ed77 9832
00000350: c5e4 2532 68b5 0c32 f0f2 4332 b793 cb31
00000360: 68ae c531 d4ff c431 b5b9 0232 c86d b532
00000370: aa1c 2f32 6e23 8631 6b07 6d31 71e1 8431
00000380: ab5d 0432 991f 7232 60ec 8432 2f2d 0632
00000390: 1916 9f31 ec26 6d31 1169 b031 d3c4 8131
000003a0: 5e36 bc31 4bc3 4d31 eab8 8231 30e0 8b31
000003b0: bb29 4332 d18d 5931 323f 4632 6896 7c32
000003c0: cd94 6032 4158 4532 e9ac 5632 5439 6b32
000003d0: df1f 2e32 111d e331 0fd6 a631 0c12 9032
000003e0: fdcb 3632 10c1 0432 1a5e ca31 8c21 9031
000003f0: fb53 6032 9a13 f432 4d4a 0c32 ee90 1e31

exp_avg f4 [128]
-7.799799e-05 -2.336474e-05 -7.08403e-05 -5.0388204e-05 -8.585268e-05 -0.00015725508 2.249259e-05 -0.00013482831
-5.3574284e-05 -0.00010401876 -5.025304e-05 3.7588026e-05 -0.000104080405 -0.0001330488 0.00011400032 -3.6079e-05
-8.0196136e-05 -0.00011482549 -2.4558729e-05 4.587136e-05 -9.168449e-05 5.722058e-06 5.438431e-05 -0.00022093015
7.151936e-05 2.187702e-05 -8.8513254e-05 -0.00024635473 8.2847626e-05 0.00013781783 2.4543282e-05 -0.00017620882
-7.1380105e-06 1.0660879e-05 -3.3041044e-05 -0.00015730644 -5.2608135e-05 -1.8581019e-05 8.4671934e-05 -1.2784071e-05
0.00015093159 -3.0786352e-05 -8.117693e-05 -5.4799868e-05 -2.0449499e-05 -6.815339e-05 2.1611706e-05 -4.2211286e-05
-2.2213237e-05 -6.549398e-05 -7.2078896e-05 -2.6909136e-05 3.2650612e-05 -0.00016741 -4.8775557e-05 3.565332e-05
3.5594312e-06 4.2791136e-05 -5.7648904e-05 -6.828916e-05 -0.000277378 -3.2734115e-05 -4.4135508e-05 9.429434e-06
-8.616189e-06 0.0001554459 -2.0512589e-05 -0.00012078715 -0.00012164346 -3.0090983e-05 1.4084817e-06 -4.3337815e-05
-4.187707e-06 -0.00016266186 0.00015817655 -7.891119e-05 1.4262109e-05 -0.00011571821 -7.16458e-05 -7.0479015e-05
-0.0001655806 -5.220664e-05 -0.00013846374 -0.00011959249 -8.327673e-06 8.1414626e-05 8.460794e-05 -7.324606e-05
7.69847e-06 7.346358e-05 -7.916678e-06 -0.00010226277 0.00014070797 -4.9908276e-06 -1.1995593e-05 -0.00011510805
-0.00010069113 -2.277072e-05 -1.8909284e-05 -4.6379548e-05 3.596922e-05 0.00011394665 -9.706408e-05 -0.00011074034
-9.410796e-05 6.5679205e-06 -3.8563656e-05 3.4633253e-05 -7.4168547e-06 7.08313e-05 -5.7929843e-05 -0.0001256595
8.085902e-05 -3.579368e-05 -5.891841e-05 -0.00017613456 -2.7753852e-06 -1.286856e-05 1.3183947e-05 -9.626875e-05
4.2254287e-05 -1.8227112e-05 -0.00011302121 -8.485386e-05 -2.1818269e-05 -0.00010439087 -0.00013310608 -4.3901633e-05
00000000: da92 a3b8 66ff c3b7 1990 94b8 ec57 53b8
00000010: ce0b b4b8 d7e4 24b9 78ae bc37 b360 0db9
00000020: f3b4 60b8 a624 dab8 cac6 52b8 d6a7 1d38
00000030: be45 dab8 0483 0bb9 7513 ef38 8853 17b8
00000040: f92e a8b8 77ce f0b8 7803 ceb7 ff65 4038
00000050: bc46 c0b8 1b00 c036 b51a 6438 7ca9 67b9
00000060: aafc 9538 8b84 b737 31a0 b9b8 2c29 81b9
00000070: 7bbe ad38 3183 1039 4ce2 cd37 b2c4 38b9
00000080: 0b83 efb6 20dc 3237 8d95 0ab8 a0f2 24b9
00000090: 8ea7 5cb8 6fde 9bb7 e691 b138 2b7b 56b7
000000a0: 6443 1e39 9820 01b8 883d aab8 e9d8 65b8
000000b0: f78a abb7 93ed 8eb8 c94a b537 060c 31b8
000000c0: 9056 bab7 d059 89b8 1029 97b8 eeba e1b7
000000d0: 54f2 0838 c88a 2fb9 5b94 4cb8 768a 1538
000000e0: 90de 6e36 a27a 3338 0acc 71b8 7736 8fb8
000000f0: 0c6d 91b9 fd4b 09b8 241e 39b8 1c33 1e37
00000100: 408e 10b7 31ff 2239 7312 acb7 1b4f fdb8
00000110: d61a ffb8 e56b fcb7 100b bd35 a0c5 35b8
00000120: 2184 8cb6 3690 2ab9 32dc 2539 1f7d a5b8
00000130: 4b47 6f37 bead f2b8 8c40 96b8 22ce 93b8
00000140: b49f 2db9 74f8 5ab8 9430 11b9 bbcd fab8
00000150: 15b7 0bb7 25bd aa38 8b6f b138 ae9b 99b8
00000160: ad28 0137 7610 9a38 e0d1 04b7 e875 d6b8
00000170: 028b 1339 e276 a7b6 ae40 49b7 2a66 f1b8
00000180: 242a d3b8 c003 bfb7 619f 9eb7 a987 42b8
00000190: a8dd 1638 a4f6 ee38 e28e cbb8 443d e8b8
000001a0: d45b c5b8 0262 dc36 69bf 21b8 2c43 1138
000001b0: 4cde f8b6 448b 9438 b2f9 72b8 77c3 03b9
000001c0: db92 a938 2c21 16b8 291f 77b8 c3b0 38b9
000001d0: c140 3ab6 0be6 57b7 9f30 5d37 e4e3 c9b8
000001e0: 323a 3138 6de6 98b7 cd05 edb8 92f3 b1b8
000001f0: 6006 b7b7 6cec dab8 6492 0bb9 0523 38b8

exp_avg_sq f4 [128]
1.6992123e-08 2.4868534e-09 1.2141244e-08 2.977504e-08 1.5661133e-08 1.17771116e-07 5.4188156e-09 7.3378374e-08
1.3330075e-08 2.5339876e-08 1.9623933e-08 1.5744401e-09 5.4963234e-08 3.5917182e-08 2.123098e-08 4.719928e-09
1.1877472e-08 2.8675801e-08 7.7548057e-10 1.7735296e-08 5.2023875e-08 2.2768203e-09 8.929595e-09 4.0720266e-08
2.3070644e-08 3.3690095e-09 1.1769188e-07 3.915027e-08 2.3758414e-08 3.429655e-08 2.7477594e-09 3.2249414e-08
3.1399923e-09 1.1158494e-09 6.120822e-09 2.7669774e-08 8.1284615e-09 1.5497911e-09 4.997091e-08 2.2163589e-09
1.9937191e-08 5.79077e-09 3.1638837e-08 7.2077735e-09 2.0337798e-09 1.1838688e-08 9.044618e-09 1.332319e-09
1.6565734e-08 4.5977245e-08 3.8895767e-08 8.767733e-09 7.408218e-09 8.581387e-08 7.999115e-09 6.2334764e-09
4.2352237e-09 3.87696e-08 3.7561616e-09 5.565823e-09 1.9471912e-07 7.113038e-09 2.2374637e-08 1.5994033e-09
1.3607686e-09 3.2823404e-08 5.3929847e-09 5.4465772e-08 5.0239894e-08 1.7366895e-08 4.6183564e-09 1.53146e-08
9.561678e-09 8.802692e-08 2.515375e-08 1.876091e-08 2.9916576e-09 2.048163e-08 2.4214971e-08 1.945038e-08
7.53326e-08 7.0260993e-09 3.3275086e-08 5.977569e-08 4.522115e-09 2.4153014e-08 1.2019706e-08 2.9285818e-08
3.356111e-08 5.0062523e-09 1.6141716e-08 1.5385984e-08 2.3373158e-08 1.3895493e-09 3.8616483e-09 4.0587736e-08
8.969738e-09 1.8224433e-09 2.6806555e-09 6.868602e-09 1.2201147e-09 2.5870772e-08 1.4275406e-08 3.3755246e-08
4.3025263e-08 4.57739e-09 2.4036222e-08 6.0102185e-09 6.716567e-09 5.7147873e-09 5.2192872e-09 4.9026134e-08
3.6802934e-09 5.412687e-09 5.146532e-09 1.2352551e-07 2.6603149e-09 3.3945466e-09 1.2456135e-08 6.0243316e-08
1.2149676e-08 2.8124134e-09 1.2431688e-08 3.1895553e-08 3.6406118e-09 4.4573767e-08 7.22349e-08 4.0006767e-09
00000000: 13f6 9132 30e5 2a31 c195 5032 01c4 ff32
00000010: 3287 8632 5be9 fc33 6830 ba31 3094 9d33
00000020: 4a02 6532 faaa d932 7c91 a832 b063 d830
00000030: b710 6c33 5c43 1a33 6b5f b632 ed2c a231
00000040: ad0d 4c32 c152 f632 9829 5530 5458 9832
00000050: db70 5f33 3f76 1c31 c668 1932 68e4 2e33
00000060: e22c c632 3e84 6731 ccbd fc33 2d26 2833
00000070: 4e15 cc32 754d 1333 18d3 3c31 9b82 0a33
00000080: 54c7 5731 765c 9930 524f d231 7aae ed32
00000090: 5aa5 0b32 6d00 d530 999f 5633 994e 1831
000000a0: 5942 ab32 27f8 c631 45e3 0733 3fa8 f731
000000b0: a2c2 0b31 1a63 4b32 a762 1b32 cf1c b730
000000c0: 6f4c 8e32 8478 4533 590e 2733 e6a0 1632
000000d0: 608b fe31 ad48 b833 7b6c 0932 3d2e d631
000000e0: 6c85 9131 a083 2633 8c0f 8131 7f3d bf31
000000f0: fc13 5134 f266 f431 5932 c032 00d2 db30
00000100: ca05 bb30 b7f9 0c33 324d b931 c0ed 6933
00000110: 59c7 5733 352e 9532 7eaf 9e31 298d 8332
00000120: b444 2432 5009 bd33 ae11 d832 ad27 a132
00000130: cc95 4d31 95ef af32 4901 d032 d713 a732
00000140: 89c6 a133 396a f131 58ea 0e33 085e 8033
00000150: f260 9b31 0a79 cf32 3a7f 4e32 3290 fb32
00000160: d524 1033 7603 ac31 02a8 8a32 232a 8432
00000170: 1ec6 c832 6bfa be30 6baf 8431 b052 2e33
00000180: 5319 1a32 8679 fa30 9736 3831 dd00 ec31
00000190: f8b0 a730 6e3a de32 e63f 7532 49fa 1033
000001a0: c7ca 3833 2647 9d31 3678 ce32 7182 ce31
000001b0: 8cc7 e631 cd5b c431 5655 b331 ce90 5233
000001c0: 68e8 7c31 80fa b931 60d5 b031 6fa2 0434
000001d0: c1d0 3631 7f45 6931 a9fe 5532 1d5f 8133
000001e0: d7ba 5032 8044 4131 2493 5532 88fd 0833
000001f0: 522e 7a31 6071 3f33 8e1f 9b33 5376 8931
