results/test-13/Drive/Drive-30083.onnx (onnx, 81697 bytes, 9 tensors)

network_body.observation_encoder.processors.0.normalizer.running_mean f4 [17]
00000000: 039e 2441 6292 4441 3780 6e41 615e 8941
00000010: fdaf 8d41 9381 8441 56b4 5841 926c 3041
00000020: b955 0e41 f409 b640 5c36 fa40 98cc 6b40
00000030: f0cc ed40 911d 9d40 dc3e 5141 101f 1d40
00000040: abc8 f1be
10.288577 12.285738 14.906302 17.171083 17.710932 16.563269 13.544027 11.026506
8.895928 5.688715 7.8191357 3.6843624 7.431267 4.909859 13.077847 2.455021
-0.4722341

network_body._body_endoder.seq_layers.0.weight f4 [128, 17]
00000000: 88c5 b9bd 440c 36be e9e1 ab3d 2caa 49be
00000010: b949 b6be 491a 463e 487f f5bc 650d 62bb
00000020: 17cc a5be 106b 92be fe52 013e 8d43 d8bd
00000030: 2e2e c5be 8f4c 7d3e 37ef 48be ce28 2f3d
00000040: 3969 9c3d 8573 ac3e 6762 49be e030 e83c
00000050: e22c 96be 393a 45bd e15c 68be acfe a63d
00000060: a462 013f 641f b6bb b91d 0fbf c6c1 3abe
00000070: e95a a1be 14fa cf3d 9f15 91be 3b2f 973e
00000080: 2bb6 4f3d 1062 a0be 12e1 af3e 523d 933e
00000090: 8334 1dbf 03b3 e6bd c5db 563c 618e fcbd
000000a0: 918c 61bc 9e5b a13e 3362 31be 3d80 673e
000000b0: d33e b9bd 5b25 fbbd 199f de3c 2026 983e
000000c0: 4abc cd3d 02ca 3abe 68c4 36be af8c 06be
000000d0: 2629 bcbe 8225 913e 257f 3c3d 4c26 c3bd
000000e0: 4af3 6a3e a59e 7e3d 6e03 1a3e 406a 1d3e
000000f0: ce9f d5be 3d0e 803d f51b 80bd 5392 60bd
00000100: d3d9 bf3e 8c5c eebd eec9 1bbf 1120 ddbe
00000110: 70a2 afbd 1b0c 4b3e 0ca4 cf3e 5339 9d3e
00000120: 7f52 18bd 33b6 913e 8ce3 dfbd a30b 0f3d
00000130: fa87 fbbc cd03 173e 3c6d e3bd 30ad 80bd
00000140: a6df 763e 48fa 5d3d 1102 a1bd fdf0 c7be
00000150: dfd5 323d 8b0f c63d 4a53 70be 1aa2 d93e
00000160: 12a4 d9bd 7536 7abe 6e5f 963e 410a 07be
00000170: f242 89be dd6e d8bc e050 63be 102d 843e
00000180: fa88 87be c40f e1be eb0c c1be be70 a93e
00000190: 0102 c13c 4fd2 be3d da4a 353e c99d 9ebe
000001a0: b351 583d ca5f f2be 7f67 7abe e9cf 1b3d
000001b0: 0d9f 88be 9d3b c4bc 81ee dd3d feaa 66be
000001c0: f7ad 07be 6b3e 9c3d 275f 56be 96f6 8d3d
000001d0: 9c69 02be d3df 2a3e 201c 0fbe ee5a 48be
000001e0: 28ec 26be a8b9 05be 23d4 203e dfab 933e
000001f0: fe5a c33d eb46 9ebe 402c 2f3e 0607 ed3d
00000200: 559b c3bd bfb7 20bf d24b bcbe 9e47 a5be
00000210: 2280 b43c 4bb5 4bbe 4aa2 9d3e 8c65 bf3d
00000220: 85dc 693d c7e2 78be c391 b63e ef98 d4be
00000230: 12bf c7bd bc87 4e3c 9dbc b3be 4a99 92be
00000240: bcc7 babd 6955 8cbd 37ee d43e 233f 1dbe
00000250: 2dbe b13e 3b2f 1ebf e9e4 f63b 2191 543e
00000260: 9d4e 86be 361c ab3d dfe7 a23d 73ba ccbe
00000270: bd77 b13b 8ae2 223d c39a f33c fd08 e83d
00000280: 923c 9fbe 0319 28bd 41f8 333e 6f51 0c3e
00000290: 2660 18be 1203 033f 37c9 dbbe fe01 36be
000002a0: ff1a 64bd b5fb 923d 572f 863e 1c17 c0bd
000002b0: 3c64 92bd abcc a63c 8a86 b0bb 7462 24bc
000002c0: 0e27 a03e fe65 5f3c 0163 2b3d a594 b13d
000002d0: 3a78 a43d 1268 b4be b2f2 023d 614c c83e
000002e0: 54ef 45be 2346 d1be 67ea aa3e f4f6 913e
000002f0: 812f 293f 12a6 47bd d561 6ebe 2549 9b3e
00000300: e109 dcbe cbad c03d 1a14 83be 697c 8e3e
00000310: 92f4 c3be d699 dbbe af60 3f3e 1476 92be
00000320: 8cb8 4ebe 4282 2f3e 5222 d4bd 202e bfbe
00000330: 8982 9bbe 2375 86bd 2c45 5d3e 50c9 b6be
00000340: ce19 2b3e f632 cf3e e7ab 023e 4c57 6cbd
00000350: 9575 743c d41e edbd f9a3 b1be 1140 27be
00000360: 97ac 64be aaa7 83bd 94ef 18bd ef44 853e
00000370: 7611 33bd aa6e 56be b78e 3f3e 76f0 773e
00000380: dedd d5be a4a3 6d3e edbe 573e e09b 1b3e
00000390: f7ff cd3d 9537 b2bd 3103 f3be f8ef 2abf
000003a0: d302 c93e 7ba5 b8bd 82b8 37bf fce9 dc3c
000003b0: 3e3a 763d 2932 043e a652 2abe 23c7 1d3e
000003c0: 433f fa3d a6c9 85be 76c6 153e 2c4e 45be
000003d0: 5f1d ac3d 960e 6abe 3753 e3bc de7e 1f3c
000003e0: 1c6d 44be 3a03 bb3e c8c5 14bf 1917 a1bc
000003f0: 662f 443e a3e7 5a3f b20e 273f d25a a5bc
-0.09070879 -0.17778116 0.08392698 -0.19693822 -0.3560312 0.19345964 -0.029967919 -0.0034492847
-0.3238227 -0.28597307 0.12629315 -0.10559759 -0.38511795 0.24736236 -0.19622503 0.042763524
0.07637257 0.33681884 -0.19666444 0.028343618 -0.29331118 -0.04815123 -0.2269168 0.081540436
0.5054114 -0.0055579413 -0.5590473 -0.18237981 -0.3151467 0.101551205 -0.28336808 0.2952822
0.05071084 -0.31324816 0.34351403 0.2875772 -0.6140825 -0.112646125 0.013113921 -0.12331844
-0.013766424 0.3151521 -0.17322616 0.22607513 -0.09045186 -0.12262984 0.027175473 0.29716587
0.10045679 -0.18241122 -0.1784836 -0.13139604 -0.36750144 0.2834893 0.046019692 -0.09528789
0.2294437 0.062163014 0.15040371 0.15372562 -0.41723484 0.06252716 -0.062553324 -0.054827046
0.37470874 -0.11638746 -0.60854995 -0.43188527 -0.08575904 0.19828837 0.40554845 0.30707797
-0.03718805 0.2845932 -0.10932073 0.034923207 -0.030704487 0.14747544 -0.11104819 -0.06283033
0.24108753 0.054193765 -0.07861722 -0.39051047 0.043660995 0.09670933 -0.23469272 0.42506486
-0.10626997 -0.24434836 0.29369682 -0.13187505 -0.26808888 -0.026420051 -0.2219882 0.2581563
-0.26471692 -0.4395734 -0.37705168 0.33093828 0.023560526 0.09317457 0.17704335 -0.30979756
0.05281229 -0.47338706 -0.24453543 0.038040075 -0.26683846 -0.023954207 0.10836507 -0.22526166
-0.13249956 0.07629093 -0.20934735 0.06931798 -0.127356 0.16686945 -0.13975573 -0.19565937
-0.16301024 -0.13059103 0.15705924 0.28842065 0.0953884 -0.3091348 0.17106724 0.11573605
-0.095511116 -0.62780374 -0.36776596 -0.32281202 0.022033755 -0.19893377 0.3078788 0.093455404
0.05709507 -0.24305259 0.35658082 -0.4152293 -0.09753241 0.012605604 -0.35104838 -0.28632575
-0.091201276 -0.06852228 0.41587994 -0.15356116 0.34715405 -0.6179082 0.0075346124 0.20758487
-0.26231852 0.0835499 0.07954382 -0.39986 0.0054158852 0.039766826 0.029736882 0.113298394
-0.311009 -0.041039478 0.1757517 0.1370294 -0.14880428 0.5117656 -0.42926952 -0.17774197
-0.055689808 0.071769156 0.26207992 -0.09379408 -0.071480244 0.020361265 -0.005387132 -0.010033239
0.31279796 0.013635157 0.041842464 0.0867093 0.08030744 -0.3523565 0.031969734 0.39120772
-0.19329578 -0.40873823 0.3338196 0.28508723 0.6608811 -0.04874236 -0.23279507 0.30329242
-0.42976287 0.094081484 -0.25601274 0.27829292 -0.3827253 -0.42890805 0.18689226 -0.2860571
-0.20187587 0.17139533 -0.103581086 -0.37339878 -0.30373028 -0.06565311 0.21608418 -0.35700464
0.16709062 0.40468568 0.12760888 -0.05770044 0.014920612 -0.115781456 -0.34695414 -0.16333033
-0.22331463 -0.06428464 -0.037337855 0.26029155 -0.043717824 -0.20940652 0.18706785 0.24212822
-0.41770834 0.23206955 0.21068926 0.1519618 0.10058587 -0.08702008 -0.47463372 -0.66772413
0.39259967 -0.09015938 -0.7176591 0.026967041 0.060114138 0.1290976 -0.1663309 0.15407996
0.122190975 -0.26130408 0.14626488 -0.19268101 0.084040396 -0.22857127 -0.02774964 0.009734837
-0.19182247 0.365259 -0.5811429 -0.019664334 0.19158706 0.855097 0.652568 -0.020184908

network_body._body_endoder.seq_layers.0.bias f4 [128]
00000000: fa9c a03c e8bf 2f3c ddb1 ab3c aa34 893c
00000010: 05fd 733b 93a3 993c 11f7 693c 76cf a23c
00000020: 9d78 8b3c 6f67 ab3c 7075 a73c 53ca 4bbc
00000030: 3f95 8d3c aa9e 263c ad15 06bc eb7d 51bb
00000040: d29e a43c 1356 793c ce58 bfbb 9e2a 8dbc
00000050: a674 933c 322e 55bc af58 b0bc f874 953c
00000060: 59f8 a1bc a0a5 6bbc 7514 963c e8bf 8e3c
00000070: b5f5 9cbc 62a7 02bc ba17 20bc 6b01 9c3c
00000080: fa1d 2abc c6c2 87bb 921b b83a 1c19 b13c
00000090: 3f0b 9e3c b0f9 9cbb 5341 87bc 9e2b 26bc
000000a0: 83f1 b1bc 598d ad3c d20d ac3c f75f a63c
000000b0: 374d b4bb 6691 673c 765c 01bc 9a1d 553a
000000c0: 4cc2 a63c 0253 a43c f268 b13c a75e 14bc
000000d0: a082 8bbc 2b9a 903c 783f 883c 537c 30bc
000000e0: 1fed 093c e9e5 99bc c248 1e3b 5aad 853c
000000f0: 22f6 993c 215a 9a3c 6b47 b83c 5d0a 73bc
00000100: 6651 abbb 106d 7cbc 08d2 833c 774f b83c
00000110: 5e39 dc3c 6328 f5bb 44bd 853a 0c4d 963c
00000120: 97a4 9abc d3f7 803c d0f6 7fbc 2a7d 9e3c
00000130: 9563 82bc a3ea 993c 2f3a 813c 9738 713c
00000140: 084a a73c 0e50 823c b5de 983c f4ce 803c
00000150: 566b 63bc af54 8cbc 5750 91bc 3b9c a03c
00000160: 5085 88bc 6a6a f3bb ca6b 993c c3f5 883c
00000170: 6ab6 80bc efd0 46bc c5af ea3b 9772 9d3c
00000180: 2ff8 bdbb 8cbe 14b9 f2ab 853c eba3 cebb
00000190: 966f 7bbc 2ed4 91bc 2e08 923c d3a0 893c
000001a0: 030e a13c ae0b 52bc 12e2 853c 55a3 23bc
000001b0: ed4f 43bc beaa 81bc 4ed5 9fbb a465 b03c
000001c0: a5c2 9ebc db6a b43c d24f ce3b bc68 8d3c
000001d0: 0466 2abc 8f1e 10bb f330 81bc 7339 693c
000001e0: 7730 98bc 60b2 64bc 4d8c 893c 0a7f 9f3c
000001f0: 6bda 9a3c 2587 9a3c 8c28 a13c c11f 653c
0.019606102 0.010726906 0.020958835 0.016748745 0.0037229669 0.018754756 0.014280097 0.019874316
0.017025286 0.020923344 0.02044174 -0.012438375 0.01728308 0.010169664 -0.008183879 -0.0031965922
0.020095263 0.015218276 -0.0058394438 -0.017232236 0.017999958 -0.013011502 -0.021526663 0.018244252
-0.019771742 -0.01438275 0.018320302 0.017425492 -0.019160131 -0.0079744775 -0.009771282 0.019043645
-0.0103831235 -0.004143092 0.0014046303 0.021618418 0.019292472 -0.0047905073 -0.016510641 -0.010142235
-0.021721607 0.021185564 0.021002684 0.020309431 -0.005502369 0.014133787 -0.00789558 0.0008129716
0.02035632 0.020059112 0.021656487 -0.00905577 -0.01703006 0.017651638 0.016631827 -0.010771829
0.0084183505 -0.018786388 0.0024152254 0.016318012 0.018794123 0.018841805 0.022494992 -0.014834014
-0.0052282093 -0.015406862 0.016091362 0.02249883 0.026882824 -0.007481621 0.00102035 0.018347286
-0.01887731 0.015743172 -0.0156228095 0.019346792 -0.015916625 0.018788641 0.015774814 0.014722965
0.020421043 0.015907314 0.018660882 0.015723683 -0.013880571 -0.017130224 -0.017738504 0.019605746
-0.01666513 -0.007428457 0.018728156 0.01671875 -0.015711982 -0.012134775 0.0071620666 0.01921968
-0.005797408 -0.00014185364 0.016317341 -0.0063061616 -0.015346428 -0.01780137 0.017826166 0.01680032
0.019660002 -0.0128201675 0.01634315 -0.009987672 -0.011920911 -0.015828487 -0.004877723 0.021532841
-0.019379923 0.022023609 0.0062961364 0.017261855 -0.010400299 -0.002199087 -0.015770411 0.014234888
-0.018577797 -0.013958544 0.016790533 0.019469757 0.018902978 0.01886327 0.019672655 0.0139846215

network_body._body_endoder.seq_layers.2.weight f4 [128, 128]
00000000: 6e00 e23b 7814 003d 718a 95bc 67d6 533c
00000010: 032d 6e3e e04b 933d c8d4 053e f04c 02be
00000020: 6492 d33c 89b9 2a3e 53fa 9c3d 3ed0 73bd
00000030: 18b3 e0b7 6b22 23be 46e1 babd ba7e 983c
00000040: a3b3 5ebd f168 69be 4e6f 113b e180 35be
00000050: 68b9 ba3c 87cc 45be 517c 20bd 821d babd
00000060: 7856 8ebd ac67 4b3e d78a 51bc 8a79 3a3e
00000070: ac74 c73d 7bcf c9bc 28a5 a43d 2be3 8fbc
00000080: 26cb 353e 16ac 32be 62d9 4b3d 95f6 c5bd
00000090: f84b 41bd 0864 6abc 21e2 93bd 76fb 3e3e
000000a0: dfca 313c 6e4b a93d 94b2 c9bd e049 76bd
000000b0: db77 b53c 31d9 cabc 6aa0 c8bd 0654 ee3d
000000c0: 0637 983c 70b0 563e c289 42bd 7e88 45bd
000000d0: 90fc 753d f3f3 00be f8d4 6f3d 9c1e 243d
000000e0: c8cf 82bd ae6c edbd a096 2a3d ad5b 09be
000000f0: ce1d 543e 9dcf 0f3e 4bb2 373e 5d14 28bd
00000100: 145e a33d 4687 7fbd f0ea 49bd 9107 d13c
00000110: c6dd 853d fc8f 5e3e 0911 753c 6764 de3c
00000120: 91f0 2cbd 4fc2 70bc 175f 8c3e db23 013c
00000130: 3874 81bd b020 fbbd 0ce5 a53d dd21 033e
00000140: cabe 06bd be7d abbd 3dce 143e e266 533d
00000150: b8a8 2dbe f06b 0a3e b8f2 7fbd e1db c63d
00000160: b059 adbd 87ff 213d a165 5fbc 6eee 82bc
00000170: ef12 243e c698 94bd 4072 c4bd 4a26 04bd
00000180: 4299 d43b faa2 2abd 7013 1d3e 7223 4e3c
00000190: c694 ab3c 6d0b c5bd 686b 15be a8be 2e3d
000001a0: 2049 573d b5e4 5c3d 5465 c23d 2175 cf3d
000001b0: b573 ec3d 837b b4bc b565 6fbb 7507 893d
000001c0: 7e3a 963d e252 feba 025f 06bd e73c b23d
000001d0: 88d3 84bd 830a f7bd d5a7 14be ba13 803d
000001e0: c90b 24bc ed65 11bd 38a0 e6bd 3bfe 8f3d
000001f0: be91 4f3b 634e 1a3e 567e f03d 2a27 60be
00000200: 3efc a53c 9981 febd 8f21 0bbe 24dd 3ebc
00000210: 91ad d03c dee9 403c 3a12 00bc cba0 1cbd
00000220: b606 133e a112 fdbc a3e9 933d c7d9 c63d
00000230: 4d6e abba 0951 e23d fb19 49bd 3a14 8e3c
00000240: a65f 6c3e 5ed2 9b3c fe6a 0fbe 78d2 043d
00000250: fc17 383d 5c23 8d3b 6723 b63d 8f0c a8bd
00000260: 9884 c83c 363a 193d 7bdf 71bd 3884 36bd
00000270: 5b80 4c3e cdfe 5fbe c6b7 033c c00b 24be
00000280: 1d01 873d 0186 d1bd 7491 123e 8725 31be
00000290: af40 803d a470 1dbe 47cb 283d 6114 1abe
000002a0: 73bb b9bd 5b0e 6fbc 0bc3 f23c d906 28bd
000002b0: 5cf7 d0bd 7e06 b6bd c127 e23d 6107 cd3d
000002c0: bccb dd3d ece5 303e 8df2 803d 0a99 5b3d
000002d0: be54 52bd 3533 93bd 16ae 703d 555b 713d
000002e0: 790c f53d 04b2 a7bd 5adb c53d 1a0c 583e
000002f0: 13b0 583b c987 c93d 73fb b53d a285 273e
00000300: d4d7 db3d 60e9 77bd fe63 09be 3a43 133e
00000310: ade2 29bc 471c 0abc 09a7 99bd 4646 52bb
00000320: ea0f 4e3e 68df 2d3e 329f f43d 0d0e 2c3d
00000330: 2f98 edbd db9c 823e acf8 dc3d 4048 103e
00000340: 1770 81bd 1af0 d1bb e702 c03c 92f9 e73d
00000350: 5628 fabd 50f1 303d 7997 d23c 93fd 893d
00000360: d338 4d3d cfe1 0b3e 183f 51bd 9fba 7ebd
00000370: 20f4 1ebd 3078 b2bd c871 d1bd f62b de3d
00000380: b880 dcbd 6f1a 9e3d 28f4 7d3c e8db 7dbd
00000390: 5f81 c73d d5fd 143c dc3f e3bc e1f2 05be
000003a0: 4d3f 5d3d c443 d23d ee82 19bd cc90 07bd
000003b0: 640e 5d3d 3b5d 92bc 573e 003e 3f1b 253c
000003c0: e82d 923d 5467 95bd 2d21 993b 4f52 0e3c
000003d0: 42e5 223e 28e1 c23d 9730 b2bc ab62 163e
000003e0: 9b4d 9a3d 62e9 c03d caba c7bc aad7 dd3c
000003f0: 4fe6 153d a2c6 3c3e 2c2e e4bd 5744 8abc
0.006897024 0.03126952 -0.01825449 0.0129295355 0.23259358 0.071922064 0.13069451 -0.12724662
0.02582664 0.16672339 0.07664933 -0.059524767 -2.6786278e-05 -0.15931098 -0.09124999 0.018615115
-0.054370534 -0.22793938 0.0022191587 -0.17724945 0.022793487 -0.19316302 -0.039181057 -0.090876594
-0.06950086 0.19863766 -0.01278945 0.18210426 0.0973905 -0.024635067 0.080393136 -0.017564377
0.17753276 -0.17448458 0.04976786 -0.096661724 -0.04719159 -0.014306076 -0.07220865 0.18650612
0.010851591 0.0826634 -0.09848514 -0.060129046 0.022151878 -0.024761768 -0.097962216 0.1163712
0.018580925 0.20965743 -0.047494657 -0.048225872 0.060055315 -0.12593059 0.058552712 0.040068254
-0.063872874 -0.11592995 0.041647553 -0.13413878 0.20714495 0.14044042 0.17939107 -0.041035045
0.07976928 -0.062384866 -0.04929632 0.025516303 0.065364406 0.21734613 0.014957675 0.027147485
-0.04222161 -0.014694764 0.27416298 0.007882084 -0.06320995 -0.12262094 0.08100328 0.12805887
-0.032896794 -0.08373593 0.14531799 0.05161179 -0.16958892 0.13517737 -0.062487334 0.09709907
-0.08464372 0.03955033 -0.01363507 -0.015982833 0.16022848 -0.07255702 -0.09592104 -0.032263078
0.0064879963 -0.041659333 0.15339446 0.012581693 0.020944964 -0.0962132 -0.14591753 0.042662293
0.05255997 0.05392905 0.09491983 0.101297624 0.11545507 -0.022031551 -0.0036529128 0.066908754
0.07335375 -0.0019403363 -0.03280545 0.087030225 -0.06485659 -0.12062552 -0.14517148 0.062537625
-0.010012575 -0.035497595 -0.11261028 0.070309125 0.0031672562 0.15068965 0.11742847 -0.2188994
0.02026188 -0.124270625 -0.1358702 -0.011649404 0.025473388 0.011774508 -0.007816846 -0.03823928
0.14358029 -0.030892672 0.07222297 0.097095065 -0.0013079137 0.110506125 -0.049097043 0.01734363
0.23083362 0.01902121 -0.14005658 0.03242728 0.04494475 0.0043071937 0.08893471 -0.0820552
0.024477288 0.03740903 -0.05905102 -0.044559687 0.19970839 -0.21874543 0.0080394205 -0.16020107
0.06592009 -0.10230637 0.14313298 -0.17299472 0.062623374 -0.15375 0.041209485 -0.15046836
-0.09068956 -0.014590825 0.02963402 -0.041022155 -0.1020343 -0.08887957 0.11042739 0.10011173
0.10829875 0.17275208 0.06296263 0.053612746 -0.051350348 -0.07187501 0.05875977 0.05892499
0.119652696 -0.08188251 0.096609786 0.21098366 0.0033063933 0.09840352 0.08885851 0.1635957
0.10734525 -0.060525298 -0.1341705 0.14381114 -0.010368985 -0.008429593 -0.075025626 -0.0032085343
0.20123258 0.16979754 0.119444266 0.042005587 -0.11601292 0.25510296 0.10789618 0.14090061
-0.063202076 -0.006406796 0.023438884 0.11326899 -0.12214725 0.043198884 0.025706993 0.067378186
0.05010302 0.13660358 -0.05108556 -0.062189694 -0.038807034 -0.0871433 -0.1022678 0.10848229
-0.10766739 0.077198856 0.015500106 -0.061977297 0.097414725 0.009093721 -0.027740411 -0.13080932
0.054015446 0.102668315 -0.03747838 -0.033097073 0.053968802 -0.017866721 0.12523781 0.010077297
0.07137662 -0.07295099 0.0046731443 0.008686616 0.15907767 0.095156014 -0.021751685 0.14686076
0.07534333 0.09419514 -0.02438106 0.027080376 0.036596593 0.18435147 -0.11141619 -0.01687829

network_body._body_endoder.seq_layers.2.bias f4 [128]
00000000: adde 973c 4d22 a73c c0df 8e3c 4823 943c
00000010: f193 bfbc 2129 91bc ec76 683c 4129 87bc
00000020: 9e0b 783c 5243 7ebc a0a4 90bc 1bcc 99bc
00000030: 1771 a63c 6f59 b8bc c133 a43c 8819 9bbc
00000040: 87e1 97bc fdd8 6fbc 2896 8b3c b533 2fbc
00000050: 7bdb a43c 093c 12bc b911 613c 5844 333b
00000060: 5c2d 9abc 6b35 a5bc 754e 7a3c 67f5 a23b
00000070: 6e5f 943c 4eda 0eba 2f2a 91bc ae22 9a3c
00000080: 99d1 84bb c391 593b 2cc9 8cbc e740 923c
00000090: 8431 97bc 4d91 a7bc 3ea6 613c c745 60bc
000000a0: d4d0 7d3c 4ce9 a53c d44e 923c e24c 493c
000000b0: c91b c8bb a8e8 483b ba4c 6dbb 824b a63c
000000c0: 93b7 a93c adbd 273c 432f 993c 5a38 85bc
000000d0: f672 aa3b dd5a 9bbc 1512 a7bc ad2d 953c
000000e0: 835f 003c 98f3 983c ed50 47bc 3d8f 603c
000000f0: b815 99bc 84c0 a5bc d548 8f3c 6fe4 a83c
00000100: c778 a83c 31dd aebb 11e4 eebb 7f34 a53c
00000110: 96e7 8e3c 48af 9ebc e4d3 8d3c 07c5 72bc
00000120: d9b1 2cbc 8e8e a1bc bf88 80bc 61f0 9e3c
00000130: 7ad7 92bc 3236 c3bc 581a 91bc a056 85bc
00000140: ca7d 9fbc a197 aebc 3979 b03c bcba 893c
00000150: 924f 94bc 1943 6dbc 1e74 813c 96ba 9a3c
00000160: dbb4 80bc c074 99ba 9b62 9d3c 3bf6 62bc
00000170: e06c 893c 559a 6abc 2496 a8bc 3635 93bc
00000180: 1eca 5cbc 61b7 963c a1b7 bbbb 2193 7f3c
00000190: 3a02 21bc ee2a 953c e747 983c c28a 8a3c
000001a0: eadd 923c f00c 903c 700b 7e3c 7031 523c
000001b0: 167c b33c b7c9 86bc 239b 723c fad2 a63c
000001c0: 05b1 6f3c 3ac6 a23c f657 95bc cb7b a13c
000001d0: e9e9 92bc 8829 70bc 7fa8 88bc ac88 843c
000001e0: 2e3f 9d3c 42aa bbba 06bb c23b 757f 893c
000001f0: 773d b33b 7ce8 993c 8c3a 1dbc 4186 2fbc
0.018538797 0.020402098 0.017440677 0.01808323 -0.023385974 -0.017719807 0.014188509 -0.016499164
0.0151394885 -0.01551898 -0.017656624 -0.018774083 0.020317597 -0.022503583 0.02004421 -0.018933073
-0.018540157 -0.014639136 0.017039374 -0.01069348 0.020124188 -0.008925446 0.013737136 0.0027353968
-0.018820457 -0.020167073 0.015277495 0.004973102 0.01811191 -0.00054494 -0.01772031 0.018815365
-0.0040533063 0.0033198453 -0.01718577 0.017853213 -0.018456228 -0.020455027 0.013772545 -0.013688511
0.015491683 0.020252846 0.017859854 0.012286397 -0.006106828 0.0030656252 -0.0036209063 0.020299677
0.020717418 0.010238093 0.018699294 -0.016262222 0.0052016927 -0.018964225 -0.020394364 0.018210256
0.007835272 0.018670842 -0.01216529 0.013706026 -0.018687114 -0.0202334 0.017490784 0.020616738
0.020565404 -0.0053364267 -0.007290371 0.020166634 0.017444413 -0.01937069 0.017312951 -0.014817483
-0.010540449 -0.019721296 -0.015690206 0.019401731 -0.017925013 -0.023829553 -0.017712757 -0.016276658
-0.01946916 -0.021312537 0.021542178 0.016812675 -0.018104348 -0.014481329 0.01580244 0.0188878
-0.015711239 -0.0011707768 0.019212058 -0.013852651 0.016775548 -0.014319022 -0.020579405 -0.017969709
-0.013475923 0.018397989 -0.0057286774 0.015599043 -0.009827191 0.018208947 0.018588973 0.016911868
0.017928082 0.017584294 0.015505657 0.01282917 0.021909755 -0.016453607 0.014807495 0.020364273
0.014629607 0.019869912 -0.01823042 0.01971235 -0.017933803 -0.014658339 -0.016681908 0.016178451
0.019195165 -0.0014317709 0.005942705 0.016784409 0.0054699737 0.018787615 -0.009596478 -0.010713161

action_model._continuous_distribution.log_sigma f4 [1, 2]
00000000: f509 4bbc 0299 eebc
-0.012392511 -0.029125694

action_model._continuous_distribution.mu.weight f4 [2, 128]
00000000: 3fdc 6cbc c2c3 173a b064 923b e400 94bb
00000010: fcbe 51bc 2929 9d3c 712e 0a3c f472 e8bc
00000020: a657 7abc 1fc6 633c 1671 94bc 548c 2bbc
00000030: 12b6 7c3c 41f8 3bbb 7665 80ba febe 6bbc
00000040: 722e 3bbb 7906 4e3b d3b6 89bb bb87 313d
00000050: 8c6a 9b3b b3bd 0a3d 1f2b 033d 0175 243c
00000060: cff2 81bc ae96 0ebd d2a0 e1bb a4b0 983c
00000070: 4f42 3cbb 0da6 96bc e1ab 03bb 9e0a e43b
00000080: b6ef a53c 6fff c1bc 2370 97bc 651d 9f3c
00000090: 36a0 2d3c 8b11 4dbc 60fd a63c 3d11 c1bc
000000a0: dd8f 043b 54c5 dabc 4808 f73c b887 2c3d
000000b0: a424 96bc 641b b0bc ecf3 fc3c 8391 abbc
000000c0: 93de f03b afc4 0f3a 06f8 bf3c 8370 823c
000000d0: 7c20 0b3d e014 65bc 869b 44bc f8c4 be3c
000000e0: b165 d43c 5a93 153c b13e cb3b 0551 54bd
000000f0: d873 41bb ab2e a73c 4736 6fbc a5d2 d93a
00000100: f089 cdbb bca9 acbc 1e2b ffbc 24c6 583a
00000110: 0d76 863b e1c3 dc39 f998 b6bc 08d6 43bb
00000120: c26d 673c 2a7f debc d093 783c d337 5f3c
00000130: 56e4 1ebc 44e3 83bc c42d 62bc 2cb0 d4bc
00000140: 0496 9abb d33a d4ba d859 36ba 2703 c1bb
00000150: d2b8 11bc 9353 043d 7208 e63c 9db2 843b
00000160: fd9e afbc fad1 073b a6e0 a1bc f3d8 2d3c
00000170: d314 453c 87ac 373c 2f47 fb3b 1638 91bb
00000180: e438 16bb d4a5 e2ba 7af5 90bb da48 013d
00000190: ff2b 383c 26ce 933c 51a2 efbc 3af9 7fbc
000001a0: 071b 2cbc 063d f0bc 37f8 4d3d 9619 163b
000001b0: af9a b53b 6a72 d8bc 5775 afbc 30d7 503c
000001c0: 43f4 e43c d451 f83c 642f b8bc 6c6e 403c
000001d0: d324 e03b b507 d8bc 8d5f a6bc 9ff4 c7bb
000001e0: 5579 72bc 9204 123d da21 423c 72e6 043d
000001f0: 2e50 6e3c c294 af3c 75c1 953c 70b5 d83c
00000200: e216 d73c 278e c43c 6662 063d d13d f33c
00000210: a61e c5bc 683d e6bc f516 af3b 76b6 4ebc
00000220: 139c 0f3c 2b5d 84bc 687f dbbc 75d8 18bd
00000230: cbf6 963c 5d1f d7bc 7e19 a83c 0066 09bd
00000240: 550d 5ebc ddbd f5bb f7b6 cc3c 049a ffbc
00000250: 8569 3c3d fc09 1ebc b1bd 2e3c fee6 7f3b
00000260: fdad 6ebc 7a8b 02bd 61c3 8a3c 5c32 72bb
00000270: 8074 c93c e45d 59bb af52 b7bc dc4e 893d
00000280: bf72 47bb 035b 61bb 6dfb 44bd e187 403c
00000290: e82a 30bd 0f2c edbc 092c 88ba 8d9c 0ebc
000002a0: 91c4 3b3b d111 233d 59e8 f73c 3b07 243c
000002b0: 9946 6a3b f456 da39 4a7e af3b 4511 193d
000002c0: d8b3 3e3d 33c0 463b a9e1 c63c 3f96 d2bc
000002d0: a454 43b8 cc6a a3bc 74c5 09bd 51d0 2f3d
000002e0: 83b9 0a3c 3914 993c b1c5 31ba 981d d53c
000002f0: f026 cabc 2e5a 64bd 3baa d33c d195 893c
00000300: 7bdb f63c c9bf b73a 78b5 14bc b5bc 273d
00000310: 1d38 d73c 3136 21bd 42e2 043d 5fd3 7cbb
00000320: e672 36bb cb3e 9abc 9522 8ebc 6b5b 973c
00000330: 2dfd d5bc 617e 97bc 2e1d 8bbc 665d 5cbc
00000340: a809 34bc 5b7e b2bc 7f40 be3c 4bd8 263c
00000350: 33b5 93bc eee9 12bd 50b3 f23b f194 f23c
00000360: 83c3 02bc 0dfe 803b bb1b cc3c 1420 8fbb
00000370: 949a 853c d766 baba 0a95 08bd fdcc f7bb
00000380: 67ef 56bc 04da 183d d252 aa3b 72f5 e53b
00000390: 4ef8 0cbb ffd3 9e3c 655b 163d b093 bb3c
000003a0: a0b9 863c fa3f 573d 3028 4c3c 6b1f e23b
000003b0: f260 f43c e823 9abc ed58 b43c 3b63 e33c
000003c0: ab17 5939 fefd 4f3d 331b babc 183b ba3c
000003d0: 4d38 d0bc 26a6 e2bb 2f57 77bd 4205 193d
000003e0: f8a8 da3c 1f2b 9abc a1c5 423b dcda 903c
000003f0: 651f 8b3c 103c e93c 1bdf 26bc 7c61 7bbc
-0.014456808 0.0005789363 0.0044675693 -0.0045167077 -0.012801882 0.019184666 0.008433924 -0.028375126
-0.015279686 0.013902216 -0.01812033 -0.010470469 0.015424268 -0.0028681906 -0.0009795863 -0.014388798
-0.002856162 0.0031436963 -0.0042027025 0.043342333 0.004742926 0.033872318 0.032023545 0.0100376615
-0.01586285 -0.034811668 -0.0068856264 0.018638916 -0.0028726046 -0.018389726 -0.0020091461 0.0069592735
0.020255905 -0.02368137 -0.018486088 0.019423196 0.010597279 -0.01251639 0.02038449 -0.02356779
0.002022735 -0.026705422 0.030155316 0.04212162 -0.018328018 -0.021497436 0.03087803 -0.020943409
0.0073507517 0.0005484325 0.023433696 0.01592279 0.033966526 -0.013982028 -0.01199997 0.023287281
0.025927396 0.00912937 0.0062025418 -0.05183508 -0.002951851 0.020407995 -0.014600343 0.0016618563
-0.006272547 -0.02107703 -0.03114849 0.00082692713 0.004103428 0.0004210761 -0.02228974 -0.0029882211
0.014125289 -0.027160246 0.01517196 0.013624149 -0.009697994 -0.01609958 -0.013804857 -0.025962912
-0.0047175903 -0.0016191847 -0.0006956137 -0.0058902684 -0.008894162 0.032306265 0.028080199 0.0040496127
-0.021438116 0.002072452 -0.019760441 0.010610807 0.012028891 0.011210567 0.007668398 -0.004431735
-0.0022922093 -0.0017291852 -0.0044237943 0.031563617 0.011240958 0.018042635 -0.029252203 -0.015623385
-0.010504491 -0.029325973 0.050285544 0.0022903434 0.0055421214 -0.026421744 -0.021418257 0.012746617
0.027948504 0.030312456 -0.022483535 0.011745077 0.0068403273 -0.026370862 -0.020309234 -0.006102159
-0.014799436 0.03564889 0.011848891 0.032446332 0.0145454835 0.021433238 0.018280724 0.026453704
0.026256029 0.023993565 0.032808684 0.029692562 -0.024062466 -0.028105453 0.005343313 -0.012616744
0.008765238 -0.016157707 -0.02679415 -0.037315805 0.018428227 -0.026260072 0.020519968 -0.03354454
-0.013552983 -0.00749944 0.024989588 -0.03120137 0.04599907 -0.009645935 0.010665343 0.0039047594
-0.014567849 -0.031871296 0.016938867 -0.0036956286 0.024591684 -0.0033167535 -0.022378294 0.06704494
-0.0030433384 -0.0034386523 -0.04809134 0.011751146 -0.04300967 -0.028951673 -0.00103891 -0.008704317
0.0028651098 0.039811913 0.03026216 0.0100114895 0.0035747646 0.00041644985 0.005355631 0.037369985
0.04655823 0.0030326962 0.024277525 -0.025706409 -4.657045e-05 -0.019948386 -0.03363557 0.042923275
0.008467081 0.0186864 -0.00067814725 0.026015088 -0.02467677 -0.055750065 0.025838008 0.01679507
0.030133953 0.0014018948 -0.009076469 0.04095145 0.026271874 -0.03935832 0.03244234 -0.0038578135
-0.002783948 -0.01882877 -0.017350474 0.018476209 -0.0261217 -0.01849288 -0.016981687 -0.013450002
-0.01098863 -0.021788767 0.023224114 0.010183404 -0.018030738 -0.035867624 0.0074066296 0.029612036
-0.007981184 0.003936535 0.024915567 -0.0043678377 0.01630906 -0.0014221322 -0.03334526 -0.0075622783
-0.013118601 0.03731729 0.005197861 0.0070177848 -0.0021510306 0.019388197 0.036708254 0.022897571
0.016445935 0.052551247 0.012460753 0.006900718 0.029831383 -0.01881595 0.02201506 0.027757278
0.0002070355 0.050779335 -0.022718048 0.022733256 -0.025417471 -0.006916779 -0.06038588 0.03735853
0.026691899 -0.01881939 0.0029719847 0.017682485 0.016982744 0.028471023 -0.010185028 -0.015343066

action_model._continuous_distribution.mu.bias f4 [2]
00000000: 4739 083c dd4c 953c
0.008314437 0.018225128

onnx::Div_51 f4 [17]
00000000: c421 ab40 5431 c940 0b7a e640 b6e7 f940
00000010: 4c45 fb40 67a1 fb40 dddc f940 3c9f f540
00000020: e1ec e140 ea89 9140 a866 6f40 90c6 1c40
00000030: 7b83 7b40 aa53 8540 d06a cd40 3ed7 8040
00000040: e24b b73f
5.347872 6.2872715 7.202398 7.809535 7.852209 7.8634524 7.808211 7.675688
7.060166 4.548085 3.7406406 2.4496193 3.9299 4.166463 6.4192886 4.0262747
1.4320033
