results/test-14/Drive/checkpoint.pt (torch, 152034 bytes, 44 tensors)

network_body.observation_encoder.processors.0.normalizer.running_mean f4 [17]
15.936647 18.323425 20.508114 20.396744 19.082577 16.944267 14.416813 12.070997
10.084247 8.241902 11.415508 5.708618 8.273027 6.649185 16.120556 -4.153745
4.656107
00000000: 82fc 7e41 6096 9241 9e10 a441 882c a341
00000010: 1ea9 9841 dc8d 8741 44ab 6641 ce22 4141
00000020: 1359 2141 d5de 0341 eca5 3641 00ad b640
00000030: 525e 0441 20c6 d440 e6f6 8041 7beb 84c0
00000040: d4fe 9440

network_body.observation_encoder.processors.0.normalizer.running_variance f4 [17]
6.7225505e+06 5.703247e+06 4.4057975e+06 4.0535575e+06 4.3881905e+06 4.3347025e+06 3.5988482e+06 2.747351e+06
2.0078316e+06 1.5245238e+06 5.8944215e+06 471296.62 1.8606632e+06 771442.44 5.6536615e+06 4.748115e+06
4.6205235e+06
00000000: ed27 cd4a 9e0c ae4a 4b74 864a d668 774a
00000010: bdea 854a dd48 844a 01a8 5b4a 5caf 274a
00000020: bd18 f549 5e19 ba49 2be2 b34a 1420 e648
00000030: ba21 e349 2757 3c49 3b89 ac4a a6e6 904a
00000040: d701 8d4a

network_body.processors.0.normalizer.running_mean f4 [17]
15.936647 18.323425 20.508114 20.396744 19.082577 16.944267 14.416813 12.070997
10.084247 8.241902 11.415508 5.708618 8.273027 6.649185 16.120556 -4.153745
4.656107
00000000: 82fc 7e41 6096 9241 9e10 a441 882c a341
00000010: 1ea9 9841 dc8d 8741 44ab 6641 ce22 4141
00000020: 1359 2141 d5de 0341 eca5 3641 00ad b640
00000030: 525e 0441 20c6 d440 e6f6 8041 7beb 84c0
00000040: d4fe 9440

network_body.processors.0.normalizer.running_variance f4 [17]
6.7225505e+06 5.703247e+06 4.4057975e+06 4.0535575e+06 4.3881905e+06 4.3347025e+06 3.5988482e+06 2.747351e+06
2.0078316e+06 1.5245238e+06 5.8944215e+06 471296.62 1.8606632e+06 771442.44 5.6536615e+06 4.748115e+06
4.6205235e+06
00000000: ed27 cd4a 9e0c ae4a 4b74 864a d668 774a
00000010: bdea 854a dd48 844a 01a8 5b4a 5caf 274a
00000020: bd18 f549 5e19 ba49 2be2 b34a 1420 e648
00000030: ba21 e349 2757 3c49 3b89 ac4a a6e6 904a
00000040: d701 8d4a

network_body._body_endoder.seq_layers.0.weight f4 [64, 17]
-0.06150394 0.0063865692 0.08932186 -0.13536793 -0.16618922 -0.2798863 -0.4846949 -0.23349532
-0.26315928 -0.2666928 0.05460423 0.26459846 -0.1537839 -0.59718657 -0.45788392 0.02230555
-0.070375875 -0.017352186 0.3453318 0.11999502 -0.1681463 -0.063275106 -0.0052626096 0.15772207
-0.16801378 0.6852304 0.20963868 -0.089113496 -0.24538197 0.29314947 -0.26123253 -0.33461887
-0.22656183 0.40359357 -0.00058216974 0.087084986 -0.5089131 0.29021755 0.04232368 0.038997617
0.18233398 -0.4258435 -0.09769749 0.5069266 0.32356724 -0.24877456 -0.24956971 -0.14123084
-0.2662075 -0.3209556 0.095310345 0.11498487 0.051442154 -0.4480953 -0.0018548627 0.2474489
-0.10257628 -0.09270193 -0.056631632 0.1853467 0.1632191 0.008289564 -0.05980032 0.34621015
-0.6573859 0.3023044 0.16993076 -0.18173094 0.18397687 -0.21519199 -0.16676874 0.08490644
-0.8370046 0.715057 0.20000568 0.17755222 0.41969857 -0.066049315 0.045782477 0.14125672
0.4428601 -0.11515045 0.032696072 0.17888646 0.49970746 -0.041177362 -0.4173167 0.3007135
0.08772279 -0.4264733 -0.3191342 -0.25873178 0.12880103 -0.009066253 0.27339238 -0.11070347
-0.014829876 -0.33449998 0.124901064 -0.23925833 -0.5190932 0.046572912 -0.17813005 -0.010896933
-0.21873109 -0.033699006 -0.28219408 -0.17744145 0.17460063 0.47733432 0.12242367 0.04855179
0.18960474 -0.07932018 -0.43189347 0.026058862 0.15808699 0.23431873 0.044559624 0.16413979
-0.028527396 0.048675302 -0.22638468 0.13285273 0.5292692 0.023491502 -0.4314838 -0.12635395
-0.2037743 -0.039232295 0.34174973 -0.087856814 0.20821925 0.044594586 0.3097894 0.26493424
-0.23888597 0.17740455 0.3738479 0.057534732 0.40491813 -0.14114636 0.16367349 -0.06828117
-0.11938863 0.22224149 0.40592635 -0.38783947 0.2871111 -0.19554813 0.296557 -0.5826885
-0.20232904 0.37439787 0.19358942 -0.030378435 -0.22114995 0.2314082 -0.11356308 -0.4483621
-0.17707418 0.19651678 -0.038664315 0.4430868 -0.48166996 -0.25081626 -0.29271287 0.1475254
-0.03547968 0.3578508 0.568732 -0.29186767 -0.115906976 0.22051659 0.18102804 -0.31583446
0.011858947 0.072524704 0.08027329 0.40112445 -0.10831072 0.17028406 -0.07377812 -0.27985653
-0.07918274 0.05334439 0.14332727 -0.02125085 0.39375317 0.14857712 0.12006204 -0.22346795
-0.44494572 -0.42536944 -0.15179087 -0.14055495 0.2490452 -0.06069265 -0.13767 -0.29991293
0.36807597 -0.09867198 0.10860631 0.32806826 -0.038380794 0.26623267 -0.0018394735 -0.28240368
0.21200222 0.04350712 0.4508754 -0.3878874 0.17355834 -0.03778838 -0.045461312 0.14900412
0.67447376 0.14888771 -0.15084238 -0.2929088 -0.35215306 -0.056722175 0.14719279 -0.10146357
0.013440629 -0.23359905 0.29103458 -0.39324573 0.11979594 -0.0042829816 -0.42406657 -0.2814192
-0.3630087 0.3050907 -0.039108716 -0.19992794 0.12028314 -0.47526583 0.29749128 0.47909987
1.9874467e-05 -0.2976029 0.012742643 -0.062142532 0.06392322 0.24119984 0.42882827 -0.02925282
0.08528515 0.45761693 0.076168224 -0.43095353 -0.0136551 0.07183679 0.38788116 0.11633997
00000000: 8eeb 7bbd 6d46 d13b 61ee b63d e49d 0abe
00000010: 822d 2abe 424d 8fbe ee29 f8be 6619 6fbe
00000020: d0bc 86be f58b 88be afa8 5f3d 7379 873e
00000030: 8779 1dbe 38e1 18bf c36f eabe 21ba b63c
00000040: 3a21 90bd 2c26 8ebc 54cf b03e f3bf f53d
00000050: 8b2e 2cbe 6196 81bd f871 acbb e581 213e
00000060: ce0b 2cbe 426b 2f3f 86ab 563e 2381 b6bd
00000070: 6945 7bbe b017 963e 45c0 85be 2a53 abbe
00000080: d3ff 67be d1a3 ce3e c09c 18ba 9d59 b23d
00000090: 2148 02bf 6597 943e 985b 2d3d f7bb 1f3d
000000a0: c2b5 3a3e 2908 dabe 9f15 c8bd f1c5 013f
000000b0: 9baa a53e c2be 7ebe 348f 7fbe d19e 10be
000000c0: 594c 88be 4b54 a4be 1232 c33d 307d eb3d
000000d0: 02b5 523d bf6c e5be dd1e f3ba 3f63 7d3e
000000e0: 8313 d2bd 82da bdbd 92f6 67bd 86cb 3d3e
000000f0: e822 273e f4d0 073c 2ef1 74bd 7542 b13e
00000100: 714a 28bf a4c7 9a3e 5402 2e3e ad17 3abe
00000110: 6f64 3c3e 4a5b 5cbe 6dc5 2abe 6de3 ad3d
00000120: ef45 56bf fa0d 373f 4ace 4c3e 40d0 353e
00000130: bbe2 d63e dd44 87bd 6886 3b3d 9aa5 103e
00000140: 8fbe e23e 00d4 ebbd 51ec 053d 032e 373e
00000150: a8d9 ff3e 98a9 28bd 89aa d5be 1ff7 993e
00000160: 02a8 b33d b55a dabe 8f65 a3be 7e78 84be
00000170: 6be4 033e 9f8a 14bc 16fa 8b3e 80b8 e2bd
00000180: 02f9 72bc 9543 abbe 21cc ff3d 2300 75be
00000190: 4be3 04bf 3dc3 3e3d b967 36be 0d89 32bc
000001a0: 0bfb 5fbe f807 0abd be7b 90be 36b3 35be
000001b0: 82ca 323e 2a65 f43e 43b9 fa3d 3ede 463d
000001c0: bf27 423e 9e72 a2bd 2421 ddbe 6579 d53c
000001d0: 8ee1 213e 40f1 6f3e 2784 363d 4314 283e
000001e0: 49b2 e9bc c15f 473d 63d1 67be 8c0a 083e
000001f0: 307e 073f 4071 c03c 72eb dcbe ee62 01be
00000200: 36aa 50be 0bb2 20bd d2f9 ae3e 46ee b3bd
00000210: 6d37 553e d0a8 363d b79c 9e3e 76a5 873e
00000220: 869e 74be 8aa9 353e fe68 bf3e 8aa9 6b3d
00000230: 6e51 cf3e ac88 10be 069a 273e 00d7 8bbd
00000240: 0782 f4bd 4693 633e 94d5 cf3e e592 c6be
00000250: 3a00 933e c53d 48be 52d6 973e 132b 15bf
00000260: 582f 4fbe 14b1 bf3e 4e3c 463e 32dc f8bc
00000270: 2275 62be 45f6 6c3e c393 e8bd b88f e5be
00000280: ef52 35be b23b 493e 795e 1ebd 46dc e23e
00000290: 729d f6be fd6a 80be 76de 95be e610 173e
000002a0: 2453 11bd 3838 b73e 6c98 113f ae6f 95be
000002b0: a360 edbd 1acf 613e 6a5f 393e 0eb5 a1be
000002c0: 074c 423c d587 943d 5366 a43d 2f60 cd3e
000002d0: 03d2 ddbd f25e 2e3e fc18 97bd 5b49 8fbe
000002e0: 8f2a a2bd a67f 5a3d 62c4 123e 4316 aebc
000002f0: 049a c93e 9a24 183e 16e3 f53d c8d4 64be
00000300: edcf e3be 06ca d9be 116f 1bbe a3ed 0fbe
00000310: b405 7f3e db98 78bd 5df9 0cbe 308e 99be
00000320: 7474 bc3e 8914 cabd fc6c de3d 90f8 a73e
00000330: 2e35 1dbd a64f 883e 7d1a f1ba 3797 90be
00000340: 1c17 593e 8634 323d 24d9 e63e 2d99 c6be
00000350: 47b9 313e fdc7 1abd a435 3abd 8994 183e
00000360: 50aa 2c3f 0576 183e 6d76 1abe 24f8 95be
00000370: 684d b4be 8355 68bd b5b9 163e 22cc cfbd
00000380: 1536 5c3c 9734 6fbe 7c02 953e 8157 c9be
00000390: 9357 f53d 4158 8cbb 411f d9be 2d16 90be
000003a0: 47dc b9be d934 9c3e 7630 20bd e9b9 4cbe
000003b0: 0257 f63d 0b56 f3be c750 983e 944c f53e
000003c0: 18b8 a637 685f 98be 85c6 503c 2b89 7ebd
000003d0: 2dea 823d 17fd 763e 618f db3e 9ca3 efbc
000003e0: fba9 ae3d c44c ea3e 16fe 9b3d f1a5 dcbe
000003f0: a4b9 5fbc 2b1f 933d 5c98 c63e a643 ee3d

network_body._body_endoder.seq_layers.0.bias f4 [64]
0.062275562 0.024672609 0.0134396935 -0.067987435 -0.06420264 0.08148088 -0.008937274 0.06307872
-0.011815133 0.07406387 0.098204195 0.08929151 -0.017939052 -0.0006838531 0.074609965 0.091320686
-0.06368681 0.053099986 0.015454551 0.035648737 0.07588012 -0.07169923 -0.0671562 -0.094321154
0.051710404 0.05319629 0.025123006 0.05777948 0.01786425 0.01255932 0.06306715 -0.09530812
0.08975695 0.08665575 0.03802404 0.037416086 0.10595557 0.08677662 0.06816569 -0.025952183
-0.07297664 0.056726474 0.06642545 0.031477734 0.052506518 0.09480123 0.030626431 0.01378444
0.042424764 0.051921807 0.08354738 0.07108805 -0.050030075 -0.037486188 -0.07101928 0.034259833
0.017267413 -0.047470953 0.047364715 0.054717336 0.050717473 -0.042363435 0.022577757 0.018001666
00000000: a914 7f3d 361e ca3c 2932 5c3c ff3c 8bbd
00000010: ac7c 83bd 73df a63d a56d 12bc 6a2f 813d
00000020: 4294 41bc ccae 973d 481f c93d 78de b63d
00000030: ebf4 92bc 9b44 33ba 1ccd 983d 5706 bb3d
00000040: 3b6e 82bd 5f7f 593d 1635 7d3c 6904 123d
00000050: 0967 9b3d 0cd7 92bd 3189 89bd 732b c1bd
00000060: 4ace 533d 5ae4 593d c3ce cd3c 2daa 6c3d
00000070: 0c58 923c 9bc5 4d3c 5a29 813d e730 c3bd
00000080: 7ed2 b73d 9278 b13d 19bf 1b3d 9c41 193d
00000090: 3cff d83d f1b7 b13d 749a 8b3d ac99 d4bc
000000a0: c774 95bd 055a 683d 110a 883d ccee 003d
000000b0: 1311 573d 2627 c23d 48e4 fa3c 22d8 613c
000000c0: 97c5 2d3d f6ab 543d e41a ab3d 9d96 913d
000000d0: 56ec 4cbd 1e8b 19bd 8e72 91bd 0a54 0c3d
000000e0: 6474 8d3c e770 42bd 8101 423d 491f 603d
000000f0: 20bd 4f3d 4885 2dbd fdf4 b83c 3b78 933c

network_body._body_endoder.seq_layers.2.weight f4 [64, 64]
0.16181931 0.016689697 0.20593132 -0.030856326 0.040254865 0.029784337 0.15919408 0.059775215
0.11081721 -0.047343783 -0.094100595 0.08101401 0.15090151 -0.09435519 0.15138489 0.25934857
0.0397353 0.24975419 -0.023154687 0.2149761 0.07452096 0.08767451 -0.06079038 0.036249116
-0.005287282 -0.015937224 -0.03532742 0.05453569 0.18185773 0.035690915 0.08905613 -0.16816373
-0.0677569 -0.01689675 0.029775117 -0.0072664595 0.08552633 -0.081615746 0.0786416 0.13060395
-0.0877382 -0.14092292 -0.0871298 -0.037361324 0.011840075 0.14521447 -0.09292821 -0.13688193
-0.04635375 0.14104973 0.12365687 0.16947192 -0.055003643 0.068580806 -0.040948216 0.17497398
-0.019871727 0.046564832 -0.07935828 0.14039986 -0.01891922 0.12611325 0.107576735 0.0626085
-0.16126327 -0.095707856 0.01971299 -0.03896251 0.005095409 -0.112673424 -0.109087855 -0.019901004
0.12505561 -0.10365192 -0.055988163 -0.25356045 0.0902585 -0.19533867 0.101484194 0.014222944
-0.11767163 0.0717347 0.06134447 -0.01988089 0.10809768 -0.05147505 -0.034946274 -0.04160983
0.0684961 -0.04000369 -0.03977176 0.0663941 -0.12607814 0.15059397 0.13741784 -0.068885684
-0.14352563 -0.020757716 0.02124053 0.13135858 0.13795874 -0.07683128 0.061858814 0.16952075
-0.03207003 0.038999874 0.3179312 0.18568745 -0.019821147 -0.07557368 0.03162512 0.16290659
-0.077122495 -0.26343217 0.0135435 0.27168134 -0.07120964 0.089986056 -0.023480358 0.07586395
0.13601206 -0.18357724 -0.0891292 -0.00428808 0.11693075 -0.09746732 0.058981765 0.15917012
0.07722823 0.12948109 -0.1671116 -0.10827698 -0.26213273 0.10282125 -0.22020638 -0.13800138
0.026313052 -0.036542032 0.048978355 0.015269735 0.19267434 0.10867438 0.09446119 -0.24393857
-0.035609458 -0.19886756 -0.06352653 -0.20428976 -0.06151205 -0.061518557 0.07772467 0.2713148
0.023209458 0.2790209 -0.11109566 -0.118647814 -0.036206126 0.04242982 0.05325732 0.08830525
0.0959329 -0.03765534 -0.13426249 -0.04018861 0.10805045 0.033288326 -0.20366588 -0.10326817
0.06787906 0.030435044 -0.04410517 0.15703057 0.059015486 0.16446626 0.09528278 0.081999764
-0.02141244 -0.21750739 0.17017183 0.11073947 0.05569037 -0.13742281 -0.041957866 -0.10390733
0.083547786 -0.043041073 0.03304609 0.064867795 -0.1469467 0.29526985 -0.10065621 -0.16052108
-0.13507783 0.16194539 0.025206136 0.056004267 -0.09241299 0.23272951 0.08712677 -0.2572124
0.16367252 0.094881356 0.08378333 0.21341403 0.16786751 -0.234631 0.039166305 0.14178163
0.023480885 -0.21289858 0.099864885 -0.10350924 0.11487993 -0.120028324 -0.07417435 0.07392952
0.29125184 -0.16508989 0.16005465 0.041230842 -0.056696936 0.087428585 -0.27131805 -0.14343973
0.085108 0.09802516 -0.21647833 -0.0013382077 0.11787442 -0.029057179 0.0024172715 -0.16613564
0.11300673 0.0969647 -0.1371101 0.0681996 -0.16363123 0.22111054 0.08315674 -0.10767439
-0.0002726064 -0.20405455 0.107394494 -0.14526242 0.10401432 -0.043011244 0.011910288 -0.016232572
0.04139027 0.049721543 0.05172842 0.0627678 0.07597428 -0.0008436369 -0.12776043 0.0970474
00000000: f6b3 253e d5b8 883c a9df 523e 68c6 fcbc
00000010: 49e2 243d 48fe f33c c603 233e dbd6 743d
00000020: 22f4 e23d 8eeb 41bd d0b7 c0bd acea a53d
00000030: ed85 1a3e 4b3d c1bd a404 1b3e 56c9 843e
00000040: 7bc1 223d 90bf 7f3e e6ae bdbc b222 5c3e
00000050: 729e 983d b28e b33d 55ff 78bd f479 143d
00000060: f040 adbb c88e 82bc 7cb3 10bd d160 5f3d
00000070: ea38 3a3e a330 123d 0f63 b63d 1d33 2cbe
00000080: 21c4 8abd 0e6b 8abc f2ea f33c 7b1b eebb
00000090: 6e28 af3d 2826 a7bd d90e a13d 0bbd 053e
000000a0: 16b0 b3bd 194e 10be 1c71 b2bd 3008 19bd
000000b0: e0fc 413c 1ab3 143e 2551 bebd c72a 0cbe
000000c0: 6edd 3dbd 576f 103e d03f fd3d 0c8a 2d3e
000000d0: 804b 61bd 1874 8c3d 51b9 27bd 612c 333e
000000e0: 08ca a2bc c4ba 3e3d 9886 a2bd fbc4 0f3e
000000f0: 7bfc 9abc d523 013e 3151 dc3d e338 803d
00000100: 3322 25be 7b02 c4bd 237d a13c 2797 1fbd
00000110: 64f7 a63b 53c1 e6bd 7469 dfbd 6e07 a3bc
00000120: 940e 003e 7547 d4bd d853 65bd add2 81be
00000130: 73d9 b83d dc06 48be f2d6 cf3d 5a07 693c
00000140: d3fd f0bd a4e9 923d 5744 7b3d 40dd a2bc
00000150: 5162 dd3d 81d7 52bd d323 0fbd 126f 2abd
00000160: af47 8c3d e9da 23bd b7e7 22bd a1f9 873d
00000170: a11a 01be 4e35 1a3e 43b7 0c3e f013 8dbd
00000180: 62f8 12be 160c aabc 9f00 ae3c dd82 063e
00000190: 0e45 0d3e b859 9dbd ab5f 7d3d d996 2d3e
000001a0: dd5b 03bd 55be 1f3d e1c7 a23e da24 3e3e
000001b0: f55f a2bc 60c6 9abd 5889 013d fcd0 263e
000001c0: 66f2 9dbd 95e0 86be 8ee5 5d3c d119 8b3e
000001d0: 5cd6 91bd 9c4a b83d e159 c0bc 8f5e 9b3d
000001e0: bf46 0b3e acfb 3bbe 5f89 b6bd 0683 8cbb
000001f0: 6479 ef3d f29c c7bd dd96 713d 7efd 223e
00000200: d629 9e3d b196 043e 4e1f 2bbe 52c0 ddbd
00000210: 4336 86be f393 d23d c87d 61be 3c50 0dbe
00000220: 788e d73c 19ad 15bd 879d 483d e92d 7a3c
00000230: 6c4c 453e ac90 de3d de74 c13d 08cb 79be
00000240: 39db 11bd f0a3 4bbe 331a 82bd 5631 51be
00000250: 0ff4 7bbd e2fa 7bbd 1d2e 9f3d c6e9 8a3e
00000260: c321 be3c d4db 8e3e 1f86 e3bd a0fd f2bd
00000270: e04c 14bd e4ca 2d3d 5924 5a3d 62d9 b43d
00000280: 7878 c43d 7c3c 1abd 1b7c 09be d09c 24bd
00000290: 8e49 dd3d 5759 083d ca8d 50be 437e d3bd
000002a0: 2d04 8b3d ea52 f93c 9fa7 34bd 9fcc 203e
000002b0: 39ba 713d d869 283e 9e23 c33d 7eef a73d
000002c0: 2469 afbc 42ba 5ebe 8641 2e3e 60cb e23d
000002d0: 961b 643d 91b8 0cbe 03dc 2bbd 5ecd d4bd
000002e0: 1a1b ab3d d64b 30bd 565b 073d 68d9 843d
000002f0: 3279 16be 9c2d 973e d824 cebd a35f 24be
00000300: d851 0abe 03d5 253e 197d ce3c bb64 653d
00000310: 0643 bdbd a550 6e3e 856f b23d 58b1 83be
00000320: c599 273e 2851 c23d 9896 ab3d 3589 5a3e
00000330: 76e5 2b3e 1c43 70be d96c 203d 342f 113e
00000340: fc5a c03c 1602 5abe f685 cc3d a7fc d3bd
00000350: 2b46 eb3d 69d1 f5bd b9e8 97bd 5c68 973d
00000360: f61e 953e 530d 29be 5ee5 233e ace1 283d
00000370: 0c3b 68bd c20d b33d 33ea 8abe dde1 12be
00000380: 1a4d ae3d 6ac1 c83d 7fac 5dbe cd66 afba
00000390: 2568 f13d 5209 eebc 166b 1e3b 761f 2abe
000003a0: 1370 e73d 6e95 c63d 9766 0cbe 3bac 8b3d
000003b0: f28e 27be cd6a 623e 154e aa3d 6484 dcbd
000003c0: 9dec 8eb9 adf3 50be a5f1 db3d acbf 14be
000003d0: 7605 d53d 8f2c 30bd 5e23 433c 2cfa 84bc
000003e0: d888 293d d1a8 4b3d 2ee1 533d 688c 803d
000003f0: 6798 9b3d 8427 5dba a1d3 02be cac0 c63d

network_body._body_endoder.seq_layers.2.bias f4 [64]
0.06446252 0.041404214 0.060406737 0.08857691 0.05200194 0.080323644 -0.00022505775 -0.07441121
0.011464194 -0.037017364 0.044490527 -0.05224219 0.079155795 0.028770315 0.04281769 -0.0074326876
0.042676266 -0.062463008 0.063972674 0.089266874 -0.03615865 -0.06082156 0.03901516 0.07218698
0.06399299 0.034877624 -0.01054358 -0.025200825 -0.06114109 0.082168326 0.08282636 0.086898886
0.07600662 -0.052416697 0.021443125 0.01593101 -0.015278093 -0.065758415 -0.04546572 0.05488168
-0.03611015 -0.08093804 0.0681519 0.084379524 0.0703957 -0.08372965 0.030087195 0.035732646
0.057925306 0.06970246 0.07677926 -0.015099436 0.055504095 0.05072251 0.091561235 0.07374227
0.018243479 0.07989954 -0.022439413 0.0745281 0.045325473 0.08469008 0.04233215 -0.049946394
00000000: ed04 843d 7797 293d 0e6d 773d d067 b53d
00000010: fcff 543d b980 a43d 7bfd 6bb9 e864 98bd
00000020: 51d4 3b3c 859f 17bd b33b 363d e8fb 55bd
00000030: 6f1c a23d b9af eb3c 9a61 2f3d e78d f3bb
00000040: 4fcd 2e3d 36d9 7fbd 1b04 833d 8dd1 b63d
00000050: 181b 14bd 0720 79bd 5cce 1f3d c4d6 933d
00000060: c20e 833d d7db 0e3d fbbe 2cbc f671 cebc
00000070: 146f 7abd de47 a83d dea0 a93d 0bf8 b13d
00000080: 5ca9 9b3d e4b2 56bd 7ea9 af3c c081 823c
00000090: f750 7abc 59ac 86bd 433a 3abd 9dcb 603d
000000a0: 3de8 13bd d8c2 a5bd 3993 8b3d 2ccf ac3d
000000b0: 9f2b 903d 737a abbd 6c79 f63c 655c 123d
000000c0: 1643 6d3d 2ac0 8e3d 723e 9d3d a063 77bc
000000d0: 4358 633d 68c2 4f3d 7584 bb3d 3006 973d
000000e0: 5973 953c 5fa2 a33d dcd2 b7bc 30a2 983d
000000f0: 34a7 393d fe71 ad3d 7a64 2d3d 9794 4cbd

action_model._continuous_distribution.log_sigma f4 [1, 2]
-0.032231666 -0.06815201
00000000: 5a05 04bd 4893 8bbd

action_model._continuous_distribution.mu.weight f4 [2, 64]
0.01540326 0.027842503 0.011884145 0.071998194 0.096167564 0.04250689 -0.05682327 -0.07875882
0.048724968 -0.021447299 0.01897402 -0.051231716 0.060222097 0.00182431 -0.01190737 -0.014311017
0.08868597 -0.07671717 -0.002016249 0.076167166 -0.05359959 -0.040759385 0.039376263 0.038254544
0.03231627 -0.024645261 -0.0054648654 -0.009581821 -0.02562993 0.05182891 0.06286348 0.05956745
0.048164714 -0.039840244 -0.015609096 0.008268323 -0.08785196 -0.028161356 -0.042567153 0.07728294
-0.08790331 -0.08747158 0.04205146 0.07169844 0.02515689 -0.064203516 -0.0144683765 -0.01710159
0.036675844 0.058105938 0.042329807 -0.014607718 0.011083994 0.01721617 0.07638359 0.07162265
0.04032161 0.084901996 0.017084537 0.061207056 -0.0018977041 0.06037032 0.001414965 -0.023988398
0.04144989 0.022827165 -0.008673594 -0.019423332 -0.0211922 0.018132273 0.04274847 -0.0053136507
-0.029193033 -0.0029218784 0.02748045 0.00021989564 -0.020057106 0.04715036 0.059515964 0.034391355
-0.029054241 -0.059527643 0.045139525 0.051306635 0.027289249 -0.042949867 -0.016116466 0.047057714
0.058759537 0.027359478 -0.04294203 -0.018333446 -0.033232868 0.062079515 0.029178785 0.050263137
0.046002638 -0.0040693707 0.053385988 -0.02427486 0.02634975 -0.03294292 -0.08694639 -0.025974454
0.039558925 -0.009651326 0.037453562 0.039654285 0.036582936 -0.047984857 0.04018181 0.07608982
0.033466034 0.06595624 0.01238885 -0.035525005 0.060353518 0.060708318 -0.006783427 0.0823462
-0.015130985 0.028464794 -0.109867156 0.06979796 0.03552109 0.018564178 0.0748354 -0.046487857
00000000: f45d 7c3c f615 e43c b8b5 423c ca73 933d
00000010: 80f3 c43d b41b 2e3d 84bf 68bd 4e4c a1bd
00000020: d593 473d 3fb2 afbc 676f 9b3c 59d8 51bd
00000030: 72ab 763d b01d ef3a 2117 43bc c178 6abc
00000040: fda0 b53d e41d 9dbd 0c23 04bb 88fd 9b3d
00000050: 3e8b 5bbd 50f3 26bd 0149 213d ccb0 1c3d
00000060: 115e 043d dce4 c9bc 9d12 b3bb 12fd 1cbc
00000070: dcf5 d1bc 8d4a 543d 91be 803d 00fd 733d
00000080: 5d48 453d 862f 23bd 4bbd 7fbc dc77 073c
00000090: baeb b3bd a5b2 e6bc e55a 2ebd 8546 9e3d
000000a0: a706 b4bd 4d24 b3bd 273e 2c3d a2d6 923d
000000b0: d215 ce3c 227d 83bd c50c 6dbc a218 8cbc
000000c0: 6939 163d 7e00 6e3d 0562 2d3d 3655 6fbc
000000d0: a499 353c ed08 8d3c 006f 9c3d e5ae 923d
000000e0: 4628 253d 19e1 ad3d dff4 8b3c 40b4 7a3d
000000f0: 62bc f8ba de46 773d 5976 b93a 5183 c4bc
00000100: 5cc7 293d 0900 bb3c b11b 0ebc ae1d 9fbc
00000110: 449b adbc 228a 943c 0519 2f3d 221e aebb
00000120: 3a26 efbc fc7c 3fbb ae1e e13c c993 6639
00000130: cd4e a4bc bc20 413d 03c7 733d f3dd 0c3d
00000140: 2903 eebc 42d3 73bd 39e4 383d e826 523d
00000150: b48d df3c 33ec 2fbd ae06 84bc 97bf 403d
00000160: d7ad 703d fc20 e03c fbe3 2fbd 0630 96bc
00000170: 301f 08bd 1747 7e3d 5908 ef3c b8e0 4d3d
00000180: 436d 3c3d 5b58 85bb 44ab 5a3d 12dc c6bc
00000190: 6edb d73c 28ef 06bd f310 b2bd 61c8 d4bc
000001a0: 8a08 223d 9820 1ebc e868 193d 886c 223d
000001b0: fdd7 153d c58b 44bd ae95 243d fbd4 9b3d
000001c0: ae13 093d 1114 873d 9afa 4a3c ab82 11bd
000001d0: 4035 773d 49a9 783d 8347 debb 20a5 a83d
000001e0: f3e7 77bc 002f e93c 0802 e1bd 3cf2 8e3d
000001f0: 907e 113d e713 983c 4d43 993d 0d6a 3ebd

action_model._continuous_distribution.mu.bias f4 [2]
0.058763135 0.03825744
00000000: 9db1 703d d5b3 1c3d

exp_avg f4 [64, 17]
5.5586777e-05 7.106371e-05 0.00022558561 0.00021465051 0.00029020064 0.00023667517 0.00026079867 0.00022940729
0.00019956747 -3.7681777e-05 -0.00021626813 3.1300908e-05 9.541072e-06 0.00014115984 -7.52211e-05 -0.00018171276
0.00018234327 5.502736e-06 -3.4427267e-05 3.9428807e-05 7.969288e-05 3.819017e-05 6.384603e-05 1.6838787e-05
-5.6765515e-05 -9.220722e-05 -5.9297672e-05 9.739435e-06 -4.7751164e-05 0.00015529052 -7.9097634e-05 7.351217e-05
-0.00011569799 -9.498747e-05 -4.784032e-06 4.363875e-05 3.5057863e-05 5.2009316e-05 7.4951655e-05 6.0757506e-05
5.7519326e-05 5.557768e-05 6.025097e-05 5.9898284e-06 -5.1185052e-05 4.644539e-05 -4.6524572e-05 6.730078e-05
8.299623e-05 -9.0719564e-05 2.6710513e-06 0.00022272191 0.00028492193 0.00015519289 -0.00010304309 -6.280772e-05
-0.00010095692 -0.00012862154 -3.5150675e-05 6.990609e-05 0.00014262265 0.00018708655 0.00025625044 0.00014787934
0.00023390302 0.00011130104 0.00015629339 0.000180967 1.1499644e-05 -2.6942918e-05 -9.978901e-05 -5.0675917e-05
4.0200815e-05 3.6457204e-05 -2.8395008e-05 -6.184643e-05 -8.170548e-05 -7.149136e-05 0.000103523766 -8.9825015e-05
0.00015996186 -0.00010370248 -3.796142e-05 -2.8719052e-05 -0.00012206392 -5.0973904e-06 -0.000114364884 -0.00012678048
-3.9037302e-05 -0.00013293348 1.1596909e-05 9.609285e-05 0.00015192182 0.00023222712 -2.289748e-05 -8.25127e-05
0.00016502282 -3.4719833e-05 0.00028622412 0.0004493997 -5.1976695e-05 -2.1443888e-05 1.5498423e-05 1.5828948e-05
3.7456142e-05 -7.1095565e-06 0.00021701881 0.000104427636 8.8387606e-05 0.00012739733 0.00016550261 4.298852e-05
-5.8815902e-05 0.00014020735 0.00010531092 0.00021443241 0.00017969562 5.752713e-05 0.00041397268 -9.4051014e-05
1.4669309e-05 0.00022333709 0.00022761253 9.6758704e-05 9.287133e-05 8.273801e-05 4.094188e-05 -1.0175339e-05
-3.2611933e-06 -8.746559e-05 -5.4156626e-05 1.3637546e-06 -8.185426e-05 -0.00023516687 6.961466e-05 -0.00016452631
6.588604e-05 7.735134e-05 4.8598475e-05 3.406095e-05 1.7084581e-05 -7.582306e-06 -3.8569287e-05 -6.6248605e-05
-7.9347315e-05 -8.192705e-06 4.8046608e-05 -8.642486e-06 0.00010667973 -5.7892386e-05 6.177935e-05 2.0820993e-05
2.4967605e-05 -4.2548174e-05 8.669871e-05 0.00021345203 0.00024750805 0.00028794195 0.00023382844 0.00021190166
0.00014576911 9.009416e-05 -0.000101764075 -0.00020797353 -0.00010596663 8.672414e-05 9.386771e-06 -8.446488e-05
-0.00020274115 -4.3094245e-05 -0.00017193914 -5.2782634e-05 0.000130716 0.0002261181 0.00019801354 0.00018034696
0.00014658217 0.00010109436 6.450592e-05 -9.019196e-05 -6.4613996e-05 -3.6945625e-05 4.501486e-05 1.0604941e-05
7.15147e-05 -5.659576e-05 -0.00015740316 -0.00017945556 3.2713622e-05 0.0002408251 0.0003229695 0.00036917703
0.0003334164 0.00030458576 0.0002728444 0.0002718957 -1.2514676e-05 -0.00025451748 0.00021537309 4.1332823e-06
0.00030327696 0.00017602986 -0.00025696692 0.00012024411 -4.4881515e-05 -0.00013730106 -5.214872e-05 0.00010676657
0.00011962068 0.000113817376 0.00013457645 0.00011234917 8.796505e-05 -1.4311427e-05 -7.323374e-05 1.4851572e-05
-6.7400775e-05 4.1186955e-05 4.3192176e-05 -2.847068e-05 3.320275e-05 5.1636755e-05 -6.269607e-06 2.7486414e-05
1.5608872e-05 2.4597699e-05 -2.1061576e-05 -1.3705667e-05 -9.758449e-06 -9.700703e-06 -1.415055e-05 4.338637e-05
-1.032251e-05 9.486518e-05 -2.8658524e-05 6.229702e-06 3.539375e-06 3.3460823e-05 0.00010523879 0.00028650727
0.000385962 0.00032983648 -4.9024355e-05 1.5455014e-05 -1.1211887e-05 -0.00015399986 -0.00018659423 5.237315e-05
-1.3729128e-05 0.00011829595 -0.0002863328 -2.5610374e-05 0.0001380769 -0.00057837437 -0.0004729236 -0.000100903475
00000000: d925 6938 0a08 9538 2d8b 6c39 cf13 6139
00000010: 1226 9839 022c 7839 cebb 8839 0d8d 7039
00000020: fc42 5139 800c 1eb8 09c6 62b9 1849 0338
00000030: 9812 2037 4e04 1439 05c0 9db8 268a 3eb9
00000040: 6633 3f39 24a4 b836 ff65 10b8 5c60 2538
00000050: ca20 a738 622e 2038 14e5 8538 0541 8d37
00000060: 8217 6eb8 605f c1b8 64b6 78b8 8e66 2337
00000070: 6c48 48b8 7bd5 2239 38e1 a5b8 8c2a 9a38
00000080: e3a2 f2b8 0234 c7b8 8686 a0b6 c008 3738
00000090: 180b 1338 9424 5a38 5d2f 9d38 e0d5 7e38
000000a0: e840 7138 141c 6938 fdb5 7c38 3cfc c836
000000b0: 88af 56b8 5cce 4238 6123 43b8 d523 8d38
000000c0: 430e ae38 b240 beb8 5040 3336 758a 6939
000000d0: 9361 9539 46bb 2239 d618 d8b8 a3b7 83b8
000000e0: d5b8 d3b8 95de 06b9 c06e 13b8 8c9a 9238
000000f0: fa8c 1539 aa2c 4439 5a59 8639 0f10 1b39
00000100: dd43 7539 4a6a e938 b0e2 2339 f6c1 3d39
00000110: 98ee 4037 7a03 e2b7 d145 d1b8 da8c 54b8
00000120: 4c9d 2838 a0e9 1838 d131 eeb7 8db3 81b8
00000130: 4c59 abb8 a2ed 95b8 e61a d938 7060 bcb8
00000140: 6fbb 2739 d87a d9b8 c438 1fb8 b2e9 f0b7
00000150: 91fc ffb8 400a abb6 2ed7 efb8 60f0 04b9
00000160: fcbb 23b8 0f64 0bb9 5890 4237 7585 c938
00000170: 344d 1f39 fe81 7339 f713 c0b7 ab0a adb8
00000180: fa09 2d39 23a0 11b8 5a10 9639 689d eb39
00000190: 8d01 5ab8 66e2 b3b7 9c02 8237 68c8 8437
000001a0: 3a1a 1d38 a08e eeb6 8b8f 6339 2900 db38
000001b0: bc5c b938 f695 0539 c58a 2d39 924e 3438
000001c0: 18b1 76b8 a004 1339 5fda dc38 43d9 6039
000001d0: ad6c 3c39 4949 7138 790a d939 413d c5b8
000001e0: 341c 7637 982f 6a39 46ab 6e39 efea ca38
000001f0: eac3 c238 a283 ad38 02b9 2b38 c0b6 2ab7
00000200: e0da 5ab6 bb6d b7b8 3c26 63b8 400a b735
00000210: 2ca9 abb8 2097 76b9 16fe 9138 b284 2cb9
00000220: 4c2c 8a38 af37 a238 37d6 4b38 abdc 0e38
00000230: dc50 8f37 836b feb6 75c5 21b8 f3ee 8ab8
00000240: 4467 a6b8 6673 09b7 a785 4938 32ff 10b7
00000250: 3eb9 df38 7ad1 72b8 898f 8138 bea8 ae37
00000260: 8671 d137 c175 32b8 04d2 b538 18d2 5f39
00000270: f8c3 8139 eaf6 9639 d82f 7539 eb31 5e39
00000280: 99d9 1839 eff0 bc38 2c6a d5b8 7813 5ab9
00000290: 673a deb8 abdf b538 e07b 1d37 bd22 b1b8
000002a0: ea96 54b9 18c0 34b8 904a 34b9 ec62 5db8
000002b0: cf10 0939 1e1a 6d39 dba1 4f39 851b 3d39
000002c0: dab3 1939 9f02 d438 5a47 8738 7125 bdb8
000002d0: 6081 87b8 10f6 1ab8 56ce 3c38 e0eb 3137
000002e0: 2afa 9538 3c61 6db8 970c 25b9 3c2c 3cb9
000002f0: fc35 0938 ff85 7c39 3c54 a939 1a8e c139
00000300: 64ce ae39 cfb0 9f39 8e0c 8f39 398d 8e39
00000310: 20f6 51b7 c270 85b9 c6d5 6139 a0b0 8a36
00000320: 2501 9f39 a894 3839 84b9 86b9 912b fc38
00000330: 293f 3cb8 79f8 0fb9 43ba 5ab8 dee7 df38
00000340: dddc fa38 3db1 ee38 171d 0d39 009d eb38
00000350: e079 b838 1c1b 70b7 1195 99b8 042b 7937
00000360: 8459 8db8 28c0 2c38 3f29 3538 52d4 eeb7
00000370: 2e43 0b38 8b94 5838 845f d2b6 a092 e637
00000380: ccef 8237 2857 ce37 64ad b0b7 64f1 65b7
00000390: 38b8 23b7 34c0 22b7 2668 6db7 c3f9 3538
000003a0: d82e 2db7 5bf2 c638 b667 f0b7 bc08 d136
000003b0: 0086 6d36 4958 0c38 a5b3 dc38 5b36 9639
000003c0: f15a ca39 e7ed ac39 809f 4db8 64a5 8137
000003d0: b01a 3cb7 067b 21b9 82a8 43b9 3eab 5b38
000003e0: 2856 66b7 a815 f838 f01e 96b9 dcd5 d6b7
000003f0: bcc8 1039 0c9e 17ba bbf2 f7b9 249c d3b8

exp_avg_sq f4 [64, 17]
3.000204e-07 3.0052038e-07 6.074758e-07 8.97796e-07 9.532266e-07 9.0809374e-07 8.7035977e-07 8.175721e-07
7.647253e-07 4.3292457e-07 6.974834e-07 8.47629e-07 6.890832e-07 7.9746366e-07 4.5725525e-07 8.2793207e-07
7.3248617e-07 2.3010015e-08 2.8227099e-08 1.841486e-08 1.8413688e-08 1.9728539e-08 1.9804443e-08 1.9835515e-08
1.9801492e-08 1.9734124e-08 1.12389555e-08 1.3621558e-08 2.0372068e-08 4.414631e-08 2.1544103e-08 2.5192268e-08
2.5633016e-08 8.399927e-08 2.3376089e-08 1.8915532e-08 1.5401735e-08 1.873602e-08 2.1671402e-08 2.2001903e-08
2.0339732e-08 1.7472516e-08 1.4276328e-08 6.129103e-09 1.6988595e-08 9.9627915e-09 9.758036e-09 1.1044154e-08
9.374703e-09 1.4930972e-08 1.3744909e-08 1.9917482e-07 2.3804654e-07 4.0520572e-07 5.3414766e-07 5.0772474e-07
4.8114066e-07 4.7269495e-07 4.5640556e-07 4.3925974e-07 3.2533967e-07 3.3113386e-07 5.550058e-07 5.582757e-07
4.8680795e-07 3.6038912e-07 5.4653054e-07 5.4567323e-07 7.722471e-08 9.712652e-08 1.4394087e-07 1.5674846e-07
1.310449e-07 1.205767e-07 1.154825e-07 1.1337038e-07 1.155175e-07 6.922694e-08 8.314489e-08 1.441178e-07
2.8881047e-07 1.5003329e-07 1.3577998e-07 1.8539875e-07 3.143784e-07 1.58413e-07 1.4596571e-07 1.163739e-07
8.491487e-08 6.795145e-08 6.452553e-08 6.926404e-08 8.056286e-08 9.944136e-08 3.3065295e-08 9.163735e-08
1.7472837e-07 8.4535685e-08 1.8475352e-07 1.0738218e-07 2.5815325e-07 1.347372e-07 4.5836355e-08 5.2844587e-08
6.778716e-08 6.601384e-08 5.241792e-08 5.9458518e-08 7.25197e-08 8.334792e-08 8.881726e-08 1.2340153e-08
3.8879715e-08 3.73903e-08 1.7664656e-08 7.428082e-08 4.2677712e-08 4.8176688e-08 7.728918e-08 1.7009309e-07
1.3905834e-07 1.603702e-07 1.8622674e-07 1.8338599e-07 1.7019546e-07 1.5315013e-07 1.4177671e-07 1.3950333e-07
8.070483e-08 1.7419704e-07 1.9819734e-07 1.1738204e-07 2.053534e-07 2.418077e-07 3.3139906e-07 4.3452096e-07
3.1620672e-08 3.1929215e-08 3.747448e-08 4.204554e-08 4.047093e-08 3.725478e-08 3.546608e-08 3.441339e-08
3.3244895e-08 1.87845e-08 4.0385746e-08 3.3207815e-08 4.1412584e-08 3.60262e-08 4.0206203e-08 6.0819154e-08
5.9794615e-08 7.371827e-07 5.1091473e-07 4.1131966e-07 5.7495055e-07 6.750858e-07 7.03655e-07 6.9837336e-07
6.6588444e-07 6.139361e-07 4.6553728e-07 7.099069e-07 6.974417e-07 4.5768974e-07 6.380096e-07 9.556143e-07
1.0159423e-06 1.639066e-06 1.9414895e-07 1.3581058e-07 7.735898e-08 5.2504994e-08 4.60806e-08 4.938138e-08
4.8972694e-08 4.6695487e-08 4.617804e-08 3.996145e-08 7.53615e-08 1.00010936e-07 5.769413e-08 7.9463945e-08
1.4520118e-07 2.1918109e-07 3.1408865e-07 8.6105115e-07 7.9698174e-07 4.6291714e-07 5.2936923e-07 6.2415126e-07
6.734984e-07 6.6301027e-07 6.1837784e-07 5.733158e-07 4.0514084e-07 6.1645363e-07 7.378246e-07 4.063229e-07
6.846599e-07 1.2248049e-06 1.3379608e-06 2.519984e-06 2.0991843e-08 2.698509e-08 1.8289413e-08 1.629524e-08
1.8724453e-08 1.8391946e-08 1.617048e-08 1.3681587e-08 1.1720762e-08 5.7348815e-09 1.0868095e-08 9.82095e-09
2.1499499e-08 1.120348e-08 1.12802505e-08 1.850302e-08 9.11997e-09 2.5124361e-08 2.463157e-08 4.167619e-08
6.238897e-08 7.188572e-08 6.788919e-08 6.307169e-08 5.8235766e-08 5.3043266e-08 2.5391328e-08 4.171425e-08
4.8584557e-08 4.0017152e-08 4.9335764e-08 2.4085871e-08 3.8977205e-08 1.8918076e-08 5.22788e-07 6.7969194e-07
3.635913e-07 2.0774036e-07 1.2979253e-07 1.422524e-07 1.695693e-07 1.9424859e-07 2.1485495e-07 1.6337334e-07
1.5632877e-07 2.7684985e-07 3.2460838e-07 2.6754535e-07 8.0465253e-07 7.1484925e-07 1.9790211e-06 1.5447207e-06
00000000: 7d12 a134 3557 a134 6b11 2335 1200 7135
00000010: 3ce1 7f35 bac3 7335 aba2 6935 2077 5b35
00000020: 8647 4d35 b36c e834 b23a 3b35 9f88 6335
00000030: 70f9 3835 4911 5635 af7c f534 0f3f 5e35
00000040: 11a0 4435 8fa7 c532 0c78 f232 b52e 9e32
00000050: 212c 9e32 8477 a932 6e1e aa32 c262 aa32
00000060: f117 aa32 cc83 a932 7315 4132 3f04 6a32
00000070: a7fe ae32 629b 3d33 fc0f b932 6266 d832
00000080: 992f dc32 1663 b433 90cc c832 b27b a232
00000090: c64c 8432 f2f0 a032 eb27 ba32 b2fe bc32
000000a0: 8bb7 ae32 7816 9632 f443 7532 2998 d231
000000b0: 51ee 9132 d228 2b32 4ca4 2732 b4bc 3d32
000000c0: 610e 2132 8e41 8032 c022 6c32 c2dc 5534
000000d0: bc99 7f34 0d8b d934 5962 0f35 944a 0835
000000e0: bc27 0135 b3c6 fd34 e707 f534 66d3 eb34
000000f0: 58aa ae34 b1c6 b134 b5fb 1435 6adc 1535
00000100: 30ad 0235 817b c134 4bb5 1235 617a 1235
00000110: bcd6 a533 de93 d033 2a8e 1a34 b04e 2834
00000120: 59b5 0c34 df77 0134 2dff f733 0776 f333
00000130: 6b12 f833 eaa9 9433 638d b233 cdbe 1a34
00000140: cf0d 9b34 d618 2134 ebca 1134 0512 4734
00000150: d7c7 a834 3c18 2a34 c0ba 1c34 3ae9 f933
00000160: 725a b633 b4ec 9133 4991 8a33 4fbe 9433
00000170: e701 ad33 778c d533 ad03 0e33 2aca c433
00000180: f89c 3b34 fc89 b533 a960 4634 fa99 e633
00000190: 5098 8a34 48ac 1034 9bdd 4433 3df7 6233
000001a0: 6392 9133 7ec3 8d33 1d22 6133 555f 7f33
000001b0: 20bc 9b33 01fd b233 cebb be33 9100 5432
000001c0: b3fc 2633 1297 2033 fdbc 9732 5084 9f33
000001d0: a44c 3733 d4ea 4e33 2dfa a533 d5a2 3634
000001e0: 1150 1534 3a32 2c34 9ef5 4734 c2e8 4434
000001f0: f9be 3634 9671 2434 493b 1834 62ca 1534
00000200: f34f ad33 eb0a 3b34 12d0 5434 7513 fc33
00000210: 1d7f 5c34 ccd1 8134 24eb b134 1b48 e934
00000220: 4ccf 0733 8b22 0933 a0f3 2033 8f95 3433
00000230: 42d2 2d33 1002 2033 5e53 1833 eccd 1333
00000240: 26c9 0e33 8d5b a132 9974 2d33 61a0 0e33
00000250: 9edd 3133 3abb 1a33 30af 2c33 af9b 8233
00000260: 7068 8033 cfe2 4535 cb25 0935 58d3 dc34
00000270: 4d56 1a35 8b37 3535 cee2 3c35 da77 3b35
00000280: 3bbf 3235 5ecd 2435 f5ee f934 6e90 3e35
00000290: d437 3b35 66b8 f534 b043 2b35 a842 8035
000002a0: 835b 8835 e1fd db35 4277 5034 54d3 1134
000002b0: 8d20 a633 da81 6133 28ea 4533 6717 5433
000002c0: 0c56 5233 3b8e 4833 4b55 4633 14a2 2b33
000002d0: 6cd6 a133 98c5 d633 5ecb 7733 c4a5 aa33
000002e0: 99e8 1b34 0a58 6b34 04a0 a834 fc22 6735
000002f0: 2bf0 5535 d986 f834 fa19 0e35 598b 2735
00000300: 75ca 3435 b8f9 3135 9afe 2535 f6e5 1935
00000310: 2282 d934 5f7a 2535 ec0e 4635 9824 da34
00000320: 78c9 3735 fa63 a435 fc93 b335 ff1c 2936
00000330: 8d51 b432 d7cc e732 d81a 9d32 9df9 8b32
00000340: 82d7 a032 51fc 9d32 43e7 8a32 420c 6b32
00000350: 755c 4932 8d0c c531 63b6 3a32 ffb8 2832
00000360: e6ad b832 6d79 4032 11cb 4132 92f0 9e32
00000370: 0dae 1c32 0ed1 d732 6595 d332 75ff 3233
00000380: b3fa 8533 985f 9a33 7aca 9133 0772 8733
00000390: e71e 7a33 b0d1 6333 1f1c da32 4e29 3333
000003a0: 49ab 5033 53df 2b33 3fe5 5333 64e5 ce32
000003b0: e467 2733 4a81 a232 b855 0c35 1374 3635
000003c0: 9c33 c334 3c0f 5f34 195d 0b34 0bbe 1834
000003d0: db12 3634 a592 5034 e1b2 6634 b96b 2f34
000003e0: 53db 2734 f4a1 9434 d645 ae34 27a3 8f34
000003f0: 4dff 5735 11e4 3f35 53cf 0436 3354 cf35

exp_avg f4 [64]
-0.00023441466 -1.1623615e-05 2.4950397e-05 3.4742858e-05 2.8478065e-05 0.000107138054 4.0137453e-05 -0.00017152964
3.0443869e-05 -0.0002462108 -0.00019440107 -0.00033278446 2.8175036e-05 3.9214065e-05 -0.00035104284 -0.000321901
7.991682e-05 -5.0337658e-05 3.0016425e-05 -8.3599225e-05 -0.00030046768 1.320837e-05 9.4039686e-05 6.974153e-05
-1.949395e-05 -2.7163904e-05 -3.237739e-05 -0.000208911 -0.000108823406 -6.1110077e-06 -7.184083e-05 0.000112809954
0.000117223484 -0.00019250048 4.310478e-05 9.621213e-05 -0.00016989364 -7.902921e-05 -0.00021284909 8.7727276e-05
0.0003081257 -5.202026e-06 -0.00021556551 -0.0001181063 -0.00021962918 -0.00029906642 -0.00011308871 -0.00010184572
-2.750503e-06 -0.000101655045 -0.00041824265 -5.4637992e-05 0.00012420565 -4.859193e-05 0.00024377435 -3.9983093e-05
-4.5713576e-05 0.00039373487 -8.482841e-05 -0.00016527678 -8.582668e-05 6.0352286e-05 -9.357309e-05 -5.0387043e-05
00000000: 35cd 75b9 0c03 43b7 924c d137 dcb8 1138
00000010: 2ee4 ee37 4eaf e038 4359 2838 a3dc 33b9
00000020: b661 ff37 db15 81b9 24d8 4bb9 9379 aeb9
00000030: 6e59 ec37 c879 2438 2c0c b8b9 d2c4 a8b9
00000040: 0499 a738 a621 53b8 c8cb fb37 fe51 afb8
00000050: 1788 9db9 8499 5d37 2c37 c538 3342 9238
00000060: f086 a3b7 0ade e3b7 f5cc 07b8 1f0f 5bb9
00000070: 1f38 e4b8 280d cdb6 40a9 96b8 6294 ec38
00000080: e1d5 f538 f4d9 49b9 68cb 3438 7ec5 c938
00000090: 7a25 32b9 7cbc a5b8 3e30 5fb9 39fa b738
000000a0: ee8b a139 108d aeb6 6d09 62b9 d6af f7b8
000000b0: 424c 66b9 04cc 9cb9 0a2a edb8 0196 d5b8
000000c0: 4895 38b6 a32f d5b8 9447 dbb9 192b 65b8
000000d0: 333d 0239 30cf 4bb8 ae9d 7f39 85b3 27b8
000000e0: 94bc 3fb8 336e ce39 e8e5 b1b8 264e 2db9
000000f0: d9fd b3b8 c622 7d38 ac3c c4b8 ad56 53b8

exp_avg_sq f4 [64]
4.846551e-07 2.5485926e-08 1.4762536e-08 3.0490722e-07 1.5265981e-07 1.5702189e-07 4.1313452e-08 3.6494228e-07
6.1551255e-08 8.718419e-07 3.1091187e-07 1.4057127e-06 2.8462708e-08 3.833459e-08 1.027173e-06 3.2972869e-06
1.0681296e-07 3.484843e-08 4.7300826e-08 1.3960664e-07 1.9882139e-06 1.0724614e-07 7.640246e-08 1.6746525e-07
2.3888416e-07 3.1095632e-07 1.1939949e-07 1.3652217e-06 3.1604029e-07 2.9464529e-08 1.6707409e-07 2.0672817e-07
1.921578e-07 1.5569549e-06 1.2983334e-07 7.157152e-07 1.83649e-06 1.6206596e-06 4.895301e-07 1.735281e-07
3.5924637e-07 2.5631e-07 6.991333e-07 3.789465e-07 1.9020936e-06 2.0413952e-06 2.7797324e-07 1.690457e-07
4.06991e-08 7.7758267e-07 1.6486437e-06 1.4657054e-07 2.610653e-07 8.456321e-08 3.373911e-07 2.6272895e-08
3.223634e-07 2.8144845e-07 1.1810024e-07 2.2017971e-07 6.889331e-07 6.8692664e-08 1.3757197e-07 2.5250867e-07
00000000: 3f19 0235 25ec da32 529e 7d32 21b2 a334
00000010: cfea 2334 d999 2834 9f70 3133 49ed c334
00000020: 292e 8433 8508 6a35 67eb a634 ecab bc35
00000030: 287e f432 54a5 2433 65dd 8935 f546 5d36
00000040: 0c61 e533 41ac 1533 cf27 4b33 c8e6 1534
00000050: 416d 0536 304f e633 b212 a433 7fd0 3334
00000060: fd3f 8034 83f1 a634 4834 0034 a93c b735
00000070: 3fac a934 2f19 fd32 fa64 3334 02f9 5d34
00000080: ef53 4e34 90f8 d035 5168 0b34 931f 4035
00000090: 517d f635 7185 d935 4168 0335 0a53 3a34
000000a0: 72de c034 fa9a 8934 13ac 3b35 0372 cb34
000000b0: 704b ff35 e7fe 0836 5a3c 9534 ee82 3534
000000c0: 22cd 2e33 13bb 5035 f746 dd35 0161 1d34
000000d0: 8b28 8c34 1e99 b533 ae22 b534 b5ae e132
000000e0: 4a11 ad34 fb19 9734 4b9e fd33 8a6a 6c34
000000f0: 1fef 3835 3184 9333 7fb7 1334 8790 8734

exp_avg f4 [64, 64]
-0.0001823111 2.2584361e-05 -5.7471047e-05 -6.9243084e-05 -2.1374552e-05 -8.139501e-06 2.7733171e-05 5.473187e-06
-5.676444e-06 -8.0369115e-05 -6.076152e-06 -7.747552e-05 -0.00011038201 -6.997904e-05 1.7517274e-05 -2.5551555e-05
-5.2407144e-05 -9.151709e-05 9.027999e-06 -0.00010865918 -5.8012844e-05 -6.914282e-05 -1.15367775e-05 2.238193e-05
-1.2022776e-05 3.4485205e-05 -4.68144e-05 -8.9393194e-05 -5.1121526e-05 -2.343445e-05 -3.029374e-06 4.8192658e-05
-0.00013792956 1.2843511e-05 -1.4039277e-05 -4.4911638e-05 -1.7741988e-05 -1.8873026e-05 6.211956e-06 -1.9271156e-05
-0.00011797781 -4.508841e-05 -8.354911e-06 -3.180746e-05 5.2849955e-05 3.756989e-06 -7.0337956e-05 -1.1262637e-05
-6.1638275e-05 -8.1760845e-06 -0.00014979471 -1.9802952e-05 -0.00011009986 2.6017107e-05 -8.674247e-05 -3.494871e-05
-0.00011103153 -0.00012953675 -3.4544973e-05 -0.00013310609 4.192338e-05 -8.076462e-05 3.207447e-05 3.225935e-05
-1.2187018e-05 -2.5740994e-05 -1.1115473e-05 2.9109508e-05 -9.588229e-05 -2.028245e-06 1.3994086e-05 -2.2106979e-05
1.00566795e-05 2.0581265e-05 -1.2524445e-05 -1.5961814e-05 -4.9298676e-05 1.786519e-05 -2.4447707e-05 6.5231834e-06
2.0567875e-06 -8.375097e-06 -9.31213e-06 1.43137e-05 -3.006884e-06 -5.577196e-06 1.4465725e-05 -5.3696418e-05
-1.7411987e-05 6.245877e-05 -2.8471746e-05 1.0522903e-05 3.517037e-05 2.2738175e-05 -1.4471698e-05 3.2105163e-07
-2.9079169e-05 6.8654654e-06 6.190805e-06 6.147243e-06 -9.465104e-06 -3.4871937e-06 5.2207088e-06 2.7155656e-06
-2.2847371e-05 -4.1356707e-06 8.639309e-06 -6.694881e-05 8.211269e-06 3.7275495e-06 -1.6216807e-05 1.5359055e-05
-5.5821165e-06 4.229474e-05 -1.6340593e-05 4.2068812e-05 2.2881988e-05 3.176391e-05 -8.008909e-06 2.7224805e-05
-0.00010061129 -4.1346366e-06 5.590179e-06 -3.3226233e-06 6.761286e-05 -8.174898e-05 -2.3078315e-05 -2.7735576e-05
2.824478e-05 -1.4227103e-05 7.195149e-07 1.5918431e-05 -2.4560286e-05 -8.371569e-06 -1.4000856e-05 1.0118802e-06
1.2794098e-06 5.108839e-06 -1.6777557e-06 3.7008658e-06 -1.8623414e-05 7.76227e-06 -1.6517943e-05 1.7936836e-05
4.190013e-06 -7.2553376e-06 -7.845298e-06 -2.1187741e-05 8.264532e-06 -1.0254629e-05 5.0512335e-06 -2.1161475e-05
-6.420835e-06 2.5187184e-05 -2.45257e-05 -4.744118e-06 -1.0680991e-05 1.42407025e-05 1.1862096e-05 -9.84216e-06
-6.1533265e-06 7.1865115e-06 1.9783129e-05 7.361559e-07 4.3453515e-06 -2.0224616e-06 1.2080087e-05 -2.3287195e-05
2.2751723e-05 1.0701615e-06 6.9959906e-06 -3.655044e-05 -1.4745287e-05 -6.7348665e-06 -1.2913862e-05 -6.9332964e-06
-1.5353533e-05 -2.8699047e-05 -4.8994116e-06 1.5155736e-05 4.371301e-05 6.0607936e-06 9.735362e-06 2.2011245e-05
1.3089499e-05 5.7102816e-06 2.2049685e-06 2.5562891e-05 -1.0583363e-05 -3.8624667e-06 -7.3793485e-06 -5.5398385e-07
-0.00023421508 -7.735584e-05 -8.263249e-05 -5.435324e-05 4.082654e-05 -6.663938e-05 3.869114e-05 6.5515036e-05
6.538899e-05 -0.00018552536 -1.0257734e-05 -1.65065e-05 -3.7778344e-05 -3.637319e-05 1.9264124e-05 0.0002872368
-1.594835e-05 -0.00012080051 7.474028e-05 1.4257901e-05 3.408244e-05 8.558978e-05 -3.9533017e-05 -3.464247e-07
3.734546e-05 0.00010068845 -8.311066e-05 -0.0002001469 4.849275e-05 -4.955291e-05 -9.6883705e-06 9.833546e-06
3.3682692e-05 9.4250085e-05 -3.9024642e-05 -3.9709725e-05 3.819525e-05 3.5080695e-05 0.00017020537 -1.953759e-05
-2.1024562e-05 -4.1062936e-05 0.00011361776 1.5935773e-05 -1.835264e-05 -4.7007634e-06 -1.49872685e-05 -8.56955e-05
-0.00015201716 -8.7115746e-05 -0.00023826907 -2.9578638e-05 -9.835305e-05 8.2491915e-06 -0.000111962916 -5.3238968e-05
0.00022728265 -1.9843459e-05 -9.169936e-05 -8.357357e-05 2.557491e-06 -2.688378e-05 -6.939985e-06 4.499625e-05
00000000: c32a 3fb9 8c73 bd37 110d 71b8 9936 91b8
00000010: 804d b3b7 e48e 08b7 88a4 e837 51a6 b736
00000020: 4878 beb6 d78b a8b8 c0e1 cbb6 5a7a a2b8
00000030: e47c e7b8 b6c1 92b8 0ff2 9237 8c57 d6b7
00000040: becf 5bb8 ddec bfb8 f676 1737 f4df e3b8
00000050: d152 73b8 c500 91b8 158e 41b7 d4c0 bb37
00000060: 6eb5 49b7 35a4 1038 945a 44b8 9b78 bbb8
00000070: 526b 56b8 1995 c4b7 404c 4bb6 7922 4a38
00000080: 2fa1 10b9 767a 5737 3c8a 6bb7 815f 3cb8
00000090: a1d4 94b7 8451 9eb7 4c70 d036 7ea8 a1b7
000000a0: db6a f7b8 501d 3db8 122c 0cb7 0069 05b8
000000b0: 35ab 5d38 9420 7c36 6782 93b8 a8f4 3cb7
000000c0: cc43 81b8 042c 09b7 3612 1db9 841e a6b7
000000d0: 6ae5 e6b8 503f da37 82e9 b5b8 e495 12b8
000000e0: 99d9 e8b8 42d4 07b9 62e4 10b8 6592 0bb9
000000f0: e3d6 2f38 2d60 a9b8 b387 0638 374e 0738
00000100: d876 4cb7 5dee d7b7 987c 3ab7 3130 f437
00000110: 6a14 c9b8 fc1c 08b6 24c8 6a37 6072 b9b7
00000120: 1cb9 2837 eea5 ac37 1520 52b7 bce5 85b7
00000130: 0dc6 4eb8 34dd 9537 0d15 cdb7 b8e1 da36
00000140: 5707 0a36 c582 0cb7 4b3b 1cb7 e024 7037
00000150: e0c9 49b6 c023 bbb6 d1b1 7237 1738 61b8
00000160: f50f 92b7 4cfc 8238 9cd6 eeb7 868b 3037
00000170: e683 1338 dcbd be37 78cb 72b7 005d ac34
00000180: 0aef f3b7 e65d e636 9cba cf36 6a44 ce36
00000190: 50cc 1eb7 8805 6ab6 8c2d af36 103d 3636
000001a0: 5ba8 bfb7 24c5 8ab6 8df1 1037 de66 8cb8
000001b0: 22c3 0937 d026 7a36 5409 88b7 52d7 8037
000001c0: 044e bbb6 a265 3138 2813 89b7 0b73 3038
000001d0: b2f2 bf37 3d3a 0538 015e 06b7 d360 e437
000001e0: 46ff d2b8 42bc 8ab6 4693 bb36 3cfa 5eb6
000001f0: 61cb 8d38 a670 abb8 4e98 c1b7 b2a9 e8b7
00000200: 34ef ec37 f1b0 6eb7 b024 4135 9288 8537
00000210: d006 ceb7 9d73 0cb7 38e5 6ab7 f0cf 8735
00000220: 30b8 ab35 986c ab36 3f2f e1b5 645c 7836
00000230: 7a39 9cb7 b23a 0237 0390 8ab7 1077 9637
00000240: f097 8c36 e072 f3b6 4c9f 03b7 54bc b1b7
00000250: e5a7 0a37 4c0b 2cb7 c47d a936 ec83 b1b7
00000260: 8d72 d7b6 1149 d337 8abc cdb7 aa2f 9fb6
00000270: 8232 33b7 5aeb 6e37 5003 4737 c11f 25b7
00000280: ac78 ceb6 aa23 f136 f2f3 a537 409c 4535
00000290: 49ce 9136 a0b9 07b6 94ab 4a37 df58 c3b7
000002a0: f4da be37 78a2 8f35 1abf ea36 bc4d 19b8
000002b0: 8762 77b7 10fc e1b6 9da8 58b7 90a4 e8b6
000002c0: 76cb 80b7 bcbe f0b7 a065 a4b6 6445 7e37
000002d0: 7d58 3738 d25d cb36 1055 2337 caa4 b837
000002e0: f89a 5b37 f29a bf36 12f9 1336 e46f d637
000002f0: 338f 31b7 569a 81b6 1f9c f7b6 7bb5 14b5
00000300: a297 75b9 1a3a a2b8 fb4a adb8 59f9 63b8
00000310: 2a3d 2b38 bfc0 8bb8 4c48 2238 1e65 8938
00000320: 7221 8938 9689 42b9 a218 2cb7 7077 8ab7
00000330: 3074 1eb8 6a8f 18b8 6499 a137 4598 9639
00000340: d2c8 85b7 4856 fdb8 e2bd 9c38 3835 6f37
00000350: bef3 0e38 aa7e b338 41d0 25b8 40fc b9b4
00000360: 62a3 1c38 b328 d338 b24b aeb8 86de 51b9
00000370: b264 4b38 08d7 4fb8 3c8b 22b7 c2fa 2437
00000380: 8446 0d38 21a8 c538 64ae 23b8 fe8d 26b8
00000390: d633 2038 9c23 1338 2879 3239 a8e4 a3b7
000003a0: e75d b0b7 fe3a 2cb8 1246 ee38 d0ad 8537
000003b0: fff3 99b7 40bb 9db6 d471 7bb7 6cb7 b3b8
000003c0: cc66 1fb9 e9b1 b6b8 ded7 79b9 a41f f8b7
000003d0: e442 ceb8 0266 0a37 a2cd eab8 e84c 5fb8
000003e0: b952 6e39 8175 a6b7 b84e c0b8 3844 afb8
000003f0: 5ca1 2b36 7a84 e1b7 04de e8b6 5bba 3c38
