results/test-14/Drive/Drive-116685.onnx (onnx, 27163 bytes, 9 tensors)

network_body.observation_encoder.processors.0.normalizer.running_mean f4 [17]
0	0x417efc82	15.936647
1	0x41929660	18.323425
2	0x41a4109e	20.508114
3	0x41a32c88	20.396744
4	0x4198a91e	19.082577
5	0x41878ddc	16.944267
6	0x4166ab44	14.416813
7	0x414122ce	12.070997
8	0x41215913	10.084247
9	0x4103ded5	8.241902
10	0x4136a5ec	11.415508
11	0x40b6ad00	5.708618
12	0x41045e52	8.273027
13	0x40d4c620	6.649185
14	0x4180f6e6	16.120556
15	0xc084eb7b	-4.153745
16	0x4094fed4	4.656107

network_body._body_endoder.seq_layers.0.weight f4 [64, 17]
0	0xbd7beb8e	-0.06150394
1	0x3bd1466d	0.0063865692
2	0x3db6ee61	0.08932186
3	0xbe0a9de4	-0.13536793
4	0xbe2a2d82	-0.16618922
5	0xbe8f4d42	-0.2798863
6	0xbef829ee	-0.4846949
7	0xbe6f1966	-0.23349532
8	0xbe86bcd0	-0.26315928
9	0xbe888bf5	-0.2666928
10	0x3d5fa8af	0.05460423
11	0x3e877973	0.26459846
12	0xbe1d7987	-0.1537839
13	0xbf18e138	-0.59718657
14	0xbeea6fc3	-0.45788392
15	0x3cb6ba21	0.02230555
16	0xbd90213a	-0.070375875
17	0xbc8e262c	-0.017352186
18	0x3eb0cf54	0.3453318
19	0x3df5bff3	0.11999502
20	0xbe2c2e8b	-0.1681463
21	0xbd819661	-0.063275106
22	0xbbac71f8	-0.0052626096
23	0x3e2181e5	0.15772207
24	0xbe2c0bce	-0.16801378
25	0x3f2f6b42	0.6852304
26	0x3e56ab86	0.20963868
27	0xbdb68123	-0.089113496
28	0xbe7b4569	-0.24538197
29	0x3e9617b0	0.29314947
30	0xbe85c045	-0.26123253
31	0xbeab532a	-0.33461887
32	0xbe67ffd3	-0.22656183
33	0x3ecea3d1	0.40359357
34	0xba189cc0	-0.00058216974
35	0x3db2599d	0.087084986
36	0xbf024821	-0.5089131
37	0x3e949765	0.29021755
38	0x3d2d5b98	0.04232368
39	0x3d1fbbf7	0.038997617
40	0x3e3ab5c2	0.18233398
41	0xbeda0829	-0.4258435
42	0xbdc8159f	-0.09769749
43	0x3f01c5f1	0.5069266
44	0x3ea5aa9b	0.32356724
45	0xbe7ebec2	-0.24877456
46	0xbe7f8f34	-0.24956971
47	0xbe109ed1	-0.14123084
48	0xbe884c59	-0.2662075
49	0xbea4544b	-0.3209556
50	0x3dc33212	0.095310345
51	0x3deb7d30	0.11498487
52	0x3d52b502	0.051442154
53	0xbee56cbf	-0.4480953
54	0xbaf31edd	-0.0018548627
55	0x3e7d633f	0.2474489
56	0xbdd21383	-0.10257628
57	0xbdbdda82	-0.09270193
58	0xbd67f692	-0.056631632
59	0x3e3dcb86	0.1853467
60	0x3e2722e8	0.1632191
61	0x3c07d0f4	0.008289564
62	0xbd74f12e	-0.05980032
63	0x3eb14275	0.34621015
64	0xbf284a71	-0.6573859
65	0x3e9ac7a4	0.3023044
66	0x3e2e0254	0.16993076
67	0xbe3a17ad	-0.18173094
68	0x3e3c646f	0.18397687
69	0xbe5c5b4a	-0.21519199
70	0xbe2ac56d	-0.16676874
71	0x3dade36d	0.08490644
72	0xbf5645ef	-0.8370046
73	0x3f370dfa	0.715057
74	0x3e4cce4a	0.20000568
75	0x3e35d040	0.17755222
76	0x3ed6e2bb	0.41969857
77	0xbd8744dd	-0.066049315
78	0x3d3b8668	0.045782477
79	0x3e10a59a	0.14125672
80	0x3ee2be8f	0.4428601
81	0xbdebd400	-0.11515045
82	0x3d05ec51	0.032696072
83	0x3e372e03	0.17888646
84	0x3effd9a8	0.49970746
85	0xbd28a998	-0.041177362
86	0xbed5aa89	-0.4173167
87	0x3e99f71f	0.3007135
88	0x3db3a802	0.08772279
89	0xbeda5ab5	-0.4264733
90	0xbea3658f	-0.3191342
91	0xbe84787e	-0.25873178
92	0x3e03e46b	0.12880103
93	0xbc148a9f	-0.009066253
94	0x3e8bfa16	0.27339238
95	0xbde2b880	-0.11070347
96	0xbc72f902	-0.014829876
97	0xbeab4395	-0.33449998
98	0x3dffcc21	0.124901064
99	0xbe750023	-0.23925833
100	0xbf04e34b	-0.5190932
101	0x3d3ec33d	0.046572912
102	0xbe3667b9	-0.17813005
103	0xbc32890d	-0.010896933
104	0xbe5ffb0b	-0.21873109
105	0xbd0a07f8	-0.033699006
106	0xbe907bbe	-0.28219408
107	0xbe35b336	-0.17744145
108	0x3e32ca82	0.17460063
109	0x3ef4652a	0.47733432
110	0x3dfab943	0.12242367
111	0x3d46de3e	0.04855179
112	0x3e4227bf	0.18960474
113	0xbda2729e	-0.07932018
114	0xbedd2124	-0.43189347
115	0x3cd57965	0.026058862
116	0x3e21e18e	0.15808699
117	0x3e6ff140	0.23431873
118	0x3d368427	0.044559624
119	0x3e281443	0.16413979
120	0xbce9b249	-0.028527396
121	0x3d475fc1	0.048675302
122	0xbe67d163	-0.22638468
123	0x3e080a8c	0.13285273
124	0x3f077e30	0.5292692
125	0x3cc07140	0.023491502
126	0xbedceb72	-0.4314838
127	0xbe0162ee	-0.12635395
128	0xbe50aa36	-0.2037743
129	0xbd20b20b	-0.039232295
130	0x3eaef9d2	0.34174973
131	0xbdb3ee46	-0.087856814
132	0x3e55376d	0.20821925
133	0x3d36a8d0	0.044594586
134	0x3e9e9cb7	0.3097894
135	0x3e87a576	0.26493424
136	0xbe749e86	-0.23888597
137	0x3e35a98a	0.17740455
138	0x3ebf68fe	0.3738479
139	0x3d6ba98a	0.057534732
140	0x3ecf516e	0.40491813
141	0xbe1088ac	-0.14114636
142	0x3e279a06	0.16367349
143	0xbd8bd700	-0.06828117
144	0xbdf48207	-0.11938863
145	0x3e639346	0.22224149
146	0x3ecfd594	0.40592635
147	0xbec692e5	-0.38783947
148	0x3e93003a	0.2871111
149	0xbe483dc5	-0.19554813
150	0x3e97d652	0.296557
151	0xbf152b13	-0.5826885
152	0xbe4f2f58	-0.20232904
153	0x3ebfb114	0.37439787
154	0x3e463c4e	0.19358942
155	0xbcf8dc32	-0.030378435
156	0xbe627522	-0.22114995
157	0x3e6cf645	0.2314082
158	0xbde893c3	-0.11356308
159	0xbee58fb8	-0.4483621
160	0xbe3552ef	-0.17707418
161	0x3e493bb2	0.19651678
162	0xbd1e5e79	-0.038664315
163	0x3ee2dc46	0.4430868
164	0xbef69d72	-0.48166996
165	0xbe806afd	-0.25081626
166	0xbe95de76	-0.29271287
167	0x3e1710e6	0.1475254
168	0xbd115324	-0.03547968
169	0x3eb73838	0.3578508
170	0x3f11986c	0.568732
171	0xbe956fae	-0.29186767
172	0xbded60a3	-0.115906976
173	0x3e61cf1a	0.22051659
174	0x3e395f6a	0.18102804
175	0xbea1b50e	-0.31583446
176	0x3c424c07	0.011858947
177	0x3d9487d5	0.072524704
178	0x3da46653	0.08027329
179	0x3ecd602f	0.40112445
180	0xbdddd203	-0.10831072
181	0x3e2e5ef2	0.17028406
182	0xbd9718fc	-0.07377812
183	0xbe8f495b	-0.27985653
184	0xbda22a8f	-0.07918274
185	0x3d5a7fa6	0.05334439
186	0x3e12c462	0.14332727
187	0xbcae1643	-0.02125085
188	0x3ec99a04	0.39375317
189	0x3e18249a	0.14857712
190	0x3df5e316	0.12006204
191	0xbe64d4c8	-0.22346795
192	0xbee3cfed	-0.44494572
193	0xbed9ca06	-0.42536944
194	0xbe1b6f11	-0.15179087
195	0xbe0feda3	-0.14055495
196	0x3e7f05b4	0.2490452
197	0xbd7898db	-0.06069265
198	0xbe0cf95d	-0.13767
199	0xbe998e30	-0.29991293
200	0x3ebc7474	0.36807597
201	0xbdca1489	-0.09867198
202	0x3dde6cfc	0.10860631
203	0x3ea7f890	0.32806826
204	0xbd1d352e	-0.038380794
205	0x3e884fa6	0.26623267
206	0xbaf11a7d	-0.0018394735
207	0xbe909737	-0.28240368
208	0x3e59171c	0.21200222
209	0x3d323486	0.04350712
210	0x3ee6d924	0.4508754
211	0xbec6992d	-0.3878874
212	0x3e31b947	0.17355834
213	0xbd1ac7fd	-0.03778838
214	0xbd3a35a4	-0.045461312
215	0x3e189489	0.14900412
216	0x3f2caa50	0.67447376
217	0x3e187605	0.14888771
218	0xbe1a766d	-0.15084238
219	0xbe95f824	-0.2929088
220	0xbeb44d68	-0.35215306
221	0xbd685583	-0.056722175
222	0x3e16b9b5	0.14719279
223	0xbdcfcc22	-0.10146357
224	0x3c5c3615	0.013440629
225	0xbe6f3497	-0.23359905
226	0x3e95027c	0.29103458
227	0xbec95781	-0.39324573
228	0x3df55793	0.11979594
229	0xbb8c5841	-0.0042829816
230	0xbed91f41	-0.42406657
231	0xbe90162d	-0.2814192
232	0xbeb9dc47	-0.3630087
233	0x3e9c34d9	0.3050907
234	0xbd203076	-0.039108716
235	0xbe4cb9e9	-0.19992794
236	0x3df65702	0.12028314
237	0xbef3560b	-0.47526583
238	0x3e9850c7	0.29749128
239	0x3ef54c94	0.47909987
240	0x37a6b818	1.9874467e-05
241	0xbe985f68	-0.2976029
242	0x3c50c685	0.012742643
243	0xbd7e892b	-0.062142532
244	0x3d82ea2d	0.06392322
245	0x3e76fd17	0.24119984
246	0x3edb8f61	0.42882827
247	0xbcefa39c	-0.02925282
248	0x3daea9fb	0.08528515
249	0x3eea4cc4	0.45761693
250	0x3d9bfe16	0.076168224
251	0xbedca5f1	-0.43095353
252	0xbc5fb9a4	-0.0136551
253	0x3d931f2b	0.07183679
254	0x3ec6985c	0.38788116
255	0x3dee43a6	0.11633997

network_body._body_endoder.seq_layers.0.bias f4 [64]
0	0x3d7f14a9	0.062275562
1	0x3cca1e36	0.024672609
2	0x3c5c3229	0.0134396935
3	0xbd8b3cff	-0.067987435
4	0xbd837cac	-0.06420264
5	0x3da6df73	0.08148088
6	0xbc126da5	-0.008937274
7	0x3d812f6a	0.06307872
8	0xbc419442	-0.011815133
9	0x3d97aecc	0.07406387
10	0x3dc91f48	0.098204195
11	0x3db6de78	0.08929151
12	0xbc92f4eb	-0.017939052
13	0xba33449b	-0.0006838531
14	0x3d98cd1c	0.074609965
15	0x3dbb0657	0.091320686
16	0xbd826e3b	-0.06368681
17	0x3d597f5f	0.053099986
18	0x3c7d3516	0.015454551
19	0x3d120469	0.035648737
20	0x3d9b6709	0.07588012
21	0xbd92d70c	-0.07169923
22	0xbd898931	-0.0671562
23	0xbdc12b73	-0.094321154
24	0x3d53ce4a	0.051710404
25	0x3d59e45a	0.05319629
26	0x3ccdcec3	0.025123006
27	0x3d6caa2d	0.05777948
28	0x3c92580c	0.01786425
29	0x3c4dc59b	0.01255932
30	0x3d81295a	0.06306715
31	0xbdc330e7	-0.09530812
32	0x3db7d27e	0.08975695
33	0x3db17892	0.08665575
34	0x3d1bbf19	0.03802404
35	0x3d19419c	0.037416086
36	0x3dd8ff3c	0.10595557
37	0x3db1b7f1	0.08677662
38	0x3d8b9a74	0.06816569
39	0xbcd499ac	-0.025952183
40	0xbd9574c7	-0.07297664
41	0x3d685a05	0.056726474
42	0x3d880a11	0.06642545
43	0x3d00eecc	0.031477734
44	0x3d571113	0.052506518
45	0x3dc22726	0.09480123
46	0x3cfae448	0.030626431
47	0x3c61d822	0.01378444
48	0x3d2dc597	0.042424764
49	0x3d54abf6	0.051921807
50	0x3dab1ae4	0.08354738
51	0x3d91969d	0.07108805
52	0xbd4cec56	-0.050030075
53	0xbd198b1e	-0.037486188
54	0xbd91728e	-0.07101928
55	0x3d0c540a	0.034259833
56	0x3c8d7464	0.017267413
57	0xbd4270e7	-0.047470953
58	0x3d420181	0.047364715
59	0x3d601f49	0.054717336
60	0x3d4fbd20	0.050717473
61	0xbd2d8548	-0.042363435
62	0x3cb8f4fd	0.022577757
63	0x3c93783b	0.018001666

network_body._body_endoder.seq_layers.2.weight f4 [64, 64]
0	0x3e25b3f6	0.16181931
1	0x3c88b8d5	0.016689697
2	0x3e52dfa9	0.20593132
3	0xbcfcc668	-0.030856326
4	0x3d24e249	0.040254865
5	0x3cf3fe48	0.029784337
6	0x3e2303c6	0.15919408
7	0x3d74d6db	0.059775215
8	0x3de2f422	0.11081721
9	0xbd41eb8e	-0.047343783
10	0xbdc0b7d0	-0.094100595
11	0x3da5eaac	0.08101401
12	0x3e1a85ed	0.15090151
13	0xbdc13d4b	-0.09435519
14	0x3e1b04a4	0.15138489
15	0x3e84c956	0.25934857
16	0x3d22c17b	0.0397353
17	0x3e7fbf90	0.24975419
18	0xbcbdaee6	-0.023154687
19	0x3e5c22b2	0.2149761
20	0x3d989e72	0.07452096
21	0x3db38eb2	0.08767451
22	0xbd78ff55	-0.06079038
23	0x3d1479f4	0.036249116
24	0xbbad40f0	-0.005287282
25	0xbc828ec8	-0.015937224
26	0xbd10b37c	-0.03532742
27	0x3d5f60d1	0.05453569
28	0x3e3a38ea	0.18185773
29	0x3d1230a3	0.035690915
30	0x3db6630f	0.08905613
31	0xbe2c331d	-0.16816373
32	0xbd8ac421	-0.0677569
33	0xbc8a6b0e	-0.01689675
34	0x3cf3eaf2	0.029775117
35	0xbbee1b7b	-0.0072664595
36	0x3daf286e	0.08552633
37	0xbda72628	-0.081615746
38	0x3da10ed9	0.0786416
39	0x3e05bd0b	0.13060395
40	0xbdb3b016	-0.0877382
41	0xbe104e19	-0.14092292
42	0xbdb2711c	-0.0871298
43	0xbd190830	-0.037361324
44	0x3c41fce0	0.011840075
45	0x3e14b31a	0.14521447
46	0xbdbe5125	-0.09292821
47	0xbe0c2ac7	-0.13688193
48	0xbd3ddd6e	-0.04635375
49	0x3e106f57	0.14104973
50	0x3dfd3fd0	0.12365687
51	0x3e2d8a0c	0.16947192
52	0xbd614b80	-0.055003643
53	0x3d8c7418	0.068580806
54	0xbd27b951	-0.040948216
55	0x3e332c61	0.17497398
56	0xbca2ca08	-0.019871727
57	0x3d3ebac4	0.046564832
58	0xbda28698	-0.07935828
59	0x3e0fc4fb	0.14039986
60	0xbc9afc7b	-0.01891922
61	0x3e0123d5	0.12611325
62	0x3ddc5131	0.107576735
63	0x3d8038e3	0.0626085
64	0xbe252233	-0.16126327
65	0xbdc4027b	-0.095707856
66	0x3ca17d23	0.01971299
67	0xbd1f9727	-0.03896251
68	0x3ba6f764	0.005095409
69	0xbde6c153	-0.112673424
70	0xbddf6974	-0.109087855
71	0xbca3076e	-0.019901004
72	0x3e000e94	0.12505561
73	0xbdd44775	-0.10365192
74	0xbd6553d8	-0.055988163
75	0xbe81d2ad	-0.25356045
76	0x3db8d973	0.0902585
77	0xbe4806dc	-0.19533867
78	0x3dcfd6f2	0.101484194
79	0x3c69075a	0.014222944
80	0xbdf0fdd3	-0.11767163
81	0x3d92e9a4	0.0717347
82	0x3d7b4457	0.06134447
83	0xbca2dd40	-0.01988089
84	0x3ddd6251	0.10809768
85	0xbd52d781	-0.05147505
86	0xbd0f23d3	-0.034946274
87	0xbd2a6f12	-0.04160983
88	0x3d8c47af	0.0684961
89	0xbd23dae9	-0.04000369
90	0xbd22e7b7	-0.03977176
91	0x3d87f9a1	0.0663941
92	0xbe011aa1	-0.12607814
93	0x3e1a354e	0.15059397
94	0x3e0cb743	0.13741784
95	0xbd8d13f0	-0.068885684
96	0xbe12f862	-0.14352563
97	0xbcaa0c16	-0.020757716
98	0x3cae009f	0.02124053
99	0x3e0682dd	0.13135858
100	0x3e0d450e	0.13795874
101	0xbd9d59b8	-0.07683128
102	0x3d7d5fab	0.061858814
103	0x3e2d96d9	0.16952075
104	0xbd035bdd	-0.03207003
105	0x3d1fbe55	0.038999874
106	0x3ea2c7e1	0.3179312
107	0x3e3e24da	0.18568745
108	0xbca25ff5	-0.019821147
109	0xbd9ac660	-0.07557368
110	0x3d018958	0.03162512
111	0x3e26d0fc	0.16290659
112	0xbd9df266	-0.077122495
113	0xbe86e095	-0.26343217
114	0x3c5de58e	0.0135435
115	0x3e8b19d1	0.27168134
116	0xbd91d65c	-0.07120964
117	0x3db84a9c	0.089986056
118	0xbcc059e1	-0.023480358
119	0x3d9b5e8f	0.07586395
120	0x3e0b46bf	0.13601206
121	0xbe3bfbac	-0.18357724
122	0xbdb6895f	-0.0891292
123	0xbb8c8306	-0.00428808
124	0x3def7964	0.11693075
125	0xbdc79cf2	-0.09746732
126	0x3d7196dd	0.058981765
127	0x3e22fd7e	0.15917012
128	0x3d9e29d6	0.07722823
129	0x3e0496b1	0.12948109
130	0xbe2b1f4e	-0.1671116
131	0xbdddc052	-0.10827698
132	0xbe863643	-0.26213273
133	0x3dd293f3	0.10282125
134	0xbe617dc8	-0.22020638
135	0xbe0d503c	-0.13800138
136	0x3cd78e78	0.026313052
137	0xbd15ad19	-0.036542032
138	0x3d489d87	0.048978355
139	0x3c7a2de9	0.015269735
140	0x3e454c6c	0.19267434
141	0x3dde90ac	0.10867438
142	0x3dc174de	0.09446119
143	0xbe79cb08	-0.24393857
144	0xbd11db39	-0.035609458
145	0xbe4ba3f0	-0.19886756
146	0xbd821a33	-0.06352653
147	0xbe513156	-0.20428976
148	0xbd7bf40f	-0.06151205
149	0xbd7bfae2	-0.061518557
150	0x3d9f2e1d	0.07772467
151	0x3e8ae9c6	0.2713148
152	0x3cbe21c3	0.023209458
153	0x3e8edbd4	0.2790209
154	0xbde3861f	-0.11109566
155	0xbdf2fda0	-0.118647814
156	0xbd144ce0	-0.036206126
157	0x3d2dcae4	0.04242982
158	0x3d5a2459	0.05325732
159	0x3db4d962	0.08830525
160	0x3dc47878	0.0959329
161	0xbd1a3c7c	-0.03765534
162	0xbe097c1b	-0.13426249
163	0xbd249cd0	-0.04018861
164	0x3ddd498e	0.10805045
165	0x3d085957	0.033288326
166	0xbe508dca	-0.20366588
167	0xbdd37e43	-0.10326817
168	0x3d8b042d	0.06787906
169	0x3cf952ea	0.030435044
170	0xbd34a79f	-0.04410517
171	0x3e20cc9f	0.15703057
172	0x3d71ba39	0.059015486
173	0x3e2869d8	0.16446626
174	0x3dc3239e	0.09528278
175	0x3da7ef7e	0.081999764
176	0xbcaf6924	-0.02141244
177	0xbe5eba42	-0.21750739
178	0x3e2e4186	0.17017183
179	0x3de2cb60	0.11073947
180	0x3d641b96	0.05569037
181	0xbe0cb891	-0.13742281
182	0xbd2bdc03	-0.041957866
183	0xbdd4cd5e	-0.10390733
184	0x3dab1b1a	0.083547786
185	0xbd304bd6	-0.043041073
186	0x3d075b56	0.03304609
187	0x3d84d968	0.064867795
188	0xbe167932	-0.1469467
189	0x3e972d9c	0.29526985
190	0xbdce24d8	-0.10065621
191	0xbe245fa3	-0.16052108
192	0xbe0a51d8	-0.13507783
193	0x3e25d503	0.16194539
194	0x3cce7d19	0.025206136
195	0x3d6564bb	0.056004267
196	0xbdbd4306	-0.09241299
197	0x3e6e50a5	0.23272951
198	0x3db26f85	0.08712677
199	0xbe83b158	-0.2572124
200	0x3e2799c5	0.16367252
201	0x3dc25128	0.094881356
202	0x3dab9698	0.08378333
203	0x3e5a8935	0.21341403
204	0x3e2be576	0.16786751
205	0xbe70431c	-0.234631
206	0x3d206cd9	0.039166305
207	0x3e112f34	0.14178163
208	0x3cc05afc	0.023480885
209	0xbe5a0216	-0.21289858
210	0x3dcc85f6	0.099864885
211	0xbdd3fca7	-0.10350924
212	0x3deb462b	0.11487993
213	0xbdf5d169	-0.120028324
214	0xbd97e8b9	-0.07417435
215	0x3d97685c	0.07392952
216	0x3e951ef6	0.29125184
217	0xbe290d53	-0.16508989
218	0x3e23e55e	0.16005465
219	0x3d28e1ac	0.041230842
220	0xbd683b0c	-0.056696936
221	0x3db30dc2	0.087428585
222	0xbe8aea33	-0.27131805
223	0xbe12e1dd	-0.14343973
224	0x3dae4d1a	0.085108
225	0x3dc8c16a	0.09802516
226	0xbe5dac7f	-0.21647833
227	0xbaaf66cd	-0.0013382077
228	0x3df16825	0.11787442
229	0xbcee0952	-0.029057179
230	0x3b1e6b16	0.0024172715
231	0xbe2a1f76	-0.16613564
232	0x3de77013	0.11300673
233	0x3dc6956e	0.0969647
234	0xbe0c6697	-0.1371101
235	0x3d8bac3b	0.0681996
236	0xbe278ef2	-0.16363123
237	0x3e626acd	0.22111054
238	0x3daa4e15	0.08315674
239	0xbddc8464	-0.10767439
240	0xb98eec9d	-0.0002726064
241	0xbe50f3ad	-0.20405455
242	0x3ddbf1a5	0.107394494
243	0xbe14bfac	-0.14526242
244	0x3dd50576	0.10401432
245	0xbd302c8f	-0.043011244
246	0x3c43235e	0.011910288
247	0xbc84fa2c	-0.016232572
248	0x3d2988d8	0.04139027
249	0x3d4ba8d1	0.049721543
250	0x3d53e12e	0.05172842
251	0x3d808c68	0.0627678
252	0x3d9b9867	0.07597428
253	0xba5d2784	-0.0008436369
254	0xbe02d3a1	-0.12776043
255	0x3dc6c0ca	0.0970474

network_body._body_endoder.seq_layers.2.bias f4 [64]
0	0x3d8404ed	0.06446252
1	0x3d299777	0.041404214
2	0x3d776d0e	0.060406737
3	0x3db567d0	0.08857691
4	0x3d54fffc	0.05200194
5	0x3da480b9	0.080323644
6	0xb96bfd7b	-0.00022505775
7	0xbd9864e8	-0.07441121
8	0x3c3bd451	0.011464194
9	0xbd179f85	-0.037017364
10	0x3d363bb3	0.044490527
11	0xbd55fbe8	-0.05224219
12	0x3da21c6f	0.079155795
13	0x3cebafb9	0.028770315
14	0x3d2f619a	0.04281769
15	0xbbf38de7	-0.0074326876
16	0x3d2ecd4f	0.042676266
17	0xbd7fd936	-0.062463008
18	0x3d83041b	0.063972674
19	0x3db6d18d	0.089266874
20	0xbd141b18	-0.03615865
21	0xbd792007	-0.06082156
22	0x3d1fce5c	0.03901516
23	0x3d93d6c4	0.07218698
24	0x3d830ec2	0.06399299
25	0x3d0edbd7	0.034877624
26	0xbc2cbefb	-0.01054358
27	0xbcce71f6	-0.025200825
28	0xbd7a6f14	-0.06114109
29	0x3da847de	0.082168326
30	0x3da9a0de	0.08282636
31	0x3db1f80b	0.086898886
32	0x3d9ba95c	0.07600662
33	0xbd56b2e4	-0.052416697
34	0x3cafa97e	0.021443125
35	0x3c8281c0	0.01593101
36	0xbc7a50f7	-0.015278093
37	0xbd86ac59	-0.065758415
38	0xbd3a3a43	-0.04546572
39	0x3d60cb9d	0.05488168
40	0xbd13e83d	-0.03611015
41	0xbda5c2d8	-0.08093804
42	0x3d8b9339	0.0681519
43	0x3daccf2c	0.084379524
44	0x3d902b9f	0.0703957
45	0xbdab7a73	-0.08372965
46	0x3cf6796c	0.030087195
47	0x3d125c65	0.035732646
48	0x3d6d4316	0.057925306
49	0x3d8ec02a	0.06970246
50	0x3d9d3e72	0.07677926
51	0xbc7763a0	-0.015099436
52	0x3d635843	0.055504095
53	0x3d4fc268	0.05072251
54	0x3dbb8475	0.091561235
55	0x3d970630	0.07374227
56	0x3c957359	0.018243479
57	0x3da3a25f	0.07989954
58	0xbcb7d2dc	-0.022439413
59	0x3d98a230	0.0745281
60	0x3d39a734	0.045325473
61	0x3dad71fe	0.08469008
62	0x3d2d647a	0.04233215
63	0xbd4c9497	-0.049946394

action_model._continuous_distribution.log_sigma f4 [1, 2]
0	0xbd04055a	-0.032231666
1	0xbd8b9348	-0.06815201

action_model._continuous_distribution.mu.weight f4 [2, 64]
0	0x3c7c5df4	0.01540326
1	0x3ce415f6	0.027842503
2	0x3c42b5b8	0.011884145
3	0x3d9373ca	0.071998194
4	0x3dc4f380	0.096167564
5	0x3d2e1bb4	0.04250689
6	0xbd68bf84	-0.05682327
7	0xbda14c4e	-0.07875882
8	0x3d4793d5	0.048724968
9	0xbcafb23f	-0.021447299
10	0x3c9b6f67	0.01897402
11	0xbd51d859	-0.051231716
12	0x3d76ab72	0.060222097
13	0x3aef1db0	0.00182431
14	0xbc431721	-0.01190737
15	0xbc6a78c1	-0.014311017
16	0x3db5a0fd	0.08868597
17	0xbd9d1de4	-0.07671717
18	0xbb04230c	-0.002016249
19	0x3d9bfd88	0.076167166
20	0xbd5b8b3e	-0.05359959
21	0xbd26f350	-0.040759385
22	0x3d214901	0.039376263
23	0x3d1cb0cc	0.038254544
24	0x3d045e11	0.03231627
25	0xbcc9e4dc	-0.024645261
26	0xbbb3129d	-0.0054648654
27	0xbc1cfd12	-0.009581821
28	0xbcd1f5dc	-0.02562993
29	0x3d544a8d	0.05182891
30	0x3d80be91	0.06286348
31	0x3d73fd00	0.05956745
32	0x3d45485d	0.048164714
33	0xbd232f86	-0.039840244
34	0xbc7fbd4b	-0.015609096
35	0x3c0777dc	0.008268323
36	0xbdb3ebba	-0.08785196
37	0xbce6b2a5	-0.028161356
38	0xbd2e5ae5	-0.042567153
39	0x3d9e4685	0.07728294
40	0xbdb406a7	-0.08790331
41	0xbdb3244d	-0.08747158
42	0x3d2c3e27	0.04205146
43	0x3d92d6a2	0.07169844
44	0x3cce15d2	0.02515689
45	0xbd837d22	-0.064203516
46	0xbc6d0cc5	-0.0144683765
47	0xbc8c18a2	-0.01710159
48	0x3d163969	0.036675844
49	0x3d6e007e	0.058105938
50	0x3d2d6205	0.042329807
51	0xbc6f5536	-0.014607718
52	0x3c3599a4	0.011083994
53	0x3c8d08ed	0.01721617
54	0x3d9c6f00	0.07638359
55	0x3d92aee5	0.07162265
56	0x3d252846	0.04032161
57	0x3dade119	0.084901996
58	0x3c8bf4df	0.017084537
59	0x3d7ab440	0.061207056
60	0xbaf8bc62	-0.0018977041
61	0x3d7746de	0.06037032
62	0x3ab97659	0.001414965
63	0xbcc48351	-0.023988398
64	0x3d29c75c	0.04144989
65	0x3cbb0009	0.022827165
66	0xbc0e1bb1	-0.008673594
67	0xbc9f1dae	-0.019423332
68	0xbcad9b44	-0.0211922
69	0x3c948a22	0.018132273
70	0x3d2f1905	0.04274847
71	0xbbae1e22	-0.0053136507
72	0xbcef263a	-0.029193033
73	0xbb3f7cfc	-0.0029218784
74	0x3ce11eae	0.02748045
75	0x396693c9	0.00021989564
76	0xbca44ecd	-0.020057106
77	0x3d4120bc	0.04715036
78	0x3d73c703	0.059515964
79	0x3d0cddf3	0.034391355
80	0xbcee0329	-0.029054241
81	0xbd73d342	-0.059527643
82	0x3d38e439	0.045139525
83	0x3d5226e8	0.051306635
84	0x3cdf8db4	0.027289249
85	0xbd2fec33	-0.042949867
86	0xbc8406ae	-0.016116466
87	0x3d40bf97	0.047057714
88	0x3d70add7	0.058759537
89	0x3ce020fc	0.027359478
90	0xbd2fe3fb	-0.04294203
91	0xbc963006	-0.018333446
92	0xbd081f30	-0.033232868
93	0x3d7e4717	0.062079515
94	0x3cef0859	0.029178785
95	0x3d4de0b8	0.050263137
96	0x3d3c6d43	0.046002638
97	0xbb85585b	-0.0040693707
98	0x3d5aab44	0.053385988
99	0xbcc6dc12	-0.02427486
100	0x3cd7db6e	0.02634975
101	0xbd06ef28	-0.03294292
102	0xbdb210f3	-0.08694639
103	0xbcd4c861	-0.025974454
104	0x3d22088a	0.039558925
105	0xbc1e2098	-0.009651326
106	0x3d1968e8	0.037453562
107	0x3d226c88	0.039654285
108	0x3d15d7fd	0.036582936
109	0xbd448bc5	-0.047984857
110	0x3d2495ae	0.04018181
111	0x3d9bd4fb	0.07608982
112	0x3d0913ae	0.033466034
113	0x3d871411	0.06595624
114	0x3c4afa9a	0.01238885
115	0xbd1182ab	-0.035525005
116	0x3d773540	0.060353518
117	0x3d78a949	0.060708318
118	0xbbde4783	-0.006783427
119	0x3da8a520	0.0823462
120	0xbc77e7f3	-0.015130985
121	0x3ce92f00	0.028464794
122	0xbde10208	-0.109867156
123	0x3d8ef23c	0.06979796
124	0x3d117e90	0.03552109
125	0x3c9813e7	0.018564178
126	0x3d99434d	0.0748354
127	0xbd3e6a0d	-0.046487857

action_model._continuous_distribution.mu.bias f4 [2]
0	0x3d70b19d	0.058763135
1	0x3d1cb3d5	0.03825744

onnx::Div_51 f4 [17]
0	0x40f2e38e	7.5902777
1	0x40dfb7e8	6.9911995
2	0x40c4a1a3	6.144731
3	0x40bc9b80	5.893982
4	0x40c43cf5	6.132441
5	0x40c309d8	6.0949516
6	0x40b1b6dc	5.5535717
7	0x409b460c	4.8523006
8	0x4084bda1	4.148148
9	0x40675543	3.614579
10	0x40e36fe2	7.1074076
11	0x40009f6c	2.0097303
12	0x407f911c	3.9932318
13	0x40248f2c	2.5712385
14	0x40debe66	6.960742
15	0x40cc209b	6.37898
16	0x40c95db4	6.2926884
