results/test-1/Drive/checkpoint.pt (torch, 475170 bytes, 36 tensors)

network_body._body_endoder.seq_layers.0.weight f4 [128, 17]
00000000: d310 5bbe bea8 4ebe 75d0 e73d 7069 5a3e
00000010: 9d50 923d cffe c23d 6a9a 803e c50c 5f3e
00000020: ae69 14be b03e f93d 45c4 cb3e 134c 04be
00000030: 7e2b f2bc 07c2 6cbe eb30 4a3e 5507 d23e
00000040: becf bd3e 861d a8bd f71b af3e ee81 30be
00000050: 2625 9fbc ca88 aabe 214a 95be 957f 633d
00000060: 0844 013e 6ee3 253e 1477 543e 2ace 603c
00000070: 57e9 673d b00e 983e e55d 033d ee70 433c
00000080: 46af 183e 1301 a23d 6ee8 03be 8e31 0dbe
00000090: e275 193d b8ec 15be fcc4 01bf e7a0 ce3e
000000a0: 6661 2dbe d238 a6be 1b08 f73e 64b3 b33d
000000b0: f48d 0ebf 9ab7 eebd a204 153e 2125 26bd
000000c0: eb8a 35bd aed1 1dbd 75fd 6bbe 1575 263e
000000d0: a937 ccbe 8502 2e3e de1e 103e f4a2 503e
000000e0: 50a1 7bbe d7e2 bdbd d314 e23d f86f 97be
000000f0: cc7d 753e 5ed9 79be f1c9 35bd a09b 3a3e
00000100: ba0d 163e dcb9 bbbc c647 6bbe 4bc6 b23e
00000110: 8520 d63c 4ead 77be c4e8 59be ce57 f63c
00000120: b72c 6ebe 8e33 3bbe d5d1 a93e 4699 0b3c
00000130: d985 9abe 4b78 ec3d 4ea6 69be 8c85 33bd
00000140: d43b 9a3e 6088 c5bd 2729 103e 7d1a 0c3e
00000150: 6a6a a53e 4006 813e 7f0d 453e 39f3 513e
00000160: 500c b73c 678c 68be 585c d9bd 4ef1 81be
00000170: 4151 dfbe a536 bf3d 7c74 e03e 526d 9a3c
00000180: 192c 543e d8df 923c ed7f cabe 95bd 613d
00000190: f97a 403e 74f3 10be afa5 b2be 3d72 e13c
000001a0: ede5 213e 69d3 853e 51be e5bd d291 bd3d
000001b0: 801a 02be d5c7 02bb 8660 803d b7c5 83be
000001c0: dd7b f4be a7a9 c83d 95dc 573e 93ac 65bd
000001d0: 0dfd 223e 8d00 0c3d 8ae5 673c 8406 57be
000001e0: f72c d7be 8855 083e 2932 c83d fd7d 3abe
000001f0: 2155 2bbd 52b6 8abe bef9 94be 4fe5 ac3d
00000200: 03a5 f03d b64e 49bd 0f7f 62be 5ac3 173e
00000210: d843 803c f44a 97bd 783b 90bd f90a ff3e
00000220: 5daf 0d3e ae18 5b3e 03ad 69be 8126 f83c
00000230: 1394 cebd 8a01 68be 1f55 73bd 80c4 a73e
00000240: 91ed b83d 1d92 9ebd 2182 22be c944 8e3e
00000250: 327f 4ebe 33bf 78bd cc88 573e d089 78bd
00000260: fa06 10be ac99 d1be 75cb 88be 1f61 7f3c
00000270: 27c9 ff3e 08da b83e 05cb 1c3e 774a 47be
00000280: e864 643e bafc 2bbe d68f 4cbc 0550 2b3e
00000290: dd8f c3be ed9f f6bd 2215 e8bc add2 083e
000002a0: dfee bf3d 2b4e 283d b5cf d03a 2023 783e
000002b0: 78be 943c 91ea fdbd 4e72 2b3e edb1 cd3d
000002c0: 275a cc3b b4d4 023f 25f0 5d3e 3d39 4bbc
000002d0: a622 6f3e e229 92be 779e a3bd a68e a53e
000002e0: b074 b6be 51e1 0c3a 6e8c 513e 2c1c 183c
000002f0: b5be 4a3e ae87 fdbd 21ad 68be 838b fabe
00000300: bfb9 873e b5a6 da3e 827d 44be e06f 713d
00000310: 5f18 963d 01c1 9a3d f326 c7bd 04a3 743e
00000320: 9f85 58be 8001 5f3e 300c 293e 609f 023d
00000330: b399 113e ed14 ca3d 52a2 ebbe d82f 073d
00000340: 7b32 693e 1bc4 143e 5a70 f8bc d1fa f53d
00000350: f167 a3be 9927 263f 44d6 cbbe 1cb8 41be
00000360: 71c5 7cbe c385 a13d 72a4 03bf e590 263e
00000370: 45d3 02bf 07b6 8dbd f61a a63e 2274 13be
00000380: fb41 393d e702 0ebd ccec 26bd 9d61 80be
00000390: dfa0 343d fa14 773e 0ea5 55bd b442 ee3d
000003a0: 4331 823e 0583 e0be afb4 6b3e 3884 8d3e
000003b0: 297a 6c3d c690 10bf 3a8f c6bd 5e79 bf3e
000003c0: b100 803e cfc6 c6be a280 97be 3193 92be
000003d0: cb07 be3e 3afa d1be 5600 62be 2a92 953e
000003e0: eac6 30be 2a3a f7bd a6f4 7dbe 9922 abbe
000003f0: f0f5 5abe 2a9f 963e 0a91 8a3e bc54 b6be
-0.21393137 -0.20181558 0.11319057 0.21329284 0.07144282 0.09521257 0.2511781 0.21782215
-0.14493439 0.1217016 0.3979818 -0.12919645 -0.029561754 -0.2312089 0.19745223 0.4102122
0.37072557 -0.08208756 0.34201023 -0.17237064 -0.019426893 -0.33307487 -0.29158118 0.055541594
0.12623608 0.16200039 0.2074855 0.013721028 0.056619015 0.29698706 0.032071967 0.01192878
0.14910612 0.07910361 -0.12881634 -0.13788435 0.037465937 -0.14641082 -0.506912 0.40357134
-0.16931686 -0.32465225 0.4824837 0.087744504 -0.55685353 -0.11656113 0.14552549 -0.040562753
-0.044321936 -0.038530044 -0.23045905 0.16255601 -0.39886215 0.16993149 0.14074275 0.20374662
-0.24573255 -0.09271782 0.11039128 -0.29577613 0.23973769 -0.24399325 -0.04438204 0.18223429
0.14653674 -0.022915773 -0.22976598 0.3491691 0.026138553 -0.24187204 -0.212802 0.030071165
-0.23259245 -0.18281385 0.33167902 0.00852043 -0.30180243 0.115463816 -0.22817346 -0.043828532
0.3012377 -0.09645152 0.14078198 0.1368198 0.3230775 0.2520008 0.1924343 0.20502938
0.022344738 -0.22709809 -0.10613316 -0.25379413 -0.4361668 0.093365945 0.4383887 0.018850956
0.20719947 0.017929003 -0.39550725 0.05511244 0.1879691 -0.1415537 -0.34892032 0.027520293
0.15810366 0.26137856 -0.112179406 0.09256329 -0.12705421 -0.0019955535 0.062684104 -0.25736782
-0.4775075 0.097979836 0.21080239 -0.056072783 0.15916844 0.034180213 0.0141538475 -0.2099858
-0.42026493 0.13313878 0.09775192 -0.18212123 -0.041829232 -0.27092224 -0.29096788 0.08442175
0.117502235 -0.04914733 -0.22118782 0.14820614 0.01565735 -0.07387343 -0.07042593 0.4981306
0.13836427 0.21396133 -0.22819905 0.030291798 -0.10086837 -0.22656837 -0.05940735 0.32767105
0.09029687 -0.07742713 -0.15869953 0.27786854 -0.20165709 -0.060729217 0.21048278 -0.060678303
-0.14065161 -0.40937555 -0.26717725 0.01558712 0.49958155 0.36103845 0.15311821 -0.19462
0.22304118 -0.16795626 -0.012485465 0.16729744 -0.38195696 -0.12042222 -0.02833039 0.13361616
0.09371733 0.04109017 0.0015931042 0.24232149 0.018157229 -0.123982556 0.16742823 0.10043702
0.006236333 0.5110581 0.21673639 -0.012403783 0.23353061 -0.2854758 -0.07989209 0.32335395
-0.356359 0.0005374151 0.20463726 0.00928406 0.19799311 -0.123793945 -0.22722293 -0.48934564
0.265089 0.42705312 -0.19188502 0.058944583 0.07328867 0.07556344 -0.09724226 0.2389031
-0.21144722 0.21777916 0.16508555 0.031890273 0.14218788 0.098672725 -0.46022278 0.03300461
0.22773163 0.14527933 -0.03032701 0.1201073 -0.31915238 0.6490417 -0.3981191 -0.18917888
-0.24684693 0.07886841 -0.514228 0.1626621 -0.5110362 -0.069194846 0.32442445 -0.1439977
0.04522894 -0.034670737 -0.04075317 -0.25074473 0.04409873 0.24129096 -0.05215936 0.11633816
0.2542821 -0.4384996 0.23018144 0.27639937 0.05773369 -0.56470907 -0.09695287 0.37397283
0.25000528 -0.38823554 -0.29590327 -0.28627923 0.3711532 -0.4101122 -0.2207044 0.29213077
-0.1726338 -0.12071641 -0.24800357 -0.33424833 -0.2138288 0.29418308 0.2706378 -0.35611522

network_body._body_endoder.seq_layers.0.bias f4 [128]
00000000: bee3 3fbd 77d9 153d 7caf 0a3c 00f7 24bd
00000010: f7a5 7a3c 9569 ec3c 311f 98bd 2df0 923c
00000020: 7572 913d 2a9d 6bbc 3089 babc 3be7 c93c
00000030: e684 9b3b 8402 02bc 9d0a 8f3c 0ea6 c3bc
00000040: 0e14 4cbc c4f9 5b3b 1901 09bd 9f7b 8fbc
00000050: 554e 96ba 2cd3 403c b33d 7ebb 0f4e 4fba
00000060: 31a1 423d 3cc8 233c 2094 9bbc b434 77bc
00000070: 7c8c bc3b d257 b83c b76c 9ebc b518 d43b
00000080: 5ec4 8139 cc40 7cbc 1676 0e3c 33e1 a73d
00000090: 0255 793b b112 e63c 84c8 f1bc 4064 143d
000000a0: c812 903d c014 423b 27bf 483d 23a9 bbbc
000000b0: b481 dbbc af41 90bb 9c7a 723c 0999 d1bc
000000c0: a02a dfb8 b883 27bd d76f 943c dae6 9abc
000000d0: 07ed d0bc 577a 80bd 6ec0 59bc e3dc 553c
000000e0: 67e7 c0bb 66bb 8fbd 3fff cdbc 8934 8abb
000000f0: 7499 57bb 2f26 873b 09a4 16bd 2af4 823d
00000100: 2105 f9bb fe24 b8bc 6afd 1fbc c0ae 743c
00000110: fbd3 48bc a85b c53a d885 42bc 1e66 f93c
00000120: 4ff9 0cbd e49b 073b cda0 2abd 6c51 553c
00000130: 1d25 bd3c 0e55 613c a4f4 77bc 4229 bcbb
00000140: 68a7 f5bb a8f2 74bc c3f6 3dbc 8d2d d03c
00000150: f7f0 cebc 4381 c3bc a51f 02bd 20c1 b5bc
00000160: a2af 2fbd 14d9 4b3b 9b81 f9bb 84bf 3fbc
00000170: 8cd8 293c 841c c83c f086 0ebc b202 953c
00000180: 567a 91ba df77 4fbd 57c3 213d 8da9 03bd
00000190: d1b5 e5bc 7c41 9ebd e0a5 f0bc d66d fdba
000001a0: 24b9 95bc cbba 07bd 591e 913a 8883 b0bc
000001b0: 3c9a 993c 0333 803b aea7 443b 83f1 a7bc
000001c0: 41d4 62bd f2af 8fbb e621 a0bc 7ef1 5dbd
000001d0: 0983 9dbc cea1 33ba eecc baba 3512 7b3c
000001e0: 6e2e e23b 8c3b 743c 3ba9 ac3c da20 963c
000001f0: 3f2c 6abd 96cd 5e3a 8a07 f5bc 3eb1 09bc
-0.04684805 0.036584344 0.00846469 -0.04027462 0.015298358 0.02885894 -0.07427824 0.01793679
0.07101909 -0.014380733 -0.022770494 0.024646392 0.0047460673 -0.00793517 0.017461115 -0.023882892
-0.012455953 0.003356562 -0.033448312 -0.017515002 -0.0011467437 0.011769097 -0.00387941 -0.0007908055
0.047517005 0.00999647 -0.01899153 -0.015088249 0.0057540517 0.022502813 -0.019338949 0.006472672
0.00024751102 -0.015396308 0.008695146 0.0819725 0.0038045053 0.028085085 -0.029514559 0.03622842
0.07034832 0.0029614419 0.049010422 -0.0229078 -0.026795246 -0.0044023613 0.01479974 -0.025585668
-0.00010641408 -0.0408971 0.018119736 -0.018908907 -0.025503648 -0.062733345 -0.013290508 0.013053152
-0.0058869603 -0.07018165 -0.025146125 -0.0042176885 -0.0032897862 0.004124425 -0.03677753 0.06394227
-0.0075994884 -0.022478577 -0.009765008 0.014934242 -0.012257571 0.0015057223 -0.011872731 0.030444201
-0.034417447 0.0020692283 -0.041657258 0.013019901 0.023088986 0.013753189 -0.01513401 -0.005742223
-0.007496763 -0.014950432 -0.011594477 0.025412345 -0.025261385 -0.023865348 -0.03176846 -0.022186816
-0.042892106 0.003110473 -0.007614327 -0.011703376 0.01036657 0.02442766 -0.008699164 0.018189762
-0.0011099081 -0.050651427 0.03949293 -0.032144118 -0.028040798 -0.07727334 -0.02937597 -0.0019335102
-0.018276758 -0.033137124 0.0011071666 -0.021547094 0.018750302 0.003912331 0.0030007171 -0.020500904
-0.055378202 -0.004384988 -0.019547414 -0.054185383 -0.019227521 -0.0006852419 -0.0014251748 0.015324165
0.0069025075 0.014906775 0.02107679 0.018326212 -0.057171103 0.00084992626 -0.029910821 -0.008404074

network_body._body_endoder.seq_layers.2.weight f4 [128, 128]
00000000: 1b98 2b3d f4bc 823d 39a0 0d3d 9a4a 2c3e
00000010: c648 2c3d f2b5 9d3d b212 2cbd 5329 253e
00000020: 8e8c a83d 0324 5d3d 84e4 123c 27c4 933d
00000030: 7024 643c 69bb 633d c00a 6dbd d14b cdbc
00000040: 13ef 10be 89c3 493e 35ff 313d 7259 273d
00000050: 639b 3c3c 2065 7fbe 1303 66bd ca35 503d
00000060: bc76 cb3d ff4a a1bb 7d16 de3c 7a01 7fbe
00000070: 8c3a 0cbd 9954 8d3b 81b0 f33d af74 24bb
00000080: 1e95 0b3e b096 393d 807f c43d acb9 a6bd
00000090: 1b8c 253d fe07 61bd 3099 8c3c 758e 3bbe
000000a0: b28a a3bc b0ad 2cbe 2797 c23d 644a f8bd
000000b0: 1796 153d 4497 483c d674 a3bd bec0 78bd
000000c0: a01c 4d3d b946 243e 37e3 d7bc 5973 b13d
000000d0: df94 043e a876 823d 10f2 703d 4805 d73d
000000e0: e5c3 f93d 36b0 9e3d 1c07 acbd 85d8 3f3e
000000f0: 11e2 343e 3a10 a03d f8b6 9e3d 9df4 b43d
00000100: 7f56 863d b839 bd3d 85c4 533d f22a 953d
00000110: a1e4 993d 7ff4 b7be 7132 f1bd a02f 38be
00000120: e33a ce3d 7f4e bfbc 1f2f ebbd b78e 34bd
00000130: d273 07be 12f7 cbbd 14dc 233c a091 99bd
00000140: 0cf5 073e a669 1a3d 0d04 9fbc 168f 873d
00000150: 6681 c93d b45b 293d a02b e9bd b5e0 adbd
00000160: eed8 a5bd 4b40 ae3d 1982 113e 0ca7 8e3d
00000170: 0c9c 203d ff62 0d3e d5fc ba3d 560b 703d
00000180: e3b2 81bb 8cf5 44ba 09dc cd3d e361 e1bd
00000190: 7103 c43c 5d21 10bd 2d90 d6bd c0da 2f3d
000001a0: 6585 a5bb 7959 e03d d846 b83d bb3b 313a
000001b0: b3b3 1ebe 8a56 e73c 4b29 833d c739 fb3b
000001c0: 5328 b0bd 8e9e e23c f20b f43b d5ac fdbd
000001d0: dffe 7a3d c704 06bd bc44 1dbe 5a35 88bd
000001e0: 2318 11bc adbb cf3c 331e eabb f59d 063d
000001f0: 37c3 63bd c6d8 50be 7ec9 b0bd 92a6 433d
00000200: 0393 ccbc 9f25 2a3e 8c68 78bc 5af1 1abe
00000210: 702e 2f3d 0af9 3abe e334 ddb7 42a9 a93d
00000220: ae62 433d c033 35b5 955b 303e 366c ee3d
00000230: d697 1c3d 2af8 44bb 99cf 773c d230 f9bc
00000240: 8103 cd3d c74f 463d 7ea5 483d 4f97 e3bd
00000250: c6b9 b53d 257c 903c fc8a 50bc 98fe fd3d
00000260: ae15 b93d d780 0abd 8413 6c3d 166a ac3c
00000270: 416d 0f3d 137f c43c 7a69 68bd 1085 8bbe
00000280: 684c 503e cf3e 4e3d dd37 e5bc 71b8 55bc
00000290: 2923 243d b883 e8bb 6638 043d b40c 613d
000002a0: 1e9b 333e 7dc5 80bd 79c9 98bd b89d d63d
000002b0: b636 adbd 38d0 323d 7b82 1bbe 2394 683d
000002c0: e1e3 bc3d f261 0a3d 8045 efbd acfe 81bd
000002d0: 0b30 223d 4a4a 18be df0f 9d3a 8a79 0ebd
000002e0: e955 403d 83ec 9b3c 9b7b 903a 54d1 d83d
000002f0: 29a9 02bd 5eb6 aebc d28f 81bc df64 393e
00000300: da13 8c3c e399 743d c83a 20bd 1e6c 1d3e
00000310: f74a 373d 0895 c9bc 2cb1 82be 4fcc f83c
00000320: da12 503e 22d3 6c3d 1fe7 1bbd 9abe 02be
00000330: b885 cf3c 64c5 bfbd 1793 ea3d f1ac 083e
00000340: e2f7 ae3c a6c7 90bc a071 003c 86cc 55bd
00000350: c6dc 46be 4911 63bd f7eb a73d 890b 82bd
00000360: 9ae7 a8bd b3d8 b6bd e80c 0d3e c3f0 96bb
00000370: 1e22 c6bd fd6b b43d 1dd3 6a3c 6e0d 80bd
00000380: 9162 b9bc f742 bd3d d220 87bd c811 0b3e
00000390: 3e1f 21bd c631 2f3d a4b6 0a3d c0e3 913d
000003a0: 2f79 03bc 7b8a 303e 5bfa 81bb 42e6 193e
000003b0: 9c4b 0abd dee8 9fbd 3812 bc3d 42c9 5dbe
000003c0: 00b3 5c3d 1305 5abd 6b0f 12be cc49 cfbd
000003d0: c0b9 b63d f934 dfbd 9c13 993d 11c2 553c
000003e0: 5859 ce3d 980f adbd 5466 bcbd a5a7 36be
000003f0: 613b 6abb 22a5 2bbd 8156 1f3e 0091 aabd
0.041893106 0.06383696 0.03457663 0.16825333 0.04206159 0.07700719 -0.042010017 0.16129045
0.08229934 0.05398942 0.008965615 0.072151475 0.013924703 0.05559865 -0.05787158 -0.025060566
-0.141537 0.19703497 0.043456275 0.040856786 0.011511656 -0.2494092 -0.056155276 0.050832547
0.09934756 -0.0049222703 0.027110333 -0.24902907 -0.034235522 0.0043130633 0.118989 -0.0025093963
0.13631102 0.045309722 0.09594631 -0.08140883 0.040416818 -0.054939263 0.01716289 -0.18316062
-0.019963596 -0.16863132 0.09501486 -0.12123564 0.03652009 0.012243096 -0.07981269 -0.06073069
0.050076127 0.16042604 -0.026353462 0.08664579 0.12947415 0.06370288 0.0588246 0.10499054
0.12195567 0.07748453 -0.083997935 0.1873494 0.17664362 0.07815595 0.07749742 0.08835719
0.065594666 0.092395246 0.051701088 0.07283582 0.07514311 -0.35928723 -0.11777199 -0.17986917
0.100698255 -0.02335286 -0.11483597 -0.044081416 -0.13227776 -0.09959234 0.010001201 -0.07498479
0.13277072 0.03769841 -0.019411111 0.06619088 0.09839134 0.04134722 -0.11385274 -0.08490125
-0.08098017 0.08508357 0.14209785 0.069654554 0.039211318 0.13807295 0.09130255 0.05860456
-0.0039580925 -0.0007513396 0.10051734 -0.110049985 0.023927422 -0.035188068 -0.10476718 0.042933226
-0.0050513023 0.109545656 0.089978874 0.00067609147 -0.15498237 0.028239507 0.064043604 0.0076667997
-0.08601441 0.027663495 0.007447713 -0.12386481 0.06127822 -0.0327194 -0.15358251 -0.06650801
-0.008855852 0.025358045 -0.0071447133 0.032865483 -0.055606093 -0.20395193 -0.086321816 0.047766276
-0.024972444 0.16615914 -0.015161645 -0.15131131 0.042768896 -0.18259063 -2.636988e-05 0.082842365
0.04770153 -6.750306e-07 0.17222436 0.11641733 0.03823074 -0.0030055144 0.015125179 -0.030418787
0.10010434 0.048415925 0.04898595 -0.11112844 0.08873324 0.017637322 -0.012728449 0.124020755
0.09037338 -0.033814277 0.0576358 0.02104668 0.035016302 0.023986375 -0.056741215 -0.27249956
0.20341647 0.050352868 -0.02798074 -0.013044463 0.040072594 -0.00709578 0.03228035 0.054943755
0.17539641 -0.06287668 -0.07460303 0.10479301 -0.08457701 0.043655604 -0.15186493 0.0567819
0.09223152 0.033784814 -0.11683178 -0.06347403 0.0395966 -0.14872089 0.0011982879 -0.034783877
0.04695693 0.019033676 0.0011023165 0.10586801 -0.031899605 -0.021327194 -0.01581565 0.18104886
0.01709931 0.05971707 -0.03911856 0.15373275 0.044749226 -0.024607196 -0.25525796 0.03037086
0.20319691 0.05781854 -0.03806221 -0.12768021 0.025332317 -0.09363821 0.114538364 0.13347222
0.021358434 -0.017673325 0.00783959 -0.052197002 -0.19420156 -0.055436406 0.081993036 -0.063498564
-0.082472995 -0.08928051 0.13774455 -0.0046063378 -0.09674476 0.0880966 0.01433256 -0.062525615
-0.022630008 0.09241288 -0.06598057 0.13581002 -0.039336435 0.042772077 0.033865586 0.07123518
-0.008024498 0.17240326 -0.0039666123 0.15029243 -0.033763513 -0.07808088 0.091831625 -0.21658805
0.053881645 -0.053227495 -0.14263694 -0.101214975 0.08922148 -0.108987756 0.07474443 0.013046757
0.10075635 -0.0845024 -0.09199205 -0.17837389 -0.003574096 -0.04190553 0.15560342 -0.08328438

network_body._body_endoder.seq_layers.2.bias f4 [128]
00000000: 71c3 8b3c 265d fd3c 9845 4dbc bfa8 8c3c
00000010: eb0d f1bc 19e8 23bc 9870 3ebc 8f9c b5bc
00000020: 3d42 efbc c91a 50bc a00b e6ba c6e6 683c
00000030: 0819 07bd fda0 cc3b e72c bbbc ac90 6cbc
00000040: c000 e0bc 58e1 eebc a80d 15bd 2a21 c5bc
00000050: ace2 693b d0a2 9dbc 0f63 233b caf9 70bc
00000060: 669e 84bc 32fe 00bd 6cd7 b53b cd3d c53b
00000070: fdd2 773c d0e3 13bc 4018 ea3b d7ea 3bbc
00000080: ee56 90bc e1b3 06bc 96c9 d2bc e491 17bc
00000090: 303a 71bb 8169 8fbc d87d 8a3b 0db7 1cbd
000000a0: 6a4f adbc 42cf b3bb 7611 c4bc 77f8 ed3a
000000b0: 9abd a6bc 1659 c5bc 94b0 cbbc 5f97 43bd
000000c0: 4fef 9ebc c022 633a 527e 2f3c 30a6 4cbc
000000d0: 541e 3cbb 7505 d83b 7eae 41bc a9e4 1dbc
000000e0: 3f03 cfba 7661 3dbc d9d7 bdbc 1c68 963b
000000f0: b008 beba 94f7 2f3d 34ef 0cbd 830f c43b
00000100: b8a0 6a3c d88a 20bc ca43 e43c 3d56 9cbc
00000110: 0b58 85bb fad2 49bc d704 07bc b760 d6bc
00000120: 03ab ce3c 5ab3 c9b9 1342 a4bb f9ba 89bc
00000130: ef26 8e3c d6b4 64bc 7c26 b6bc 098f e7bc
00000140: 962f b23b cb8a 8b3b 4080 d7bc d017 d1bc
00000150: 435f 5bbc c559 fb3b 1437 81bc eff9 eabc
00000160: 50b4 ab3b bf84 05bc 5aa2 073c 46df 91bc
00000170: 2362 80bc ddb9 1abd 48a3 bdbc f08b fb38
00000180: 5b88 c3bc 2d23 8ebb a203 bebc 5550 1d3b
00000190: a63a 17bc 1a04 cfbc 65a5 8ebc 590c b03b
000001a0: cab2 06bd 7e78 2dbd 27fb 34bc 532d 99bc
000001b0: 871e 42bc e2a0 93bb c6dc 8ebc 06ce f6b8
000001c0: c284 f0bb e3a0 02bd 06fe 9cbc 9ba4 37bc
000001d0: acd4 a6bc bcc1 e9bc c939 08bb a6ab 86bc
000001e0: 8275 82bc 573b adbc e421 b1bc 204e 8d3b
000001f0: 544f 023c 3317 00bd 8d07 98bc 5d8a a9bb
0.017060967 0.030928206 -0.0125287995 0.017170308 -0.029425582 -0.010004067 -0.011623524 -0.02216938
-0.02920639 -0.012701699 -0.0017551072 0.014215177 -0.032982856 0.0062447772 -0.02284856 -0.014438789
-0.027344108 -0.029160187 -0.036389977 -0.024063665 0.0035688085 -0.019242674 0.002493087 -0.014707992
-0.016188812 -0.03149242 0.005549362 0.00601933 0.015125987 -0.009026483 0.007144004 -0.011469564
-0.017619576 -0.008221597 -0.02573089 -0.009251092 -0.0036808364 -0.017506363 0.0042264275 -0.03826051
-0.021156032 -0.0054873535 -0.023934107 0.0018155713 -0.020354081 -0.024090331 -0.024864472 -0.04775178
-0.01940122 0.0008664541 0.010711269 -0.012490794 -0.00287046 0.0065924474 -0.011821387 -0.009637036
-0.0015793814 -0.011558881 -0.023174213 0.0045900475 -0.0014498439 0.04296072 -0.03440781 0.0059832945
0.014320545 -0.009798728 0.027864356 -0.01908409 -0.0040693334 -0.012318367 -0.0082409 -0.026169164
0.02522803 -0.00038471335 -0.0050127595 -0.016812788 0.01735255 -0.01395913 -0.022235148 -0.028266447
0.0054378016 0.004258489 -0.026306272 -0.02552405 -0.013389411 0.0076706135 -0.015773334 -0.02868363
0.005240001 -0.008149325 0.008278454 -0.01780666 -0.015671795 -0.03777491 -0.023149148 0.00011994678
-0.02386873 -0.0043376894 -0.023195092 0.002400418 -0.0092302915 -0.02527051 -0.01741285 0.0053725657
-0.03288535 -0.04235124 -0.0110462075 -0.01869837 -0.011848099 -0.0045052627 -0.017439257 -0.00011768569
-0.0073400447 -0.031891715 -0.019164097 -0.011208679 -0.020365082 -0.028534763 -0.0020786396 -0.01643927
-0.015925173 -0.02114646 -0.021622606 0.0043122917 0.007953484 -0.031272124 -0.018558288 -0.005173965

action_model._continuous_distribution.log_sigma f4 [1, 2]
00000000: 378a 0ebd 0094 6ebd
-0.03479978 -0.058246613

action_model._continuous_distribution.mu.weight f4 [2, 128]
00000000: 436e d3bc 62a3 8bbc d37d 963c 582c 1fbd
00000010: 9f95 a0bc 9f38 c7bb b0d3 a0bc 8145 753c
00000020: a499 a83c d953 603b a0d0 b0bc 2c20 333d
00000030: 257e 843c 7985 36bd 173b 74bd 81f5 783c
00000040: 1f65 133c 7878 13bc f77e 75bc bede d53b
00000050: 3373 84bd 863e 12bd 8173 77bc 5f1d 97bc
00000060: 852f d1bc 9419 ffbb 8e5a 9dbd fb56 9f3c
00000070: 4c84 b93c 0612 423c a19b 9fbc 6799 38bc
00000080: 8eba ccbc c01e 9ebc 30c4 863c 7c08 5dbc
00000090: 7a23 08bd 85d6 063d edc6 c1bb 5f44 7d3a
000000a0: 3ba0 813c 6c50 07bd 6876 543c b39e 00bd
000000b0: 6920 db3c 4e69 2c3c 2290 823c 05cd b23c
000000c0: e205 d73c ed04 b5bc 9259 d13a e515 9eba
000000d0: 7933 063c 5468 233d 7cfe f03b 3c1b 353c
000000e0: 21ce ab3c f267 ddbb 527b 403c ad5b 7dbd
000000f0: e2e1 25bd 7642 8e3d e424 58bc dda8 8abd
00000100: 12ef 523c 5bb9 b8bc 47a5 11bc b736 c13c
00000110: e9ae 66bd b72b 64bd ea79 ad3c 7659 3a3c
00000120: ca90 65bd 17e7 afbc 30d0 d7bc f5a3 7e3c
00000130: 256e 313d 2ffa 963a f801 1dbd 023d 5bbb
00000140: f84f 2d3c f626 3ebd 581f 163c 2839 903c
00000150: 236e 56bc 84f6 64bd fc0c 8d3c c816 d0bb
00000160: c9ae d13c 105a f43c d9ae 1f3d 4414 c7bc
00000170: 5fe9 5f3c d265 ab3b c721 13bc a294 26bc
00000180: ac4f a9bb 660b d63c 385b 433c 630e 33bc
00000190: fb26 2b3b 4cb8 6ebc 2e4d a53c 1cc1 20bd
000001a0: 188d 8bbb 2cb0 db3c 3986 efbc 2533 a1bc
000001b0: 5f05 fbbc 0c85 f7bc d16a a63a 5c77 c9bb
000001c0: 9e9f 373c ddd4 28bd 9d7b c23c 32ac c7bb
000001d0: 6024 933c f242 a7bb 5cf2 593b 5158 073d
000001e0: 2dbd 58bc 3eac 04bd 9ad4 bfbc 1fa8 8a3c
000001f0: 198c a6bb 51d3 24bd 80e6 91bc a3f3 893d
00000200: 7070 9e3c 30ef 5e3d de6a 8a3c 84b8 673d
00000210: 5f36 07bd 91cb 113d 2d5a 4d3c e7bb 523c
00000220: 7b66 063d d9ae e1bc fe07 64bd cd50 ed3c
00000230: 18e5 f7bb df67 93bc 187d 9abc d6d6 1d3d
00000240: 3f10 0abc 8877 02bc 2f14 723c 7a10 f63b
00000250: f172 52bc 1386 603c bf89 143c 8991 b5bc
00000260: 9c8b eabc 868d a63c 4e71 abbb e3d8 e43c
00000270: 0d6b 0d3d 1d36 60bc 8c11 a33c 4d58 813a
00000280: 0a66 cd3c 7a46 573c 0c11 02bc 030b ad3c
00000290: 9f86 6f3c ff80 bb3b 8521 073d 1001 8f3b
000002a0: e6a5 bcbb f2be 8dbc 0681 80bc 8d99 903a
000002b0: 29d2 1a3c e768 9f3d 000b b4bc ebbe 5a3c
000002c0: 5cf1 de3b 69d1 023d 524b 43bd 82dc c1bc
000002d0: 7211 83bc a7d3 be3c 6e12 963c 5ef3 673c
000002e0: b17c 91bc 94cc 70bd ffae f33b 1cfb 8e3c
000002f0: 9229 f53c 5bd9 aa3d 3233 e1ba ce2c 4b3d
00000300: 52cf 283d b623 a23c e2b2 733c 681d f7bb
00000310: 087f de3c 59bc 63bc c1bc 773c dd3d 8ebc
00000320: 5977 2a3c 69cd 013d 6809 d53c f8cf 77bc
00000330: de2f 98bc 1fec aa3c 5c7e 0bbd 7c93 5b3c
00000340: 163d 1f3d ed82 01bd dd81 88bc 7673 5abb
00000350: 0469 8d3c bdd4 373c e46b d23b c660 5ebc
00000360: 367c 49bd b87f 4abc 64e9 6a3d dcf0 52bc
00000370: ab17 afbb d678 daba bc52 29bd de0f 993c
00000380: d0cd 8abc bb4e d33c ae95 c4bb fd04 f2ba
00000390: 2aef 43bb de37 d8bc d2d9 103b 442d fb3c
000003a0: e924 ab3a 47ce d03c 34a7 90bd de37 8f3b
000003b0: 4dee 18bd 8264 f6bc 0c71 df3c 65d5 13bd
000003c0: 3b0b 583c d2fb 163d 689d 4e3a 79ba 51bd
000003d0: a881 93bb 49e0 30bc 2a4b 4b3d d12a 84bc
000003e0: 75ac c2bc 8c37 203d cbc8 233c eedb aebc
000003f0: 38ef c63c a89d 55bc 5fb5 64bd aba4 483c
-0.025809413 -0.01704568 0.018370545 -0.03886065 -0.019602595 -0.006079748 -0.01963219 0.014970184
0.020581074 0.0034229665 -0.021583855 0.043731853 0.016173432 -0.044560883 -0.059626665 0.015195251
0.008996277 -0.00900089 -0.014983884 0.006526797 -0.06467285 -0.03570416 -0.015103222 -0.018446622
-0.025535354 -0.0077850316 -0.076832876 0.019450655 0.022646092 0.011845117 -0.01948339 -0.011267043
-0.0249913 -0.019301772 0.016450971 -0.013490792 -0.033236958 0.032919426 -0.0059136064 0.0009661372
0.015823474 -0.03303568 0.012967683 -0.031401347 0.026748853 0.0105231535 0.015937869 0.021826277
0.026247922 -0.022097075 0.0015972129 -0.0012060968 0.008190983 0.039894417 0.0073545557 0.011053856
0.020972313 -0.006756776 0.011748152 -0.061855007 -0.04049862 0.0694627 -0.013192389 -0.06770489
0.012874382 -0.022549322 -0.008889503 0.02358566 -0.05631915 -0.055705752 0.021176297 0.011373868
-0.056046285 -0.021472497 -0.026344389 0.01554202 0.043317933 0.0011518652 -0.038331956 -0.0033453112
0.010578148 -0.046423875 0.009162746 0.01760538 -0.013087782 -0.055899158 0.017218105 -0.006350372
0.02559604 0.029828101 0.038985107 -0.024301656 0.01366648 0.005230644 -0.008980221 -0.010167273
-0.0051669683 0.026128482 0.011923604 -0.010928723 0.0026115763 -0.014570307 0.020178404 -0.039246663
-0.004258763 0.026817404 -0.029238807 -0.019677708 -0.03064221 -0.030214809 0.0012696629 -0.006148262
0.011207489 -0.041218627 0.023740584 -0.0060935253 0.01796168 -0.005104416 0.003325603 0.03304321
-0.013228697 -0.032390825 -0.023416806 0.01692587 -0.005082619 -0.04024059 -0.017810106 0.06735923
0.019340724 0.054427326 0.016896661 0.056572452 -0.033010837 0.035594527 0.012533707 0.012862182
0.032812577 -0.027549194 -0.055671684 0.028969193 -0.007565152 -0.017993866 -0.018858477 0.03853496
-0.008426725 -0.007963069 0.01477532 0.0075092884 -0.012844787 0.013703841 0.009066044 -0.022164123
-0.028631024 0.020331156 -0.005232013 0.02793545 0.03452592 -0.013684777 0.019905828 0.0009868235
0.02507307 0.0131393615 -0.007938635 0.021123415 0.0146194985 0.0057221646 0.03299095 0.0043641403
-0.0057570813 -0.017302964 -0.015686523 0.001103209 0.00944952 0.077836804 -0.021977901 0.013351182
0.0068036746 0.03193799 -0.047679253 -0.023664717 -0.01599953 0.023294283 0.018319335 0.014157144
-0.017759653 -0.05878885 0.0074366326 0.017453723 0.029927049 0.083422385 -0.0017181395 0.049603276
0.04121334 0.019792419 0.014874192 -0.0075413473 0.027160183 -0.013899886 0.015120686 -0.017363483
0.010404431 0.031690035 0.026005462 -0.015125267 -0.018577512 0.020864544 -0.034056053 0.013401862
0.038876615 -0.031619 -0.016663486 -0.003333298 0.01726199 0.011220154 0.006421553 -0.013572877
-0.049190722 -0.012359552 0.057351485 -0.012874808 -0.0053433976 -0.0016668092 -0.041338667 0.018684324
-0.016943842 0.025794378 -0.0059992885 -0.0018464621 -0.0029897192 -0.026393827 0.0022102487 0.030661233
0.0013057265 0.025488986 -0.070631415 0.0043706736 -0.037336636 -0.030077223 0.027275585 -0.03609218
0.013186271 0.03686125 0.0007881732 -0.051203225 -0.00450154 -0.010795661 0.04963223 -0.016133698
-0.023763875 0.039115474 0.009996603 -0.021345105 0.02428399 -0.013038076 -0.05583703 0.012246291

action_model._continuous_distribution.mu.bias f4 [2]
00000000: 1735 573b f946 b43c
0.003283804 0.022006499

exp_avg f4 [128, 17]
00000000: d563 023b 9812 d33a bca5 1b3b 3dcb 0a3c
00000010: 4ce3 1e3c 9a49 173c 3ca7 ef3b cabc 983b
00000020: 4cf4 463b 931e 1e3b da2d c53a 2a62 c43a
00000030: e449 8b3a 7d68 d43a 57a5 953b 75f2 2e3c
00000040: a29a ecba ee7f eeb9 5691 bdba fa10 beba
00000050: 9994 a2ba 7a57 b5ba 0480 aabb 1240 edbb
00000060: a82e f6bb 0e72 a6bb 98f7 ffba 0569 bab9
00000070: ffc0 cbba d344 50b9 8744 12bb 8153 dcbb
00000080: e869 5cbc 6a8c 8c3c ac6b 05b8 afd2 d8b7
00000090: 507d 6cb7 2850 9536 1c74 6938 c82e d238
000000a0: 2a96 9238 a47e d038 6274 3e38 2e72 d438
000000b0: 7880 35b8 404d c737 3db4 f6b8 50fe 1bb7
000000c0: 2c4e 18ba 0bcd 3dba b48e b439 7e72 203b
000000d0: ffcb 653c 9690 8c3c bb84 8e3c 851a 1d3c
000000e0: 83be b03b ecb5 8b3b 87f1 8d3b d68a 9d3b
000000f0: 141b b73b bed6 b63a 07f1 943b b0ba 9c3a
00000100: c792 9a3b 411d db3b 612a 61bb c7ec 6b3b
00000110: fa03 553a 463e 363a 60ca 9039 4670 c7bb
00000120: 24f6 a03b f7ab cb3b 8282 a43b 6c0c 213b
00000130: c86c 423b 6498 3239 6444 803a d4ee 6c3a
00000140: 9c57 0e3b 0d25 f83a c853 9c39 35ec 9abb
00000150: 1cbc bf3b cf34 67bb 42ee 8fbc c7c2 8dbc
00000160: 75e0 84bc 6d4e 5dbc ce24 3abc fa16 1dbc
00000170: c070 04bc 5f3e e5bb bbe2 b1bb f58f 13bb
00000180: 194c 8dbb 83af f5ba 331d a0bb 91d1 52bb
00000190: 02b4 2abc b1be 233b 37fc 943b 1797 903b
000001a0: 9c52 fd3b 353a 6a3c cda3 403c 78e4 5f3c
000001b0: 740c 3f3c 1222 183c 55d2 da3b 5a83 493a
000001c0: 5903 783b 267c 913a e2c6 843b ee6d 293b
000001d0: aa98 d73b ca7a 3d3d 630b eebb 9bac a836
000001e0: 1754 1537 9e90 6e38 9ac7 a638 ac19 8238
000001f0: c1de d337 ab70 8137 db1b 6a37 7401 5737
00000200: 09f9 cc37 2825 0636 45c9 8237 3ed8 5bb6
00000210: 5272 6337 5a6d a937 c8f6 a7b7 67aa 3c36
00000220: 7b0b 37bb 0628 20bc f247 1cbc 5187 47bc
00000230: 6dc6 efbb 4888 6cbc 6c14 74bc 50a4 74bc
00000240: 1879 1fbc d9a8 d9bb 20f9 00bb 003d a1bb
00000250: 146b 03bb e0c4 bfbb be28 89bb 00aa cbbb
00000260: 8fa5 853b 82cc ac3a 727b d8ba 2ef0 43bb
00000270: 05a3 633a e648 a33b 1a22 133c 2572 0c3c
00000280: 60b8 023c 8eed af3b 548f b5b9 c5ce b83a
00000290: 443a 8039 1b54 f23a 9102 cf3a 36a5 8d3a
000002a0: dc94 c43c 6011 f3bb b41d d1ba ee79 03bc
000002b0: bad4 2bbc 7b96 22bc 395b 35bc ca3f dcbb
000002c0: 3610 aabb 52a9 9ebb a2c3 90bb 6861 acbb
000002d0: 85dd 5eba 9184 72bb 8812 cfb9 f07f 6fbb
000002e0: 0347 8cbb 9445 fb3b 460d 61b9 bb9b 8dbb
000002f0: 7ef6 9dbb dbc6 cfbb 53ee 5dbc 8360 21bc
00000300: 4403 6fbc 6c57 62bc 55c2 63bc 356d 2bbc
00000310: 44cd 72bb 91d6 74bb 9572 65bb 40ab a3bb
00000320: 1e79 b1bb da1a 4cbc e0e4 6dbb d446 31bb
00000330: 90a6 09bc 9fc0 a8bc 9e20 bcbc 34ac febc
00000340: 920e 23bd 5c28 2fbd 99e7 05bd 92d1 d1bc
00000350: 9c40 aabc 105a 6ebc f5f6 c6bb 66ae 2cbc
00000360: 2631 b6bb c1ef 4bbc ee43 1ebc da80 9fba
00000370: 5a31 2e3b 5478 c439 0ac7 c839 30a0 dd38
00000380: 7bfb c63a b0ca 683a 94e2 393a a27a a7ba
00000390: 244e 30ba b8a9 a238 3e51 4f3a a05a 8b39
000003a0: 0406 0a3a be1e cc39 b55e 053a 6759 113b
000003b0: 5c61 72bb 69e6 0b3b f231 4cb8 c087 70b9
000003c0: 5493 70b9 b3f1 67b9 403e 43b9 0029 23b9
000003d0: ec82 08b9 5468 e2b8 fe98 c2b8 3517 90b8
000003e0: ea35 06b8 990a 67b8 0a5a e3b7 453b 85b8
000003f0: bdf8 46b8 95ca 41b9 30b0 1c38 ea5a b53a
0.001989593 0.0016103564 0.0023749908 0.008471307 0.0096977465 0.009233857 0.007313637 0.0046611773
0.0030358015 0.002412711 0.0015043572 0.0014982868 0.001062688 0.0016205456 0.004566829 0.010677923
-0.0018051455 -0.00045490213 -0.0014462869 -0.0014500909 -0.0012403905 -0.0013835274 -0.005203249 -0.007240304
-0.007512886 -0.0050795143 -0.0019528745 -0.0003555493 -0.0015545188 -0.00019862065 -0.0022318678 -0.0067238216
-0.013452984 0.017156798 -3.180995e-05 -2.5847314e-05 -1.4095873e-05 4.4498775e-06 5.5659664e-05 0.00010022294
6.989793e-05 9.9418015e-05 4.540792e-05 0.000101302154 -4.327341e-05 2.3758621e-05 -0.00011763766 -9.297932e-06
-0.00058099884 -0.00072403316 0.00034438598 0.0024482305 0.014025687 0.017158788 0.017397275 0.009588842
0.0053938045 0.00426363 0.004331771 0.0048078103 0.0055879448 0.0013949496 0.0045453343 0.0011957493
0.0047172043 0.006686837 -0.0034357535 0.0035999285 0.0008125898 0.00069520285 0.000276166 -0.006086382
0.0049121547 0.006215568 0.0050204406 0.0024574054 0.002966689 0.00017032173 0.0009786007 0.0009038274
0.00217197 0.001893194 0.0002981706 -0.004727865 0.005851282 -0.003527928 -0.017569665 -0.017304791
-0.01622031 -0.013507468 -0.011361314 -0.009587998 -0.008083522 -0.0069959606 -0.0054286397 -0.0022516225
-0.00431205 -0.0018744323 -0.0048862933 -0.0032168368 -0.010418894 0.0024985487 0.004546668 0.0044125426
0.007730795 0.014296104 0.011757803 0.013665311 0.011660684 0.009285467 0.0066779056 0.00076871144
0.0037843792 0.0011099621 0.004052029 0.0025852877 0.0065794783 0.04625968 -0.007264541 5.026884e-06
8.900671e-06 5.6878307e-05 7.9526755e-05 6.203665e-05 2.5256888e-05 1.5430463e-05 1.39539725e-05 1.2815337e-05
2.4434661e-05 1.9989184e-06 1.5590931e-05 -3.2759413e-06 1.3556872e-05 2.019729e-05 -2.0022868e-05 2.811337e-06
-0.0027930427 -0.009775167 -0.0095386375 -0.012178258 -0.0073173554 -0.014436789 -0.014897447 -0.014931753
-0.009733461 -0.0066424427 -0.001967974 -0.004920602 -0.0020052837 -0.0058523268 -0.004185765 -0.006215334
0.004078574 0.0013183507 -0.0016516282 -0.0029897797 0.00086836546 0.0049830554 0.008980298 0.008572136
0.007978529 0.005368895 -0.00034629798 0.0014099708 0.00024457474 0.00184882 0.0015793612 0.0010806683
0.023996763 -0.0074178427 -0.0015954287 -0.008024676 -0.01048773 -0.009923573 -0.011069112 -0.0067214714
-0.005189921 -0.004841962 -0.0044178525 -0.005260635 -0.0008501637 -0.0037005285 -0.00039495924 -0.0036544763
-0.004280926 0.0076682065 -0.00021462617 -0.004321543 -0.004820644 -0.006340844 -0.01354559 -0.00984967
-0.014588181 -0.013814788 -0.013901313 -0.010463049 -0.0037048617 -0.0037359337 -0.0035010923 -0.00499478
-0.0054160496 -0.012457574 -0.003629975 -0.0027050273 -0.008401528 -0.020599661 -0.022964772 -0.031087972
-0.039808817 -0.0427631 -0.03269157 -0.025612626 -0.020782761 -0.01454784 -0.00607192 -0.010539627
-0.005560058 -0.0124472985 -0.00965975 -0.0012169138 0.0026579709 0.00037473685 0.00038295268 0.000105679384
0.0015181148 0.00088803004 0.0007090953 -0.0012777636 -0.0006725511 7.7563745e-05 0.00079085294 0.00026579667
0.00052651786 0.00038932817 0.000508766 0.0022178532 -0.00369843 0.0021347052 -4.8683905e-05 -0.00022938754
-0.00022943068 -0.00022119917 -0.00018619839 -0.00015560165 -0.00013018743 -0.000107959524 -9.279138e-05 -6.870778e-05
-3.19983e-05 -5.508456e-05 -2.7102436e-05 -6.352974e-05 -4.7438534e-05 -0.00018481382 3.7357386e-05 0.0013836299

exp_avg_sq f4 [128, 17]
00000000: 1452 1839 ee36 b339 6487 1f3a 8f45 ad3a
00000010: 2e37 183b 1f54 1a3b ef38 e63a 8c2d 8a3a
00000020: 1b95 2d3a 2747 7e39 b196 9b38 8235 2439
00000030: c15d 3739 a4e6 8339 31fc 943a 26f8 903a
00000040: 1155 0e3a e26b fa39 386a 2d3a deb6 223a
00000050: cdb3 1a3a 0bda 4f3a 99d5 3d3b b6e3 693b
00000060: bfee 3d3b e926 013b 730e 9a39 6d0e 1c39
00000070: 019f 8839 c4e0 d53a 2fef 1f3a 3c5c e93a
00000080: ceef 8e3a dbf9 c43a f0fb 2737 15d1 3c37
00000090: 991f 7537 f4e5 a937 9369 2a38 5771 9d39
000000a0: fb9c 9d39 7dd5 7939 2e49 2939 7e65 b837
000000b0: 1847 2737 819b b537 bc33 c038 83a9 5538
000000c0: 8910 1939 9e4a 8b38 9d6e 0e39 0ee7 3c39
000000d0: 9130 ee39 ec44 3b3a b209 b13a 1df9 243b
000000e0: 548c 203b 117e f43a 83eb 793a 0cd9 113a
000000f0: 1d10 8839 b9c8 8d38 2676 1239 9b13 a638
00000100: 8a84 5639 7685 193a 11d1 d33a 75a3 7c39
00000110: 77bb b138 18b0 d138 e62e 0b39 14db 9439
00000120: 9b43 883a e4d2 073b a903 f33a 5f7b a83a
00000130: c024 543a 920b 0939 6381 a238 38f4 ff38
00000140: e0c8 183a 9303 8839 7d3c bb3a bc37 103a
00000150: 220d 583a 36f8 173a 6edf ac3a f737 c53a
00000160: ad0e b13a 2dda 843a e62f 2e3a 4986 df39
00000170: 19e6 9739 bf18 5939 60a2 2839 3b84 8038
00000180: d332 ad38 162c 2f38 99ef d638 6f8d ac39
00000190: 138c 7f3a 591c 1e39 fc2a 203a 6cd2 033b
000001a0: 0b90 6f3b 27dd f13b 9017 0a3c dd80 013c
000001b0: 335a ad3b 4d97 5e3b c368 0e3b 7a5f 483a
000001c0: fd23 bb39 6439 f939 528f 6a3a be8a 4e3a
000001d0: 4dce 833b fb74 933b bbee f93a b39c aa32
000001e0: 3493 1833 7575 1c34 6be3 2534 94f9 1534
000001f0: 266e c933 be45 7b33 3c36 1a33 6474 c132
00000200: e922 bc31 e272 5832 b96a 8c31 c437 9f32
00000210: 26c0 0232 ebb1 ed33 ed92 a832 61df ab33
00000220: 4b7a 2b3b e421 8a3b 561f a53b 33de 223c
00000230: 95ca 8a3c 95d4 e43c 7e9e d23c ed99 9a3c
00000240: 0687 3e3c b593 313b 2dc3 5a3a 7579 0d3b
00000250: fc94 403b 04c7 833b 45fa a23c 023a 373c
00000260: 13e6 103c 49f4 0d3a 5062 d93a 6dc7 393b
00000270: 029c b13b 2ac6 093c 89d2 093c 97a6 ca3b
00000280: b951 773b c067 183b 3028 623a 12a9 9839
00000290: 44c2 0e3a 235f 1e3a 1a9f 633a 432e 823b
000002a0: eb91 873b 23ce f43a 3d64 ae39 662c 2a3a
000002b0: b142 673a d91c be3a 5b54 263b 129d 423b
000002c0: c94c 1b3b e96f bd3a 401b 5e3a f85b 9a39
000002d0: 546a d138 a179 4339 6af0 4939 c778 9e39
000002e0: 1b13 a53a cac7 d03a 191f 173a f997 213a
000002f0: 929e 643a e8fe a33a 5273 403b 0ce9 103c
00000300: 7c2c 7c3c 5b14 653c ed4a 173c c251 af3b
00000310: 5836 933a 0e5d e339 4eac 683a 8265 d83a
00000320: f912 e13a b888 063c 1cd2 bd3b d527 743b
00000330: 9689 2e3a a070 9e3a 782f 1a3b 32d3 f93b
00000340: 7092 753c 87a5 703c aaeb 293c 1cdb b63b
00000350: 5bae 5c3b 1534 c03a 98c2 b739 69d3 543a
00000360: 801d d539 1d99 a13a e31d 323b 83fa 0f3c
00000370: 591c cb3a 2c87 2939 bcd4 9839 4004 de39
00000380: 01a4 863a 24e1 fb3a 7c4b 163b 6026 e73a
00000390: f232 9a3a a3b2 433a 99ea 7c39 c2bc 7b38
000003a0: 89c3 2e39 7ec2 e738 c638 9339 70d1 9b3a
000003b0: b27a 903a bc5f 133a 32e6 9034 de90 2735
000003c0: 4a20 1735 71f4 dd34 5f41 9934 b48c 5234
000003d0: ea38 1434 de0c d833 7888 a133 7aae d233
000003e0: f511 6b32 5281 2833 2861 f431 5fe9 3633
000003f0: c9bb 7632 835e d834 df38 1c32 f62a 0839
0.00014526426 0.00034182466 0.00060855434 0.0013219583 0.002322625 0.0023548675 0.0017564575 0.0010542138
0.0006621645 0.00024249834 7.4190444e-05 0.00015660192 0.00017487166 0.00025158108 0.0011366663 0.0011060282
0.0005429546 0.00047764095 0.0006615254 0.0006207059 0.0005901426 0.0007928914 0.0028966425 0.0035688705
0.0028981415 0.001970703 0.00029383934 0.00014882693 0.0002605841 0.0016317596 0.000610101 0.0017803977
0.0010905208 0.0015028076 1.0012634e-05 1.1254354e-05 1.4610495e-05 2.025345e-05 4.0629482e-05 0.00030029818
0.00030062333 0.00023826021 0.00016144358 2.198177e-05 9.9705285e-06 2.1649294e-05 9.16491e-05 5.0941027e-05
0.00014597377 6.641935e-05 0.00013583382 0.00018015152 0.00045431082 0.0007143754 0.0013506918 0.0025172897
0.0024497705 0.0018653293 0.000953369 0.00055636535 0.00025951947 6.7607914e-05 0.00013967659 7.9191486e-05
0.00020458005 0.0005856374 0.0016160329 0.00024093485 8.474936e-05 9.9986966e-05 0.00013273544 0.00028391986
0.0010396125 0.0020725066 0.001854052 0.001285415 0.00080926344 0.00013069648 7.748862e-05 0.00012204837
0.00058282726 0.00025942604 0.0014284995 0.0005501469 0.0008241703 0.0005797179 0.0013189146 0.0015046586
0.0013508402 0.0010135822 0.00066447107 0.00042633925 0.000289724 0.00020703951 0.00016082218 6.1281455e-05
8.2587496e-05 4.176431e-05 0.00010248944 0.00032911773 0.0009748351 0.00015078615 0.0006109921 0.0020114435
0.0036554362 0.0073810997 0.008428469 0.007904259 0.0052902936 0.0033964694 0.0021729923 0.00076436216
0.00035694233 0.0004753574 0.0008947748 0.00078789506 0.0040223957 0.004500029 0.001906834 1.9861863e-08
3.552414e-08 1.4571363e-07 1.5449557e-07 1.3967502e-07 9.379828e-08 5.850392e-08 3.5905245e-08 2.2521085e-08
5.475489e-09 1.2598976e-08 4.0866692e-09 1.8535395e-08 7.610685e-09 1.10685356e-07 1.9624588e-08 8.0034404e-08
0.0026165422 0.004215466 0.005039136 0.009940672 0.016942302 0.027933398 0.02571034 0.018872226
0.011628872 0.0027096097 0.00083451235 0.0021587287 0.0029385677 0.0040215272 0.019894728 0.011183264
0.0088439165 0.00054151245 0.0016585086 0.0028347627 0.005420209 0.008409062 0.008412012 0.00618441
0.003773792 0.00232552 0.0008627204 0.00029117666 0.0005445818 0.0006041398 0.0008683071 0.0039728
0.004137268 0.0018677156 0.0003326255 0.0006491601 0.00088218885 0.0014504447 0.002537987 0.0029695672
0.002369689 0.0014452907 0.00084726885 0.0002944169 9.985702e-05 0.0001864196 0.00019258415 0.00030226095
0.0012594195 0.0015928682 0.0005764827 0.0006164308 0.00087211386 0.0012511881 0.0029365611 0.008844625
0.015391465 0.013981904 0.009234172 0.0053503225 0.0011231406 0.00043366145 0.0008875773 0.0016509744
0.0017171792 0.008211307 0.0057928693 0.0037255187 0.0006658075 0.0012088008 0.0023526829 0.0076240534
0.014988527 0.014687902 0.010371128 0.005580319 0.003367326 0.0014663959 0.00035049464 0.0008118661
0.00040648505 0.0012328957 0.0027178458 0.008787754 0.0015496119 0.00016167451 0.000291502 0.00042346306
0.0010272266 0.0019216877 0.0022933176 0.0017635338 0.001176445 0.00074652786 0.00024119987 6.0018858e-05
0.00016666776 0.00011051165 0.00028080324 0.0011887979 0.0011022894 0.00056218705 2.698958e-07 6.242316e-07
5.629887e-07 4.1342312e-07 2.8546035e-07 1.9608962e-07 1.380428e-07 1.0060624e-07 7.52197e-08 9.810624e-08
1.3682883e-08 3.9233164e-08 7.11238e-09 4.2587427e-08 1.4361782e-08 4.0301902e-07 9.093326e-09 0.00012985975

exp_avg f4 [128]
00000000: eeff c239 ce53 98b9 9c30 8936 6851 0f3a
00000010: 90f9 f438 1a09 34ba f98c 103a ad72 0d36
00000020: 0c5d 57ba 6425 7939 ec28 ffb9 8d70 3aba
00000030: 7b77 f6ba a406 4638 9bfd 19b7 211a af39
00000040: e880 4139 30ec bbb8 53ea 393a ec64 0fb3
00000050: fd7a bab9 60f2 1cb9 ea32 d1b9 be20 0eba
00000060: 34bc f1b8 2bf6 9cba f842 8cb9 bc17 75b7
00000070: f2ec b3b9 0e9e 1c34 6e6c e8b4 b92b e137
00000080: 6179 2e38 130f e7b9 b910 4a39 3e77 4cba
00000090: 37dc 99b9 28d7 743a 03f0 e439 06dd ebb9
000000a0: 77ce 1eb9 896e bfb7 65cb b1b8 c0f3 9333
000000b0: 49e9 2c3a 7fc4 922d 34a7 b3b7 f299 ac39
000000c0: eccc d3ba da4f 8239 99a9 7537 1c28 54b9
000000d0: b00d ef37 db4b 02b9 6b34 6638 f809 c639
000000e0: 0201 afb1 dc7c 16b9 a414 9db8 cc06 cdb9
000000f0: 60dd ca38 2594 0cb9 a281 46ba 2f23 4dba
00000100: dbb2 a439 07f7 3c35 6b1d bbb6 6a1b fcb9
00000110: 1c7b a8b9 141f 3038 99d6 be39 02ea 0239
00000120: 3ac2 1e36 1ec7 8e3a d548 ed39 b71d 4a39
00000130: bc9f a63a ccbe d3b7 3d3f bab8 5621 b0ae
00000140: 7333 8eba 977c c52f 7c20 1839 b058 29b8
00000150: 2ac6 5eb8 8feb 8cb9 ab12 96b8 0275 43ba
00000160: 100a 6c39 f1af 86b8 48ca f939 f1ff 3c3a
00000170: 683e a3b9 a02d c7b9 527f e2b9 6ce0 89b9
00000180: b810 f0b9 0025 3136 08db 7d3a 0629 16ba
00000190: cb35 013a 49da 4db7 feed 943a 9e04 6dba
000001a0: f186 a5b9 c276 55b9 405f feb9 9eca d03a
000001b0: 7e6a 86b8 2050 eb38 935d 19ba c016 6fb9
000001c0: 6242 29b9 ffeb 8137 ba22 ce38 da88 4639
000001d0: 6873 8939 b377 04ba e4c5 e6b9 0045 8639
000001e0: 1619 8139 63ba 3a3a f4e4 8139 ffe0 9d38
000001f0: a89b d9b9 134e 18b9 e5e8 66ba 6894 e930
0.00037193246 -0.0002905414 4.088577e-06 0.00054671476 0.00011681311 -0.00068678113 0.00055141706 2.1077387e-06
-0.0008215464 0.0002376042 -0.0004866788 -0.0007112108 -0.0018803919 4.7213063e-05 -9.178558e-06 0.0003339807
0.00018453936 -8.960848e-05 0.0007092107 -3.338657e-08 -0.00035568318 -0.00014967611 -0.0003990152 -0.0005421749
-0.00011526831 -0.0011975219 -0.00026752776 -1.4608664e-05 -0.00034318079 1.4586132e-07 -4.329226e-07 2.684245e-05
4.1597876e-05 -0.00044070985 0.00019270451 -0.0007799751 -0.00029346507 0.0009339922 0.00043666371 -0.00044987368
-0.00015144968 -2.2820446e-05 -8.477903e-05 6.889559e-08 0.00065960415 1.668554e-11 -2.1416323e-05 0.00032921095
-0.0016159094 0.00024855026 1.46426255e-05 -0.00020232837 2.8497394e-05 -0.00012426024 5.488509e-05 0.0003777293
-5.093285e-09 -0.00014351628 -7.490188e-05 -0.0003910571 9.673345e-05 -0.00013406629 -0.00075724174 -0.0007825372
0.00031413775 7.039493e-07 -5.576459e-06 -0.0004808561 -0.0003213518 4.1990614e-05 0.00036399512 0.00012484941
2.365689e-06 0.0010893082 0.00045258427 0.00019275291 0.00127124 -2.5242007e-05 -8.88095e-05 -8.009475e-11
-0.0010849073 3.5922618e-10 0.00014507951 -4.0375337e-05 -5.311348e-05 -0.00026878386 -7.1560346e-05 -0.0007456095
0.00022510462 -6.4223896e-05 0.00047643692 0.0007209769 -0.0003113628 -0.0003799023 -0.0004320094 -0.00026297884
-0.00045788824 2.6396592e-06 0.0009683822 -0.0005728159 0.0004928975 -1.2269776e-05 0.0011362431 -0.00090415205
-0.00031571792 -0.00020357504 -0.00048517622 0.0015929525 -6.4094536e-05 0.00011220598 -0.00058504305 -0.00022801291
-0.00016141825 1.5487893e-05 9.829314e-05 0.00018933733 0.0002621666 -0.0005053237 -0.0004401646 0.0002560988
0.00024623488 0.00071231107 0.0002477538 7.528252e-05 -0.00041505438 -0.00014524935 -0.00088085077 1.6995161e-09

exp_avg_sq f4 [128]
00000000: 5d3c 9736 228a dc36 ebf4 0735 a480 9a36
00000010: a1f1 6636 e78f 3136 64ca 8a37 d9b7 892f
00000020: a855 6238 1862 8b37 4fe0 c036 eed8 db37
00000030: 97af dc37 8bcb 9136 3a47 8b30 2f6e 5f36
00000040: f967 7637 d260 5a34 d64d a736 4819 712c
00000050: 3c72 f536 4468 e235 b6d4 4c37 3a3b f036
00000060: 425c aa37 b416 a537 6e8d b237 663d a432
00000070: 68af aa34 6f35 6a33 8543 fc2e acf6 0236
00000080: 7a21 9633 b7db 0538 2958 2937 f7eb 6438
00000090: 4fc7 ab36 c95d 5538 18f2 d736 e8a4 9937
000000a0: 2182 7437 3bc2 2c35 55d2 6c36 a0f9 ae28
000000b0: 7c40 2f37 a330 262a 9c70 9f35 ef97 0037
000000c0: 09ee ca36 117b 0537 5556 fa31 b471 1837
000000d0: a7d6 c436 0b24 0037 4960 7f35 af88 5237
000000e0: 0d58 9129 24e5 6436 c228 8236 0a6f 7a37
000000f0: f581 e636 c3dc ca36 65a9 d337 adb6 4b37
00000100: cbea 4538 6576 3734 e2db dd33 f39c 4136
00000110: e948 5536 dfbd 0737 e909 d037 b4b3 c537
00000120: c168 1533 7608 f836 f3f3 c135 4ac1 0a37
00000130: 8260 5737 c05c be35 5a5f ae37 e74e 6e2b
00000140: edd3 3337 2633 042c 60e0 5e34 6115 9b36
00000150: 1a13 2b37 0b2e 6a36 2b31 e333 e753 0138
00000160: 881e 9036 bd43 3d37 e0b9 ba36 5618 2c37
00000170: 715a ba36 8f31 9637 094b 1637 8b3c b737
00000180: bf52 ec36 354d 0837 f540 0838 61e5 1c36
00000190: 6b49 db36 7955 0834 a3f2 8736 122f 0738
000001a0: a3d2 8336 62e4 9336 3cb9 5f37 119a 8137
000001b0: dbfa e135 eadf 1a35 f4bf 8137 7f67 8935
000001c0: ebd1 df36 2ff6 9b35 4bde a737 3f89 9135
000001d0: a6bf bc35 9cb9 6835 3162 6936 622e d535
000001e0: 8086 1635 3021 8136 c035 2737 3c68 1435
000001f0: 5827 b936 bae3 1437 3787 5a37 48a7 c02c
4.507178e-06 6.5725917e-06 5.064782e-07 4.6045334e-06 3.4413317e-06 2.6458818e-06 1.6545127e-05 2.5050786e-10
5.3962372e-05 1.661577e-05 5.748159e-06 2.620785e-05 2.630781e-05 4.3450323e-06 1.0133825e-09 3.3293725e-06
1.4686951e-05 2.0338055e-07 4.986049e-06 3.4262194e-12 7.3148676e-06 1.6868657e-06 1.2208873e-05 7.1594523e-06
2.030854e-05 1.9680105e-05 2.1285112e-05 1.9120034e-08 3.1792592e-07 5.4530968e-08 1.1471627e-10 1.9515091e-06
6.991009e-08 3.1914296e-05 1.0093711e-05 5.4579195e-05 5.1193997e-06 5.08705e-05 6.4356827e-06 1.8315812e-05
1.4573831e-05 6.4357636e-07 3.528917e-06 1.9426138e-14 1.0445827e-05 1.4760636e-13 1.1879197e-06 7.664769e-06
6.04778e-06 7.956071e-06 7.2857724e-09 9.08638e-06 5.866244e-06 7.637786e-06 9.5135016e-07 1.25487995e-05
6.454568e-14 3.4108025e-06 3.8790467e-06 1.49270145e-05 6.869663e-06 6.045769e-06 2.523204e-05 1.2142275e-05
4.7187128e-05 1.7086275e-07 1.0331111e-07 2.8850598e-06 3.1781913e-06 8.090835e-06 2.4800147e-05 2.356791e-05
3.478704e-08 7.391961e-06 1.4450619e-06 8.270445e-06 1.2837469e-05 1.4183097e-06 2.0786818e-05 8.4664085e-13
1.0718574e-05 1.8786721e-12 2.0756988e-07 4.621849e-06 1.0196842e-05 3.4895518e-06 1.0579455e-07 3.0834137e-05
4.2950887e-06 1.1281049e-05 5.5648707e-06 1.0257665e-05 5.5537607e-06 1.7904471e-05 8.958167e-06 2.1843493e-05
7.042981e-06 8.124208e-06 3.2485423e-05 2.3379328e-06 6.5352556e-06 1.2697082e-07 4.05156e-06 3.2230346e-05
3.9286256e-06 4.4075286e-06 1.3334964e-05 1.5449741e-05 1.6836815e-06 5.769531e-07 1.5467383e-05 1.0237417e-06
6.6703556e-06 1.1620049e-06 2.0011465e-05 1.0843286e-06 1.4062869e-06 8.669683e-07 3.477686e-06 1.5883236e-06
5.607508e-07 3.848363e-06 9.96649e-06 5.528598e-07 5.51801e-06 8.874509e-06 1.3025295e-05 5.47554e-12
