results/test-17/Drive/Drive-499951.pt (torch, 152172 bytes, 44 tensors)

network_body.observation_encoder.processors.0.normalizer.running_mean f4 [17]
00000000: 0137 1a41 5993 4341 dad0 8541 b250 a441
00000010: 1645 ac41 b393 a641 8eb6 9a41 c3ed 8741
00000020: 50bb 6141 2351 1e41 ab0c e940 8bf1 0141
00000030: a839 1441 1322 1141 6035 8841 7618 ccbd
00000040: ce23 9b3f
9.638429 12.223474 16.726978 20.539402 21.533733 20.822119 19.339138 16.991095
14.108231 9.894809 7.2827964 8.12147 9.264076 9.070819 17.026062 -0.09965603
1.2120302

network_body.observation_encoder.processors.0.normalizer.running_variance f4 [17]
00000000: 35d1 704b 79e5 a74b 0a5a c04b b74b 7d4b
00000010: fe10 434b 6c2c 434b 2fea 474b 22c8 3b4b
00000020: c940 124b 9b6b 274b abd6 f54a 6bf3 0a4b
00000030: 581f 944b c4b1 ab4a 9a10 b54b 4d6e 814c
00000040: 4bf5 414c
1.5782197e+07 2.2006514e+07 2.5211924e+07 1.6599991e+07 1.278387e+07 1.2790892e+07 1.3101615e+07 1.2306466e+07
9.584841e+06 1.0972059e+07 8.0556375e+06 9.106283e+06 1.9414704e+07 5.626082e+06 2.3732532e+07 6.785905e+07
5.0844972e+07

network_body.processors.0.normalizer.running_mean f4 [17]
00000000: 0137 1a41 5993 4341 dad0 8541 b250 a441
00000010: 1645 ac41 b393 a641 8eb6 9a41 c3ed 8741
00000020: 50bb 6141 2351 1e41 ab0c e940 8bf1 0141
00000030: a839 1441 1322 1141 6035 8841 7618 ccbd
00000040: ce23 9b3f
9.638429 12.223474 16.726978 20.539402 21.533733 20.822119 19.339138 16.991095
14.108231 9.894809 7.2827964 8.12147 9.264076 9.070819 17.026062 -0.09965603
1.2120302

network_body.processors.0.normalizer.running_variance f4 [17]
00000000: 35d1 704b 79e5 a74b 0a5a c04b b74b 7d4b
00000010: fe10 434b 6c2c 434b 2fea 474b 22c8 3b4b
00000020: c940 124b 9b6b 274b abd6 f54a 6bf3 0a4b
00000030: 581f 944b c4b1 ab4a 9a10 b54b 4d6e 814c
00000040: 4bf5 414c
1.5782197e+07 2.2006514e+07 2.5211924e+07 1.6599991e+07 1.278387e+07 1.2790892e+07 1.3101615e+07 1.2306466e+07
9.584841e+06 1.0972059e+07 8.0556375e+06 9.106283e+06 1.9414704e+07 5.626082e+06 2.3732532e+07 6.785905e+07
5.0844972e+07

network_body._body_endoder.seq_layers.0.weight f4 [64, 17]
00000000: c58e b6bd 29bb a93e c043 433e a2e7 89be
00000010: d99d 6739 4471 62be 4ea1 1ebe 0f58 32bd
00000020: 431d 443e 876e f13d 8851 72be 6018 2fbe
00000030: 6235 34be 41f2 7ebe d19d cdbb 69a0 79bd
00000040: badd d83e 5fbe 6abe d968 0b3e 77cc 2dbd
00000050: f98b 90bd 1ee2 463e 095d ecbe a8cf 913c
00000060: 7895 a3be 67f7 403d 2957 d9be 240c bfbe
00000070: cbf2 993e 5bfe 703e f244 aabd d156 ebbe
00000080: 0db5 25be 5438 38bd 1fca 5e3e 9074 d63e
00000090: a541 8cbd bcfc 953d 12b0 7bbe fff9 d4be
000000a0: f5f1 14be 1dbd cebe 3304 f33d f3b7 ec3c
000000b0: f67e 433e 36d4 9bbe 514a 6fbe ee26 043f
000000c0: 643d bebe dd1c fcbe a90c 933e 1e4e efbd
000000d0: 6c1d 5a3e 7060 b53e dfd9 16be 5301 8bbe
000000e0: 824e 4c3e 4622 4cbf cafe 0dbf 5964 06bc
000000f0: 9c5d 31be 4d9d 6c3c e2dd 9e3c 1bdc a6bc
00000100: ce57 8b3e 8046 07be cf36 17be 0e2e b83e
00000110: 19a6 6a3e e840 4c3e 06d1 afbe 4eea 733e
00000120: c200 84be 7113 43be 4550 033e 2d09 bcbe
00000130: 0f6f b83d 2111 993d c4f3 563e 2141 1b3d
00000140: e3dc 053e 4e47 e7be e469 e1bd ade5 b93e
00000150: 6509 92bc cb83 323e 1a51 3cbe 45c7 fdbd
00000160: 2a63 05bf 226a ee3b 1d5f cc3d 6572 c33e
00000170: 5451 4c3d e2d6 dd3e bb69 34be 78ec 013f
00000180: d37c 2cbe 0a93 903e 6736 2d3d 2ae2 2dbe
00000190: 0e82 2bbe 2f4b d6bc a88e 9cbd 0534 3dbe
000001a0: dd42 ac3d 7cc4 08bc f9d4 92bd 9b9e 1f3d
000001b0: d562 16bf 66d8 b83e fbef 843e be2b 12be
000001c0: ad65 0e3a 93e3 ed3d 48d4 a3be aacc 09bd
000001d0: 13c3 5d3e 38e3 a3be 4532 b3bd ebf3 963e
000001e0: 3cd6 ef3d b40b a23e 767c 713e 75d9 9ebe
000001f0: ed27 bfbe 95b4 09be fd29 c93e 99ae 64bd
00000200: 45e2 8a3d 4710 093d efd1 023e 706b 08be
00000210: 7249 e53d 5ed2 713c b51b 2bbd 447a 9c3e
00000220: 068c 05bf 1718 11bd a98c 0abb d628 97bd
00000230: 65a4 06bf 49c0 a9be 24af 18be 9133 07be
00000240: 87e5 ca3e deea d63d df12 8b3e 691d 7abe
00000250: c3d0 75be d471 dc3b a7fa 853d cc6a c8bd
00000260: d63a a73e befb f43c b178 d83d 2b11 20bd
00000270: c0df dd3d 654d 89bd 60e5 6a3e 81b6 a43e
00000280: de76 ab3e 0659 b4be d1b3 bb3e 202b 043c
00000290: 0467 b43e e698 abbd b002 97be 35a6 acbe
000002a0: 4142 c43d 7f39 eb3d c1f3 273e ba79 f4bd
000002b0: ee58 003c 62c8 143e 9af7 343e 8ec9 38be
000002c0: 7c50 f43e 4d26 e83e 112f b63e e558 213e
000002d0: 091e 8a3e c477 8a3d 080e 383c 4ff6 adbe
000002e0: 11db a4be bd93 2a3e 699b bdbd 9ddd 8dbe
000002f0: c30a b93e 7061 acbd adad 88be 9085 02be
00000300: d948 b4bd d991 b03d e4af b83e 9ad8 30be
00000310: de0f f5bd d658 873e afb2 a93e 0789 1f3e
00000320: b67a 143f ea95 7cbd 96a3 813e efb7 203d
00000330: 1b65 29be d5ab a5be c26c 423f e837 a43e
00000340: 0f6c 1c3e bd30 c83e 8590 2dbd 71e8 3a3d
00000350: 2bed 3f3e 88b2 b3bd 4f58 803a a830 b2bc
00000360: 3e94 813e 180a 29be 5ec1 7c3d 2315 c53e
00000370: 9c1e de3e 57b2 1fbe 8a66 13be d184 9bbe
00000380: 89a2 6abc 9162 133e 5451 913e 039a edbd
00000390: 2e3d 883d fb97 683e 9f3d 9fbd 5574 2a3d
000003a0: 0b75 18bd 20c4 8dbd dc17 803e 052d d8be
000003b0: 4f57 b53e e3b0 153e f47e 60be c1b2 a2be
000003c0: c650 a0bd 5f71 95be 6921 47be a46d fe3e
000003d0: 249b f53e 872b 0c3f 2f34 813e 241c d23e
000003e0: a6e7 313e 1eeb 073d 2a9b 193f 237d 823e
000003f0: fa3f 853e d1e2 27be 34a7 c5bd 2403 b1bd
-0.0891395 0.33150604 0.19068813 -0.26934534 0.0002208868 -0.2211352 -0.1549122 -0.04354101
0.19151787 0.117886595 -0.23663914 -0.17099142 -0.17598489 -0.248971 -0.0062749167 -0.060943995
0.42356664 -0.22924183 0.13614215 -0.04243132 -0.07057948 0.19422194 -0.4616473 0.017799214
-0.31949973 0.04711094 -0.4244931 -0.3731395 0.3006805 0.23534529 -0.083139315 -0.45964673
-0.16182347 -0.044975594 0.2175679 0.41885805 -0.06848458 0.07323596 -0.24578884 -0.41596982
-0.14545424 -0.40378657 0.11866035 0.028896308 0.190914 -0.30435342 -0.23368193 0.516219
-0.37156212 -0.4924077 0.28720596 -0.116848215 0.21300286 0.35425138 -0.14731549 -0.27149448
0.19951823 -0.797398 -0.554669 -0.008202636 -0.17320865 0.0144418 0.019392911 -0.020368626
0.27215427 -0.13210487 -0.14767002 0.35972637 0.22914924 0.19946635 -0.3433916 0.23819849
-0.25781828 -0.19050385 0.12823589 -0.3672575 0.09005558 0.0747397 0.20991427 0.03790391
0.13072543 -0.4517159 -0.11006525 0.3630804 -0.017826745 0.17433088 -0.18390313 -0.12391523
-0.5210444 0.0072758356 0.09979079 0.38173214 0.049882248 0.43328005 -0.17618458 0.5075145
-0.16844492 0.28237182 0.04228821 -0.16980806 -0.1674883 -0.026158897 -0.07644397 -0.18476875
0.08411191 -0.008347627 -0.071695276 0.038969617 -0.58744556 0.361026 0.2596434 -0.14274499
0.0005432021 0.11615672 -0.31997895 -0.03364245 0.21656446 -0.32009292 -0.087498225 0.2948297
0.11710784 0.31649554 0.23582634 -0.31025282 -0.37335148 -0.13447793 0.39289847 -0.05583057
0.06781439 0.03346279 0.12775396 -0.13322234 0.11195649 0.014759628 -0.04177447 0.3056203
-0.52166784 -0.035423364 -0.002114097 -0.07380836 -0.52594596 -0.33154514 -0.14910561 -0.13203265
0.3962824 0.10494016 0.27162835 -0.24425282 -0.24005418 0.0067274366 0.06541949 -0.09785995
0.32662076 0.029905196 0.10569895 -0.039078873 0.108336926 -0.06704215 0.22939062 0.3217049
0.33489126 -0.3522417 0.36660627 0.008066922 0.35234845 -0.083787724 -0.29494238 -0.33720556
0.095829494 0.11485576 0.16401578 -0.1193728 0.0078337025 0.14529565 0.17672578 -0.18045637
0.47717655 0.4534172 0.35582784 0.15756567 0.2697604 0.06761125 0.011233814 -0.3397698
-0.32198384 0.1665792 -0.09258158 -0.2770814 0.36141023 -0.08417022 -0.26695004 -0.12746263
-0.08802957 0.08621568 0.36071694 -0.17270127 -0.11965917 0.26434964 0.33144137 0.15579616
0.5799974 -0.061666407 0.2532012 0.039237913 -0.16542475 -0.3235766 0.759472 0.32073903
0.15275596 0.39099684 -0.042374153 0.04563183 0.18742816 -0.087742865 0.0009791943 -0.021751717
0.25308412 -0.16507757 0.061707847 0.3849269 0.43382728 -0.15595375 -0.14394584 -0.30374768
-0.014320978 0.14393069 0.2838236 -0.11601641 0.06652294 0.22714226 -0.07775425 0.04161485
-0.037220996 -0.069221735 0.25018203 -0.42221847 0.35418174 0.14618258 -0.21923429 -0.31777003
-0.07827906 -0.29188058 -0.19446339 0.49693024 0.47969925 0.5475392 0.25235125 0.41037095
0.17373523 0.03318321 0.60002387 0.25486097 0.26025373 -0.16395117 -0.09651032 -0.08643177

network_body._body_endoder.seq_layers.0.bias f4 [64]
00000000: 540f 433c e94e 2339 ff62 973d 3d69 b33d
00000010: 70d1 c03d 8dab 523d 357c a93d 2235 563d
00000020: 1c68 b3bc a86a 0d3c ad76 923c bd11 bd3d
00000030: 1507 fb3d 0ed6 b93c 79f7 1a3c d71f 983d
00000040: 838b c33c 0960 e63d 0d32 b63d 84b5 883d
00000050: c705 c53d 8301 ed3d 482f 81bc 639e 18bd
00000060: 182d dc3d cef3 b13d f1b5 68bd 72fd 643d
00000070: 71d8 653d d07d f53c 04fb 46bd 4374 6f3d
00000080: 1a21 853d 688c bf3d ba59 b53c c4ee 9f3c
00000090: d899 9f3d b489 a23d fdae 9b3d c51e f03d
000000a0: 6b41 a0bd 817c 0a3e a2a1 523d 40ae 18bd
000000b0: 9818 04bb 388c d03d a4bf 873d 8b8a 083e
000000c0: c146 843d e07d 623d 3d81 ac3d bb01 52bd
000000d0: 56f4 023e 4ba8 a13c 5d71 ad3d fb03 52bc
000000e0: bcd4 ac3d d137 a43d 93f2 b23d 0a49 fe3d
000000f0: 2dc9 f83d 994d f23d d2e6 d43d 53d3 343c
0.01190551 0.00015574288 0.07391929 0.08760307 0.09414947 0.051433135 0.08275644 0.052296765
-0.02190023 0.008631386 0.017878855 0.09231899 0.1225721 0.022685077 0.009458416 0.07427948
0.023870235 0.11248786 0.08896265 0.06675246 0.096202426 0.11572554 -0.015769616 -0.037260424
0.107507885 0.0868908 -0.056814138 0.055905767 0.056114618 0.029967219 -0.04857923 0.058460485
0.06500454 0.09352952 0.022137512 0.019523032 0.07793015 0.07936421 0.07601736 0.11724619
-0.078249775 0.13524057 0.051423676 -0.037275553 -0.002015626 0.101829946 0.066283494 0.133341
0.06458808 0.055295825 0.08423088 -0.05127118 0.1278852 0.019733569 0.08468888 -0.012818332
0.08439013 0.08018459 0.087376736 0.12416275 0.12147746 0.11831207 0.10395588 0.011036712

network_body._body_endoder.seq_layers.2.weight f4 [64, 64]
00000000: 1b5f d23c 6580 8c3d 498a 8cbd 0745 ffbd
00000010: c9e9 36bd 2b4b 3c3d 2cc1 1d3e 071d a83e
00000020: 5e05 22be 7a13 fdbb 6503 5d3e cb5a 273e
00000030: d442 4ebd 091c 5d3e 1bd0 063e 6396 96bd
00000040: 5ea3 4a3d a379 103e 4e3a 923e 2f4f b13d
00000050: 3d1b 98bb b5a5 13be cf0c 99bd ef63 0bbe
00000060: 6491 093e d20e 3dbe 5c58 39be 6010 98be
00000070: 71b2 5dbe a916 343e f85a ff3d 682d 42bd
00000080: 9883 3abd 56f2 c33d e526 3b3e 59c8 743c
00000090: bb16 113d 006a 3c3e a3c1 113e c4c0 cd3d
000000a0: 81f4 f53d f768 1e3e 7ad7 96be 546e fa3d
000000b0: d002 933d cf71 d73d 2ea2 9bbd 5eed 323e
000000c0: d556 6f3e b11c bd39 4da0 d83d 8586 e8bd
000000d0: 346d fabd 4cdb 3e3e ebb8 063d 3cc9 bdbd
000000e0: e9d4 1bbb 46a4 133e c531 04be 0b42 3b3d
000000f0: 060c 70bd 773e 5d3d 30ab 743e 2e7b 29be
00000100: 3038 8a3d abf3 0dbd 6957 113d 161d 61be
00000110: 0d6b 253e 981e afbc 22ff 153e 408a 84bd
00000120: 1970 93bd 8d81 0ebe f604 ba3d 7dba 45bb
00000130: e193 f2bb 340e 443e af34 7b3e a371 223e
00000140: e696 dbbd 67a3 463d a351 16be 8d4a fd3c
00000150: 1dda 23be e391 c73d 921d 5c3e 7dbe 8ebe
00000160: 6089 4bbd 2295 9bbd b4a7 543e cdac 24bd
00000170: abf9 5d3d 9d51 46be e383 0d3e 3c37 943d
00000180: 0252 e63c 5d68 f3bd 0503 0a3e 28ab 203e
00000190: a9ef 36be 1fb5 abbd bf3e 9cbd c451 0c3d
000001a0: 3806 113e ca67 96bd d201 0fbe ed81 2cbd
000001b0: 60d6 c23d 089a c13c 4fad 383e cc7f 8dbc
000001c0: 2dd2 23be ea23 633b cf75 4c3c a29b 393e
000001d0: b960 8c3c b831 01be e86d aabd 86d8 813d
000001e0: 638e cbbc d0d1 ebbd 7176 d43c f3c7 d83d
000001f0: c14b d13d 5209 033d 78db 7c3d b4c8 c8be
00000200: 92be c7bc 0b55 823e c9e0 6fbc ad88 b33d
00000210: 24bb 203e d7b6 0b3c e93a f4bc aecf d23c
00000220: 0673 1d3d 4d89 88be ce8d 07be a4ce 98bd
00000230: ab24 63bd 72b5 2c3e 4738 e73d 7787 32be
00000240: cd90 09be bbb2 60bd 092b 27be 7691 bdbd
00000250: c84f 69be 89b1 5abd ccce 48be 19ea 593c
00000260: 21e8 13be 5b49 d4bc 36f5 27bc 076a 14bd
00000270: 857e 1f3d 3a6a 0bbe f3aa 1c3d 19c1 583d
00000280: 6a50 b43d 08e6 f03d 1723 783e 3fb6 f0bd
00000290: 8599 083e 2ce5 5d3c 886b 6e3d 1ed1 18be
000002a0: 9307 353d 36cb 92be dca3 f83d 85ff 0fbe
000002b0: 9113 283e f90a 813e 42f9 ecbc d717 9dbd
000002c0: e12f 633c fd40 2fbd f270 3cbe 5436 37be
000002d0: 67d9 45be 9771 06be edbf 143d 5381 9ebd
000002e0: 2b47 153d bcc0 203e e330 963c 01da 8abd
000002f0: 6be7 28be a3fc a23d e4a8 803d bf7c 893d
00000300: 6b86 ce3d ccb5 c73d 7858 2a3d e350 db3c
00000310: 8da7 13be c3d0 e0bc 46ac 0cbd 592d babd
00000320: 0316 1f3b d090 253c d7f0 ebbc db0d c33d
00000330: b716 fabd a44d a9bd c899 edbd ac06 21be
00000340: de05 aebc 3e7b 723e 0e24 89bc 2c6c 57bd
00000350: fa3d 21be 00a6 d8bd 2859 8bbe 663c ab3d
00000360: d8bd 66be 8480 cbbd 6892 f23c 8e35 69be
00000370: 15ae 023e 8103 dd3e 201a c2bd 74bc f7bd
00000380: c7a2 4f3d 432b 98bc 3094 943d 7bb8 7d3e
00000390: 0325 4e3e 2e93 213e a83b b9bd ec36 813c
000003a0: d8cd dd3d 7b23 82bd bef1 b93d 5ebe b23d
000003b0: 284e c13d 46a0 32be 4050 f13c daa2 1ebd
000003c0: 41a5 03be 6db5 a2be f302 01be 857d 353e
000003d0: 2c11 7d3d 96a7 753d 4459 22be c9fa 65be
000003e0: 93d7 013e d5ba 24be 88ee 44bd 7b76 7bbc
000003f0: f887 24be 54d2 a03c 256a 30be 0c3c 923d
0.025680115 0.06860427 -0.06862313 -0.12464338 -0.04465655 0.045970123 0.1540572 0.32834646
-0.1582236 -0.007723269 0.21583326 0.16343229 -0.0503567 0.21592726 0.13165323 -0.07352903
0.049472205 0.141089 0.28560108 0.08657681 -0.004641919 -0.14418681 -0.07473146 -0.1361234
0.13434368 -0.18462685 -0.18100113 -0.29699993 -0.21650101 0.17586769 0.12468523 -0.047406584
-0.045535654 0.09567706 0.18276556 0.014940345 0.035422068 0.18399811 0.14234023 0.10046533
0.12009526 0.15469728 -0.2946127 0.12228075 0.07178271 0.10519754 -0.07599293 0.17473361
0.23372968 0.00036070266 0.1057745 -0.113537826 -0.1222786 0.18638343 0.032891195 -0.09266898
-0.0023778027 0.14418134 -0.1290961 0.04571728 -0.058605216 0.05401465 0.23893428 -0.16550896
0.06748998 -0.034656208 0.03548375 -0.21983752 0.16154118 -0.021376893 0.14648107 -0.064716816
-0.07199115 -0.13916607 0.090829775 -0.003017097 -0.0074028824 0.19146043 0.24531816 0.15863661
-0.10722141 0.048495676 -0.1467958 0.030919338 -0.16001172 0.097446226 0.21495655 -0.27879706
-0.049691558 -0.07596804 0.20767099 -0.04020386 0.05419318 -0.1936707 0.13819842 0.072370976
0.028115276 -0.1188514 0.13477714 0.15690291 -0.1786486 -0.083841555 -0.07629155 0.034257665
0.14162529 -0.07344015 -0.13965538 -0.042116094 0.09513545 0.023633018 0.18034862 -0.017272852
-0.15998144 0.0034658858 0.01247926 0.18125775 0.017135965 -0.12616622 -0.08321744 0.06340127
-0.024848169 -0.11514628 0.025935384 0.10585012 0.10219527 0.03199131 0.06173274 -0.39215624
-0.024382863 0.25455508 -0.014640995 0.08766303 0.15696388 0.008527479 -0.029813247 0.025733795
0.038439773 -0.26667252 -0.13237688 -0.074612886 -0.05545489 0.16866091 0.11290031 -0.17434488
-0.13434143 -0.05485795 -0.1632501 -0.0925626 -0.2278434 -0.053391967 -0.19610137 0.013300442
-0.14444019 -0.025913885 -0.010251334 -0.036233928 0.038939018 -0.13614741 0.038248967 0.052918527
0.088044 0.11762625 0.24232136 -0.11753511 0.13339813 0.013543408 0.05820802 -0.14923522
0.044196676 -0.28670663 0.12140629 -0.14062317 0.16413714 0.25203684 -0.02892745 -0.07670563
0.013866396 -0.042786587 -0.1840246 -0.17891818 -0.19321214 -0.13129269 0.036315847 -0.077395104
0.036444824 0.15698522 0.018333858 -0.06779862 -0.16494529 0.07958343 0.06282213 0.067132466
0.10084232 0.09751472 0.041588277 0.026771968 -0.14419384 -0.027443295 -0.03434398 -0.09090681
0.0024274595 0.010105327 -0.028801365 0.09524127 -0.12211364 -0.08266762 -0.11601597 -0.15725201
-0.021243032 0.23679826 -0.016740825 -0.052593395 -0.15746298 -0.10578537 -0.27216458 0.083611295
-0.22533357 -0.09936622 0.029610828 -0.22774336 0.1276172 0.43166736 -0.09477639 -0.120964915
0.050692346 -0.018575316 0.07254827 0.24777405 0.20131306 0.15778801 -0.09044582 0.01577326
0.10830277 -0.063544236 0.09079312 0.08727716 0.09438735 -0.17443952 0.029457211 -0.038729526
-0.12856008 -0.31779042 -0.12598781 0.17723663 0.061783955 0.059974276 -0.15854365 -0.22458948
0.12679891 -0.16086896 -0.048079044 -0.015348072 -0.16067493 0.019631542 -0.17227991 0.07140359

network_body._body_endoder.seq_layers.2.bias f4 [64]
00000000: d20f ac3d fb13 b23c 833f 43bc a42c 56bd
00000010: 0179 4a3c aa31 8ebc b8e2 1c3d 6677 d4bc
00000020: fa88 943d 01a9 1a3d a9ee 49bd e918 403d
00000030: b045 d83d 44c3 a83d 2bc8 533d 0e33 7e3c
00000040: 180e eebc d620 a33d d854 073d 7b3d a53d
00000050: 1607 be3d a13a 443d f0ee 5cbc 9f65 ddbc
00000060: 020b bebc fbf2 d13d 4404 963d f4f3 09bd
00000070: d9d3 b6bb 0cb0 933d e0f6 e5bb 1c9f 853d
00000080: e8bb bc3d 53e4 3fbc 38eb d13d 28f8 d3bc
00000090: 173f b53d 80c3 ea3b 8afd c23d d165 a43d
000000a0: 0a4e b43d a759 993d 1b5a c93d ffdc 9e3d
000000b0: dc88 bd3d 7765 b53d 091b ab3d e3d8 c33d
000000c0: a96f aebc d6a3 24bd 7be0 dabb c789 f5bc
000000d0: 0cee a3bb 1bc0 883d 3924 ad3b a3e9 a73d
000000e0: 9222 893d e800 03bd 9df3 cc3d 7022 443d
000000f0: 7f0f 803b 56a9 ae3d af81 c23d 3e00 313d
0.08401455 0.021738043 -0.011916998 -0.052288666 0.012357951 -0.017357666 0.038302153 -0.02593584
0.07252689 0.03775883 -0.04929987 0.046898756 0.10560167 0.08240369 0.051704567 0.015515102
-0.029059455 0.07965247 0.033039898 0.08068367 0.09278695 0.047907475 -0.0134847015 -0.027025996
-0.023198608 0.10251423 0.07325032 -0.033679917 -0.0055794534 0.07211313 -0.007017955 0.06524488
0.09215528 -0.011712152 0.102499425 -0.025875166 0.08849924 0.0071644187 0.09521015 0.080272324
0.08803947 0.07487803 0.098316394 0.077569954 0.092546195 0.088572435 0.08354766 0.09562852
-0.021293478 -0.04019531 -0.006679592 -0.029972924 -0.0050027426 0.06677266 0.005283859 0.081988595
0.06696047 -0.031983286 0.10007403 0.047884405 0.0039080973 0.08528392 0.094973914 0.04321312

action_model._continuous_distribution.log_sigma f4 [1, 2]
00000000: ddaa 09be 8dcf f0bd
-0.13444085 -0.11758337

action_model._continuous_distribution.mu.weight f4 [2, 64]
00000000: 6d61 a83c 92b8 85bd e462 053c 7f32 15bd
00000010: 507e 28be 39cc 853d dcf9 b53d e6c7 8dbd
00000020: c16d de3c ff0c 853d 962b 9cbd 9649 c33d
00000030: c59e b9bd 7a2f ea3d 72bc fcbc 581d 8abd
00000040: 3b7d 96bd dd5f 353d 9a70 e8bd 7281 aa3d
00000050: 9a5c 333c 4723 c43d 62cd 0abe e792 59bd
00000060: a7bb f6bd c3e1 4d3c 8b54 d43d 0982 aebd
00000070: 3a0d ae3c ce11 423d ca24 d1bd 13d5 793d
00000080: bcc2 c13b dcea 9abd bce2 073d 8322 b5bd
00000090: 9525 d23d 7094 e9bd 8f10 5dbb 15b1 603d
000000a0: bfd8 033e ad2c 8b3d 9bb3 913d a95a a33d
000000b0: ea74 193e a5b1 b13d 7cc1 dbbc fb4c 6d3d
000000c0: 33d0 45bd 9c1e b0bd 6801 90bd 9aa3 c5bd
000000d0: be78 2ebd c94b d83d 9a03 05be 5788 703d
000000e0: 4e61 963d 25af 90bd be12 5f3d 5cbc e7bd
000000f0: e802 eebd 975a 853d fec4 c83d 328a d93d
00000100: 629c 923d 3fcb 493d 1e7a bbbd 85bd 87bd
00000110: bfbb dabc 56fb b1bc 2256 10bd ed65 10bd
00000120: bfbf 173d ad46 8dbd 07e3 6dbd 210c 8fbc
00000130: 5f52 0f3e 389f 613d 80d4 aa3d 8830 df3b
00000140: cefc 2abd 3ab0 ad3d 6f86 3e3d bf83 f33b
00000150: 7872 883d 8189 a9bd 41ff bcbd 0d4b 51bd
00000160: e4d3 91bd 7bae df3d 291b 463d 74b4 a3bd
00000170: 5a4a 62bd 5add 513d 6369 613c d876 ddbc
00000180: 4ae5 ed3d 71f4 7e3d c8ab c23d 5cf7 393c
00000190: 8df7 0bbb 45c8 85bd ded7 d33d 2b6f 033e
000001a0: b267 0a3d 2858 95bb 319c 773d efc4 45bc
000001b0: 5ed0 df3b 7a30 a9bc d7af dd3d 070d 3e3d
000001c0: 524d 8cbd 8aee 98bd 00e7 9f3c 5fe2 b4bc
000001d0: 829c acbc ab28 29bb 3480 6cbd 208e 4c3d
000001e0: 7158 5a3b 6b9d 4bbd 4d4b 043e 3a85 a63d
000001f0: 5189 063d 3974 df3c 4095 9d3c 6ab1 91bd
0.020554269 -0.065293446 0.008141253 -0.03642511 -0.16454434 0.06533093 0.088855475 -0.06922893
0.027151944 0.064966194 -0.07625501 0.0953552 -0.09063486 0.11434837 -0.030851576 -0.06743878
-0.073481046 0.044280875 -0.11349602 0.08325471 0.010947371 0.09577041 -0.1355491 -0.053118613
-0.120475106 0.012566033 0.10367688 -0.08520896 0.021246541 0.04738026 -0.10212095 0.06099422
0.0059131067 -0.07564327 0.033175215 -0.08844473 0.102610745 -0.11405265 -0.0033731794 0.05485638
0.12875651 0.067956306 0.07114335 0.079762764 0.14986005 0.08676461 -0.026825659 0.057934742
-0.048294257 -0.08599588 -0.07031518 -0.09650345 -0.042595617 0.1056133 -0.12989655 0.058723774
0.07342778 -0.07064656 0.054461233 -0.113152236 -0.11621648 0.06511419 0.09803198 0.10622062
0.07158734 0.049266096 -0.091541514 -0.06627945 -0.026700852 -0.021726292 -0.035238393 -0.035253454
0.037048098 -0.06898246 -0.05807784 -0.017461838 0.13996266 0.055083483 0.083413124 0.0068112053
-0.041745 0.08480878 0.046514925 0.007431477 0.06662458 -0.0827818 -0.09228373 -0.051096965
-0.07120493 0.109219514 0.048365746 -0.07993403 -0.05524669 0.051236488 0.013758036 -0.027034208
0.11615999 0.062244836 0.09505421 0.011350479 -0.0021357269 -0.06532339 0.10343908 0.12835376
0.033790298 -0.004557628 0.06045169 -0.012070878 0.006830259 -0.020652998 0.108245544 0.046399143
-0.06850685 -0.07467373 0.01951933 -0.022080598 -0.021070722 -0.0025811594 -0.05773945 0.04994023
0.0033316875 -0.049710672 0.1291935 0.0813088 0.0328458 0.027277099 0.019236207 -0.07113917

action_model._continuous_distribution.mu.bias f4 [2]
00000000: e644 2c3d 1560 6e3d
0.042057894 0.0581971

exp_avg f4 [64, 17]
00000000: c019 f539 8476 e438 1261 9ab7 260a a2b9
00000010: 46a8 06b9 6457 4439 b982 4d39 b7d8 ac38
00000020: 18c2 8e38 2879 cdb9 d9e2 143a 4e8f bb38
00000030: e436 7239 f85b e9b9 cb0a f139 74e5 1db8
00000040: 141e feb9 a742 1d3a 90cd c339 14f9 8b39
00000050: 8026 17ba d218 54b9 9ed9 8a39 675b df39
00000060: 1261 5439 81d2 ccb8 1fbd 9c38 00cf 253a
00000070: 1967 a839 489d e537 8a9f f1b9 3218 06b9
00000080: b5bb fe38 7f50 0fba 46a0 153a 0d9b 9d39
00000090: 2944 bb38 d312 1bba 77f0 47b9 e614 2239
000000a0: 3433 8239 ca91 81b8 a07e aab9 cde4 4eb9
000000b0: aaa6 2f3a b6c5 07b9 c0b4 a539 d997 c4b9
000000c0: 0ac9 c338 621a e937 2cf8 27ba 7607 633a
000000d0: 749b 003a 20bf a737 b1ea 32ba 1285 c8b8
000000e0: 2452 a439 82a5 d339 2ce3 5bb7 a6e3 8db9
000000f0: b465 0cba 372f 7b3a 4d53 bcb9 f490 2f39
00000100: c4ef cab9 c9e9 393a 85b5 05ba edcc b9ba
00000110: 6957 e2b9 e614 82b9 410c bab8 a821 043a
00000120: af64 ee39 808c 58b6 1f4d c1b9 3615 dfb9
00000130: fa64 87b9 e91e d1b9 1925 14ba 2a0a 57ba
00000140: a888 d3b8 806e 223a 5873 1f3a 69f0 c9b9
00000150: 6084 ca39 4a0f 2eba a9d9 3eba 4a91 96ba
00000160: 62b6 30b8 40f2 3a3a ce13 5939 da00 f837
00000170: 960a 9039 b40d 4039 b67c feb9 532f 24ba
00000180: d03a a5ba e343 84b9 2f7c 313a cb8e 4a3a
00000190: 9e9b 9eb9 10d6 6839 05b1 0e3a 4b18 313a
000001a0: 4985 553a 41cc a6b8 1ba5 28b8 e7b1 0e39
000001b0: c923 a938 1013 05b9 9b23 a6b9 9316 feb8
000001c0: dbac 0c3a 0f3a 5ab9 6785 bf39 b40b 37ba
000001d0: 52e7 2239 9a8d 7a39 32ef a5b9 135f 8b3a
000001e0: 29e1 083a 80e7 0138 7d5d 73ba 298d 05ba
000001f0: 98b9 3f39 6e35 143a 6f19 403a 10b0 f539
00000200: 70d1 eeb8 5a4d ac3a d4a5 aa3a 4839 b339
00000210: b7c3 76ba 9811 9138 7900 f2b8 062d afba
00000220: 1754 4539 8c0b f738 461b 4c39 21f7 71b9
00000230: c6f4 5438 98b8 d638 6bad a9b8 b555 9bb9
00000240: 363f b0b9 c677 12b9 1c19 0439 8892 bfb7
00000250: 808a cb38 00e4 dc38 86bf 553a e77f 573a
00000260: 59e1 1d3a 190e 87ba bc65 2fba 6ad8 0dba
00000270: 2a39 b938 8d53 b939 0fef 5cb9 5ba8 edb9
00000280: 6560 8a38 d288 013a c6d4 af39 7293 a3ba
00000290: 3bf6 a1ba 6009 24ba cb2f a23a f76c 1839
000002a0: 0a2f 9039 d87c 9c3a 0359 9eba 3d5e 90ba
000002b0: 96f7 9dba f0e7 0839 90bb 5d3a 2086 6d37
000002c0: 3e6e eeb9 1a95 81b8 8f2e 4b39 34c2 a538
000002d0: 9c0f aaba 80f6 24bb e03f 3aba ba57 983a
000002e0: 597e e039 fe5e 14ba cf30 6f3a 1cd9 d938
000002f0: 1400 2a39 0c65 a239 a226 5d39 9923 6539
00000300: e6aa ce38 bd02 71b8 a00c 87b9 4a95 c4b9
00000310: 08d3 9ab9 b09d 7037 b028 f6b9 9a92 20b8
00000320: 6eb1 33b9 9e41 3f39 e4ad a7b9 1eee 4cb9
00000330: 10d5 c33a c3bd 9f3a e91a a33a 1e1b 91b9
00000340: d0e7 7eba c0b5 5836 fd54 28b9 16b2 8b39
00000350: cc36 a938 f872 84ba 4fed c83a dec3 1439
00000360: 5857 323a 32e4 e4ba 680f 4b3a eeed ccba
00000370: 04aa 3abb 8ba3 25ba 64ce 2eba 8c7e 63ba
00000380: 9298 5439 a443 2439 66fc d9b8 ea63 02b9
00000390: dc99 8739 28e4 af39 e05c f336 3eac 10ba
000003a0: 8219 e3b9 6b90 63b9 f82f bc39 b101 b9b9
000003b0: 2696 19ba 0306 4e39 d447 07ba 6338 2cba
000003c0: ce42 73ba 7437 8c39 0438 123a bc89 2b39
000003d0: a021 3838 3f26 b439 1f01 bc38 5abf 21b9
000003e0: e4f3 f9b9 aae6 92ba c6d6 6eb9 0acb 9139
000003f0: 4242 9d39 900b feb9 6ef9 6bb9 b93c 83b9
0.00046749227 0.000108939625 -1.8403432e-05 -0.0003090661 -0.00012841923 0.00018724572 0.00019599021 8.2419654e-05
6.8072404e-05 -0.00039190915 0.0005679555 8.9435474e-05 0.00023099367 -0.00044509745 0.00045975143 -3.764541e-05
-0.00048469065 0.00059990067 0.00037346454 0.00026697724 -0.000576593 -0.00020227142 0.0002648355 0.00042601975
0.00020254057 -9.7666874e-05 7.473886e-05 0.0006325096 0.0003212027 2.7372167e-05 -0.00046085968 -0.0001278825
0.00012146627 -0.0005467012 0.00057077815 0.00030060895 8.929551e-05 -0.0005915586 -0.00019067699 0.00015457309
0.00024833682 -6.178355e-05 -0.0003251927 -0.00019730926 0.0006700555 -0.00012948256 0.00031605922 -0.00037497169
9.335771e-05 2.778805e-05 -0.0006407525 0.00086604746 0.0004905977 1.999695e-05 -0.0006825133 -9.5615294e-05
0.00031341717 0.0004036837 -1.310631e-05 -0.00027063227 -0.0005355731 0.00095819257 -0.00035920218 0.000167433
-0.00038707082 0.00070920266 -0.0005100596 -0.0014175453 -0.00043171205 -0.00024811103 -8.8714536e-05 0.00050404156
0.00045469913 -3.226829e-06 -0.00036869288 -0.00042549678 -0.0002582444 -0.00039886616 -0.000565128 -0.00082031137
-0.00010086718 0.00061962754 0.0006082556 -0.00038516827 0.0003862707 -0.00066398515 -0.00072803587 -0.0011487391
-4.2131527e-05 0.0007131435 0.0002070211 2.95643e-05 0.00027473707 0.00018315652 -0.00048539572 -0.00062631554
-0.0012606028 -0.00025227582 0.0006770519 0.0007726966 -0.00030252052 0.00022204989 0.0005443248 0.0006755634
0.0008145166 -7.953542e-05 -4.0208088e-05 0.00013608449 8.0652135e-05 -0.0001269097 -0.00031688515 -0.000121158686
0.00053663336 -0.00020811729 0.0003652975 -0.000698264 0.00015535697 0.00023894609 -0.00031649467 0.0010633193
0.000522154 3.0971598e-05 -0.0009283645 -0.0005094582 0.00018284319 0.00056537136 0.00073280087 0.00046861218
-0.00011387735 0.0013145611 0.0013019391 0.00034184218 -0.0009413319 6.917416e-05 -0.00011539547 -0.0013364858
0.0001881871 0.000117800286 0.00019465116 -0.00023075614 5.07727e-05 0.000102386985 -8.0908496e-05 -0.0002962776
-0.00033616432 -0.00013968264 0.00012597855 -2.2837208e-05 9.705592e-05 0.00010532886 0.00081538444 0.0008220658
0.0006022654 -0.0010303884 -0.000669088 -0.00054109714 8.832135e-05 0.000353482 -0.00021069891 -0.00045329597
6.598308e-05 0.0004941347 0.0003353713 -0.0012479855 -0.0012356708 -0.00062575005 0.0012373863 0.00014536442
0.00027500867 0.0011939062 -0.0012080971 -0.0011014413 -0.0012051936 0.00013056374 0.000845843 1.4157529e-05
-0.00045477034 -6.178972e-05 0.00019376933 7.903986e-05 -0.0012974623 -0.002517134 -0.0007104855 0.0011622824
0.00042818746 -0.0005659907 0.00091243995 0.00010387806 0.00016212492 0.00030974334 0.00021090594 0.00021852403
9.854678e-05 -5.7461428e-05 -0.00025758613 -0.00037495262 -0.000295304 1.4341829e-05 -0.0004695109 -3.8283506e-05
-0.00017136868 0.00018239624 -0.0003198228 -0.00019543662 0.0014940817 0.0012187291 0.0012443933 -0.0002767676
-0.0009723874 3.22923e-06 -0.00016053389 0.0002664483 8.068755e-05 -0.0010105064 0.0015329513 0.00014187346
0.00068031764 -0.0017463027 0.0007746131 -0.0015634873 -0.0028482685 -0.000631862 -0.0006668328 -0.000867822
0.00020274732 0.00015665457 -0.00010394379 -0.00012434987 0.0002586384 0.0003354859 7.2527764e-06 -0.000551883
-0.0004331582 -0.00021702207 0.00035893894 -0.0003528721 -0.00058588607 0.0001964793 -0.00051605445 -0.00065696816
-0.0009279669 0.00026744197 0.0005577805 0.00016359141 4.3900334e-05 0.0003436077 8.9647474e-05 -0.0001542544
-0.00047674694 -0.0011207659 -0.00022777458 0.0002780783 0.0002999474 -0.0004845527 -0.00022504266 -0.0002503151

exp_avg_sq f4 [64, 17]
00000000: 768e 3935 3f94 8c35 634a a335 f8ff 9a35
00000010: 8444 0535 7250 e134 ad4c f434 0881 2b35
00000020: d734 8d35 6dca f335 6b73 2035 fa1a 3c35
00000030: bcc6 1d35 5d51 4635 7089 a535 e6e8 9c35
00000040: 60b1 b835 710c 0435 2197 3c35 b7f9 5435
00000050: 71d4 3d35 8b95 e734 78b6 da34 1a0f f834
00000060: 3470 0235 1907 1035 137b d934 061a e134
00000070: e85c 9935 fa5f 8435 70a8 0135 384b 2435
00000080: 4657 6335 2834 2235 0465 8e35 03b6 b035
00000090: 5af3 bb35 2adf ae35 7e9e 8b35 7bd3 6035
000000a0: 0673 3f35 d38f 3735 7cd5 8b35 3b54 0f36
000000b0: ac5e 6035 7f50 8e35 4a15 3235 8390 3d36
000000c0: dccd c935 4930 d835 c6be a135 c018 1a36
000000d0: 6cc9 5436 f7f5 5736 bc8f 5636 65f0 3336
000000e0: 1b54 1336 6750 ea35 8274 c935 87ee ea35
000000f0: 462a 9436 b754 0436 5a1d 5436 5a0d 0036
00000100: 8822 b436 fc87 3f36 7043 3536 a6ae 6d36
00000110: 1793 8734 185a 4434 efad a034 3329 2735
00000120: eba2 2035 0f90 b734 e9e0 fd34 eae2 a835
00000130: f317 4436 d402 5136 6679 f934 252f 5e36
00000140: 00b8 9234 bb03 9535 ec14 a535 6e74 b435
00000150: dfb1 8935 4f13 8e35 8fa7 c035 7eae 3036
00000160: 50bc 5b36 69d2 a035 2df6 a035 c812 0236
00000170: 5da9 4f36 15ab 8536 ca6b 4d36 e8c0 8635
00000180: 0383 7836 61da 0a36 f3fb 0d36 28b2 3536
00000190: 6bde 7a36 12a7 3236 63c5 3035 9341 6535
000001a0: 0f0e 7b35 caf2 ea34 e582 9d34 7082 9534
000001b0: 1d25 7334 c5d6 3a34 adbc 5a34 84e8 4d34
000001c0: c7d8 1b35 a044 9e34 f482 d834 e21d f834
000001d0: 6358 4f35 1449 9535 89cb a035 1457 2b36
000001e0: ba2a 4d36 27b8 6d36 3ca0 7a36 1d96 4a36
000001f0: f217 0836 72f6 0d36 97fb 8a36 4f57 0837
00000200: 27c3 4d37 debc 2736 c070 4437 4c3e e735
00000210: 3bb6 f736 aa51 cf36 32e3 af36 4f65 b936
00000220: c481 cb35 a601 0936 5f11 4036 e968 2836
00000230: be37 b435 258d 8835 6226 9435 319f fa35
00000240: 9a52 7336 8954 9d36 3177 bc35 1075 1236
00000250: d5d5 9e35 3bfe 3236 cdeb 4236 238f 5c36
00000260: f2f9 5736 92a0 a035 552a bb35 a5db 0636
00000270: 058f fa35 7755 9435 3a4a 9135 8f21 df35
00000280: b282 3a36 9fd4 7136 4955 cc36 dda0 c935
00000290: 9044 ab36 bae7 dc35 3881 fd35 6859 7836
000002a0: ffc7 7536 16eb 5636 72c5 0736 f8f3 2836
000002b0: 245a 9636 e7bd 9236 4422 2a36 2c0d 2336
000002c0: 92b0 8536 5da5 e836 8d56 2c37 acfc 6337
000002d0: c8da 2436 d72c 6e37 0887 7336 d866 9636
000002e0: 6ab5 0337 95f1 0d37 4052 ec36 cf87 2e34
000002f0: 6082 7934 6bcb b634 e627 d334 fa6d 8234
00000300: d2ce 6834 43fa 8734 fda8 ba34 d152 0a35
00000310: a229 f634 b129 2334 9317 2c35 0b32 c034
00000320: 0777 f334 db5f 9a34 ff6a db34 12fb db34
00000330: a010 c036 431c fa36 71b0 0d37 0806 a536
00000340: b3d7 5836 d04d 6b36 b413 8336 0ca2 8736
00000350: 9947 9836 2147 d936 ad0a a136 e127 1337
00000360: 2b98 4737 7e7a 8a36 0f19 fe36 cbef 3937
00000370: adcf 4d37 cd57 8535 21d3 b435 840d 0836
00000380: 3ecd c035 81e6 3e35 d72f 5a35 fab0 8f35
00000390: cd69 ab35 2d88 d135 91a4 f135 f579 6635
000003a0: 21f2 1036 ad9b ee35 b6dc a835 a8eb e035
000003b0: bea2 1836 b710 ef35 6ae0 a435 349d e935
000003c0: d513 5a36 0d42 8b36 7177 c735 827d b335
000003d0: 30de 0b36 578d 6c36 cd05 a236 3652 9e36
000003e0: 9e5e 9335 3ac2 bb36 59c4 1536 fef8 5536
000003f0: 51f0 4336 7ddd 6d36 1640 4e36 16ca ab35
6.912518e-07 1.0473958e-06 1.2166096e-06 1.1548391e-06 4.9646064e-07 4.1968048e-07 4.550433e-07 6.389023e-07
1.0520697e-06 1.8163825e-06 5.97726e-07 7.0074714e-07 5.8776254e-07 7.3879147e-07 1.2333458e-06 1.1690688e-06
1.3760691e-06 4.9191937e-07 7.025538e-07 7.933954e-07 7.071713e-07 4.313591e-07 4.0738428e-07 4.6204588e-07
4.859205e-07 5.365451e-07 4.0508948e-07 4.192845e-07 1.1426428e-06 9.862699e-07 4.8301354e-07 6.120422e-07
8.469109e-07 6.04256e-07 1.0609224e-06 1.3165994e-06 1.400341e-06 1.302896e-06 1.0402434e-06 8.375425e-07
7.1320426e-07 6.8382104e-07 1.0418439e-06 2.135769e-06 8.358427e-07 1.0603252e-06 6.6341147e-07 2.8247312e-06
1.503558e-06 1.6107307e-06 1.2050957e-06 2.2962195e-06 3.1707705e-06 3.2180667e-06 3.197215e-06 2.6813007e-06
2.1953663e-06 1.7457759e-06 1.5009575e-06 1.7503779e-06 4.415665e-06 1.9718843e-06 3.1607547e-06 1.9081258e-06
5.368438e-06 2.8540371e-06 2.7010356e-06 3.541741e-06 2.5252731e-07 1.8286698e-07 2.9928876e-07 6.22723e-07
5.984172e-07 3.4191223e-07 4.7288566e-07 1.2583016e-06 2.9220216e-06 3.1145073e-06 4.6468193e-07 3.310802e-06
2.7328497e-07 1.1102451e-06 1.2299547e-06 1.3444931e-06 1.0259063e-06 1.0585444e-06 1.4353881e-06 2.6327612e-06
3.2743155e-06 1.1982166e-06 1.1992576e-06 1.9382442e-06 3.0943986e-06 3.9836254e-06 3.0610122e-06 1.0039921e-06
3.7031139e-06 2.0690716e-06 2.115729e-06 2.7074802e-06 3.7382367e-06 2.6621315e-06 6.5852345e-07 8.540457e-07
9.3525244e-07 4.376255e-07 2.9338767e-07 2.7848318e-07 2.264464e-07 1.7400733e-07 2.0371472e-07 1.9176701e-07
5.805745e-07 2.9479725e-07 4.0328416e-07 4.6215342e-07 7.724213e-07 1.1122634e-06 1.1980165e-06 2.5531672e-06
3.057225e-06 3.5422943e-06 3.7346172e-06 3.0187723e-06 2.0279517e-06 2.1154087e-06 4.1420094e-06 8.12656e-06
1.226439e-05 2.4994874e-06 1.1708762e-05 1.7228972e-06 7.382388e-06 6.1785877e-06 5.2418554e-06 5.5252235e-06
1.5162445e-06 2.041555e-06 2.862034e-06 2.5095017e-06 1.3427268e-06 1.0173868e-06 1.103803e-06 1.8672782e-06
3.6257902e-06 4.688806e-06 1.4041781e-06 2.1823835e-06 1.1834151e-06 2.6672049e-06 2.9045507e-06 3.2865871e-06
3.2182984e-06 1.1967661e-06 1.3944906e-06 2.0095406e-06 1.8668076e-06 1.1051733e-06 1.0824945e-06 1.6624562e-06
2.7792235e-06 3.603556e-06 6.0896023e-06 1.5022484e-06 5.104179e-06 1.6458719e-06 1.8887577e-06 3.700692e-06
3.6624258e-06 3.2025323e-06 2.0231496e-06 2.517596e-06 4.480842e-06 4.3732466e-06 2.535192e-06 2.429656e-06
3.9842644e-06 6.9333896e-06 1.0272151e-05 1.3589084e-05 2.4565252e-06 1.4196346e-05 3.628842e-06 4.482321e-06
7.850447e-06 8.460503e-06 7.0429232e-06 1.625442e-07 2.3237362e-07 3.4048148e-07 3.9330843e-07 2.4294405e-07
2.1681925e-07 2.53278e-07 3.4768155e-07 5.152952e-07 4.5851363e-07 1.5195725e-07 6.41093e-07 3.5799198e-07
4.534888e-07 2.875448e-07 4.086978e-07 4.0974606e-07 5.7239813e-06 7.4538707e-06 8.445336e-06 4.9180853e-06
3.2312062e-06 3.5063022e-06 3.906398e-06 4.0421783e-06 4.538288e-06 6.4753845e-06 4.7994167e-06 8.771168e-06
1.1896754e-05 4.1269805e-06 7.572707e-06 1.108269e-05 1.22673055e-05 9.934826e-07 1.3472492e-06 2.0273446e-06
1.4364848e-06 7.1115943e-07 8.1280945e-07 1.0705837e-06 1.2771285e-06 1.5611346e-06 1.8003794e-06 8.585915e-07
2.159861e-06 1.777769e-06 1.2581211e-06 1.6757886e-06 2.2744493e-06 1.7811752e-06 1.2284265e-06 1.7405605e-06
3.2496075e-06 4.150212e-06 1.4861417e-06 1.3373067e-06 2.0841944e-06 3.524901e-06 4.8286515e-06 4.7183376e-06
1.0979891e-06 5.5956452e-06 2.231702e-06 3.1884406e-06 2.9197147e-06 3.5444675e-06 3.0733695e-06 1.2799308e-06

exp_avg f4 [64]
00000000: eea6 b0b9 2c49 98b9 6e74 d7b9 7e1f 15ba
00000010: 0a18 92b9 f07d 8b39 6749 d1b9 e42c 48b9
00000020: 524f e9b9 0f11 8639 6a1c 3639 4a6d c6b9
00000030: a37d b8ba 7c2a 113a 3542 d039 d0d6 b238
00000040: 046d 40ba cacd 9a38 17e6 feb9 a0f2 4e39
00000050: 3958 9eba c1fa 37ba d013 6238 b44e b5b8
00000060: 317d ec39 a2e6 92b8 340b 0939 518a 10ba
00000070: 1f2e 0dba 1351 20ba 355b 8239 f23b a9b9
00000080: 903f 0039 6d5c 62ba 3cb2 8038 7234 b739
00000090: fc44 97b9 1a70 f0b9 0c2b a5b9 efd6 28ba
000000a0: 324c 01b9 2ef7 62ba 216e 0139 5e74 c039
000000b0: a47a 3938 24b6 1aba 8004 80ba 3a2e 86ba
000000c0: fe11 0bba 80ef 55b8 1cc1 2cba 1fea 40b9
000000d0: cae0 49ba a050 2839 26ef 38b9 1129 ca39
000000e0: 579f d4b9 e091 2137 581a 633a 2e1e 25b9
000000f0: 48a3 c4ba c6ae 03ba 0ad2 8f39 4e82 efb9
-0.00033693708 -0.00029046217 -0.00041094742 -0.00056885916 -0.000278652 0.00026605977 -0.00039918275 -0.0001909021
-0.0004450032 0.0002557118 0.00017367458 -0.0003784693 -0.0014075529 0.00055376417 0.0003972218 8.527713e-05
-0.00073404633 7.3816234e-05 -0.00048618086 0.00019736076 -0.0012080736 -0.0007018261 5.390105e-05 -8.645412e-05
0.00045106703 -7.004781e-05 0.00013069512 -0.0005513775 -0.0005385596 -0.00061155966 0.00024863487 -0.00032278855
0.0001223071 -0.00086349883 6.1367144e-05 0.00034943555 -0.00028852362 -0.0004585989 -0.00031503325 -0.0006440719
-0.00012330784 -0.00086580485 0.00012343425 0.00036707794 4.4221655e-05 -0.0005901775 -0.0009766966 -0.0010237165
-0.000530511 -5.100621e-05 -0.0006590055 -0.00018397764 -0.00077010377 0.00016051764 -0.00017636697 0.0003855904
-0.00040554508 9.630312e-06 0.00086632883 -0.00015746869 -0.0015002275 -0.00050232967 0.00027431577 -0.00045682717

exp_avg_sq f4 [64]
00000000: d947 6d35 a5b4 1935 728e 8935 8b8f 1c36
00000010: 0ec9 5a35 e811 1e36 9f18 4335 cdbc 7f36
00000020: 07dc 0e36 33df 2336 e0d0 c836 5515 9734
00000030: 0dd6 1a37 6648 d635 c703 3936 300e 2636
00000040: f1c6 c235 b01c 0a36 e618 1736 c94b c035
00000050: 8e8b 5337 0de4 fe35 c3c1 a935 c565 0136
00000060: c3df f736 69de c834 9b6a 4935 fcca f435
00000070: 5c00 c535 e19f 3135 6bdc 4335 c2aa 2035
00000080: cab1 a935 5a14 1c36 d262 6234 2b52 c535
00000090: ab35 1a35 b3fd 1a36 ab13 b135 d7a1 2536
000000a0: d9d8 5535 4677 ea36 c41f b335 5cf7 5d36
000000b0: 7ff4 e234 2dad c836 c031 5936 5663 4a36
000000c0: af17 8736 fe11 ef35 8ccc 8436 65be 0f35
000000d0: 6adc bd36 57d5 7635 fef6 0435 8ac3 a836
000000e0: 4a0c 9236 d9ce 5436 afe8 ca36 ea97 6335
000000f0: 2142 9936 73e2 a236 4608 4d36 3dfb a335
8.839393e-07 5.7259814e-07 1.0248752e-06 2.3329364e-06 8.15039e-07 2.3554257e-06 7.267899e-07 3.8107858e-06
2.1287722e-06 2.4418812e-06 5.9847807e-06 2.8141463e-07 9.228953e-06 1.5965313e-06 2.7569347e-06 2.4744186e-06
1.4512026e-06 2.05803e-06 2.2515246e-06 1.4327171e-06 1.2609073e-05 1.8990846e-06 1.2647873e-06 1.9281736e-06
7.387223e-06 3.7414728e-07 7.5033466e-07 1.8238493e-06 1.4677748e-06 6.617029e-07 7.296391e-07 5.985313e-07
1.2643225e-06 2.3257658e-06 2.1083841e-07 1.4701558e-06 5.744757e-07 2.309546e-06 1.3193252e-06 2.468112e-06
7.966424e-07 6.9876287e-06 1.3345784e-06 3.3075548e-06 4.2273675e-07 5.980625e-06 3.2364478e-06 3.0158167e-06
4.0260707e-06 1.7812124e-06 3.957719e-06 5.354871e-07 5.6582985e-06 9.195259e-07 4.9533253e-07 5.029554e-06
4.3525697e-06 3.1710863e-06 6.047157e-06 8.4785154e-07 4.5674537e-06 4.8543384e-06 3.0552196e-06 1.2217566e-06

exp_avg f4 [64, 64]
00000000: 72bf b937 8785 f738 0e44 7439 c5e0 0d38
00000010: 341d c3b7 549f 7b39 44fd 3c39 481b 15b8
00000020: 78cb fbb6 f361 59b9 3a74 9b38 d250 b3b9
00000030: 9c88 8eb9 1c7e 10b9 1034 e7b7 2abd 5638
00000040: 3db1 9db9 f02e d939 b613 b6b8 6009 2db8
00000050: 94c3 0b3a 7835 4a38 724b d238 f4f0 6e37
00000060: 3024 f039 4a7d 0fb9 e510 8bb8 5944 edb8
00000070: 689c efb6 8fd0 b1b9 212b 36b9 fb29 c738
00000080: 07c9 1639 1fc5 5ab9 d098 3137 0c7d 5ab8
00000090: 682d 5e37 f947 b1b8 d725 0b39 641d 16b9
000000a0: 1668 89b9 d871 bbb7 dbd4 be37 fada cc38
000000b0: 7653 8a39 c33f 2ab9 4a8c 82b8 be62 83b9
000000c0: 4040 5e39 9a01 b4b8 4654 3139 8811 c3b9
000000d0: 0857 7537 4b8e 87b7 9d56 37b9 788c 1637
000000e0: a77a 7ab9 a645 1eb8 f846 2439 122c 96b9
000000f0: f201 e3b8 542f 18b9 eb59 8339 b02b 27b9
00000100: 21fa 44b8 786d a937 a4dc beb8 f834 cab8
00000110: d563 76b9 df65 8c37 62df 5039 2a7d 7cb9
00000120: 9037 2437 80e1 e3b9 995f b0b9 0cf8 72b9
00000130: a33c 05b9 6f39 ef39 aad3 9a39 0941 233a
00000140: 127d 8639 1d32 ee38 63cd 6739 f05c a238
00000150: f220 e839 0c2b e439 9054 7838 4249 09b9
00000160: 85df be39 d44d 19b9 2236 7339 58ae 64b9
00000170: cd2f d9b8 e454 cc39 e26b a4b7 a8f8 7bb8
00000180: ad3c 42b9 c511 273a e504 07b9 3ec1 8a39
00000190: 859f 10b9 1675 2ab9 33ac 2cb9 f093 6438
000001a0: 287e bbb7 f8a7 ef38 6455 21b9 2fd4 103a
000001b0: 46ce fa39 c8a5 c2b8 a2d5 403a bfdf d1b8
000001c0: 3d7a 6238 79db 84b9 d859 6c3a d46f 0eb7
000001d0: 099e 8b39 4019 0fb9 f16e 8239 ec02 6839
000001e0: 70be 8bb9 b128 38b9 4cce 8939 1c36 0cb8
000001f0: b09a 633a 61ed adb9 5216 25b8 7d89 59b9
00000200: 4493 c0b8 f414 42b7 84d9 3db8 42c3 67b8
00000210: ee20 bdb8 7449 a3b7 ba17 9637 ec03 6cb8
00000220: 8ada bab7 a920 63b8 2654 d7b8 dabf 7f38
00000230: d8a2 f2b7 95b7 9a37 0ede cb38 abf4 0e38
00000240: 8ca2 85b8 66c9 52b7 67a3 8c37 4e54 8ab7
00000250: e6a2 5137 ce11 25b8 d952 9137 c022 a8b8
00000260: 9795 28b7 2a3d 1c38 eaa5 6638 059a 71b8
00000270: 0aa6 bd36 dfab 35b8 103b 8935 bcb0 23b6
00000280: d118 8337 1c81 2338 a7e5 ad37 82e5 c637
00000290: 22f3 84b8 4fd6 a838 fbf0 2bb7 53c0 27b7
000002a0: 7a4a 4e38 36c6 1738 d43e bc36 f8c3 bf38
000002b0: 2271 a8b6 52af bd38 1e0d d4b6 ca7a 8bb7
000002c0: d7d8 29b8 b904 87b8 a414 4b38 3cd6 c3b7
000002d0: a0ad 3237 23b9 2838 ea02 f638 2852 2137
000002e0: 8076 db34 1253 7238 a554 a5b7 708c 2f38
000002f0: 1548 9db7 93d0 d337 384e 9e38 cc03 3838
00000300: bba6 e037 cac9 8ab6 6516 1cb8 34ea cb36
00000310: bac6 ebb8 1467 6c38 d575 a437 de22 27b8
00000320: ef33 9238 9847 24b8 ad91 f4b8 2e9a 0d39
00000330: f2aa bc38 79ac 7f39 85f5 7539 8997 bf38
00000340: 7451 1339 12b7 94b8 cc85 5739 94ed 9037
00000350: 1cef 4438 b95b 0c39 253e 8537 0bad 87b8
00000360: 7ee6 1f38 eff9 d7b7 f046 5db5 3aba bcb7
00000370: 43a7 1c37 86f0 9e39 ccc3 ed38 3cf8 e4b8
00000380: b729 3db8 d38f b239 7236 3237 0c05 c038
00000390: 6ea1 a2b8 829f 9cb6 58e9 a237 0a3a d138
000003a0: 8b9b 4839 f3f6 8e38 ea07 37b8 84ed 8e39
000003b0: d498 e438 0410 23b7 768c 7839 4c11 0738
000003c0: 8535 2e38 a670 1ab8 566f 2e39 c8ee 2139
000003d0: 54ed 5638 9acc 60b8 c4d6 57b6 5269 f038
000003e0: bc34 9c38 9cdc 21b7 3805 b538 ad49 6c39
000003f0: 7d04 6539 bec2 00b8 07a9 d6b7 36f7 a7b7
2.2142867e-05 0.00011802749 0.00023295006 3.3826353e-05 -2.325941e-05 0.0002399658 0.00018023426 -3.5549776e-05
-7.50407e-06 -0.00020731222 7.412625e-05 -0.00034201756 -0.00027186133 -0.0001377989 -2.756159e-05 5.119775e-05
-0.00030077426 0.00041424436 -8.682108e-05 -4.1255145e-05 0.00053315726 4.821035e-05 0.00010027633 1.4242007e-05
0.0004580333 -0.00013684217 -6.631183e-05 -0.000113137714 -7.140963e-06 -0.0003391546 -0.0001737294 9.496879e-05
0.00014380003 -0.00020863533 1.0585602e-05 -5.209171e-05 1.3242803e-05 -8.453424e-05 0.0001327017 -0.00014316064
-0.00026208226 -2.234515e-05 2.2748884e-05 9.7682656e-05 0.00026383594 -0.00016236216 -6.225014e-05 -0.00025059836
0.00021195505 -8.583367e-05 0.0001691143 -0.0003720636 1.46234015e-05 -1.6159514e-05 -0.00017484506 8.973402e-06
-0.0002388755 -3.7735e-05 0.00015666697 -0.00028643064 -0.00010824566 -0.0001451348 0.0002505326 -0.00015942636
-4.6962992e-05 2.0197345e-05 -9.1010035e-05 -9.641977e-05 -0.00023497579 1.6736738e-05 0.00019919642 -0.0002407922
9.788098e-06 -0.00043464825 -0.00033640562 -0.00023171323 -0.00012706457 0.00045628424 0.0002953087 0.00062276475
0.00025651656 0.00011358059 0.00022106389 7.742073e-05 0.00044275034 0.0004351962 5.9206563e-05 -0.00013092629
0.0003640616 -0.0001462021 0.00023194452 -0.00021808723 -0.0001035627 0.0003897316 -1.960056e-05 -6.0074643e-05
-0.00018523885 0.00063731923 -0.00012876427 0.00026465388 -0.00013792336 -0.00016256081 -0.00016467347 5.4497214e-05
-2.2350883e-05 0.00011427695 -0.00015385967 0.0005524782 0.00047837402 -9.28152e-05 0.00073560525 -0.000100075726
5.3996442e-05 -0.00025340522 0.00090160733 -8.489897e-06 0.0002662989 -0.00013646949 0.0002487819 0.00022126333
-0.00026654033 -0.00017562766 0.0002628438 -3.3428994e-05 0.0008682413 -0.00033173992 -3.9359853e-05 -0.00020745951
-9.182704e-05 -1.156818e-05 -4.526369e-05 -5.525654e-05 -9.018356e-05 -1.9465318e-05 1.7892442e-05 -5.6270437e-05
-2.2274693e-05 -5.4151435e-05 -0.00010267673 6.0975413e-05 -2.8924478e-05 1.8443718e-05 9.721155e-05 3.4083303e-05
-6.372211e-05 -1.2563867e-05 1.676539e-05 -1.649014e-05 1.24952985e-05 -3.9355647e-05 1.7323926e-05 -8.017337e-05
-1.0048409e-05 3.725026e-05 5.4990793e-05 -5.760232e-05 5.6519684e-06 -4.331383e-05 1.0224485e-06 -2.4391766e-06
1.5627973e-05 3.898247e-05 2.0730147e-05 2.3710312e-05 -6.3395375e-05 8.050782e-05 -1.0248502e-05 -9.998755e-06
4.918359e-05 3.6185804e-05 5.6101508e-06 9.144092e-05 -5.0199606e-06 9.044878e-05 -6.3196194e-06 -1.662727e-05
-4.0494688e-05 -6.438181e-05 4.8418195e-05 -2.3345572e-05 1.0650052e-05 4.0226743e-05 0.00011730737 9.615476e-06
4.087815e-07 5.777466e-05 -1.9708948e-05 4.1854044e-05 -1.8749424e-05 2.5250285e-05 7.5485965e-05 4.3872555e-05
2.678052e-05 -4.136212e-06 -3.7214155e-05 6.0771363e-06 -0.00011242689 5.6362784e-05 1.9605193e-05 -3.9848375e-05
6.971496e-05 -3.9167324e-05 -0.00011661961 0.00013504244 8.9963796e-05 0.00024382946 0.00023456484 9.135815e-05
0.00014049356 -7.0912894e-05 0.00020553841 1.7276769e-05 4.695273e-05 0.0001338561 1.5883774e-05 -6.4695334e-05
3.8123217e-05 -2.5746382e-05 -8.2432143e-07 -2.2498065e-05 9.337268e-06 0.00030315312 0.00011337511 -0.000109181245
-4.509996e-05 0.00034057963 1.0622303e-05 9.1562135e-05 -7.7548306e-05 -4.6677314e-06 1.9420564e-05 9.976707e-05
0.0001913143 6.8170855e-05 -4.363797e-05 0.00027261314 0.00010900354 -9.719286e-06 0.00023703449 3.2202617e-05
4.1534677e-05 -3.6821373e-05 0.00016635409 0.0001544311 5.1242605e-05 -5.359631e-05 -3.2162507e-06 0.00011463709
7.448482e-05 -9.647712e-06 8.6317246e-05 0.0002253416 0.00021840814 -3.0698946e-05 -2.5589497e-05 -2.0023068e-05
