results/test-16/Drive/checkpoint.pt (torch, 152034 bytes, 44 tensors)

network_body.observation_encoder.processors.0.normalizer.running_mean f4 [17]
0	0x412f3663	10.950778
1	0x416a91b4	14.660572
2	0x419aee04	19.366219
3	0x41a9fa8f	21.247343
4	0x41a7d849	20.980608
5	0x419dad5b	19.709646
6	0x418d821a	17.688526
7	0x41709caf	15.038253
8	0x414b3306	12.699957
9	0x41115934	9.084278
10	0x40fee5e3	7.9655623
11	0x40e951fe	7.291259
12	0x4123e66c	10.243755
13	0x410d6a94	8.83852
14	0x418a440e	17.28323
15	0x3f03f34b	0.5154311
16	0x404ece12	3.2313275

network_body.observation_encoder.processors.0.normalizer.running_variance f4 [17]
0	0x4b967ccc	1.9724696e+07
1	0x4bc74709	2.6119698e+07
2	0x4baaa008	2.2364176e+07
3	0x4b6cb7c1	1.5513537e+07
4	0x4b5d644b	1.4509131e+07
5	0x4b5b3409	1.4365705e+07
6	0x4b4db874	1.34821e+07
7	0x4b2a79cb	1.1172299e+07
8	0x4b04a0ea	8.691946e+06
9	0x4b0e49d0	9.325008e+06
10	0x4b2282b7	1.0650295e+07
11	0x4abf8a09	6.2763565e+06
12	0x4ba7a19b	2.1971766e+07
13	0x4ae169fb	7.3863655e+06
14	0x4b9e3459	2.0736178e+07
15	0x4c6d0890	6.2136896e+07
16	0x4c2c5372	4.5174216e+07

network_body.processors.0.normalizer.running_mean f4 [17]
0	0x412f3663	10.950778
1	0x416a91b4	14.660572
2	0x419aee04	19.366219
3	0x41a9fa8f	21.247343
4	0x41a7d849	20.980608
5	0x419dad5b	19.709646
6	0x418d821a	17.688526
7	0x41709caf	15.038253
8	0x414b3306	12.699957
9	0x41115934	9.084278
10	0x40fee5e3	7.9655623
11	0x40e951fe	7.291259
12	0x4123e66c	10.243755
13	0x410d6a94	8.83852
14	0x418a440e	17.28323
15	0x3f03f34b	0.5154311
16	0x404ece12	3.2313275

network_body.processors.0.normalizer.running_variance f4 [17]
0	0x4b967ccc	1.9724696e+07
1	0x4bc74709	2.6119698e+07
2	0x4baaa008	2.2364176e+07
3	0x4b6cb7c1	1.5513537e+07
4	0x4b5d644b	1.4509131e+07
5	0x4b5b3409	1.4365705e+07
6	0x4b4db874	1.34821e+07
7	0x4b2a79cb	1.1172299e+07
8	0x4b04a0ea	8.691946e+06
9	0x4b0e49d0	9.325008e+06
10	0x4b2282b7	1.0650295e+07
11	0x4abf8a09	6.2763565e+06
12	0x4ba7a19b	2.1971766e+07
13	0x4ae169fb	7.3863655e+06
14	0x4b9e3459	2.0736178e+07
15	0x4c6d0890	6.2136896e+07
16	0x4c2c5372	4.5174216e+07

network_body._body_endoder.seq_layers.0.weight f4 [64, 17]
0	0x3d25e8eb	0.04050533
1	0xbefcddaf	-0.4938788
2	0x3ea4f82c	0.3222059
3	0xbf1aa5b1	-0.60409075
4	0x3f5fc976	0.8741678
5	0x3d1565a7	0.036473896
6	0x3db8b4fd	0.09018896
7	0xbdb6e48a	-0.08930309
8	0x3e7fdcc1	0.24986555
9	0x3ca3e7f4	0.020008065
10	0xbee2e515	-0.443154
11	0xbde51aff	-0.1118679
12	0xbe580e72	-0.2109926
13	0xbde711f0	-0.11282718
14	0xbd830739	-0.06397862
15	0x3d0f3809	0.03496555
16	0x3eeef444	0.46670735
17	0x3e2eadce	0.17058489
18	0xbcd89564	-0.026438423
19	0xbdb5b40c	-0.08872232
20	0x3f02e799	0.5113464
21	0x3dad7669	0.084698506
22	0xbf0870fe	-0.5329741
23	0x3dd54daf	0.104152076
24	0xbe55d225	-0.20880945
25	0x3d4d154a	0.05006913
26	0x3f10fe1a	0.5663773
27	0xbda68c82	-0.081322685
28	0xbc9feedd	-0.019523079
29	0xbd966e4a	-0.07345255
30	0xbe3bfea5	-0.18358858
31	0xbe6afc6d	-0.22947855
32	0xbe8b7d8f	-0.2724423
33	0xbe055b3d	-0.13023086
34	0x3ed89093	0.422978
35	0x3d561e35	0.0522749
36	0x3ef7a805	0.48370376
37	0xbdf28c90	-0.118432164
38	0xbce4ba8c	-0.027920984
39	0xbe0cc618	-0.13747442
40	0xbea8054e	-0.32816547
41	0xbe74dab1	-0.23911549
42	0xbdb6ff40	-0.08935404
43	0x3e3a47be	0.1819143
44	0x3e3970bf	0.18109415
45	0x3e8f4c34	0.27987826
46	0x3ed69ceb	0.41916594
47	0x3e12edee	0.14348575
48	0x3c606183	0.013695124
49	0x3ddc69c0	0.10762358
50	0x3ef99400	0.48745728
51	0x3d63c8f0	0.05561155
52	0xbd266cb4	-0.04063101
53	0x3ebbc70d	0.366753
54	0xbe52f880	-0.20602608
55	0xbf08df0a	-0.5346533
56	0x3ef17be2	0.47164828
57	0x3efb836b	0.491237
58	0x3ddf6e8f	0.10909759
59	0xbeb0369f	-0.34416673
60	0xbd0273e1	-0.031848792
61	0x3e8e3f96	0.27782887
62	0xbe3f6322	-0.1869016
63	0x3deab05b	0.114594184
64	0xbed06201	-0.4069977
65	0xbea40107	-0.32032034
66	0x3e9ef80b	0.31048617
67	0xbd902484	-0.07038215
68	0x3d42413e	0.0474255
69	0xbe8761ce	-0.26441807
70	0xbf1bf576	-0.6092142
71	0x3ebe95b9	0.37223604
72	0x3ecbd92f	0.39814135
73	0xbf0102a1	-0.50394636
74	0xbe413394	-0.18867332
75	0x3de393dd	0.11112187
76	0xbe85779b	-0.26067814
77	0xbcc1351f	-0.0235849
78	0x3e397d58	0.18114221
79	0xbe845d5c	-0.25852478
80	0xbb939d86	-0.0045048622
81	0xbeee4deb	-0.46543822
82	0xbdd216c3	-0.10258248
83	0x3d71ead5	0.059061844
84	0xbe918cc3	-0.28427705
85	0xbe1e840d	-0.15480061
86	0x3f0d979d	0.5530947
87	0xbde96086	-0.113953635
88	0x3e5b4938	0.2141465
89	0x3d836c3f	0.06417131
90	0xbeadbb6f	-0.33932063
91	0x3e87398a	0.26411086
92	0xbe2b9014	-0.1675418
93	0xbd119aa2	-0.03554786
94	0xbdc3f360	-0.095679045
95	0x3a738be5	0.000929056
96	0x3cfbbcff	0.030729769
97	0xbe18e0bc	-0.1492948
98	0x3e6559d4	0.22397548
99	0xbe68d483	-0.22737317
100	0x3d34e932	0.044167705
101	0x3d34c0da	0.04412923
102	0xbe60d5dc	-0.21956581
103	0xbd2817b9	-0.04103825
104	0x3f0c6408	0.54840136
105	0xbc41995a	-0.011816347
106	0x3d18a549	0.037267003
107	0x3e7d5926	0.24741039
108	0x3dc28983	0.094988845
109	0xbd852809	-0.06501777
110	0x3ef7e2ce	0.48415226
111	0xbea1cb6c	-0.3160051
112	0xbeb26f6b	-0.3485063
113	0xbe624fd5	-0.22100766
114	0xbe56f20e	-0.20990774
115	0xbe4cc64f	-0.19997524
116	0xbd696f17	-0.05699071
117	0x3d29e618	0.0414792
118	0xbdd25308	-0.10269743
119	0x3e114bd0	0.14189076
120	0x3f018955	0.5060018
121	0x3d19153f	0.037373777
122	0x3e2293ce	0.15876696
123	0xbdda4eda	-0.10659571
124	0xbed33204	-0.41249096
125	0xbe251933	-0.16122894
126	0xbd8a1cbb	-0.06743761
127	0xbe2ce51b	-0.16884272
128	0x3ed7f0dd	0.42175952
129	0x3e9076fc	0.28215778
130	0x3dd2838d	0.102789976
131	0xbe851113	-0.2598959
132	0xbeef1689	-0.4669688
133	0x3db94648	0.09046608
134	0x3eb697bf	0.35662648
135	0xbed17761	-0.4091139
136	0xbea571ba	-0.3231333
137	0xbc9fbaf2	-0.019498322
138	0x3cbe15a7	0.023203684
139	0xbebbd586	-0.36686343
140	0xbee5dbe3	-0.44894323
141	0x3d89d795	0.06730572
142	0x3e9145a6	0.2837345
143	0xbcea7952	-0.028622303
144	0xbdb6d979	-0.08928198
145	0xbf132f41	-0.5749398
146	0x3e55d28a	0.20881096
147	0x3e5c52eb	0.21516006
148	0xbd18e382	-0.037326343
149	0xbe04f1c7	-0.12982856
150	0xbe8c4552	-0.27396637
151	0x3eb67114	0.35633147
152	0x3e92cb0b	0.28670534
153	0xbd74538d	-0.059649993
154	0xbec248ba	-0.3794611
155	0xbe8f92e4	-0.28041756
156	0xbe613a25	-0.21994837
157	0xbe05f153	-0.13080339
158	0xbd8e9a36	-0.06963007
159	0xbe7269c1	-0.23673154
160	0x3f2ea6ec	0.6822345
161	0x3db7cace	0.08974229
162	0x3dbe106d	0.09280477
163	0xbe112455	-0.14174016
164	0x3e7fdfba	0.24987689
165	0x3d7696e2	0.060202487
166	0x3f02c548	0.5108228
167	0x3e57fd8e	0.21092817
168	0xbe4ada71	-0.19809891
169	0xbeb2f6a1	-0.34953788
170	0x3dcc62d3	0.09979787
171	0xbe12dcc1	-0.14342023
172	0xbd8af3bd	-0.06784771
173	0xbede92a8	-0.43471265
174	0x3ce5d745	0.02805675
175	0xbe378d1b	-0.17924921
176	0xbd303aa4	-0.043024674
177	0x3e803522	0.25040537
178	0x3dd9977d	0.10624597
179	0x3c30b1b9	0.01078456
180	0x3e3601d9	0.17774142
181	0x3ec7a0d9	0.38989905
182	0xbe7d7ae9	-0.24753918
183	0xbe9481c9	-0.29005268
184	0x3e519b59	0.20469417
185	0xbe6cb5ee	-0.23116276
186	0x3dc145c5	0.094371356
187	0xbe87af79	-0.26501063
188	0x3e423b7d	0.18968005
189	0xbf3fa2f8	-0.74858046
190	0xbea41fc6	-0.3205549
191	0xbeb28f08	-0.3487475
192	0x3ee287cf	0.4424424
193	0xbd12ef00	-0.03587246
194	0x3e190059	0.14941539
195	0xbe01e7c0	-0.12686062
196	0xbea59cdd	-0.3234624
197	0x3ec2d042	0.38049513
198	0xbe053cdf	-0.13011502
199	0xbe8f206c	-0.27954423
200	0x3e8185ed	0.2529749
201	0xbe6fe700	-0.23427963
202	0x3e349c06	0.17637643
203	0xbca34bdf	-0.01993364
204	0x3f47dbda	0.7806984
205	0x3f240086	0.640633
206	0x3e05bfa4	0.13061386
207	0x3c6c0e36	0.014407685
208	0xbe7e93b3	-0.2486103
209	0x3e3b9e1c	0.18322033
210	0xbd2ea3ef	-0.042636808
211	0xbecde91b	-0.40216908
212	0xbe686005	-0.22692879
213	0xbccc1b96	-0.024915498
214	0x3ea3bca1	0.3197985
215	0xbe10a7cc	-0.1412651
216	0xbe48ffff	-0.19628905
217	0x3ed7c02b	0.421388
218	0x3a8518f8	0.0010154536
219	0xbd9795ee	-0.07401644
220	0xbe3e2df4	-0.18572217
221	0x3c8076c2	0.015681628
222	0xbe2ad824	-0.16684014
223	0xbe8697b0	-0.26287603
224	0xbd734501	-0.05939198
225	0xbe9a52d3	-0.30141315
226	0xbd4530e9	-0.048142347
227	0xbe6973b9	-0.22798051
228	0xbdd9ff4f	-0.106443994
229	0x3b65e0da	0.003507665
230	0x3dbc23a8	0.091864884
231	0x3e49d980	0.19711876
232	0xbd0e155d	-0.034688342
233	0x3e03a06a	0.12854162
234	0x3e5f6a1e	0.21817824
235	0x3ce0b614	0.027430572
236	0xbe628f18	-0.22124898
237	0x3e75c42e	0.24000618
238	0xbdbdf69e	-0.09275554
239	0xbe3161fc	-0.17322534
240	0xbe7b9d38	-0.24571693
241	0xbc1f917a	-0.009739274
242	0x3e8dd468	0.27701116
243	0x3e95d185	0.29261413
244	0xbea7f162	-0.32801348
245	0xbe28ea53	-0.16495638
246	0x3deabc20	0.11461663
247	0x3e101b0b	0.14072816
248	0x3cec43e9	0.028840976
249	0x3e00c2ba	0.12574282
250	0xbe524a7e	-0.20536229
251	0xbe325cbb	-0.17418186
252	0x3ea97694	0.3309828
253	0x3d983df0	0.07433689
254	0xbd28d4cd	-0.041218568
255	0xbc9cbb15	-0.019132176

network_body._body_endoder.seq_layers.0.bias f4 [64]
0	0x3d691d73	0.05691285
1	0x3d810c9f	0.063012354
2	0x3e07d689	0.13265432
3	0xbc600c93	-0.013674873
4	0xbd4a34c3	-0.049366724
5	0x3daf6107	0.08563428
6	0x3d6a2f9a	0.057174303
7	0x3da38270	0.07983863
8	0xbd70ab21	-0.05875695
9	0x3d48db3c	0.049037203
10	0x3c031a21	0.008001835
11	0x3cdc6b81	0.02690673
12	0x3d341fde	0.043975703
13	0x3d8452f2	0.06461133
14	0xbc457438	-0.0120516345
15	0x3dc0a499	0.094063945
16	0xbd5cfabd	-0.05395006
17	0x3dbb644c	0.091499895
18	0x3daeb052	0.08529724
19	0xbba00235	-0.0048830756
20	0x3d74cccc	0.059765622
21	0x3dab77a3	0.08372428
22	0x3d663e73	0.0562119
23	0x3ddb3d08	0.10705
24	0x3da83ec2	0.08215095
25	0x3dedffd0	0.11621058
26	0xbcd3df24	-0.025863238
27	0x3cd79eac	0.026320778
28	0x3bc26a9d	0.0059331194
29	0x3d8f6752	0.07002129
30	0x3d88910d	0.06668291
31	0x3d9f4adc	0.0777795
32	0xbd08e25e	-0.033419006
33	0xbc9cb36f	-0.01912853
34	0xbd7ce727	-0.06174388
35	0x3dd40056	0.103516266
36	0x3db80d26	0.08986883
37	0x3d1eb705	0.03874876
38	0x3da76ce2	0.081750646
39	0xbdade299	-0.08490486
40	0xbd83e598	-0.06440276
41	0x3d05ae30	0.03263682
42	0x3cbf70d0	0.023369223
43	0x3d9354bf	0.071938984
44	0xbd204c72	-0.039135404
45	0x3d34ddbc	0.044156775
46	0x3d3f9ea6	0.04678216
47	0x3caad199	0.020851897
48	0x3db7ea10	0.08980191
49	0x3d1a0c9a	0.037609674
50	0x3cc7b775	0.024379471
51	0xbd76a688	-0.06021741
52	0x3d77b097	0.060471144
53	0x3ddbaf19	0.107267566
54	0x3dd9070f	0.105970494
55	0xbcdbb5b0	-0.026820034
56	0x3dc0534a	0.09390886
57	0x3cd083e2	0.025453512
58	0xbda9e2a2	-0.0829518
59	0x3d8794e2	0.06620194
60	0x3d839dc4	0.06426576
61	0x3da6c5c1	0.08143187
62	0x3dda8786	0.1067038
63	0x3dd38fa5	0.103301324

network_body._body_endoder.seq_layers.2.weight f4 [64, 64]
0	0x3dbe5fa3	0.09295585
1	0x3df11545	0.11771635
2	0x3e59f324	0.21284157
3	0x3d2b540a	0.041828193
4	0xbe03c4c6	-0.12868032
5	0x3e48c3d1	0.19605948
6	0xbd45ba1c	-0.04827319
7	0xbcf36170	-0.029709548
8	0xbe1b3635	-0.15157397
9	0xbdd748fb	-0.10511967
10	0xbc601147	-0.013675994
11	0xbd2a6f87	-0.041610267
12	0x3c4a29eb	0.012339096
13	0x3e2eea95	0.17081673
14	0xbe57a270	-0.21058059
15	0x3e7131f8	0.23554218
16	0xbcf5409c	-0.029938035
17	0xbd96718f	-0.07345878
18	0xbd8afce9	-0.0678652
19	0xbe5cb556	-0.21553549
20	0x3e55b367	0.20869218
21	0xbda9634a	-0.08270891
22	0x3ddfbb5f	0.1092441
23	0x3e41bd83	0.18919949
24	0x3e575956	0.21030173
25	0xbb9545fa	-0.004555461
26	0xbdde846a	-0.108651
27	0xbe34c7f1	-0.17654397
28	0x3e39db2e	0.18150017
29	0x3ca1fb40	0.019773126
30	0x3e6084cb	0.21925656
31	0x3d8fa6c0	0.07014227
32	0xbdb27c54	-0.0871512
33	0xbe066ec0	-0.13128185
34	0xbcad1a30	-0.021130651
35	0x3d03fe0d	0.032224704
36	0x3e409cca	0.1880981
37	0x3e753434	0.23945695
38	0x3dbfc376	0.09363453
39	0xbdb8ac74	-0.09017268
40	0xbd00a202	-0.031404503
41	0xbe98cd7f	-0.2984428
42	0x3e0f1131	0.13971402
43	0x3c9bbcd3	0.019010937
44	0x3cdb1089	0.026741283
45	0x3da1874e	0.078871354
46	0xbd09b7e9	-0.033622656
47	0x3d45ad1f	0.048260804
48	0x3ddf9786	0.10917573
49	0xbd94505e	-0.07241891
50	0xbe432b05	-0.1905938
51	0xbd1cf62f	-0.038320716
52	0x3e332fdc	0.17498726
53	0x3c521a5b	0.012823666
54	0x3e04140f	0.12898277
55	0x3dc3ecd9	0.095666595
56	0xbd6e2522	-0.05814088
57	0x3e031f82	0.12804988
58	0xbe718f29	-0.23589768
59	0x3e1971e1	0.14984848
60	0xbc4c7c4a	-0.012480805
61	0xbdd16cc4	-0.102258235
62	0x3e9646d2	0.29350907
63	0x3e044081	0.12915231
64	0xbd5489ea	-0.051889338
65	0x3b652fe0	0.0034971163
66	0xbdebb3a7	-0.11508875
67	0x3ccc89b4	0.024968006
68	0x3e975c3b	0.29562554
69	0xbe019daa	-0.126578
70	0xbdf4daf2	-0.11955823
71	0x3b080c0b	0.0020759131
72	0xbe8d9ef9	-0.2766035
73	0xbdff93b0	-0.12479341
74	0xbe4020b7	-0.1876248
75	0xbbd93c0f	-0.006629474
76	0xbe65e434	-0.22450334
77	0x3d109974	0.035302594
78	0x3d2adb86	0.04171326
79	0xbe68a9d7	-0.22721039
80	0xbcce0491	-0.025148662
81	0x3e061951	0.13095595
82	0x3e35d839	0.17758264
83	0x3d3db4f8	0.046315163
84	0xbd997698	-0.07493323
85	0xbe8521c8	-0.26002336
86	0x3dc009ef	0.09376895
87	0xbddc061b	-0.10743352
88	0xbe26b8e5	-0.16281469
89	0x3d3d33fa	0.046192147
90	0x3e7a8bdc	0.24467415
91	0xbdf2919e	-0.118441805
92	0xbe3708fa	-0.17874518
93	0x3e3371bc	0.17523855
94	0xbe854246	-0.26027125
95	0xbe7f94ef	-0.24959157
96	0x3d0e8738	0.034796923
97	0x3e076505	0.1322213
98	0xbe7e0b2c	-0.24808949
99	0x3ddec1bb	0.10876795
100	0xbc75dff1	-0.015007005
101	0xbd6a1de3	-0.05715741
102	0x3e87f4df	0.2655401
103	0xbdef16e5	-0.11674289
104	0x3d6370a5	0.055527348
105	0xbd6851e6	-0.05671873
106	0x3ca8fdc9	0.020628827
107	0xbbb61767	-0.005556989
108	0xbe06ce40	-0.13164616
109	0xbe3c5d4a	-0.18394962
110	0xbd8eb507	-0.06968122
111	0xbdbdc09d	-0.09265254
112	0xbe295d2b	-0.16539447
113	0xbda6040a	-0.08106239
114	0x3dfd678c	0.123732656
115	0xbd1b0cfc	-0.03785418
116	0xbe2235ff	-0.1584091
117	0x3dd8b63e	0.10581635
118	0xbdfa9c8a	-0.12236889
119	0xbcce851d	-0.025209958
120	0x3d560070	0.05224651
121	0xbde068c6	-0.10957484
122	0x3d32e87b	0.043678742
123	0xbd72f50e	-0.059315734
124	0x3e17e4a0	0.14833307
125	0xbd75409d	-0.059876073
126	0x3e99f991	0.30073217
127	0xbd217d8c	-0.03942637
128	0xbceccd7c	-0.028906576
129	0xbe096ba4	-0.13419968
130	0xbc9c671a	-0.019092131
131	0xbd81af35	-0.06332246
132	0x3d1a40a5	0.037659306
133	0x3e1d565d	0.15364976
134	0xbc1119e2	-0.008856269
135	0x3c1dbcc6	0.009627527
136	0x3e24c206	0.16089639
137	0x3b5e427d	0.0033914142
138	0xbe98a086	-0.2980997
139	0x3e24f05a	0.16107312
140	0x3c14f4d4	0.009091575
141	0x3e499bb5	0.19688304
142	0xbdf13fdd	-0.11779759
143	0x3dde55f9	0.10856242
144	0x3e43618c	0.1908018
145	0xbd1525f8	-0.036413163
146	0x3dd5e946	0.10444884
147	0xbdf298f3	-0.11845579
148	0x3e2de259	0.16980876
149	0x3e551eaa	0.20812479
150	0xbabc0cbc	-0.0014347057
151	0x3cd982d7	0.026551647
152	0x3e84e56f	0.25956294
153	0xbe15645e	-0.14589068
154	0xbdf0b2e4	-0.11752871
155	0xbd67c468	-0.056583792
156	0xbe2fe7ef	-0.1717832
157	0xbdf48e95	-0.11941258
158	0x3d42850f	0.047490176
159	0xbd4a72fa	-0.049426056
160	0x3e1bdc0b	0.15220658
161	0xbe0d6c2a	-0.13810793
162	0xbda14986	-0.078753516
163	0xbdc242ea	-0.09485419
164	0x3e1261f5	0.1429518
165	0x3d47817a	0.048707463
166	0xbdf8cf82	-0.12148954
167	0xbdb0be87	-0.0863009
168	0xbe1f90cf	-0.15582584
169	0xbd1d6a68	-0.038431555
170	0xbd039bc6	-0.03213098
171	0xbd63d10d	-0.05561929
172	0x3e28c687	0.16481982
173	0xbe4c0c15	-0.19926484
174	0xbe2fdf48	-0.17175019
175	0x3c7a6dcb	0.015284966
176	0x3e240955	0.16019185
177	0x3e10d242	0.14142707
178	0x3e4def37	0.20110784
179	0x3e83c022	0.25732523
180	0x3c0a7f66	0.008453226
181	0x3e2f6cb5	0.17131312
182	0xbd385719	-0.045004938
183	0x3e026ace	0.12736055
184	0x3e81305c	0.25232208
185	0x3de24d63	0.110499166
186	0xb907a913	-0.00012937588
187	0xbd9ff859	-0.078110404
188	0xbd009fb1	-0.031402294
189	0xbe2174bb	-0.15767185
190	0x3d2ec23c	0.042665705
191	0xbe0ce0f7	-0.13757692
192	0x3de15386	0.11002259
193	0xbd854ce5	-0.06508807
194	0xbddfce94	-0.109280735
195	0xbc784390	-0.015152827
196	0x3e792ff2	0.24334696
197	0x3e5a7c01	0.21336366
198	0x3e14966f	0.14510511
199	0xbe40b3cf	-0.18818592
200	0x3e062fd9	0.1310419
201	0xbc229d08	-0.0099251345
202	0xbe87f35f	-0.26552865
203	0x3e6c0781	0.23049738
204	0xbd24542a	-0.040119328
205	0xbe259898	-0.16171491
206	0x3e2d02c9	0.16895594
207	0x3d50acfa	0.050946213
208	0xbdd27a1a	-0.10277195
209	0xbe277e50	-0.16356778
210	0x3e17b1b6	0.14813885
211	0x3e3a5149	0.1819507
212	0xbdae0963	-0.08497884
213	0xbcdf4cb8	-0.027258262
214	0xbe73a350	-0.23792768
215	0x3dfe9fb0	0.12432802
216	0x3da4b935	0.08043138
217	0x3df8d82f	0.12150609
218	0x3d01d658	0.031698555
219	0x3ddda86f	0.10823142
220	0xbde62435	-0.11237375
221	0x3e8a2892	0.26984078
222	0xbe3505b2	-0.17677954
223	0x3da7a406	0.08185582
224	0x3d181d66	0.03713741
225	0x3c1a71fb	0.009426589
226	0xbc88f15c	-0.016716652
227	0x3eb2cdc2	0.34922606
228	0x3da7c77f	0.08192348
229	0x3c967914	0.018368281
230	0x3e42acfc	0.19011301
231	0x3d7c959a	0.06166611
232	0x3cbac361	0.022798242
233	0xbe209a75	-0.1568392
234	0xbdd7a103	-0.105287574
235	0x3e91da3d	0.28486815
236	0x3d996e27	0.07491713
237	0xbc7b452d	-0.015336317
238	0xbc6b69d4	-0.014368493
239	0xbe125deb	-0.1429364
240	0x3d2fe940	0.042947054
241	0x3e1b1b5b	0.15147154
242	0x3d990279	0.07471175
243	0xbc110ba7	-0.008852876
244	0xbe36472e	-0.1780059
245	0x3e46dea1	0.19420864
246	0xbd528c9d	-0.05140363
247	0x3cdbdc99	0.026838588
248	0xbe4984fb	-0.19679634
249	0x3e10f677	0.14156519
250	0xbd39570b	-0.045249026
251	0x3e05c4eb	0.130634
252	0x3d828809	0.06373603
253	0xbe024e1b	-0.12725107
254	0x3e847068	0.2586701
255	0x3e0dfd4c	0.13866156

network_body._body_endoder.seq_layers.2.bias f4 [64]
0	0x3dfaf6c3	0.12254097
1	0x3d07d801	0.03316498
2	0x3d6d713c	0.057969317
3	0x3da3ffe5	0.080077924
4	0xbd36a78f	-0.04459339
5	0x3dba07d1	0.09083522
6	0x3dc70691	0.09718049
7	0xbcb58371	-0.022157403
8	0xbcaa7c79	-0.020811306
9	0xbc6e66f9	-0.014550918
10	0xbd06d304	-0.032916084
11	0x3be05ac7	0.006846759
12	0xbbd067c1	-0.0063600247
13	0x3de7fc4b	0.11327418
14	0xbd97dddd	-0.07415364
15	0x3d07f748	0.03319481
16	0x3daeeae0	0.085408926
17	0xbdccbe07	-0.09997182
18	0xbd9122d2	-0.070867196
19	0xbd8f7ed0	-0.070066094
20	0x3c4ac3b0	0.012375757
21	0xbd73d43c	-0.059528574
22	0x3db091f4	0.08621588
23	0x3da62c95	0.08113972
24	0x3d9a9c39	0.07549328
25	0x3c872937	0.016499145
26	0x3dbac706	0.09119992
27	0x3dc5d467	0.09659653
28	0xbd5207af	-0.05127686
29	0x3d740145	0.059571523
30	0x3d21e34f	0.03952342
31	0xbd449e12	-0.04800231
32	0xbda36589	-0.07978351
33	0x3db74945	0.08949522
34	0x3d90a7b6	0.07063238
35	0xbd85cdf6	-0.065334246
36	0x3dc60220	0.09668374
37	0x3d376dc8	0.04478243
38	0xbc690c8c	-0.014224183
39	0x3d8734c8	0.06601864
40	0x3cef1b45	0.029187808
41	0x3da6001d	0.0810549
42	0xbd01cfb8	-0.031692237
43	0xbd955862	-0.07292248
44	0x3d94c0c5	0.0726333
45	0xbd353f02	-0.044249542
46	0x3d3d2fd6	0.046188198
47	0x3db0eee3	0.08639314
48	0xba9cf6be	-0.001197539
49	0x3dcaf4cc	0.099099725
50	0x3dc033bd	0.09384868
51	0x3d7ada84	0.06124355
52	0x3d2a2b05	0.041544933
53	0x3ddbce26	0.10732679
54	0x3d819a95	0.06328312
55	0x3d0a93c8	0.03383234
56	0xbd28744c	-0.041126534
57	0x3d8fee0f	0.07027828
58	0x3da9a36c	0.082831234
59	0x3d3f8876	0.046761
60	0x3d54827f	0.051882263
61	0x3db03e96	0.08605687
62	0x3d8e5483	0.06949713
63	0x3d802d00	0.06258583

action_model._continuous_distribution.log_sigma f4 [1, 2]
0	0xbe030e57	-0.12798439
1	0xbdc9e507	-0.098581366

action_model._continuous_distribution.mu.weight f4 [2, 64]
0	0x3dd6088f	0.10450851
1	0xbdead572	-0.11466493
2	0x3d320245	0.043459196
3	0x3cbf55fd	0.023356432
4	0xbe06acf3	-0.13151912
5	0x3d61d3e0	0.0551337
6	0x3da56d94	0.08077541
7	0xbd65b7e1	-0.056083564
8	0xbdf2efca	-0.118621424
9	0xbc5dfe27	-0.013549364
10	0xbe182de9	-0.14861263
11	0xbe2f4af6	-0.17118439
12	0xbd2b8d17	-0.0418826
13	0x3dd702f1	0.10498608
14	0xbd8d88ae	-0.06910835
15	0xbc5a9b7f	-0.013342737
16	0x3d414ee7	0.047194388
17	0xbdbab36b	-0.091162525
18	0xbdb512eb	-0.08841499
19	0xbdbaa088	-0.0911265
20	0xbceea331	-0.02913055
21	0xbd8a0709	-0.06739623
22	0x3d7616aa	0.060080208
23	0x3d78e35f	0.060763713
24	0x3cef3a2f	0.029202549
25	0x3c615bff	0.013754844
26	0x3e058770	0.13039947
27	0x3db7dccd	0.08977661
28	0xbd946a52	-0.072468415
29	0x3c940bad	0.018071974
30	0x3d605408	0.05476764
31	0xbdbbdb27	-0.09172659
32	0xbdaec006	-0.08532719
33	0x3dab7951	0.08372749
34	0x3d14a8df	0.03629386
35	0xbdfca49c	-0.12336084
36	0x3d636f8c	0.0555263
37	0x3c9c120e	0.019051578
38	0xbd88461f	-0.066539995
39	0x3df32b1b	0.11873456
40	0x3d9f1b7f	0.07768916
41	0x3d751bed	0.059841085
42	0xbd9dbdd2	-0.07702221
43	0xbdd6e9af	-0.1049379
44	0x3cb150cb	0.02164497
45	0xbe185add	-0.14878412
46	0x3d54a493	0.051914763
47	0x3d372737	0.044715133
48	0xbdc3e4e0	-0.09565139
49	0x3d9eefb5	0.07760564
50	0x3d6693b4	0.056293204
51	0x3d7bce62	0.06147612
52	0x3daf9e62	0.08575131
53	0x3d99337f	0.07480525
54	0x3da1f583	0.07908156
55	0x3c0db2f3	0.008648622
56	0xbdccce41	-0.10000277
57	0x3d45fac9	0.04833487
58	0x3dad8f3b	0.08474585
59	0x3d4ab03a	0.04948447
60	0x3dcd85f5	0.10035316
61	0x3d6a8271	0.057253305
62	0x3cdf3b23	0.027249878
63	0x3ceda1e6	0.029007863
64	0xbd74bf12	-0.05975253
65	0x3e16c3da	0.14723149
66	0xbd323d53	-0.043515515
67	0x3dad6957	0.084673576
68	0xbd2874a3	-0.04112686
69	0xbb9a626d	-0.0047114403
70	0x3d3ce869	0.04612008
71	0xbdc21d69	-0.09478266
72	0x3d7c268b	0.061560195
73	0xbcf924e2	-0.030413095
74	0xbc4bf228	-0.012447871
75	0x3d9edea5	0.0775731
76	0x3d86bc61	0.06578899
77	0x3cba162f	0.022715656
78	0xbd6e6a44	-0.05820681
79	0x3e16d13d	0.14728256
80	0x3d12f54b	0.03587846
81	0xbd34c2c8	-0.04413107
82	0x3b55dfff	0.0032634733
83	0x3c712430	0.0147181
84	0x3d85f47c	0.06540772
85	0x3cec190c	0.028820537
86	0x3d2060bd	0.039154757
87	0x3dc4a753	0.09602227
88	0x3da8f75d	0.08250306
89	0x3da33d23	0.07970645
90	0xbdfd43c3	-0.1236644
91	0x3cf9ab34	0.030477144
92	0x3cd2cf2a	0.02573355
93	0x3da75d92	0.08172144
94	0xbca1b6eb	-0.019740542
95	0xbcc0f31d	-0.023553425
96	0xbd293903	-0.041314136
97	0x3d8a0d26	0.06740789
98	0x3d508fb6	0.050918303
99	0xbd1a73b6	-0.037708007
100	0x3ca023c7	0.01954831
101	0x3d99f175	0.075167574
102	0x3d742f87	0.059615638
103	0xbd2e02cc	-0.042483136
104	0xbd47a276	-0.04873892
105	0x3d0dd217	0.034624185
106	0xbd58f381	-0.0529666
107	0xbd810122	-0.06299044
108	0x3dc321a0	0.09527898
109	0x3d251135	0.040299613
110	0x3d39352a	0.045216717
111	0x3d201658	0.03908381
112	0x3d906fb6	0.07052557
113	0x3cfae268	0.030625537
114	0x3dba7287	0.091038756
115	0xbd85421d	-0.06506751
116	0xbd355a95	-0.04427584
117	0x3d900a12	0.07033171
118	0xbc0c5442	-0.0085650105
119	0x3d185374	0.037188962
120	0xbd6aa553	-0.05728657
121	0x3c98d2cc	0.018655203
122	0xbd469473	-0.048481416
123	0x3c54a835	0.012979557
124	0xbdb2cd53	-0.08730569
125	0x3d788ad0	0.060679257
126	0x3e002643	0.12514596
127	0x3dbe4cc0	0.09291983

action_model._continuous_distribution.mu.bias f4 [2]
0	0x3dab4a0c	0.08363733
1	0x3cdef359	0.027215647

exp_avg f4 [64, 17]
0	0x3909511d	0.00013095555
1	0x39968823	0.0002871166
2	0xba73aa2d	-0.00092950725
3	0xba07db9c	-0.00051825657
4	0x39b27cc6	0.0003404377
5	0x39a11ea7	0.0003073115
6	0xb92cb707	-0.00016471381
7	0xb8e86511	-0.00011081447
8	0xba5cc8ba	-0.00084222446
9	0xbad7eee6	-0.0016474396
10	0x38c24892	9.264158e-05
11	0xba0b2db4	-0.00053092395
12	0xb7b10c40	-2.1105749e-05
13	0xb8e31044	-0.00010827233
14	0x3a4068c2	0.0007339829
15	0xba0440cc	-0.0005045056
16	0xb7264580	-9.910553e-06
17	0x39f211ac	0.00046171003
18	0xb833154a	-4.2696753e-05
19	0xba77a71a	-0.00094472023
20	0xbad51240	-0.0016256049
21	0xbab31097	-0.001366156
22	0xba636a86	-0.0008675236
23	0xb613b154	-2.2007926e-06
24	0x3a217f11	0.0006160597
25	0x3aaebcdb	0.001333143
26	0x3b8ba27c	0.004261313
27	0x3a886e29	0.0010408807
28	0xba3a9194	-0.000711703
29	0x380e1988	3.3879216e-05
30	0xb9b9d58c	-0.00035445055
31	0xba94634f	-0.00113211
32	0x3b12dc43	0.0022409118
33	0xbabd9340	-0.001446344
34	0x393a4d46	0.00017767129
35	0xb9f82fc4	-0.00047337834
36	0xba9abde7	-0.0011805863
37	0xbae18454	-0.0017205575
38	0xbac2293b	-0.0014813313
39	0xba552739	-0.000813115
40	0x3a2086b1	0.0006123586
41	0x3a878266	0.0010338544
42	0x3b115e47	0.0022181438
43	0x3bccc7f1	0.006249421
44	0x3a37d9a8	0.00070133293
45	0x3a1e1d37	0.0006031575
46	0xba845a3a	-0.001009769
47	0x3a34ffec	0.00069045904
48	0xbb174a2d	-0.0023084984
49	0x3b0e1316	0.0021678857
50	0xbab6e4b4	-0.0013953657
51	0x37d47242	2.5325575e-05
52	0x3904afec	0.00012654037
53	0x3969cc50	0.00022296724
54	0x39d4ae89	0.0004056583
55	0x3a0e9427	0.00054389465
56	0x3a096409	0.00052410417
57	0xb79393ec	-1.7592647e-05
58	0xb9be9ca8	-0.00036356342
59	0xbaa5dfb4	-0.001265517
60	0xbab8456b	-0.0014058774
61	0xb890b243	-6.899659e-05
62	0xba104af5	-0.00055043335
63	0x3923f905	0.00015637658
64	0x3989ac56	0.00026259077
65	0x39a45f34	0.0003135145
66	0xb9ab7a2c	-0.00032706687
67	0xb99fb4cf	-0.00030461556
68	0xb9fca28e	-0.00048186298
69	0xb9af7302	-0.0003346429
70	0xb7ed6b5e	-2.8302598e-05
71	0x3a999337	0.0011716847
72	0x3aa46b12	0.0012544116
73	0x3a833be8	0.001001236
74	0x39b31fb5	0.00034165164
75	0xb80b0a60	-3.3149845e-05
76	0xba361663	-0.0006946085
77	0xbb77da35	-0.003781927
78	0xba6effdb	-0.0009117105
79	0xb85d602e	-5.278008e-05
80	0x391b324f	0.00014800693
81	0x3ac9d884	0.001539961
82	0x3a9453bd	0.001131646
83	0xbae25788	-0.0017268518
84	0x39bec0af	0.00036383184
85	0x39f1888e	0.00046068843
86	0xb85f64b0	-5.3261116e-05
87	0xba593580	-0.0008285865
88	0xbb171907	-0.002305569
89	0xbb1b3e3a	-0.0023688213
90	0xbb037c82	-0.0020063226
91	0xba302341	-0.00067191204
92	0x3a3b58ee	0.00071467354
93	0x3b1cf197	0.002394771
94	0x3bbbfa43	0.0057366206
95	0x3ab3f3ee	0.0013729313
96	0xbad80da9	-0.0016483563
97	0x39155f2a	0.00014245199
98	0x3ab864de	0.0014068147
99	0xba96ab85	-0.0011495209
100	0x3b1bd796	0.0023779622
101	0xba41e7a9	-0.0007396886
102	0x3a319be1	0.0006775242
103	0x3a81aa28	0.000989263
104	0xb9f94743	-0.00047546075
105	0xba9720af	-0.0011530126
106	0xbac7ea06	-0.001525224
107	0xbaceb7d5	-0.0015771339
108	0xbaaa6140	-0.0012998953
109	0x39d5c6bf	0.00040774603
110	0x3ab5bb44	0.0013865014
111	0x3acecd1f	0.0015777684
112	0x3aabd20d	0.0013108865
113	0xba70c3e0	-0.0009184461
114	0x39a5d3a6	0.00031628943
115	0xba868188	-0.0010261992
116	0x38829df4	6.228304e-05
117	0x3ad003f3	0.0015870318
118	0xba432595	-0.000744426
119	0x398cb68e	0.00026838895
120	0x362e8a40	2.6008493e-06
121	0xb91a048e	-0.00014688281
122	0xb98e3b53	-0.0002712855
123	0xb8c76d94	-9.50947e-05
124	0x38c0df3b	9.196853e-05
125	0x38178e6a	3.613384e-05
126	0xb9bb9c49	-0.0003578386
127	0xba8932b9	-0.0010467387
128	0x3a6ea058	0.00091028726
129	0x3a32d0d0	0.00068212766
130	0xba114f6a	-0.00055431447
131	0xb89e4bcf	-7.5481476e-05
132	0xba720d72	-0.0009233571
133	0xb9c67055	-0.00037849197
134	0x3a6995ff	0.0008910596
135	0xbaa201d3	-0.0012360163
136	0xb92b751f	-0.00016351462
137	0xb82c03d7	-4.101157e-05
138	0x39895966	0.00026197283
139	0x39b5d149	0.0003467894
140	0x3a044e35	0.0005047054
141	0x39b76ffc	0.00034987915
142	0x37e4415a	2.721015e-05
143	0xb8b1b475	-8.4736304e-05
144	0xb9726ead	-0.00023120148
145	0xba11d400	-0.00055629015
146	0xb999ba5d	-0.00029321286
147	0x39288c1c	0.00016073923
148	0xb7715c40	-1.4386198e-05
149	0x39b5e7f2	0.00034695823
150	0xb748d7fc	-1.1971217e-05
151	0xb9c9115c	-0.0003835064
152	0x39bae696	0.00035648484
153	0xb9abd4a0	-0.0003277408
154	0x379e00c2	1.883542e-05
155	0x39a958ea	0.00032300438
156	0x3a376dda	0.0006997265
157	0x3a8885dc	0.001041587
158	0x3a4368fa	0.00074543024
159	0x37911c49	1.7298518e-05
160	0xba36ebdf	-0.00069778966
161	0xbabf6d09	-0.0014604639
162	0xbb29c527	-0.0025904865
163	0xba33a936	-0.00068535225
164	0x3933f252	0.00017161042
165	0x390938b8	0.00013086468
166	0x3a06a13e	0.00051357213
167	0x3a29b3eb	0.0006473648
168	0xba98bfee	-0.0011653879
169	0x3a8be1e1	0.0010672176
170	0xb7a5d020	-1.9766449e-05
171	0x39e0c0a6	0.00042868144
172	0x3ab010d3	0.0013432748
173	0x3aef6aa9	0.001826604
174	0x3a8cd9e5	0.001074609
175	0x3a468aba	0.00075737725
176	0xba04c85a	-0.0005065255
177	0xba8fdff0	-0.0010976773
178	0xbafd9a21	-0.0019348302
179	0xbb580ce5	-0.003296667
180	0xba02e7f4	-0.000499367
181	0x38d5beea	0.00010192192
182	0x394be43a	0.0001944461
183	0x3a260bc8	0.0006334153
184	0x3a8e4882	0.0010855349
185	0xba9c5f1a	-0.0011930198
186	0x3ab6342d	0.0013901048
187	0xba850454	-0.0010148385
188	0xba53cc98	-0.0008079498
189	0xba24c398	-0.0006285249
190	0x3a87acb7	0.0010351156
191	0x3b2eb6ba	0.0026659206
192	0x3b2a6cb2	0.002600473
193	0x3aaaa511	0.0013019164
194	0xb9a43336	-0.00031318673
195	0xbb044962	-0.002018534
196	0xbb866604	-0.0041015167
197	0xbad0251e	-0.0015880202
198	0x3af1b2f6	0.0018440175
199	0xba2125ad	-0.0006147277
200	0x385acf34	5.2168223e-05
201	0x38c77a24	9.51181e-05
202	0xbb0ad20d	-0.002118233
203	0x3a3d363f	0.0007217861
204	0xb9a2d794	-0.00031059666
205	0xb9d37919	-0.0004033528
206	0xba06b077	-0.00051379896
207	0xba37ab54	-0.0007006426
208	0xba594184	-0.00082876557
209	0xba6c00aa	-0.00090027845
210	0xba073caf	-0.0005158884
211	0x3922e2c4	0.00015534
212	0x3a145264	0.0005658029
213	0x3af85066	0.0018944859
214	0x3969f65d	0.00022312389
215	0xb9c3e874	-0.0003736649
216	0x39acfa8a	0.00032993063
217	0x3a76af13	0.00094102434
218	0xb9d77a99	-0.00041099338
219	0x3a00b68c	0.0004910014
220	0x3a022262	0.000496423
221	0x3972299f	0.00023094424
222	0xb97c909a	-0.00024086461
223	0xba33ddb1	-0.00068613427
224	0xbaca4c24	-0.0015434069
225	0xbad94b4c	-0.0016578226
226	0xbaaa10fe	-0.0012975035
227	0x398d4350	0.00026943767
228	0x3a958dec	0.0011410094
229	0x3b38d042	0.0028200303
230	0x3b9a5db9	0.0047108796
231	0x3a328aa2	0.0006810819
232	0xba5c8185	-0.0008411634
233	0xb993e3a2	-0.00028207625
234	0x3ac69569	0.0015150729
235	0xbaa75089	-0.001276509
236	0x3af34c05	0.0018562084
237	0xba926959	-0.0011170312
238	0x381ac8c8	3.6903453e-05
239	0xb78cfb6c	-1.6806378e-05
240	0xba345e0a	-0.0006880468
241	0xb9fd76a6	-0.0004834432
242	0x3927a78c	0.00015988777
243	0x3912e521	0.00014009002
244	0xb99ab886	-0.0002951065
245	0xb90dce00	-0.00013523549
246	0xb9806564	-0.00024489604
247	0xb9cbb249	-0.0003885201
248	0x3970b897	0.00022956949
249	0xba5d3232	-0.00084379606
250	0x39075904	0.00012907764
251	0x3898d0a4	7.286787e-05
252	0x3a23a37c	0.00062423176
253	0x39e4a58a	0.00043610885
254	0xba0f986f	-0.00054777315
255	0x3a1e0e34	0.0006029338

exp_avg_sq f4 [64, 17]
0	0x35637d85	8.4746745e-07
1	0x35b3a35f	1.3384087e-06
2	0x35badeca	1.392292e-06
3	0x3576be5f	9.191917e-07
4	0x351ab471	5.763205e-07
5	0x35268d15	6.204512e-07
6	0x35638a02	8.476492e-07
7	0x35989a77	1.1369838e-06
8	0x35d28625	1.568526e-06
9	0x362b05c1	2.5484335e-06
10	0x352d8a11	6.4648435e-07
11	0x36696f17	3.4784368e-06
12	0x3592df7b	1.0942889e-06
13	0x353a6d9a	6.944989e-07
14	0x3603caaa	1.9638487e-06
15	0x35bdfb8a	1.4154805e-06
16	0x3583b290	9.812229e-07
17	0x35ad006d	1.2889628e-06
18	0x3610bff4	2.1569404e-06
19	0x36911eef	4.324938e-06
20	0x36a1187b	4.801024e-06
21	0x367f4fd0	3.8044418e-06
22	0x363b0a15	2.787104e-06
23	0x361ad938	2.3074226e-06
24	0x36386915	2.7479302e-06
25	0x366b4e63	3.5063356e-06
26	0x377a1900	1.4906982e-05
27	0x35931852	1.0959432e-06
28	0x3709f0a3	8.221864e-06
29	0x3568a789	8.667053e-07
30	0x366f2f6f	3.5641385e-06
31	0x36566637	3.1947982e-06
32	0x367647db	3.6698682e-06
33	0x362e1226	2.5938584e-06
34	0x3632655a	2.6583061e-06
35	0x36918974	4.3373384e-06
36	0x36f8fcb8	7.4203963e-06
37	0x3720bb00	9.5802825e-06
38	0x3706fe77	8.04627e-06
39	0x36cd9f28	6.1280043e-06
40	0x36a54940	4.9259106e-06
41	0x36a7e2cb	5.00339e-06
42	0x36d8ebcb	6.4647516e-06
43	0x37ba64ef	2.2219929e-05
44	0x36066c7a	2.0030698e-06
45	0x37b1a988	2.1178988e-05
46	0x3645a511	2.9451369e-06
47	0x37269a6c	9.930325e-06
48	0x36b7796b	5.46796e-06
49	0x36b03674	5.251548e-06
50	0x36404d61	2.865527e-06
51	0x34b56a61	3.3791278e-07
52	0x34c3ad00	3.6447454e-07
53	0x3503e9ff	4.914181e-07
54	0x352749ed	6.2319924e-07
55	0x35227b66	6.052927e-07
56	0x35209030	5.9814465e-07
57	0x35708d8d	8.961295e-07
58	0x35b0dd35	1.3177402e-06
59	0x35d40e30	1.579936e-06
60	0x361b961f	2.3184182e-06
61	0x34e2e5d7	4.226301e-07
62	0x35acdfec	1.2880168e-06
63	0x35c6d684	1.4814582e-06
64	0x35524676	7.833363e-07
65	0x356af478	8.752754e-07
66	0x35bf34d7	1.4245987e-06
67	0x35aebeb4	1.3019512e-06
68	0x359c1641	1.1629382e-06
69	0x35fa487b	1.8647546e-06
70	0x367cae72	3.7652467e-06
71	0x367a855a	3.7330524e-06
72	0x365cb8d4	3.2890139e-06
73	0x36402f63	2.8637812e-06
74	0x363ed0ea	2.843381e-06
75	0x365c2d8c	3.2809066e-06
76	0x36463265	2.9533633e-06
77	0x36fc7a2a	7.524407e-06
78	0x3590c76b	1.0786874e-06
79	0x36e4fd85	6.824443e-06
80	0x35c853f1	1.4925591e-06
81	0x35de3c95	1.6557921e-06
82	0x36263813	2.4768567e-06
83	0x36481eff	2.9820364e-06
84	0x36587b1e	3.2258172e-06
85	0x36269636	2.4823362e-06
86	0x368bbc23	4.164425e-06
87	0x36cc4f09	6.0888747e-06
88	0x36c3ae57	5.8317487e-06
89	0x369daab0	4.6988353e-06
90	0x368146f5	3.85276e-06
91	0x36850e24	3.965355e-06
92	0x36a636f2	4.953582e-06
93	0x37010e7d	7.6923725e-06
94	0x379ccef6	1.8693023e-05
95	0x36144b53	2.2097563e-06
96	0x3755b20d	1.2737245e-05
97	0x36528021	3.136702e-06
98	0x37186acf	9.084774e-06
99	0x370bd5a6	8.3347895e-06
100	0x36d1de2d	6.25455e-06
101	0x36b7f0ad	5.4818433e-06
102	0x36447544	2.9274534e-06
103	0x369463a4	4.4223434e-06
104	0x368a2dba	4.1180438e-06
105	0x367ab2ac	3.7356904e-06
106	0x36729e84	3.6153078e-06
107	0x3692c6eb	4.374296e-06
108	0x36b4abcc	5.384418e-06
109	0x36b8aaec	5.5035252e-06
110	0x36e260de	6.7466017e-06
111	0x3696d86d	4.4955436e-06
112	0x36164e8d	2.2397464e-06
113	0x3648f51a	2.994499e-06
114	0x36d64a52	6.386349e-06
115	0x360e301d	2.1187655e-06
116	0x36bcf778	5.6316458e-06
117	0x37097635	8.193359e-06
118	0x371e696b	9.442078e-06
119	0x35da6edb	1.6274529e-06
120	0x360e4566	2.1200044e-06
121	0x365617db	3.190237e-06
122	0x367b9719	3.7489865e-06
123	0x3664b881	3.4082043e-06
124	0x365d923b	3.3016684e-06
125	0x366bee9f	3.5156625e-06
126	0x3686ff71	4.0232485e-06
127	0x368e854a	4.2474467e-06
128	0x37205ff0	9.55908e-06
129	0x35c101c2	1.4380132e-06
130	0x36ee73c9	7.106432e-06
131	0x35da5133	1.6265898e-06
132	0x3652a8c9	3.1390684e-06
133	0x3659b84d	3.2442797e-06
134	0x36a616e0	4.9498485e-06
135	0x36a8f4a4	5.03527e-06
136	0x340dc7c9	1.320433e-07
137	0x3478977c	2.315191e-07
138	0x34f1359a	4.4928748e-07
139	0x3519c12e	5.7278055e-07
140	0x34f25528	4.5137972e-07
141	0x34b19f7b	3.3084856e-07
142	0x34b6c8c1	3.404621e-07
143	0x34fe8937	4.7411024e-07
144	0x35217824	6.0152e-07
145	0x34d450fd	3.9547004e-07
146	0x341a88dd	1.4392158e-07
147	0x35708b82	8.960998e-07
148	0x3422a1cd	1.5146288e-07
149	0x34ba5b21	3.4711505e-07
150	0x3493f985	2.7562433e-07
151	0x349c3a6e	2.9099778e-07
152	0x3455fbe4	1.9928808e-07
153	0x3484e39d	2.4752526e-07
154	0x34e4e3da	4.2634093e-07
155	0x3564ac04	8.5186934e-07
156	0x359165e9	1.0833002e-06
157	0x354b9f7f	7.585549e-07
158	0x34eadf9a	4.3748588e-07
159	0x34df2f5e	4.157145e-07
160	0x35810f1d	9.615648e-07
161	0x35f629eb	1.8340628e-06
162	0x36509964	3.10837e-06
163	0x346df2e3	2.2160707e-07
164	0x3606e72d	2.0102118e-06
165	0x348aea5d	2.5875025e-07
166	0x359624de	1.1186601e-06
167	0x3577a74a	9.225811e-07
168	0x3565af6c	8.556442e-07
169	0x35033295	4.887491e-07
170	0x35161690	5.591219e-07
171	0x358ae11d	1.0347318e-06
172	0x362290e3	2.4224216e-06
173	0x363c8f29	2.8097513e-06
174	0x35db02a1	1.6317537e-06
175	0x358fbd34	1.0709396e-06
176	0x359c604a	1.165093e-06
177	0x362b31bf	2.5509942e-06
178	0x3694e005	4.436823e-06
179	0x36bc2075	5.606615e-06
180	0x350d6a9e	5.268174e-07
181	0x36c898c5	5.978249e-06
182	0x3510f41e	5.399942e-07
183	0x35c99bd1	1.5021016e-06
184	0x360df61b	2.115389e-06
185	0x35e6a223	1.7183523e-06
186	0x357bfcd4	9.38727e-07
187	0x36022f17	1.939892e-06
188	0x36640a4f	3.3980648e-06
189	0x36fc66bd	7.5221456e-06
190	0x36f58751	7.317322e-06
191	0x36a8f59a	5.035382e-06
192	0x36866b5f	4.006011e-06
193	0x36b2bca2	5.326773e-06
194	0x37123306	8.714158e-06
195	0x37310711	1.0551667e-05
196	0x375edbff	1.3283453e-05
197	0x35ebc263	1.7565438e-06
198	0x3740b1c8	1.1485485e-05
199	0x3621e805	2.4125923e-06
200	0x36b26f1e	5.317749e-06
201	0x36c9f749	6.0190546e-06
202	0x36bfd6cc	5.717249e-06
203	0x36a4ab02	4.907489e-06
204	0x35066892	5.007106e-07
205	0x350ba1d8	5.201705e-07
206	0x351c72ef	5.828178e-07
207	0x353797a4	6.839348e-07
208	0x3539f75c	6.9277826e-07
209	0x3580eb87	9.605291e-07
210	0x35c2ca53	1.451301e-06
211	0x35e50db6	1.706582e-06
212	0x35bf313c	1.4244938e-06
213	0x364d12e9	3.0558388e-06
214	0x34f147f1	4.4942092e-07
215	0x3580e132	9.602284e-07
216	0x35260af4	6.185576e-07
217	0x35e37839	1.6947807e-06
218	0x360a89a2	2.0643715e-06
219	0x360d48e1	2.1053058e-06
220	0x363ae257	2.7847907e-06
221	0x35a78481	1.2481033e-06
222	0x3618af52	2.2751815e-06
223	0x36ab5d56	5.107063e-06
224	0x36d9e54c	6.4937976e-06
225	0x36aaa32f	5.085392e-06
226	0x3663be22	3.3936308e-06
227	0x362655e0	2.4785913e-06
228	0x366f0902	3.5619018e-06
229	0x36f0789b	7.1665977e-06
230	0x374e4430	1.2294433e-05
231	0x357c471a	9.398078e-07
232	0x37067d13	8.0161435e-06
233	0x35708757	8.960391e-07
234	0x36fdd8ee	7.5652415e-06
235	0x362f5496	2.6126268e-06
236	0x362cd44d	2.5753573e-06
237	0x35a1219b	1.2005215e-06
238	0x35c6bb9a	1.4806749e-06
239	0x3621e4ff	2.4124163e-06
240	0x366e7e2a	3.55382e-06
241	0x366afcc8	3.5015855e-06
242	0x3649c405	3.0065432e-06
243	0x36338cfd	2.6755145e-06
244	0x3621e628	2.4124838e-06
245	0x3607aa79	2.0215796e-06
246	0x35fdd81c	1.8912865e-06
247	0x368784cf	4.0387745e-06
248	0x358d8ac9	1.054571e-06
249	0x3711b25d	8.684202e-06
250	0x35acaa72	1.2864605e-06
251	0x36115fad	2.1662374e-06
252	0x362ba982	2.5579652e-06
253	0x36197bf4	2.2870927e-06
254	0x361e101f	2.3553218e-06
255	0x362bd9b9	2.5607717e-06

exp_avg f4 [64]
0	0xba311347	-0.00067548867
1	0x3a67114b	0.00088145275
2	0x3aac8a63	0.0013163801
3	0x37bf01be	2.2769786e-05
4	0x391626cb	0.00014319566
5	0x39b5dbd5	0.00034686798
6	0xba4155ec	-0.0007375169
7	0x39f4d1b2	0.00046695542
8	0xb968138d	-0.00022132527
9	0xba377f50	-0.0006999867
10	0xba91c677	-0.0011121769
11	0x397f3c0f	0.00024341069
12	0xb84fc2b0	-4.9533963e-05
13	0x3a9144b9	0.0011083103
14	0x398a1eba	0.00026344304
15	0xb98914b4	-0.000261461
16	0xba8c0e1f	-0.0010685361
17	0x3a46534d	0.00075655134
18	0xb99cea0a	-0.0002992901
19	0xb91f6293	-0.00015200143
20	0xb9452671	-0.00018801705
21	0x3aa609cb	0.0012667713
22	0x38192c1f	3.6519134e-05
23	0x3a76ac9b	0.00094098755
24	0x388f0220	6.819167e-05
25	0xb9e4aacb	-0.000436148
26	0x3983e3e3	0.00025156056
27	0xbab246c8	-0.0013601417
28	0xbb3445fc	-0.0027507534
29	0xb8ac2821	-8.209074e-05
30	0xb9bd2cc5	-0.00036082245
31	0xbae11517	-0.0017172423
32	0xbab5b28a	-0.0013862413
33	0xbad15ac0	-0.001597248
34	0xba82a794	-0.0009968155
35	0xbaa4037e	-0.0012513248
36	0xb89eb4f0	-7.567729e-05
37	0xb9c3307e	-0.00037229428
38	0xbada9525	-0.0016676529
39	0x39adce9e	0.00033151073
40	0x3ac2fe85	0.0014876878
41	0x391e83a2	0.00015117091
42	0x3a57f62a	0.00082382804
43	0x39d31701	0.00040262195
44	0xb9b1d6a8	-0.00033920002
45	0xb874928e	-5.8310623e-05
46	0x3a17c64f	0.0005789743
47	0xb6d5404a	-6.355379e-06
48	0xb91d027e	-0.00014973615
49	0x3968071c	0.00022127893
50	0x378618c6	1.598558e-05
51	0x398054f2	0.00024477352
52	0x395acd88	0.00020866666
53	0xbae8b9bb	-0.0017755547
54	0xba95afd4	-0.0011420199
55	0x39f7a8fd	0.00047237417
56	0xbaebd779	-0.0017993293
57	0x397a218e	0.00023854358
58	0x399b0d88	0.00029573985
59	0xb8a9fba7	-8.105422e-05
60	0xb976d596	-0.00023539955
61	0xba07fee6	-0.0005187824
62	0x398569d0	0.00025446573
63	0xba3be992	-0.00071682886

exp_avg_sq f4 [64]
0	0x359c9083	1.1664964e-06
1	0x35d77663	1.6053203e-06
2	0x36436feb	2.912241e-06
3	0x35403cdb	7.161413e-07
4	0x35de2451	1.6550858e-06
5	0x36850123	3.963841e-06
6	0x36ba23ed	5.5474143e-06
7	0x361d5d60	2.3449174e-06
8	0x3430b0d0	1.6455601e-07
9	0x34eb92db	4.3879012e-07
10	0x358e3cae	1.0597485e-06
11	0x36670f85	3.4430716e-06
12	0x359f0092	1.1846589e-06
13	0x35d33cec	1.5738456e-06
14	0x35c758f3	1.4852543e-06
15	0x367bdf29	3.753181e-06
16	0x3602c6b7	1.9487177e-06
17	0x365b2ebd	3.2660748e-06
18	0x36b92567	5.517784e-06
19	0x3666d974	3.4399245e-06
20	0x367e4fa8	3.7895315e-06
21	0x367d9af3	3.779013e-06
22	0x34a4a736	3.0669042e-07
23	0x367f6327	3.8055675e-06
24	0x350e06f0	5.290922e-07
25	0x36be466d	5.67064e-06
26	0x34cbecf9	3.7984117e-07
27	0x364fa05a	3.093874e-06
28	0x368cb12d	4.192951e-06
29	0x35eb30f9	1.7523117e-06
30	0x356a8a56	8.73731e-07
31	0x36a0bda4	4.7904487e-06
32	0x36a3ab93	4.8777524e-06
33	0x375c8a57	1.3145232e-05
34	0x361953d8	2.284758e-06
35	0x36e40ccb	6.796419e-06
36	0x34feecb8	4.7483422e-07
37	0x35209829	5.9826067e-07
38	0x36d4cde7	6.3420625e-06
39	0x345def7b	2.0669351e-07
40	0x362721c8	2.4904602e-06
41	0x34a7e47b	3.1272415e-07
42	0x36943b6a	4.4176604e-06
43	0x362e5bc7	2.5981442e-06
44	0x356634b0	8.575835e-07
45	0x33d61851	9.969575e-08
46	0x35da71c9	1.6275382e-06
47	0x355949f2	8.0946404e-07
48	0x358e1236	1.0585125e-06
49	0x35b8871e	1.3748393e-06
50	0x35e5d4be	1.7123746e-06
51	0x351ae6e0	5.770544e-07
52	0x35a56197	1.232186e-06
53	0x3674b349	3.646319e-06
54	0x36f5ed67	7.3292063e-06
55	0x34cf46e1	3.8608326e-07
56	0x36e1516e	6.715002e-06
57	0x3686e15d	4.019747e-06
58	0x351fcfa5	5.953428e-07
59	0x359378b8	1.0987487e-06
60	0x36f587f3	7.3173956e-06
61	0x34cd9f1a	3.8299987e-07
62	0x36554016	3.1776776e-06
63	0x361f11b9	2.3703162e-06

exp_avg f4 [64, 64]
0	0x377b7de0	1.4990073e-05
1	0x3a7c2059	0.0009617857
2	0x3897aa3b	7.231949e-05
3	0x38d162a8	9.984273e-05
4	0xb8c95d52	-9.601809e-05
5	0x38bf2300	9.114109e-05
6	0xb99cbe39	-0.00029896366
7	0x3a02a118	0.0004983111
8	0xb71a8ab2	-9.211408e-06
9	0x3a6b33fe	0.0008972286
10	0x39c12ec8	0.00036846683
11	0x399d1eaf	0.00029968235
12	0xb90a891c	-0.00013211783
13	0x39a357da	0.00031155237
14	0xb8dc3b95	-0.000105015155
15	0xb8b5e5de	-8.673569e-05
16	0x3ad5b048	0.0016303146
17	0xb9960d90	-0.00028620334
18	0xb9835489	-0.0002504925
19	0xb945b7cc	-0.00018855854
20	0xb9a53922	-0.0003151382
21	0x39a12626	0.00030736736
22	0xb986d56f	-0.00025717492
23	0x394257f6	0.0001853405
24	0x39af7d01	0.00033471736
25	0x38af9f1c	8.374287e-05
26	0xb99fb270	-0.0003045979
27	0x3a942818	0.0011303453
28	0x3a8ff5f9	0.001098334
29	0xb9b8f6ff	-0.0003527924
30	0xb935a59c	-0.000173232
31	0xba43f47a	-0.00074750895
32	0x3ac4177f	0.0014960616
33	0x3a31194a	0.00067557825
34	0x39fad978	0.00047845743
35	0xb9db2bdf	-0.00041803622
36	0xb91c6b53	-0.000149173
37	0xb86760ac	-5.5164724e-05
38	0xb9b9c4d1	-0.0003543259
39	0xb9aca130	-0.0003292649
40	0xb96320f2	-0.0002166068
41	0xb85e0179	-5.2930296e-05
42	0x3987a934	0.00025875273
43	0x3a8fae79	0.0010962031
44	0xb864b5eb	-5.452886e-05
45	0xb8fed6bc	-0.00012151661
46	0x3a8a5b0c	0.0010555699
47	0xb83214d5	-4.245791e-05
48	0xb92fe25f	-0.0001677363
49	0xb9520607	-0.00020029406
50	0xb8fbd6d1	-0.00012008625
51	0xb8b81402	-8.7775305e-05
52	0xb9dde763	-0.000423248
53	0xb8946e09	-7.0776856e-05
54	0x395b25d1	0.00020899555
55	0x38ce6800	9.842217e-05
56	0xba0f1923	-0.0005458763
57	0x387b3334	5.989075e-05
58	0xb9493185	-0.00019187301
59	0xb7d0164a	-2.4805911e-05
60	0x39990ba3	0.00029191104
61	0x38d081d8	9.942398e-05
62	0x3884fb2b	6.341034e-05
63	0xb98af7f8	-0.00026506162
64	0xb98625af	-0.00025586548
65	0xba1091ab	-0.000551487
66	0xb968693a	-0.00022164444
67	0x399b3f6d	0.0002961116
68	0x39bbd137	0.00035823297
69	0xb7802a0d	-1.527837e-05
70	0x39533e40	0.00020145718
71	0x39fba062	0.00047993945
72	0xb7d163ee	-2.4961275e-05
73	0x3a34cfea	0.00068974367
74	0xb58af002	-1.0351653e-06
75	0x3a4070e6	0.0007341042
76	0x3a23ab0d	0.0006243445
77	0x380b2f0c	3.3184e-05
78	0x398e2aba	0.00027116184
79	0x38955fa7	7.12269e-05
80	0x3949c348	0.00019241602
81	0x3a577db8	0.00082203327
82	0x3a4b6740	0.0007759221
83	0x39f78de1	0.0004721722
84	0xb4d43c00	-3.9531733e-07
85	0xb7c1eb9a	-2.3117103e-05
86	0x3989c9a1	0.00026280902
87	0xb9b9676b	-0.00035363002
88	0x3852bf8a	5.0246286e-05
89	0x37d1aedc	2.4996167e-05
90	0x399830e0	0.00029028114
91	0x395eff8b	0.00021266767
92	0x38f997cd	0.0001190152
93	0x3a1592af	0.00057057565
94	0x39144763	0.00014140974
95	0x3a503c7e	0.00079435844
96	0x39974b68	0.00028857146
97	0x3994d284	0.00028385606
98	0x37dbe216	2.6212114e-05
99	0x39af529d	0.00033440153
100	0x3a292db8	0.0006453651
101	0x3705b341	7.969154e-06
102	0x394c99a7	0.00019512196
103	0x3a050b05	0.00050751894
104	0x39684a08	0.00022152823
105	0x39434451	0.00018622099
106	0xb949a842	-0.00019231535
107	0xb8c3710d	-9.319382e-05
108	0x39ce2fb8	0.00039326935
109	0x38b1f742	8.486073e-05
110	0xba000358	-0.0004883311
111	0x3831dcb7	4.2405645e-05
112	0x38d31b5a	0.00010066359
113	0x3a63de90	0.0008692527
114	0x398f9efd	0.0002739354
115	0xb8e52cba	-0.00010927902
116	0xb8c82905	-9.544384e-05
117	0x38426d7c	4.635517e-05
118	0xb79090ac	-1.7233506e-05
119	0xb94315f4	-0.00018604827
120	0x3a05e6b5	0.00051079254
121	0x38bdb33c	9.045607e-05
122	0x38828b70	6.224855e-05
123	0x39172432	0.00014413966
124	0x3a1e6f69	0.0006043823
125	0xb8094ed0	-3.2736745e-05
126	0xb848dff2	-4.789228e-05
127	0x3a9160ea	0.0011091505
128	0xb9d76613	-0.00041084047
129	0x39b4445d	0.0003438321
130	0x38965d3e	7.169925e-05
131	0xb8bc4cd4	-8.978849e-05
132	0xb8c330eb	-9.307436e-05
133	0x381a5c46	3.6802398e-05
134	0xb9229ffb	-0.00015509121
135	0x384764a4	4.7539026e-05
136	0xb8f7b9f7	-0.000118125165
137	0x38e2f417	0.00010821985
138	0x3800ad30	3.067887e-05
139	0xb91b8f29	-0.00014835283
140	0xb91f111c	-0.00015169795
141	0x39459ab2	0.00018845013
142	0xb92fb1e5	-0.00016755571
143	0x38f5f0f6	0.00011727393
144	0x3a06c934	0.0005141676
145	0xb9797a60	-0.00023792079
146	0xb9557e44	-0.000203603
147	0xb971a6d9	-0.00023045707
148	0xb8ec6659	-0.00011272421
149	0x394e621f	0.00019682244
150	0xb8eabf15	-0.00011193581
151	0x39089d6f	0.0001302862
152	0x398feaba	0.0002744997
153	0x3899f510	7.341255e-05
154	0xb94bfd49	-0.00019453945
155	0x38cceac6	9.771208e-05
156	0x3a0e52a3	0.0005429184
157	0xb8fac042	-0.0001195674
158	0xb85d11c5	-5.2707055e-05
159	0xb9a727be	-0.00031882332
160	0x399bc97d	0.00029714024
161	0xb8a6c082	-7.951354e-05
162	0x391c0b50	0.00014881534
163	0xb9377bae	-0.00017498314
164	0xb9878907	-0.000258513
165	0x380b2a0c	3.317934e-05
166	0xb9299ccb	-0.00016175506
167	0xb8fad83e	-0.00011961207
168	0xb907cf6e	-0.00012951877
169	0x3750b648	1.2440207e-05
170	0x38dfbe5f	0.00010668928
171	0x395dd771	0.0002115646
172	0x36d72a18	6.4123997e-06
173	0x3627706b	2.4950375e-06
174	0x39bdcbe5	0.00036200802
175	0x38220700	3.863033e-05
176	0xb838cb9a	-4.4058637e-05
177	0xb98c3b48	-0.0002674705
178	0xb995977f	-0.00028532368
179	0xb8c8d9ca	-9.5773095e-05
180	0xb9076437	-0.00012911936
181	0x372de4b8	1.0364856e-05
182	0x383a4f64	4.4419794e-05
183	0x38a5e4c4	7.910424e-05
184	0xb99bcfce	-0.0002971873
185	0xb993361d	-0.00028078342
186	0xb89ec515	-7.5707365e-05
187	0xb84a6b01	-4.8260208e-05
188	0xb97fe127	-0.00024402571
189	0x38adaf94	8.281987e-05
190	0xb7e3fb5c	-2.7177557e-05
191	0xb9674b6c	-0.00022057974
192	0x3896a938	7.184077e-05
193	0x38e154ee	0.000107446554
194	0xb92b8d72	-0.00016360523
195	0x3a04b1af	0.00050618773
196	0x39b19412	0.00033870392
197	0xb908c0f1	-0.00013041847
198	0xb95d6aae	-0.00021115944
199	0x3a8e8295	0.0010872657
200	0x38e2ae26	0.000108089574
201	0x3a7bb33d	0.0009601599
202	0x39c7d48c	0.00038114598
203	0x3a4b68a4	0.0007759428
204	0x39993b16	0.00029226457
205	0x397b9ffa	0.00023996821
206	0x3940825e	0.00018359112
207	0xb93b11e0	-0.00017840369
208	0x3a886fb4	0.0010409267
209	0x38cf79cf	9.893218e-05
210	0xb99872e7	-0.00029077308
211	0xb984e6ac	-0.00025348866
212	0xb9896f34	-0.0002621353
213	0x392d96b3	0.00016554706
214	0x38bbaf9a	8.949563e-05
215	0xb9395ad1	-0.00017676807
216	0x3983e360	0.00025155675
217	0xb96e92b5	-0.00022752101
218	0xb8cf5c50	-9.887724e-05
219	0x3a5793fd	0.0008223651
220	0x3a7f7e01	0.0009746254
221	0xb86ca5c4	-5.6421166e-05
222	0x3942d433	0.00018580332
223	0xb92c930e	-0.0001645798
224	0x3ab195a9	0.001354863
225	0x3a733b16	0.0009278519
226	0x3a032cbe	0.00050039205
227	0xb95bd752	-0.0002096568
228	0x39bd8344	0.0003614669
229	0xb82e70ba	-4.1589818e-05
230	0xb9dd8ed6	-0.00042258826
231	0xb8ae4356	-8.309509e-05
232	0x37a66922	1.9837698e-05
233	0x398e56af	0.00027148935
234	0x393fe1c8	0.0001829929
235	0x3a5e1aae	0.00084726035
236	0x38b6e44c	8.72096e-05
237	0xb895c8d2	-7.142279e-05
238	0x379bded8	1.858121e-05
239	0xb8fac5e0	-0.00011957786
240	0x39325394	0.00017006538
241	0x3a2d3264	0.0006606935
242	0xb7a9d808	-2.0246967e-05
243	0x390f44ce	0.00013663174
244	0xb8cd0179	-9.775436e-05
245	0xb9d424ce	-0.00040463213
246	0xb9633db9	-0.000216714
247	0xb707db44	-8.097679e-06
248	0x370d7298	8.430936e-06
249	0x398f08af	0.00027281555
250	0x39488814	0.0001912418
251	0x39129fc9	0.0001398317
252	0x393f8efe	0.00018268448
253	0xb866211e	-5.4867116e-05
254	0xb8fbb403	-0.000120021425
255	0xb852d4a6	-5.0265946e-05
