results/test-16/Drive.onnx (onnx, 27163 bytes, 9 tensors)

network_body.observation_encoder.processors.0.normalizer.running_mean f4 [17]
0	0x412f3663	10.950778
1	0x416a91b4	14.660572
2	0x419aee04	19.366219
3	0x41a9fa8f	21.247343
4	0x41a7d849	20.980608
5	0x419dad5b	19.709646
6	0x418d821a	17.688526
7	0x41709caf	15.038253
8	0x414b3306	12.699957
9	0x41115934	9.084278
10	0x40fee5e3	7.9655623
11	0x40e951fe	7.291259
12	0x4123e66c	10.243755
13	0x410d6a94	8.83852
14	0x418a440e	17.28323
15	0x3f03f34b	0.5154311
16	0x404ece12	3.2313275

network_body._body_endoder.seq_layers.0.weight f4 [64, 17]
0	0x3d25e8eb	0.04050533
1	0xbefcddaf	-0.4938788
2	0x3ea4f82c	0.3222059
3	0xbf1aa5b1	-0.60409075
4	0x3f5fc976	0.8741678
5	0x3d1565a7	0.036473896
6	0x3db8b4fd	0.09018896
7	0xbdb6e48a	-0.08930309
8	0x3e7fdcc1	0.24986555
9	0x3ca3e7f4	0.020008065
10	0xbee2e515	-0.443154
11	0xbde51aff	-0.1118679
12	0xbe580e72	-0.2109926
13	0xbde711f0	-0.11282718
14	0xbd830739	-0.06397862
15	0x3d0f3809	0.03496555
16	0x3eeef444	0.46670735
17	0x3e2eadce	0.17058489
18	0xbcd89564	-0.026438423
19	0xbdb5b40c	-0.08872232
20	0x3f02e799	0.5113464
21	0x3dad7669	0.084698506
22	0xbf0870fe	-0.5329741
23	0x3dd54daf	0.104152076
24	0xbe55d225	-0.20880945
25	0x3d4d154a	0.05006913
26	0x3f10fe1a	0.5663773
27	0xbda68c82	-0.081322685
28	0xbc9feedd	-0.019523079
29	0xbd966e4a	-0.07345255
30	0xbe3bfea5	-0.18358858
31	0xbe6afc6d	-0.22947855
32	0xbe8b7d8f	-0.2724423
33	0xbe055b3d	-0.13023086
34	0x3ed89093	0.422978
35	0x3d561e35	0.0522749
36	0x3ef7a805	0.48370376
37	0xbdf28c90	-0.118432164
38	0xbce4ba8c	-0.027920984
39	0xbe0cc618	-0.13747442
40	0xbea8054e	-0.32816547
41	0xbe74dab1	-0.23911549
42	0xbdb6ff40	-0.08935404
43	0x3e3a47be	0.1819143
44	0x3e3970bf	0.18109415
45	0x3e8f4c34	0.27987826
46	0x3ed69ceb	0.41916594
47	0x3e12edee	0.14348575
48	0x3c606183	0.013695124
49	0x3ddc69c0	0.10762358
50	0x3ef99400	0.48745728
51	0x3d63c8f0	0.05561155
52	0xbd266cb4	-0.04063101
53	0x3ebbc70d	0.366753
54	0xbe52f880	-0.20602608
55	0xbf08df0a	-0.5346533
56	0x3ef17be2	0.47164828
57	0x3efb836b	0.491237
58	0x3ddf6e8f	0.10909759
59	0xbeb0369f	-0.34416673
60	0xbd0273e1	-0.031848792
61	0x3e8e3f96	0.27782887
62	0xbe3f6322	-0.1869016
63	0x3deab05b	0.114594184
64	0xbed06201	-0.4069977
65	0xbea40107	-0.32032034
66	0x3e9ef80b	0.31048617
67	0xbd902484	-0.07038215
68	0x3d42413e	0.0474255
69	0xbe8761ce	-0.26441807
70	0xbf1bf576	-0.6092142
71	0x3ebe95b9	0.37223604
72	0x3ecbd92f	0.39814135
73	0xbf0102a1	-0.50394636
74	0xbe413394	-0.18867332
75	0x3de393dd	0.11112187
76	0xbe85779b	-0.26067814
77	0xbcc1351f	-0.0235849
78	0x3e397d58	0.18114221
79	0xbe845d5c	-0.25852478
80	0xbb939d86	-0.0045048622
81	0xbeee4deb	-0.46543822
82	0xbdd216c3	-0.10258248
83	0x3d71ead5	0.059061844
84	0xbe918cc3	-0.28427705
85	0xbe1e840d	-0.15480061
86	0x3f0d979d	0.5530947
87	0xbde96086	-0.113953635
88	0x3e5b4938	0.2141465
89	0x3d836c3f	0.06417131
90	0xbeadbb6f	-0.33932063
91	0x3e87398a	0.26411086
92	0xbe2b9014	-0.1675418
93	0xbd119aa2	-0.03554786
94	0xbdc3f360	-0.095679045
95	0x3a738be5	0.000929056
96	0x3cfbbcff	0.030729769
97	0xbe18e0bc	-0.1492948
98	0x3e6559d4	0.22397548
99	0xbe68d483	-0.22737317
100	0x3d34e932	0.044167705
101	0x3d34c0da	0.04412923
102	0xbe60d5dc	-0.21956581
103	0xbd2817b9	-0.04103825
104	0x3f0c6408	0.54840136
105	0xbc41995a	-0.011816347
106	0x3d18a549	0.037267003
107	0x3e7d5926	0.24741039
108	0x3dc28983	0.094988845
109	0xbd852809	-0.06501777
110	0x3ef7e2ce	0.48415226
111	0xbea1cb6c	-0.3160051
112	0xbeb26f6b	-0.3485063
113	0xbe624fd5	-0.22100766
114	0xbe56f20e	-0.20990774
115	0xbe4cc64f	-0.19997524
116	0xbd696f17	-0.05699071
117	0x3d29e618	0.0414792
118	0xbdd25308	-0.10269743
119	0x3e114bd0	0.14189076
120	0x3f018955	0.5060018
121	0x3d19153f	0.037373777
122	0x3e2293ce	0.15876696
123	0xbdda4eda	-0.10659571
124	0xbed33204	-0.41249096
125	0xbe251933	-0.16122894
126	0xbd8a1cbb	-0.06743761
127	0xbe2ce51b	-0.16884272
128	0x3ed7f0dd	0.42175952
129	0x3e9076fc	0.28215778
130	0x3dd2838d	0.102789976
131	0xbe851113	-0.2598959
132	0xbeef1689	-0.4669688
133	0x3db94648	0.09046608
134	0x3eb697bf	0.35662648
135	0xbed17761	-0.4091139
136	0xbea571ba	-0.3231333
137	0xbc9fbaf2	-0.019498322
138	0x3cbe15a7	0.023203684
139	0xbebbd586	-0.36686343
140	0xbee5dbe3	-0.44894323
141	0x3d89d795	0.06730572
142	0x3e9145a6	0.2837345
143	0xbcea7952	-0.028622303
144	0xbdb6d979	-0.08928198
145	0xbf132f41	-0.5749398
146	0x3e55d28a	0.20881096
147	0x3e5c52eb	0.21516006
148	0xbd18e382	-0.037326343
149	0xbe04f1c7	-0.12982856
150	0xbe8c4552	-0.27396637
151	0x3eb67114	0.35633147
152	0x3e92cb0b	0.28670534
153	0xbd74538d	-0.059649993
154	0xbec248ba	-0.3794611
155	0xbe8f92e4	-0.28041756
156	0xbe613a25	-0.21994837
157	0xbe05f153	-0.13080339
158	0xbd8e9a36	-0.06963007
159	0xbe7269c1	-0.23673154
160	0x3f2ea6ec	0.6822345
161	0x3db7cace	0.08974229
162	0x3dbe106d	0.09280477
163	0xbe112455	-0.14174016
164	0x3e7fdfba	0.24987689
165	0x3d7696e2	0.060202487
166	0x3f02c548	0.5108228
167	0x3e57fd8e	0.21092817
168	0xbe4ada71	-0.19809891
169	0xbeb2f6a1	-0.34953788
170	0x3dcc62d3	0.09979787
171	0xbe12dcc1	-0.14342023
172	0xbd8af3bd	-0.06784771
173	0xbede92a8	-0.43471265
174	0x3ce5d745	0.02805675
175	0xbe378d1b	-0.17924921
176	0xbd303aa4	-0.043024674
177	0x3e803522	0.25040537
178	0x3dd9977d	0.10624597
179	0x3c30b1b9	0.01078456
180	0x3e3601d9	0.17774142
181	0x3ec7a0d9	0.38989905
182	0xbe7d7ae9	-0.24753918
183	0xbe9481c9	-0.29005268
184	0x3e519b59	0.20469417
185	0xbe6cb5ee	-0.23116276
186	0x3dc145c5	0.094371356
187	0xbe87af79	-0.26501063
188	0x3e423b7d	0.18968005
189	0xbf3fa2f8	-0.74858046
190	0xbea41fc6	-0.3205549
191	0xbeb28f08	-0.3487475
192	0x3ee287cf	0.4424424
193	0xbd12ef00	-0.03587246
194	0x3e190059	0.14941539
195	0xbe01e7c0	-0.12686062
196	0xbea59cdd	-0.3234624
197	0x3ec2d042	0.38049513
198	0xbe053cdf	-0.13011502
199	0xbe8f206c	-0.27954423
200	0x3e8185ed	0.2529749
201	0xbe6fe700	-0.23427963
202	0x3e349c06	0.17637643
203	0xbca34bdf	-0.01993364
204	0x3f47dbda	0.7806984
205	0x3f240086	0.640633
206	0x3e05bfa4	0.13061386
207	0x3c6c0e36	0.014407685
208	0xbe7e93b3	-0.2486103
209	0x3e3b9e1c	0.18322033
210	0xbd2ea3ef	-0.042636808
211	0xbecde91b	-0.40216908
212	0xbe686005	-0.22692879
213	0xbccc1b96	-0.024915498
214	0x3ea3bca1	0.3197985
215	0xbe10a7cc	-0.1412651
216	0xbe48ffff	-0.19628905
217	0x3ed7c02b	0.421388
218	0x3a8518f8	0.0010154536
219	0xbd9795ee	-0.07401644
220	0xbe3e2df4	-0.18572217
221	0x3c8076c2	0.015681628
222	0xbe2ad824	-0.16684014
223	0xbe8697b0	-0.26287603
224	0xbd734501	-0.05939198
225	0xbe9a52d3	-0.30141315
226	0xbd4530e9	-0.048142347
227	0xbe6973b9	-0.22798051
228	0xbdd9ff4f	-0.106443994
229	0x3b65e0da	0.003507665
230	0x3dbc23a8	0.091864884
231	0x3e49d980	0.19711876
232	0xbd0e155d	-0.034688342
233	0x3e03a06a	0.12854162
234	0x3e5f6a1e	0.21817824
235	0x3ce0b614	0.027430572
236	0xbe628f18	-0.22124898
237	0x3e75c42e	0.24000618
238	0xbdbdf69e	-0.09275554
239	0xbe3161fc	-0.17322534
240	0xbe7b9d38	-0.24571693
241	0xbc1f917a	-0.009739274
242	0x3e8dd468	0.27701116
243	0x3e95d185	0.29261413
244	0xbea7f162	-0.32801348
245	0xbe28ea53	-0.16495638
246	0x3deabc20	0.11461663
247	0x3e101b0b	0.14072816
248	0x3cec43e9	0.028840976
249	0x3e00c2ba	0.12574282
250	0xbe524a7e	-0.20536229
251	0xbe325cbb	-0.17418186
252	0x3ea97694	0.3309828
253	0x3d983df0	0.07433689
254	0xbd28d4cd	-0.041218568
255	0xbc9cbb15	-0.019132176

network_body._body_endoder.seq_layers.0.bias f4 [64]
0	0x3d691d73	0.05691285
1	0x3d810c9f	0.063012354
2	0x3e07d689	0.13265432
3	0xbc600c93	-0.013674873
4	0xbd4a34c3	-0.049366724
5	0x3daf6107	0.08563428
6	0x3d6a2f9a	0.057174303
7	0x3da38270	0.07983863
8	0xbd70ab21	-0.05875695
9	0x3d48db3c	0.049037203
10	0x3c031a21	0.008001835
11	0x3cdc6b81	0.02690673
12	0x3d341fde	0.043975703
13	0x3d8452f2	0.06461133
14	0xbc457438	-0.0120516345
15	0x3dc0a499	0.094063945
16	0xbd5cfabd	-0.05395006
17	0x3dbb644c	0.091499895
18	0x3daeb052	0.08529724
19	0xbba00235	-0.0048830756
20	0x3d74cccc	0.059765622
21	0x3dab77a3	0.08372428
22	0x3d663e73	0.0562119
23	0x3ddb3d08	0.10705
24	0x3da83ec2	0.08215095
25	0x3dedffd0	0.11621058
26	0xbcd3df24	-0.025863238
27	0x3cd79eac	0.026320778
28	0x3bc26a9d	0.0059331194
29	0x3d8f6752	0.07002129
30	0x3d88910d	0.06668291
31	0x3d9f4adc	0.0777795
32	0xbd08e25e	-0.033419006
33	0xbc9cb36f	-0.01912853
34	0xbd7ce727	-0.06174388
35	0x3dd40056	0.103516266
36	0x3db80d26	0.08986883
37	0x3d1eb705	0.03874876
38	0x3da76ce2	0.081750646
39	0xbdade299	-0.08490486
40	0xbd83e598	-0.06440276
41	0x3d05ae30	0.03263682
42	0x3cbf70d0	0.023369223
43	0x3d9354bf	0.071938984
44	0xbd204c72	-0.039135404
45	0x3d34ddbc	0.044156775
46	0x3d3f9ea6	0.04678216
47	0x3caad199	0.020851897
48	0x3db7ea10	0.08980191
49	0x3d1a0c9a	0.037609674
50	0x3cc7b775	0.024379471
51	0xbd76a688	-0.06021741
52	0x3d77b097	0.060471144
53	0x3ddbaf19	0.107267566
54	0x3dd9070f	0.105970494
55	0xbcdbb5b0	-0.026820034
56	0x3dc0534a	0.09390886
57	0x3cd083e2	0.025453512
58	0xbda9e2a2	-0.0829518
59	0x3d8794e2	0.06620194
60	0x3d839dc4	0.06426576
61	0x3da6c5c1	0.08143187
62	0x3dda8786	0.1067038
63	0x3dd38fa5	0.103301324

network_body._body_endoder.seq_layers.2.weight f4 [64, 64]
0	0x3dbe5fa3	0.09295585
1	0x3df11545	0.11771635
2	0x3e59f324	0.21284157
3	0x3d2b540a	0.041828193
4	0xbe03c4c6	-0.12868032
5	0x3e48c3d1	0.19605948
6	0xbd45ba1c	-0.04827319
7	0xbcf36170	-0.029709548
8	0xbe1b3635	-0.15157397
9	0xbdd748fb	-0.10511967
10	0xbc601147	-0.013675994
11	0xbd2a6f87	-0.041610267
12	0x3c4a29eb	0.012339096
13	0x3e2eea95	0.17081673
14	0xbe57a270	-0.21058059
15	0x3e7131f8	0.23554218
16	0xbcf5409c	-0.029938035
17	0xbd96718f	-0.07345878
18	0xbd8afce9	-0.0678652
19	0xbe5cb556	-0.21553549
20	0x3e55b367	0.20869218
21	0xbda9634a	-0.08270891
22	0x3ddfbb5f	0.1092441
23	0x3e41bd83	0.18919949
24	0x3e575956	0.21030173
25	0xbb9545fa	-0.004555461
26	0xbdde846a	-0.108651
27	0xbe34c7f1	-0.17654397
28	0x3e39db2e	0.18150017
29	0x3ca1fb40	0.019773126
30	0x3e6084cb	0.21925656
31	0x3d8fa6c0	0.07014227
32	0xbdb27c54	-0.0871512
33	0xbe066ec0	-0.13128185
34	0xbcad1a30	-0.021130651
35	0x3d03fe0d	0.032224704
36	0x3e409cca	0.1880981
37	0x3e753434	0.23945695
38	0x3dbfc376	0.09363453
39	0xbdb8ac74	-0.09017268
40	0xbd00a202	-0.031404503
41	0xbe98cd7f	-0.2984428
42	0x3e0f1131	0.13971402
43	0x3c9bbcd3	0.019010937
44	0x3cdb1089	0.026741283
45	0x3da1874e	0.078871354
46	0xbd09b7e9	-0.033622656
47	0x3d45ad1f	0.048260804
48	0x3ddf9786	0.10917573
49	0xbd94505e	-0.07241891
50	0xbe432b05	-0.1905938
51	0xbd1cf62f	-0.038320716
52	0x3e332fdc	0.17498726
53	0x3c521a5b	0.012823666
54	0x3e04140f	0.12898277
55	0x3dc3ecd9	0.095666595
56	0xbd6e2522	-0.05814088
57	0x3e031f82	0.12804988
58	0xbe718f29	-0.23589768
59	0x3e1971e1	0.14984848
60	0xbc4c7c4a	-0.012480805
61	0xbdd16cc4	-0.102258235
62	0x3e9646d2	0.29350907
63	0x3e044081	0.12915231
64	0xbd5489ea	-0.051889338
65	0x3b652fe0	0.0034971163
66	0xbdebb3a7	-0.11508875
67	0x3ccc89b4	0.024968006
68	0x3e975c3b	0.29562554
69	0xbe019daa	-0.126578
70	0xbdf4daf2	-0.11955823
71	0x3b080c0b	0.0020759131
72	0xbe8d9ef9	-0.2766035
73	0xbdff93b0	-0.12479341
74	0xbe4020b7	-0.1876248
75	0xbbd93c0f	-0.006629474
76	0xbe65e434	-0.22450334
77	0x3d109974	0.035302594
78	0x3d2adb86	0.04171326
79	0xbe68a9d7	-0.22721039
80	0xbcce0491	-0.025148662
81	0x3e061951	0.13095595
82	0x3e35d839	0.17758264
83	0x3d3db4f8	0.046315163
84	0xbd997698	-0.07493323
85	0xbe8521c8	-0.26002336
86	0x3dc009ef	0.09376895
87	0xbddc061b	-0.10743352
88	0xbe26b8e5	-0.16281469
89	0x3d3d33fa	0.046192147
90	0x3e7a8bdc	0.24467415
91	0xbdf2919e	-0.118441805
92	0xbe3708fa	-0.17874518
93	0x3e3371bc	0.17523855
94	0xbe854246	-0.26027125
95	0xbe7f94ef	-0.24959157
96	0x3d0e8738	0.034796923
97	0x3e076505	0.1322213
98	0xbe7e0b2c	-0.24808949
99	0x3ddec1bb	0.10876795
100	0xbc75dff1	-0.015007005
101	0xbd6a1de3	-0.05715741
102	0x3e87f4df	0.2655401
103	0xbdef16e5	-0.11674289
104	0x3d6370a5	0.055527348
105	0xbd6851e6	-0.05671873
106	0x3ca8fdc9	0.020628827
107	0xbbb61767	-0.005556989
108	0xbe06ce40	-0.13164616
109	0xbe3c5d4a	-0.18394962
110	0xbd8eb507	-0.06968122
111	0xbdbdc09d	-0.09265254
112	0xbe295d2b	-0.16539447
113	0xbda6040a	-0.08106239
114	0x3dfd678c	0.123732656
115	0xbd1b0cfc	-0.03785418
116	0xbe2235ff	-0.1584091
117	0x3dd8b63e	0.10581635
118	0xbdfa9c8a	-0.12236889
119	0xbcce851d	-0.025209958
120	0x3d560070	0.05224651
121	0xbde068c6	-0.10957484
122	0x3d32e87b	0.043678742
123	0xbd72f50e	-0.059315734
124	0x3e17e4a0	0.14833307
125	0xbd75409d	-0.059876073
126	0x3e99f991	0.30073217
127	0xbd217d8c	-0.03942637
128	0xbceccd7c	-0.028906576
129	0xbe096ba4	-0.13419968
130	0xbc9c671a	-0.019092131
131	0xbd81af35	-0.06332246
132	0x3d1a40a5	0.037659306
133	0x3e1d565d	0.15364976
134	0xbc1119e2	-0.008856269
135	0x3c1dbcc6	0.009627527
136	0x3e24c206	0.16089639
137	0x3b5e427d	0.0033914142
138	0xbe98a086	-0.2980997
139	0x3e24f05a	0.16107312
140	0x3c14f4d4	0.009091575
141	0x3e499bb5	0.19688304
142	0xbdf13fdd	-0.11779759
143	0x3dde55f9	0.10856242
144	0x3e43618c	0.1908018
145	0xbd1525f8	-0.036413163
146	0x3dd5e946	0.10444884
147	0xbdf298f3	-0.11845579
148	0x3e2de259	0.16980876
149	0x3e551eaa	0.20812479
150	0xbabc0cbc	-0.0014347057
151	0x3cd982d7	0.026551647
152	0x3e84e56f	0.25956294
153	0xbe15645e	-0.14589068
154	0xbdf0b2e4	-0.11752871
155	0xbd67c468	-0.056583792
156	0xbe2fe7ef	-0.1717832
157	0xbdf48e95	-0.11941258
158	0x3d42850f	0.047490176
159	0xbd4a72fa	-0.049426056
160	0x3e1bdc0b	0.15220658
161	0xbe0d6c2a	-0.13810793
162	0xbda14986	-0.078753516
163	0xbdc242ea	-0.09485419
164	0x3e1261f5	0.1429518
165	0x3d47817a	0.048707463
166	0xbdf8cf82	-0.12148954
167	0xbdb0be87	-0.0863009
168	0xbe1f90cf	-0.15582584
169	0xbd1d6a68	-0.038431555
170	0xbd039bc6	-0.03213098
171	0xbd63d10d	-0.05561929
172	0x3e28c687	0.16481982
173	0xbe4c0c15	-0.19926484
174	0xbe2fdf48	-0.17175019
175	0x3c7a6dcb	0.015284966
176	0x3e240955	0.16019185
177	0x3e10d242	0.14142707
178	0x3e4def37	0.20110784
179	0x3e83c022	0.25732523
180	0x3c0a7f66	0.008453226
181	0x3e2f6cb5	0.17131312
182	0xbd385719	-0.045004938
183	0x3e026ace	0.12736055
184	0x3e81305c	0.25232208
185	0x3de24d63	0.110499166
186	0xb907a913	-0.00012937588
187	0xbd9ff859	-0.078110404
188	0xbd009fb1	-0.031402294
189	0xbe2174bb	-0.15767185
190	0x3d2ec23c	0.042665705
191	0xbe0ce0f7	-0.13757692
192	0x3de15386	0.11002259
193	0xbd854ce5	-0.06508807
194	0xbddfce94	-0.109280735
195	0xbc784390	-0.015152827
196	0x3e792ff2	0.24334696
197	0x3e5a7c01	0.21336366
198	0x3e14966f	0.14510511
199	0xbe40b3cf	-0.18818592
200	0x3e062fd9	0.1310419
201	0xbc229d08	-0.0099251345
202	0xbe87f35f	-0.26552865
203	0x3e6c0781	0.23049738
204	0xbd24542a	-0.040119328
205	0xbe259898	-0.16171491
206	0x3e2d02c9	0.16895594
207	0x3d50acfa	0.050946213
208	0xbdd27a1a	-0.10277195
209	0xbe277e50	-0.16356778
210	0x3e17b1b6	0.14813885
211	0x3e3a5149	0.1819507
212	0xbdae0963	-0.08497884
213	0xbcdf4cb8	-0.027258262
214	0xbe73a350	-0.23792768
215	0x3dfe9fb0	0.12432802
216	0x3da4b935	0.08043138
217	0x3df8d82f	0.12150609
218	0x3d01d658	0.031698555
219	0x3ddda86f	0.10823142
220	0xbde62435	-0.11237375
221	0x3e8a2892	0.26984078
222	0xbe3505b2	-0.17677954
223	0x3da7a406	0.08185582
224	0x3d181d66	0.03713741
225	0x3c1a71fb	0.009426589
226	0xbc88f15c	-0.016716652
227	0x3eb2cdc2	0.34922606
228	0x3da7c77f	0.08192348
229	0x3c967914	0.018368281
230	0x3e42acfc	0.19011301
231	0x3d7c959a	0.06166611
232	0x3cbac361	0.022798242
233	0xbe209a75	-0.1568392
234	0xbdd7a103	-0.105287574
235	0x3e91da3d	0.28486815
236	0x3d996e27	0.07491713
237	0xbc7b452d	-0.015336317
238	0xbc6b69d4	-0.014368493
239	0xbe125deb	-0.1429364
240	0x3d2fe940	0.042947054
241	0x3e1b1b5b	0.15147154
242	0x3d990279	0.07471175
243	0xbc110ba7	-0.008852876
244	0xbe36472e	-0.1780059
245	0x3e46dea1	0.19420864
246	0xbd528c9d	-0.05140363
247	0x3cdbdc99	0.026838588
248	0xbe4984fb	-0.19679634
249	0x3e10f677	0.14156519
250	0xbd39570b	-0.045249026
251	0x3e05c4eb	0.130634
252	0x3d828809	0.06373603
253	0xbe024e1b	-0.12725107
254	0x3e847068	0.2586701
255	0x3e0dfd4c	0.13866156

network_body._body_endoder.seq_layers.2.bias f4 [64]
0	0x3dfaf6c3	0.12254097
1	0x3d07d801	0.03316498
2	0x3d6d713c	0.057969317
3	0x3da3ffe5	0.080077924
4	0xbd36a78f	-0.04459339
5	0x3dba07d1	0.09083522
6	0x3dc70691	0.09718049
7	0xbcb58371	-0.022157403
8	0xbcaa7c79	-0.020811306
9	0xbc6e66f9	-0.014550918
10	0xbd06d304	-0.032916084
11	0x3be05ac7	0.006846759
12	0xbbd067c1	-0.0063600247
13	0x3de7fc4b	0.11327418
14	0xbd97dddd	-0.07415364
15	0x3d07f748	0.03319481
16	0x3daeeae0	0.085408926
17	0xbdccbe07	-0.09997182
18	0xbd9122d2	-0.070867196
19	0xbd8f7ed0	-0.070066094
20	0x3c4ac3b0	0.012375757
21	0xbd73d43c	-0.059528574
22	0x3db091f4	0.08621588
23	0x3da62c95	0.08113972
24	0x3d9a9c39	0.07549328
25	0x3c872937	0.016499145
26	0x3dbac706	0.09119992
27	0x3dc5d467	0.09659653
28	0xbd5207af	-0.05127686
29	0x3d740145	0.059571523
30	0x3d21e34f	0.03952342
31	0xbd449e12	-0.04800231
32	0xbda36589	-0.07978351
33	0x3db74945	0.08949522
34	0x3d90a7b6	0.07063238
35	0xbd85cdf6	-0.065334246
36	0x3dc60220	0.09668374
37	0x3d376dc8	0.04478243
38	0xbc690c8c	-0.014224183
39	0x3d8734c8	0.06601864
40	0x3cef1b45	0.029187808
41	0x3da6001d	0.0810549
42	0xbd01cfb8	-0.031692237
43	0xbd955862	-0.07292248
44	0x3d94c0c5	0.0726333
45	0xbd353f02	-0.044249542
46	0x3d3d2fd6	0.046188198
47	0x3db0eee3	0.08639314
48	0xba9cf6be	-0.001197539
49	0x3dcaf4cc	0.099099725
50	0x3dc033bd	0.09384868
51	0x3d7ada84	0.06124355
52	0x3d2a2b05	0.041544933
53	0x3ddbce26	0.10732679
54	0x3d819a95	0.06328312
55	0x3d0a93c8	0.03383234
56	0xbd28744c	-0.041126534
57	0x3d8fee0f	0.07027828
58	0x3da9a36c	0.082831234
59	0x3d3f8876	0.046761
60	0x3d54827f	0.051882263
61	0x3db03e96	0.08605687
62	0x3d8e5483	0.06949713
63	0x3d802d00	0.06258583

action_model._continuous_distribution.log_sigma f4 [1, 2]
0	0xbe030e57	-0.12798439
1	0xbdc9e507	-0.098581366

action_model._continuous_distribution.mu.weight f4 [2, 64]
0	0x3dd6088f	0.10450851
1	0xbdead572	-0.11466493
2	0x3d320245	0.043459196
3	0x3cbf55fd	0.023356432
4	0xbe06acf3	-0.13151912
5	0x3d61d3e0	0.0551337
6	0x3da56d94	0.08077541
7	0xbd65b7e1	-0.056083564
8	0xbdf2efca	-0.118621424
9	0xbc5dfe27	-0.013549364
10	0xbe182de9	-0.14861263
11	0xbe2f4af6	-0.17118439
12	0xbd2b8d17	-0.0418826
13	0x3dd702f1	0.10498608
14	0xbd8d88ae	-0.06910835
15	0xbc5a9b7f	-0.013342737
16	0x3d414ee7	0.047194388
17	0xbdbab36b	-0.091162525
18	0xbdb512eb	-0.08841499
19	0xbdbaa088	-0.0911265
20	0xbceea331	-0.02913055
21	0xbd8a0709	-0.06739623
22	0x3d7616aa	0.060080208
23	0x3d78e35f	0.060763713
24	0x3cef3a2f	0.029202549
25	0x3c615bff	0.013754844
26	0x3e058770	0.13039947
27	0x3db7dccd	0.08977661
28	0xbd946a52	-0.072468415
29	0x3c940bad	0.018071974
30	0x3d605408	0.05476764
31	0xbdbbdb27	-0.09172659
32	0xbdaec006	-0.08532719
33	0x3dab7951	0.08372749
34	0x3d14a8df	0.03629386
35	0xbdfca49c	-0.12336084
36	0x3d636f8c	0.0555263
37	0x3c9c120e	0.019051578
38	0xbd88461f	-0.066539995
39	0x3df32b1b	0.11873456
40	0x3d9f1b7f	0.07768916
41	0x3d751bed	0.059841085
42	0xbd9dbdd2	-0.07702221
43	0xbdd6e9af	-0.1049379
44	0x3cb150cb	0.02164497
45	0xbe185add	-0.14878412
46	0x3d54a493	0.051914763
47	0x3d372737	0.044715133
48	0xbdc3e4e0	-0.09565139
49	0x3d9eefb5	0.07760564
50	0x3d6693b4	0.056293204
51	0x3d7bce62	0.06147612
52	0x3daf9e62	0.08575131
53	0x3d99337f	0.07480525
54	0x3da1f583	0.07908156
55	0x3c0db2f3	0.008648622
56	0xbdccce41	-0.10000277
57	0x3d45fac9	0.04833487
58	0x3dad8f3b	0.08474585
59	0x3d4ab03a	0.04948447
60	0x3dcd85f5	0.10035316
61	0x3d6a8271	0.057253305
62	0x3cdf3b23	0.027249878
63	0x3ceda1e6	0.029007863
64	0xbd74bf12	-0.05975253
65	0x3e16c3da	0.14723149
66	0xbd323d53	-0.043515515
67	0x3dad6957	0.084673576
68	0xbd2874a3	-0.04112686
69	0xbb9a626d	-0.0047114403
70	0x3d3ce869	0.04612008
71	0xbdc21d69	-0.09478266
72	0x3d7c268b	0.061560195
73	0xbcf924e2	-0.030413095
74	0xbc4bf228	-0.012447871
75	0x3d9edea5	0.0775731
76	0x3d86bc61	0.06578899
77	0x3cba162f	0.022715656
78	0xbd6e6a44	-0.05820681
79	0x3e16d13d	0.14728256
80	0x3d12f54b	0.03587846
81	0xbd34c2c8	-0.04413107
82	0x3b55dfff	0.0032634733
83	0x3c712430	0.0147181
84	0x3d85f47c	0.06540772
85	0x3cec190c	0.028820537
86	0x3d2060bd	0.039154757
87	0x3dc4a753	0.09602227
88	0x3da8f75d	0.08250306
89	0x3da33d23	0.07970645
90	0xbdfd43c3	-0.1236644
91	0x3cf9ab34	0.030477144
92	0x3cd2cf2a	0.02573355
93	0x3da75d92	0.08172144
94	0xbca1b6eb	-0.019740542
95	0xbcc0f31d	-0.023553425
96	0xbd293903	-0.041314136
97	0x3d8a0d26	0.06740789
98	0x3d508fb6	0.050918303
99	0xbd1a73b6	-0.037708007
100	0x3ca023c7	0.01954831
101	0x3d99f175	0.075167574
102	0x3d742f87	0.059615638
103	0xbd2e02cc	-0.042483136
104	0xbd47a276	-0.04873892
105	0x3d0dd217	0.034624185
106	0xbd58f381	-0.0529666
107	0xbd810122	-0.06299044
108	0x3dc321a0	0.09527898
109	0x3d251135	0.040299613
110	0x3d39352a	0.045216717
111	0x3d201658	0.03908381
112	0x3d906fb6	0.07052557
113	0x3cfae268	0.030625537
114	0x3dba7287	0.091038756
115	0xbd85421d	-0.06506751
116	0xbd355a95	-0.04427584
117	0x3d900a12	0.07033171
118	0xbc0c5442	-0.0085650105
119	0x3d185374	0.037188962
120	0xbd6aa553	-0.05728657
121	0x3c98d2cc	0.018655203
122	0xbd469473	-0.048481416
123	0x3c54a835	0.012979557
124	0xbdb2cd53	-0.08730569
125	0x3d788ad0	0.060679257
126	0x3e002643	0.12514596
127	0x3dbe4cc0	0.09291983

action_model._continuous_distribution.mu.bias f4 [2]
0	0x3dab4a0c	0.08363733
1	0x3cdef359	0.027215647

onnx::Div_51 f4 [17]
0	0x40c8fc35	6.280787
1	0x40e74859	7.2275815
2	0x40d602b9	6.6878324
3	0x40b23e66	5.570117
4	0x40ac608a	5.3867846
5	0x40ab85e4	5.360094
6	0x40a62a0e	5.1926336
7	0x4097431a	4.726941
8	0x40856b3e	4.169341
9	0x408a3134	4.3185062
10	0x4093afa6	4.6151915
11	0x4062bf63	3.5429313
12	0x40d41ff1	6.628899
13	0x4075fb88	3.8434772
14	0x40ce12f3	6.439813
15	0x41325cd0	11.147659
16	0x411814ab	9.505046
