results/test-12/Drive/checkpoint.pt (torch, 475170 bytes, 36 tensors)

network_body._body_endoder.seq_layers.0.weight f4 [128, 17]
-0.2749393 0.36182466 -0.2332401 0.32685804 -0.032260902 -0.16417868 -0.5148062 0.096077606
-0.12767069 -0.18860738 0.03268546 -0.28479216 0.5709878 0.028608894 0.03231213 0.52030957
0.12282459 -0.1558005 -0.3646412 0.06640481 -0.45311105 -0.14018354 0.28554308 0.068672456
-0.41130507 -0.11460593 0.15630417 0.10328251 0.06378067 0.06871267 0.19326103 0.3651929
-0.14126687 0.24710995 -0.13847183 -0.03126492 0.0267201 -0.057133783 0.20547615 0.16365953
-0.11244037 0.13359945 0.13461035 -0.1831744 -0.15414688 -0.016962733 -0.3803235 0.07584443
-0.03796137 -0.19238721 0.23714706 0.35034856 -0.028801778 -0.10962452 0.26051757 0.015251146
0.12940614 -0.23979363 -0.23785487 -0.009358753 0.25390968 -0.22852992 0.093085214 -0.097260706
-0.040059216 -0.46530542 -0.51009816 -0.21068761 -0.048434604 0.0009982224 0.14484844 -0.018247439
0.24451074 0.0329806 -0.41100764 0.19306463 -0.1414831 0.1786163 0.22866695 0.030676968
0.0409292 0.2061807 -0.0059862826 0.11357605 0.38806388 -0.6012413 0.5236571 -0.12746844
0.07279085 -0.26250133 0.112783454 0.2228604 0.62696874 0.017268365 -0.24440596 0.030777315
0.15622707 -0.017674688 0.3801369 0.17726389 0.4388815 0.17860876 -0.3783372 0.2814536
-0.054498088 -0.14220363 -0.37152216 -0.003920521 0.055337973 -0.13345715 -0.09183883 -0.39507383
-0.8347261 -0.061169595 0.07431143 0.16836329 -0.059613593 0.03983753 0.15008059 0.34795925
-0.19421247 -0.29678822 0.12588193 -0.09094844 0.31731048 -0.424454 -0.08195238 0.42427394
-0.31412837 -0.15106231 -0.18411268 -0.03394162 -0.09802885 -0.115439214 -0.2536231 0.16749409
0.04505642 0.12607762 -0.09111172 -0.19580896 -0.065476015 0.015587978 0.013248948 0.13464783
0.33722985 -0.0067847716 -0.16687694 0.17765166 0.25133163 -0.3289725 0.16723737 0.03976081
-0.009438566 0.044388767 0.13294405 -0.3322543 0.14880632 0.085668094 -0.3271469 0.19185326
-0.14869085 0.20540255 0.17872545 -0.041797627 0.23011178 0.29544473 -0.28500125 -0.15220073
0.14064515 -0.20075206 -0.013005241 -0.28772932 -0.063645594 0.038880475 -0.2892592 0.26082334
0.08219056 -0.17185281 0.061772086 0.073118106 -0.05827131 0.19852549 0.2548276 -0.23551615
-0.26225424 -0.21525241 -0.03743022 0.23992254 -0.18601546 -0.2853707 0.2714972 -0.24431553
0.23385951 0.0059688096 0.002090303 -0.3349246 -0.12883665 0.5234179 0.3840232 -0.10197007
-0.36568755 0.03908887 -0.0043433746 0.17663664 0.3818121 0.102615215 0.061804548 -0.14448342
-0.26952696 0.25919035 -0.18223546 -0.22473918 -0.5446632 0.014216355 0.1317857 0.08943024
0.31047812 -0.29453638 0.024648424 -0.28605142 0.42727584 -0.18969616 -0.5023065 0.3813079
-0.121521294 0.30425093 0.25082353 0.34964094 -0.29495162 -0.052840184 0.10810632 0.16918337
-0.19362386 -0.069567166 0.27998433 0.2224 -0.17748684 0.5962612 -0.19154042 -0.15373029
-0.10457332 -0.001965408 -0.24756269 0.29239535 -0.6090736 -0.2101439 -0.32401744 0.020544741
0.034585528 0.026197305 0.42287385 0.03486787 -0.10259177 0.018859502 -0.096677795 0.054566007
00000000: d8c4 8cbe 1541 b93e 7ed6 6ebe f059 a73e
00000010: 0224 04bd 751e 28be 57ca 03bf 56c4 c43d
00000020: 1bbc 02be 4b22 41be 30e1 053d 47d0 91be
00000030: 422c 123f 335d ea3c b959 043d 0233 053f
00000040: 758b fb3d 2b8a 1fbe 40b2 babe 3fff 873d
00000050: 2cfe e7be 468c 0fbe b432 923e 25a4 8c3d
00000060: 9496 d2be 84b6 eabd 330e 203e c885 d33d
00000070: 719f 823d 3ab9 8c3d 38e6 453e 90fa ba3e
00000080: 43a8 10be 640a 7d3e 8fcb 0dbe a50f 00bd
00000090: 1ce4 da3c 1d05 6abd 5768 523e 5d96 273e
000000a0: 2347 e6bd 4bce 083e 4cd7 093e 1292 3bbe
000000b0: aed8 1dbe 6ef5 8abc c3b9 c2be 5354 9b3d
000000c0: 627d 1bbd 2701 45be aed6 723e e360 b33e
000000d0: b5f1 ebbc d282 e0bd 8f62 853e f1df 793c
000000e0: 0b83 043e 768c 75be 3a90 73be 7555 19bc
000000f0: 7300 823e bf03 6abe 76a3 be3d 9f30 c7bd
00000100: 2215 24bd 833c eebe cb95 02bf 7ebe 57be
00000110: 5d63 46bd c9d6 823a 2653 143e a77b 95bc
00000120: 0661 7a3e aa16 073d 986f d2be bcb2 453e
00000130: f2e0 10be 31e7 363e ab27 6a3e 444e fb3c
00000140: 60a5 273d 0921 533e 9428 c4bb 8f9a e83d
00000150: 4fb0 c63e f3ea 19bf 640e 063f 1687 02be
00000160: 5f13 953d 9366 86be 03fb e63d 8435 643e
00000170: 0681 203f 6376 8d3c 8e45 7abe b520 fc3c
00000180: fdf9 1f3e 82ca 90bc 4ea1 c23e aa84 353e
00000190: 13b5 e03e 37e5 363e 6ab5 c1be b01a 903e
000001a0: 6339 5fbd d49d 11be 2738 bebe b777 80bb
000001b0: 12aa 623d fea8 08be ff15 bcbd 1e47 cabe
000001c0: 9cb0 55bf f88c 7abd 9730 983d 6d67 2c3e
000001d0: 622d 74bd ae2c 233d baae 193e b727 b23e
000001e0: a2df 46be a0f4 97be 31e7 003e 2d43 babd
000001f0: 8576 a23e 0952 d9be a6d6 a7bd 6f3a d93e
00000200: 6fd5 a0be 14b0 1abe 0988 3cbe 5e06 0bbd
00000210: 5ac3 c8bd 656b ecbd e3da 81be 9283 2b3e
00000220: 158d 383d 7e1a 013e c898 babd 2582 48be
00000230: 4a18 86bd b864 7f3c 1e12 593c 1fe1 093e
00000240: 64a9 ac3e ca52 debb cae1 2abe 51ea 353e
00000250: 8aae 803e 156f a8be 4640 2b3e 3bdc 223d
00000260: 37a4 1abc ffd0 353d 7c22 083e 3c1d aabe
00000270: af60 183e c172 af3d cc7f a7be 2e75 443e
00000280: 6a42 18be 0c55 523e ce03 373e fd33 2bbd
00000290: 6ca2 6b3e 8844 973e afeb 91be 82da 1bbe
000002a0: 4805 103e f391 4dbe ef13 55bc 4251 93be
000002b0: 9f58 82bd 2241 1f3d c819 94be a38a 853e
000002c0: 8653 a83d 2ffa 2fbe ba04 7d3d f2be 953d
000002d0: e6ad 6ebd 444a 4b3e c378 823e 252b 71be
000002e0: 3046 86be 216b 5cbe 6e50 19bd 41ae 753e
000002f0: d67a 3ebe 1c1c 92be ae01 8b3e da2d 7abe
00000300: de78 6f3e 0196 c33b 77fd 083b 3d7b abbe
00000310: c1ed 03be b7fe 053f b09e c43e afd5 d0bd
00000320: 663b bbbe a71b 203d de52 8ebb 3ce0 343e
00000330: e07c c33e ed27 d23d c426 7d3d 76f3 13be
00000340: 70ff 89be 99b4 843e ef9b 3abe 0722 66be
00000350: 0c6f 0bbf b7eb 683c d5f2 063e 3427 b73d
00000360: fdf6 9e3e 79cd 96be 7eeb c93c 5575 92be
00000370: e6c3 da3e b63f 42be 2997 00bf ca3a c33e
00000380: 28e0 f8bd c7c6 9b3e f16b 803e 2304 b33e
00000390: e603 97be f36e 58bd d966 dd3d 683e 2d3e
000003a0: 5545 46be 3b79 8ebd 1b5a 8f3e d3bc 633e
000003b0: 1cbf 35be 93a4 183f 2c23 44be 796b 1dbe
000003c0: 892a d6bd 13ce 00bb 1381 7dbe d8b4 953e
000003d0: 3fec 1bbf f62f 57be 9de5 a5be 724d a83c
000003e0: 8ea9 0d3d bb9b d63c ec82 d83e 9dd1 0e3d
000003f0: a21b d2bd 3e7f 9a3c 02ff c5bd 9b80 5f3d

network_body._body_endoder.seq_layers.0.bias f4 [128]
0.01050121 -0.023317292 0.0141102895 0.010725322 -0.016561773 -0.010696712 0.0031567758 -0.0101351775
-0.005305465 -0.0047614314 -0.011969936 0.011562325 0.00041019663 0.0015449336 -0.0057061696 0.000719408
0.005014142 0.0015911564 0.003083976 0.0055682976 0.0117982235 -0.014106442 -0.014961549 -0.00080103864
0.011762281 -0.017084884 -0.008863617 0.00040911202 -0.014931237 -0.0077809202 0.0023672725 -0.0009683906
-0.004172176 0.0037066573 -0.00034124716 -0.005688641 0.0031935635 0.021946229 0.0056955423 -0.01959426
-0.016688185 0.010273285 -0.010691271 0.006594115 -0.020785244 0.0060977354 0.003775389 0.00042931698
0.0048488746 -0.0047918158 -0.009428137 -0.007512521 -0.017084373 0.0070859436 -0.0072709597 0.0005060904
-0.010241787 0.0041001425 -0.005009048 -0.006772757 -0.012016606 -0.003874118 -0.027907029 -0.010284142
-0.0228665 -0.010513721 -0.010676843 0.0018907152 -0.0018903555 0.0007371503 -0.0039606085 -0.0053255167
-0.007568191 0.015561051 0.0055262097 0.0027368504 -0.0018862195 0.0023363254 8.063569e-05 -0.0010023739
0.0060661538 -0.005727497 -0.007085095 -0.009321364 -0.009495109 -0.002224019 0.010012673 0.005030622
-0.0026674073 0.0029220479 0.0045968825 -0.012774651 -0.0057644197 0.00026965587 -0.0123259965 -0.005459656
0.0034871495 -0.009811579 0.0044011376 0.0057197143 0.00024417712 -0.022561934 -0.007228108 -0.008840331
-0.017976059 -0.008580357 0.0026092632 0.0038945551 -0.012286991 -0.007083494 -0.0013772242 -0.0029209694
0.006424848 -0.004667975 0.007434145 0.011096698 -0.012584042 0.007768644 -0.0035905584 0.02344758
-0.01254153 -0.0025128676 -0.009215926 -0.009602112 -0.025283435 0.0053657205 -0.0026459233 0.0037975132
00000000: 440d 2c3c e803 bfbc d82e 673c 43b9 2f3c
00000010: 8eac 87bc 4341 2fbc e9e1 4e3b 040e 26bc
00000020: 77d9 adbb c805 9cbb 8d1d 44bc e86f 3d3c
00000030: a90f d739 5f7f ca3a d2fa babb a796 3c3a
00000040: ac4d a43b 598e d03a 881c 4a3b 4476 b63b
00000050: 564d 413c b51e 67bc 4921 75bc cbfc 51ba
00000060: 95b6 403c 99f5 8bbc b438 11bc 167e d639
00000070: 26a2 74bc 17f7 febb 3e24 1b3b 98db 7dba
00000080: c0b6 88bb 64eb 723b 6be9 b2b9 c867 babb
00000090: 1b4b 513b 94c8 b33c aca1 ba3b 2484 a0bc
000000a0: a9b5 88bc 4851 283c 712a 2fbc 7213 d83b
000000b0: d145 aabc 83cf c73b 846c 773b f315 e139
000000c0: 4fe3 9e3b aa04 9dbb 7978 1abc 982b f6bb
000000d0: 87f4 8bbc 3431 e83b 3b41 eebb 27ab 043a
000000e0: 2bcd 27bc 7d5a 863b f122 a4bb 01ee ddbb
000000f0: 4ce1 44bc eae4 7dbb 489d e4bc d17e 28bc
00000100: 8752 bbbc be41 2cbc eded 2ebc e0d1 f73a
00000110: cec5 f7ba 523d 413a fec7 81bb ac81 aebb
00000120: 96fe f7bb c7f3 7e3c 3515 b53b bb5c 333b
00000130: 063b f7ba 091d 193b f51a a938 1662 83ba
00000140: 96c6 c63b baad bbbb 162a e8bb a2b8 18bc
00000150: 6091 1bbc d9c0 11bb 320c 243c ead7 a43b
00000160: abcf 2ebb d47f 3f3b 72a1 963b c54c 51bc
00000170: 75e3 bcbb 9960 8d39 faf2 49bc eae6 b2bb
00000180: a988 643b bfc0 20bc 6b37 903b 716c bb3b
00000190: e604 8039 ced3 b8bc c4d9 ecbb 09d7 10bc
000001a0: 8742 93bc a094 0cbc 2c00 2b3b cb3b 7f3b
000001b0: 604f 49bc a81c e8bb fa83 b4ba bc6d 3fbb
000001c0: 8887 d23b d0f5 98bb 219a f33b edce 353c
000001d0: 4c2d 4ebc 1c90 fe3b 934f 6bbb 2415 c03c
000001e0: fd7a 4dbc ecae 24bb 65fe 16bc 2d52 1dbc
000001f0: 351f cfbc edd2 af3b 3a67 2dbb b3df 783b

network_body._body_endoder.seq_layers.2.weight f4 [128, 128]
-0.06774291 -0.14529568 -0.05170901 -0.1213036 -0.0039549693 0.11276455 0.045916766 0.016194519
0.042869758 0.08460367 -0.1440585 -0.08699111 0.024944883 0.16058716 -0.05687292 -0.11215738
-0.045083344 -0.054333754 0.037262633 -0.047413196 0.12509708 0.036749598 0.027203428 -0.12033063
0.053861853 -0.07042717 -0.08360574 0.057891253 -0.20132491 0.03967655 0.089701936 -0.0023007279
0.16114268 0.03805889 -0.09935971 0.0144608505 0.11543794 -0.0004358216 0.038684536 -0.07543924
-0.043747846 -0.054401144 -0.14240229 0.039477684 0.10265459 0.030134004 0.047142945 -0.03528734
-0.018316772 -0.20767362 0.019729385 0.04722733 -0.0665976 -0.17432687 -0.12785526 -0.047093697
0.07520631 -0.16961254 0.04991398 -0.07189948 -0.031891115 0.044631306 0.02321395 -0.033266105
0.110418595 0.04612397 -0.08047555 -0.12498435 0.04105725 0.14183933 -0.12279377 0.07851846
0.23048554 0.028592242 0.014483802 0.03999261 0.040541176 0.0070090946 -0.029776664 0.21556674
-0.08125113 -0.0043056393 0.10147397 0.045671664 -0.03616217 0.0950383 0.04278294 -0.08878882
0.046418965 -0.10602011 -0.05634835 -0.06494163 0.09030184 -0.15927745 0.11185056 -0.0039450605
0.070972554 0.03545412 -0.10046482 -0.028278237 -0.013839858 -0.017480059 0.01312133 -0.0775418
-0.051854644 -0.061986465 -0.015175532 -0.07445982 -0.05283873 0.08342148 0.053547822 -0.020775883
-0.037712164 0.1427265 -0.08581967 0.098352835 0.0026494463 0.0009234385 0.10204278 0.0071106968
0.05370827 0.0588113 0.07146067 0.036709424 -0.04966322 0.15173876 -0.013693977 -0.10478574
0.055456765 0.05557166 -0.0533274 -0.020760369 0.021761108 0.02536833 -0.09371434 -0.061563052
-0.027254125 0.045404907 -0.122036956 -0.190142 -0.021605456 0.051149502 0.10316047 -0.07886925
-0.013487766 0.10672636 -0.07919798 -0.020453263 0.003218144 -0.04322796 0.13608533 0.06333963
0.14626788 0.078595616 0.0509688 0.013623036 -0.09806297 0.22222012 0.08837717 -0.11926899
-0.0048030694 0.13390164 0.00080955675 -0.06649272 -0.029953448 -0.13992558 0.054998342 -0.029181536
0.035812516 0.011806573 0.015938023 0.08133474 0.018112311 0.015104185 -0.03749001 0.15388799
0.09057849 -0.048486274 -0.028999662 -0.10382347 -0.05127411 -0.1411743 0.04883151 -0.06487253
-0.14475389 0.04427959 -0.045376085 0.046593994 0.13123895 -0.11023283 0.12989037 -0.088006504
0.030625006 0.022618132 -0.09382985 -0.088177115 -0.036363225 0.012893951 0.09309116 0.08632999
-0.17882265 0.11387544 0.16731566 -0.025446694 0.013742206 0.057549592 0.12935357 0.08799539
-0.031827096 -0.07930988 0.11594161 -0.15572262 0.13723142 0.07029755 -0.017537545 -0.11426558
-0.08111056 0.11408127 0.13249984 0.15352163 -0.07427618 0.060960155 0.017716892 0.13814005
0.037922274 0.024803195 0.08932056 0.18461592 -0.010889327 0.08665873 -0.0147146825 0.082513854
-0.1377093 -0.03333996 0.04850911 -0.043664448 0.15477861 -0.0401138 -0.074931614 0.0983557
0.04793699 0.011777214 0.066006154 -0.020530814 0.019444216 0.009645434 0.07887843 0.073129945
-0.0063418313 0.18819766 0.03768929 0.014311949 -0.1043369 -0.095064566 0.026909048 0.031793907
00000000: cbbc 8abd 64c8 14be d4cc 53bd 066e f8bd
00000010: b098 81bb 1af1 e63d 3813 3c3d 5eaa 843c
00000020: 3398 2f3d b044 ad3d 1284 13be 6528 b2bd
00000030: 3659 cc3c f670 243e 94f3 68bd c5b2 e5bd
00000040: 50a9 38bd 128d 5ebd b4a0 183d 5734 42bd
00000050: 7319 003e bf86 163d b9d9 de3c e86f f6bd
00000060: 3f9e 5c3d 1f3c 90bd 7c39 abbd 611f 6d3d
00000070: 1e28 4ebe e183 223d a6b5 b73d cfc7 16bb
00000080: 9602 253e a3e3 1b3d 1b7d cbbd 34ed 6c3c
00000090: ba6a ec3d fc7e e4b9 ad73 1e3d e37f 9abd
000000a0: f130 33bd bcd3 5ebd e8d1 11be 5ab3 213d
000000b0: 923c d23d 96db f63c f618 413d 7589 10bd
000000c0: 0e0d 96bc 65a8 54be 859f a13c 7271 413d
000000d0: 5364 88bd be82 32be 7dec 02be 52e5 40bd
000000e0: c405 9a3d e9ae 2dbe 9a72 4c3d 0940 93bd
000000f0: 42a0 02bd 51cf 363d 2f2b be3c 0a42 08bd
00000100: 2523 e23d 7dec 3c3d 5dd0 a4bd cbf7 ffbd
00000110: a62b 283d 543e 113e 4d7b fbbd 49ce a03d
00000120: 6704 6c3e 473a ea3c 784d 6d3c 4bcf 233d
00000130: 810e 263d 8cac e53b 31ee f3bc 87bd 5c3e
00000140: fe66 a6bd 5216 8dbb 96d1 cf3d 3612 3b3d
00000150: c91e 14bd 71a3 c23d 2a3d 2f3d ead6 b5bd
00000160: d021 3e3d 1221 d9bd 87cd 66bd 1e00 85bd
00000170: 2cf0 b83d a119 23be e811 e53d 9145 81bb
00000180: 0f5a 913d 5738 113d 80c0 cdbd c3a7 e7bc
00000190: 92c0 62bc 5732 8fbc d9fa 563c 3cce 9ebd
000001a0: 8965 54bd 85e5 7dbd cba2 78bc 647e 98bd
000001b0: 6d6d 58bd e2d8 aa3d f654 5b3d 2f32 aabc
000001c0: 1278 1abd e526 123e 39c2 afbd 366d c93d
000001d0: 55a2 2d3b e912 723a cefb d03d d900 e93b
000001e0: 34fd 5b3d 1ee4 703d f959 923d 9f5c 163d
000001f0: a96b 4bbd 6861 1b3e b45c 60bc e899 d6bd
00000200: a226 633d 1c9f 633d d56d 5abd a611 aabc
00000210: 5a44 b23c 3ed1 cf3c 4eed bfbd 8a29 7cbd
00000220: 0b44 dfbc 7ffa 393d 83ee f9bd 96b4 42be
00000230: edfd b0bc 2482 513d cc45 d33d 3486 a1bd
00000240: cafb 5cbc 5a93 da3d 8d32 a2bd 9a8d a7bc
00000250: 7fe7 523b cd0f 31bd f459 0b3e 35b8 813d
00000260: 3fc7 153e bdf6 a03d a9c4 503d 2833 5f3c
00000270: 3dd5 c8bd ac8d 633e 17ff b43d 4d43 f4bd
00000280: 1163 9dbb 831d 093e 6f38 543a 562d 88bd
00000290: ef60 f5bc a748 0fbe f145 613d 1e0e efbc
000002a0: 25b0 123d 5b70 413c 7590 823c d492 a63d
000002b0: 4560 943c 8b77 773c 208f 19bd d094 1d3e
000002c0: 3781 b93d 8b99 46bd b390 edbc 66a1 d4bd
000002d0: cd04 52bd ff8f 10be 8d03 483d e4db 84bd
000002e0: 5d3a 14be 845e 353d 46dc 39bd 58d9 3e3d
000002f0: 8163 063e c0c1 e1bd fb01 053e c13c b4bd
00000300: 4be1 fa3c a949 b93c dd29 c0bd 3496 b4bd
00000310: 9bf1 14bd 2641 533c 94a6 be3d c7cd b03d
00000320: 491d 37be 8737 e93d cc54 2b3e 9675 d0bc
00000330: fd26 613c 1fb9 6b3d 4375 043e ed36 b43d
00000340: 215d 02bd 386d a2bd cb72 ed3d c075 1fbe
00000350: 6586 0c3e 29f8 8f3d e6aa 8fbc 1304 eabd
00000360: 4b1d a6bd 71a3 e93d 0aae 073e c634 1d3e
00000370: 1c1e 98bd 5bb1 793d 0423 913c 9674 0d3e
00000380: 6354 1b3d 1230 cb3c b3ed b63d f50b 3d3e
00000390: 2669 32bc 227a b13d da15 71bc 06fd a83d
000003a0: ab03 0dbe 7b8f 08bd 7db1 463d 7ed9 32bd
000003b0: 497e 1e3e 5e4e 24bd bf75 99bd b76e c93d
000003c0: 9459 443d 37f5 403c 3c2e 873d 3d30 a8bc
000003d0: 7a49 9f3c e207 1e3c 048b a13d 27c5 953d
000003e0: 23cf cfbb e3b6 403e 1660 1a3d aa7c 6a3c
000003f0: 96ae d5bd 36b1 c2bd 5d70 dc3c 543a 023d

network_body._body_endoder.seq_layers.2.bias f4 [128]
0.005323855 -0.015124584 -0.0038679636 -0.008519042 0.0035623857 0.019850418 -0.001561776 -0.016919939
-0.0085368855 -0.0037238018 0.0010394359 -0.003813722 -0.0017753022 0.0077790744 -0.0128822215 -0.008865692
-0.014606626 -0.005817046 0.006773681 0.0040529617 -0.0043067425 -0.009974555 -0.0025555377 -0.0024907168
0.005490419 -0.007945961 -0.0117317205 -0.006899245 -0.0072047757 -0.0077733723 -0.013273112 -0.011343903
-0.0009449512 0.0015732334 -0.005183003 -0.015190293 0.0022962478 -0.0029428212 -0.011677544 0.0005020781
-0.0063889967 -0.010618794 0.00271904 -0.005180556 0.0113431895 -0.009995516 0.009788037 -0.0046428363
-0.006046589 -0.0038937635 0.0036203659 0.003772753 -0.013238069 -0.01644962 -0.0085492255 -0.0062547843
-0.009736154 -0.012861108 -0.0069888188 0.0038618096 -0.010915196 -0.0015488268 -0.0004121952 -0.016922891
-0.005592835 -0.0066903518 0.005361252 -0.006328028 0.014750718 0.008259952 0.00024849043 0.0034999046
-0.008371012 0.008778121 0.0036188443 -0.013727789 -0.005702119 0.009973075 -0.0025731288 0.0038923358
-0.01432752 0.0011914823 -0.0073364736 -0.0005985522 0.0007426446 -0.0076713823 -0.01293752 -0.011455136
0.0034927637 -0.0066172723 0.0073050177 -0.0037247532 0.0047020316 -0.01622883 -0.008277873 0.01225606
0.00096407824 -0.002149225 0.0034002403 0.016479703 -0.00927807 0.0047624484 0.0019433497 0.0049751448
0.00962678 0.0005827127 0.0035652434 -0.01339237 -0.008019538 0.00018410996 0.001987256 -0.012874782
-0.009210317 -0.016403913 -0.0034114616 0.011060047 0.0034983046 -0.00864305 0.0006374596 0.003154449
0.004150788 0.0132116685 -0.004937061 0.003847562 -0.0031206664 0.0032062652 -0.0061386907 -0.0154399015
00000000: bc73 ae3b 1acd 77bc a97d 7dbb 7493 0bbc
00000010: ea76 693b 589d a23c 82b4 ccba af9b 8abc
00000020: 4bde 0bbc 070b 74bb ae3d 883a a3ef 79bb
00000030: 42b1 e8ba 9be7 fe3b f40f 53bc 6841 11bc
00000040: a150 6fbc eb9c bebb c1f5 dd3b b5ce 843b
00000050: 931f 8dbb 516c 23bc cf7a 27bb 4b3b 23bb
00000060: f9e8 b33b c72f 02bc 6736 40bc 1013 e2bb
00000070: 0a16 ecbb c6b7 febb 7777 59bc c7db 39bc
00000080: 9ab6 77ba f434 ce3a 2ed6 a9bb b5e0 78bc
00000090: a57c 163b 59dc 40bb 2b53 3fbc e49d 033a
000000a0: ca5a d1bb 73fa 2dbc ec31 323b a7c1 a9bb
000000b0: c9d8 393c 3cc4 23bc 015e 203c ef22 98bb
000000c0: 7722 c6bb 832e 7fbb a943 6d3b 4b40 773b
000000d0: 7ce4 58bc 5ac1 86bc 0d12 0cbc eff4 ccbb
000000e0: 6484 1fbc 66b7 52bc 7602 e5bb 6a16 7d3b
000000f0: a6d5 32bc 0102 cbba e71b d8b9 e0a1 8abc
00000100: 1a44 b7bb bd3a dbbb 71ad af3b 595b cfbb
00000110: ffac 713c c054 073c d247 8239 a85e 653b
00000120: 9226 09bc 1cd2 0f3c 222a 6d3b 85ea 60bc
00000130: d7d8 babb 1c66 233c f0a1 28bb 8f16 7f3b
00000140: f9bd 6abc 832b 9c3a cd66 f0bb 28e8 1cba
00000150: 09ae 423a 3860 fbbb e4f7 53bc 53ae 3bbc
00000160: dae6 643b b4d5 d8bb ee5e ef3b fd1a 74bb
00000170: 8013 9a3b 53f2 84bc ea9f 07bc a4cd 483c
00000180: 32ba 7c3a 03da 0cbb 91d6 5e3b 7100 873c
00000190: 0c03 18bc 500e 9c3b ffb7 fe3a 8a06 a33b
000001a0: a4b9 1d3c 30c1 183a dca6 693b ac6b 5bbc
000001b0: 6164 03bc a40d 4139 a03c 023b c0f0 52bc
000001c0: dfe6 16bc 8061 86bc d492 5fbb 3335 353c
000001d0: d043 653b 949b 0dbc 311b 273a dfba 4e3b
000001e0: 5503 883b c175 583c 12c7 a1bb 6127 7c3b
000001f0: 1884 4cbb 3420 523b 1227 c9bb a4f7 7cbc

action_model._continuous_distribution.log_sigma f4 [1, 2]
-0.029742382 -0.020608392
00000000: 4ca6 f3bc eed2 a8bc

action_model._continuous_distribution.mu.weight f4 [2, 128]
0.007252032 0.007844484 -0.009863479 -0.010522641 0.031406622 0.024264676 0.012419523 -0.0029869063
-0.027028035 0.040533468 0.0071339738 -0.00093167514 -0.0013729222 0.018892251 -0.014331315 -0.009415997
-0.0068852436 -0.0089533385 0.01368193 0.03260022 -0.028187314 0.025490295 0.023221897 0.00430982
0.014549922 0.0073861917 -0.012538369 0.009290762 0.010879687 0.030296065 -0.019209182 -0.006970672
-0.031210192 0.009420352 -0.0014428325 0.0055829207 0.002442858 -0.01948752 -0.009726962 0.012387484
-0.023006268 -0.0009927083 -0.0011333664 0.010474317 0.0034266333 0.00019730224 0.020774186 0.0016018477
0.003958312 -0.023911279 0.020714315 0.024785707 -0.015317468 -0.025963945 -0.0046685077 -0.021069504
-0.014454501 0.0021285617 -0.020962296 0.009116085 -0.0006553994 -0.020917702 0.022864837 0.0018217223
-0.028523678 0.0032975366 0.022051657 -0.0043692905 0.021623474 0.01677877 0.012714877 0.006288307
-0.0016908261 0.025309674 0.0073342216 0.004403843 -0.003543086 0.035136964 0.016732793 0.030622654
-0.00081974204 -0.016121324 -0.0068221455 -0.0040650317 0.017487038 -0.016120577 0.008000437 0.0035543041
0.032550354 -0.008091769 0.020621492 -0.000817269 0.014517435 0.004809427 0.00171383 0.0025771146
0.007868819 0.0071534654 0.016821347 0.07000802 0.0139588695 0.026369099 0.01067318 0.01712301
0.040100466 0.017817657 0.008595641 -0.0053395913 0.015426512 0.009716449 0.021638129 -0.018290719
0.0062375604 0.0027215395 0.007389438 0.021963717 0.0062652193 0.03386694 -0.009476459 0.00076787046
0.0020689624 0.037462678 0.022329397 0.0028197586 -0.018390447 -0.0076582055 -0.009161182 -0.002551306
-0.0396803 0.0038615514 0.016420402 0.009520576 0.007856485 -0.005776694 0.001664129 0.0067699165
0.0005638678 -0.029612197 -0.0026536656 -0.015479702 -0.0072889696 -0.01887505 0.008317015 -0.009567704
-0.0039525745 0.005963358 -0.026756423 0.0043252087 0.01174011 0.02263964 -0.01688269 0.0035672598
-0.010537112 -0.0028842243 -0.0023697098 -0.0094202515 -0.029474838 0.016217044 0.025715737 -0.0034724355
-0.007191173 -0.013214144 -0.025048932 -0.0024489372 -0.03127575 -0.013999665 -0.0059396517 -0.004743076
0.015312506 -0.003922704 -0.042777553 -0.0012127594 0.027301647 0.0017542808 -0.011194177 0.029892577
-0.004086325 0.00046724558 -0.014657442 -0.0053588017 0.0032816844 -0.0021766033 0.002994387 0.015654571
-0.019020401 0.019374331 -0.013424845 -0.0073931175 7.762572e-05 -0.0019603348 0.009657663 0.0026039884
0.00020036679 -0.0061462326 -0.006573551 -0.011144821 -0.006959579 -0.045814175 -0.010768756 -0.021619104
0.0041347197 -0.037802435 -0.024477905 0.013434414 -0.016917352 0.008293981 0.007193637 0.018449346
-0.00058056955 -0.018981481 0.00018200825 -0.028068718 0.0012029399 -0.0071039964 0.02982209 0.011431321
-0.0048187547 0.01159053 -0.025427055 -0.014776129 -0.012379933 0.0030266372 -0.0024708172 -0.036131855
-0.0072976328 -0.012059588 -0.018478123 -0.021140276 -0.0039340635 0.002083113 -0.0080307415 -0.027305905
-0.019463334 0.0026367276 -0.011829803 -0.0019609528 -0.0054227994 -0.0131066665 0.0059920717 0.0050306525
0.022619532 0.0009000039 -0.0077143176 -0.010109184 -0.007790254 -0.004801243 -0.035911135 -0.018366221
-0.001563139 -0.0050755497 -0.022469208 -0.026371976 -0.011201275 -0.024237458 -0.00087010034 6.5764885e-05
00000000: 74a2 ed3b 2786 003c 6e9a 21bc 2867 2cbc
00000010: 3ba4 003d b7c6 c63c 417b 4b3c f9bf 43bb
00000020: e669 ddbc 6c06 263d 1cc4 e93b a93b 74ba
00000030: a0f3 b3ba ecc3 9a3c e4cd 6abc 8e45 1abc
00000040: 9c9d e1bb 06b1 12bc 2c2a 603c cf87 053d
00000050: 15e9 e6bc 06d1 d03c d93b be3c 6439 8d3b
00000060: cc62 6e3c de07 f23b bb6d 4dbc 4838 183c
00000070: b740 323c 742f f83c 935c 9dbc 3c6a e4bb
00000080: 84ac ffbc d257 1a3c 6d1d bdba eff0 b63b
00000090: 5b18 203b 4ba4 9fbc d65d 1fbc e0f4 4a3c
000000a0: a477 bcbc c31d 82ba 778d 94ba 789c 2b3c
000000b0: 5e91 603b ebe2 4e39 a02e aa3c 17f5 d13a
000000c0: bab4 813b 96e1 c3bc 11b1 a93c 650b cb3c
000000d0: 1ef6 7abc 57b2 d4bc 48fa 98bb f499 acbc
000000e0: 92d2 6cbc 577f 0b3b 1fb9 abbc a25b 153c
000000f0: 1ccf 2bba 9a5b abbc 0a4f bb3c dbc6 ee3a
00000100: 7daa e9bc 7c1b 583b ada5 b43c 442c 8fbb
00000110: b623 b13c a273 893c 0f52 503c 240e ce3b
00000120: b69e ddba 3c56 cf3c e953 f03b 1d4e 903b
00000130: 1e33 68bb c7eb 0f3d 3613 893c 5cdc fa3c
00000140: f5e3 56ba de10 84bc 4e8c dfbb f533 85bb
00000150: fa40 8f3c 4d0f 84bc 4414 033c 54ef 683b
00000160: 8553 053d 5793 04bc 67ee a83c ff3d 56ba
00000170: 89da 6d3c 6698 9d3b 98a2 e03a cfe4 283b
00000180: 38ec 003c 9e67 ea3b eccc 893c 5d60 8f3d
00000190: beb3 643c 0204 d83c 90de 2e3c 8e45 8c3c
000001a0: 6340 243d 56f6 913c bbd4 0c3c bdf7 aebb
000001b0: 7bbf 7c3c be31 1f3c 7242 b13c 6bd6 95bc
000001c0: 7364 cc3b db5b 323b 1923 f23b 41ed b33c
000001d0: 784c cd3b 0fb8 0a3d 2643 1bbc ea4a 493a
000001e0: 6e97 073b 7772 193d 24ec b63c b3cb 383b
000001f0: 90a7 96bc aff1 fabb c818 16bc d033 27bb
00000200: cf87 22bd 1512 7d3b 1484 863c 31fc 1b3c
00000210: 7db8 003c 6c4a bdbb e71e da3a 2dd6 dd3b
00000220: 87d0 133a 4795 f2bc 1fe9 2dbb 939e 7dbc
00000230: 4fd8 eebb d99f 9abc 1744 083c dcc1 1cbc
00000240: 9984 81bb 4668 c33b 4930 dbbc 7bba 8d3b
00000250: 9759 403c c476 b93c 914d 8abc b0c8 693b
00000260: daa3 2cbc 4105 3dbb 224d 1bbb 6657 1abc
00000270: 3775 f1bc 9bd9 843c cfa9 d23c cd91 63bb
00000280: eea3 ebbb 2380 58bc 6b33 cdbc 597e 20bb
00000290: 001b 00bd da5e 65bc 69a1 c2bb ce6b 9bbb
000002a0: 4ee1 7a3c 078a 80bb 8437 2fbd 74f5 9eba
000002b0: b4a7 df3c e5ef e53a c867 37bc 47e1 f43c
000002c0: 94e6 85bb a4f8 f439 c525 70bc e398 afbb
000002d0: 8711 573b 58a5 0ebb 7a3d 443b 043e 803c
000002e0: acd0 9bbc ebb6 9e3c e2f3 5bbc f741 f2bb
000002f0: feca a238 f678 00bb 2d3b 1e3c ada7 2a3b
00000300: 8d19 5239 5666 c9bb f166 d7bb c498 36bc
00000310: 2e0d e4bb a5a7 3bbd 706f 30bc 8c1a b1bc
00000320: 8b7c 873b bad6 1abd e385 c8bc 041c 5c3c
00000330: 4296 8abc 7ae3 073c 9ab8 eb3b 1523 973c
00000340: 5d31 18ba 0d7f 9bbc 78d9 3e39 5ef0 e5bc
00000350: f7ab 9d3a a4c8 e8bb 754d f43c 6f4a 3b3c
00000360: a5e6 9dbb 35e6 3d3c 664c d0bc 9417 72bc
00000370: 34d5 4abc 8c5a 463b 6fed 21bb fffe 13bd
00000380: fb20 efbb 9495 45bc 6f5f 97bc 5f2e adbc
00000390: 51e9 80bb d684 083b 5f93 03bc a2b0 dfbc
000003a0: 9271 9fbc f3cc 2c3b cad1 41bc 5483 00bb
000003b0: bdb1 b1bb 58bd 56bc 2459 c43b 2cd8 a43b
000003c0: 994c b93c 3dee 6b3a 63c8 fcbb fea0 25bc
000003d0: 6345 ffbb bf53 9dbb 8e17 13bd c274 96bc
000003e0: 3ee2 ccba cc50 a6bb 5811 b8bc 0b0a d8bc
000003f0: 8d85 37bc a28d c6bc 7217 64ba 41eb 8938

action_model._continuous_distribution.mu.bias f4 [2]
0.01024274 -0.008914238
00000000: 2ad1 273c 060d 12bc

exp_avg f4 [128, 17]
0.0035767287 0.00351707 0.0035123532 0.0036000067 0.0038840068 0.0043752203 0.0052311323 0.006439464
0.008800137 0.0008172896 0.0040524127 0.0012227948 0.010346567 0.011321182 0.0028180797 -0.0045552077
0.0030548018 5.0955186e-06 2.6142316e-06 -5.279999e-07 -5.5839228e-06 -1.322372e-05 -2.9141627e-05 -3.1601085e-05
-3.5827063e-05 1.3321343e-05 -1.4278003e-06 1.0676402e-05 2.189668e-06 5.1808336e-05 5.4662396e-05 -6.874283e-05
-1.5400714e-05 1.649345e-05 -0.002473185 -0.0028329263 -0.003566134 -0.0043067173 -0.004841932 -0.00591761
-0.005407469 -0.0058453227 -0.0041365093 -0.00083818403 -0.0021567033 -0.0007237526 -0.0027299484 -0.001645191
-0.0059400783 0.0014052775 -0.00049058395 -0.00044934606 -0.0005681631 -0.00083040947 -0.0010904401 -0.0010734061
-0.0009186077 -0.00038820624 -0.00025413974 -0.00019334808 -0.00016123494 -0.00033369058 -0.00010372181 -0.0002885572
-0.0001084558 -0.00044174798 -1.4382843e-05 1.0250837e-06 0.0010602304 0.0011961481 0.0014653114 0.0017552172
0.0020275381 0.002574684 0.0024833756 0.0027838957 0.0019889162 0.0003563378 0.00094369287 0.00031945045
0.0012371861 0.00078745896 0.0027859833 -0.00070549105 0.00024926924 -0.00082443625 -0.00062446174 -0.00024170923
4.4073677e-06 -7.480336e-05 -0.00020211504 -0.0011839982 -0.0016345433 -0.0033154432 -9.450775e-05 -0.001197766
-0.00035242454 -0.00390835 -0.004280647 0.00014648505 0.0018959024 -0.0012515659 6.0388174e-08 5.996525e-08
6.10421e-08 6.375794e-08 6.849332e-08 7.601311e-08 8.7820354e-08 1.0711178e-07 1.4594298e-07 1.4130983e-08
6.7535225e-08 2.0452495e-08 1.6840818e-07 1.7941532e-07 4.915465e-08 -7.4474706e-08 4.9286765e-08 0.002049855
0.0020454787 0.0020976427 0.0021997432 0.0023653288 0.0026251574 0.0030896848 0.003913014 0.005129435
0.00049121986 0.0022720327 0.0006943893 0.0055373944 0.0058628283 0.0021153186 -0.0025055269 0.0016282304
-0.0016362041 -0.0016501158 -0.0017212221 -0.0018697705 -0.0020277868 -0.0022665684 -0.002565859 -0.00301764
-0.0038431757 -0.0004023366 -0.0017860074 -0.0005458936 -0.0042820317 -0.004613455 -0.0017107448 0.0018985326
-0.0012313996 -0.000325132 -0.00034727788 -0.00040163833 -0.000459511 -0.00048537896 -0.00051755924 -0.0004910869
-0.00057118724 -0.00064567954 -8.966773e-05 -0.00032759778 -0.00010147622 -0.00068706204 -0.00070605485 -0.00040872634
0.00028963614 -0.00018428535 -7.953145e-05 -7.912826e-05 -8.066998e-05 -8.5745734e-05 -9.2282215e-05 -0.0001007419
-0.00011557129 -0.0001393167 -0.00019547113 -1.8874358e-05 -8.850472e-05 -2.7011823e-05 -0.00021567501 -0.00021648497
-6.511015e-05 9.759513e-05 -6.2075655e-05 -0.0011968515 -0.0014078139 -0.0018242012 -0.0023888722 -0.0027157357
-0.0031881183 -0.0026032946 -0.0022895175 -0.0013601743 -0.0004241884 -0.0009857994 -0.00033030385 -0.001021853
-0.00045745965 -0.002541153 0.00047857742 -8.574577e-05 -9.614955e-05 -9.260634e-05 -8.821428e-05 -8.706108e-05
-9.7148484e-05 -0.00011741481 -0.00015082496 -0.0001862301 -0.00024643642 -2.1126052e-05 -0.00011152658 -3.3541517e-05
-0.0002945679 -0.00033468698 -7.993509e-05 0.00013163128 -8.897471e-05 -0.007382035 -0.0075517497 -0.007986785
-0.008864553 -0.010161009 -0.01254107 -0.013877348 -0.01581215 -0.016911957 -0.0019475024 -0.007819665
-0.0024494755 -0.017298203 -0.017703362 -0.01078386 0.008184142 -0.004819355 -4.68205e-06 -4.646178e-06
-4.731461e-06 -4.942914e-06 -5.295394e-06 -5.850488e-06 -6.7074784e-06 -8.129146e-06 -1.0960538e-05 -1.0821636e-06
-5.253388e-06 -1.57734e-06 -1.3416745e-05 -1.5213256e-05 -3.6058445e-06 5.737142e-06 -3.948296e-06 -4.7232402e-07
00000000: 8d67 6a3b a57e 663b 822f 663b 17ee 6b3b
00000010: d28a 7e3b 025e 8f3b eb69 ab3b 2402 d33b
00000020: 732e 103c 603f 563a 1aca 843b 2f46 a03a
00000030: a684 293c 7b7c 393c 88af 383b da43 95bb
00000040: 1233 483b 2cfa aa36 2870 2f36 e0bb 0db5
00000050: 885d bbb6 72db 5db7 2b75 f4b7 688b 04b8
00000060: 0445 16b8 bc7e 5f37 d8a2 bfb5 cc1e 3337
00000070: 36f2 1236 c74c 5938 4d45 6538 072a 90b8
00000080: c830 81b7 6a5b 8a37 2915 22bb 9ea8 39bb
00000090: cdb5 69bb 5d1f 8dbb 12a9 9ebb 83e8 c1bb
000000a0: 2331 b1bb 1f8a bfbb 8e8b 87bb 94b9 5bba
000000b0: 7a57 0dbb 37ba 3dba efe8 32bb 73a3 d7ba
000000c0: fda4 c2bb 4a31 b83a 889a 00ba 3596 ebb9
000000d0: c8f0 14ba d6af 59ba 19ed 8eba 88b1 8cba
000000e0: b8ce 70ba 2988 cbb9 0f3e 85b9 7bbd 4ab9
000000f0: 2d11 29b9 31f3 aeb9 3985 d9b8 7e49 97b9
00000100: c472 e3b8 699a e7b9 d74d 71b7 9c95 8935
00000110: 6ef7 8a3a 12c8 9c3a b10f c03a 510f e63a
00000120: 72e0 043b 08bc 283b 21c0 223b 0572 363b
00000130: 7a58 023b dad2 ba39 2862 773a ea7b a739
00000140: 1429 a23a 7a6d 4e3a 0b95 363b b4f0 38ba
00000150: 5ab0 8239 fb1e 58ba ebb2 23ba 5473 7db9
00000160: 00e3 9336 c0df 9cb8 d8ee 53b9 6330 9bba
00000170: 2c3e d6ba e847 59bb 7632 c6b8 5cfe 9cba
00000180: 9fc5 b8b9 9e11 80bb ab44 8cbb c899 1939
00000190: ee7f f83a 950b a4ba c0ae 8133 3fc6 8033
000001a0: 4016 8333 4ceb 8833 9a16 9333 a63c a333
000001b0: c097 bc33 5305 e633 80b4 1c34 b8c4 7232
000001c0: e207 9133 83af af32 b0d3 3434 4fa5 4034
000001d0: 1c1e 5333 e7ee 9fb3 5faf 5333 dc56 063b
000001e0: 700d 063b 9b78 093b 9129 103b a203 1b3b
000001f0: d50a 2c3b 4f7c 4a3b be38 803b d214 a83b
00000200: 35c5 003a 62e6 143b ad07 363a 0873 b53b
00000210: f81c c03b 28a1 0a3b c433 24bb 596a d53a
00000220: e675 d6ba b348 d8ba a19a e1ba 1613 f5ba
00000230: 9ee4 04bb b58a 14bb f827 28bb 99c3 45bb
00000240: cadd 7bbb b4f0 d2b9 7718 eaba 4d1a 0fba
00000250: 4950 8cbb 772c 97bb 123b e0ba 2fd8 f83a
00000260: ea66 a1ba 7a76 aab9 d912 b6b9 fc92 d2b9
00000270: 86ea f0b9 767a feb9 d0ac 07ba 49bc 00ba
00000280: babb 15ba d242 29ba ff0b bcb8 6ec1 abb9
00000290: a1cf d4b8 f41b 34ba 8a16 39ba 524a d6b9
000002a0: 4eda 9739 b93c 41b9 1fca a6b8 a9f1 a5b8
000002b0: 5e2d a9b8 64d2 b3b8 a387 c1b8 6545 d3b8
000002c0: dd5e f2b8 8b15 12b9 62f7 4cb9 6054 9eb7
000002d0: 9c9b b9b8 7397 e2b7 d226 62b9 3e00 63b9
000002e0: bf8b 88b8 fdab cc38 9d2e 82b8 acdf 9cba
000002f0: 6586 b8ba 091a efba a08e 1cbb 7cfa 31bb
00000300: c0ef 50bb 099c 2abb bb0b 16bb e047 b2ba
00000310: 9a65 deb9 f035 81ba a22c adb9 b2ef 85ba
00000320: 32d7 efb9 7989 26bb 93e9 fa39 69d2 b3b8
00000330: e6a3 c9b8 a635 c2b8 aeff b8b8 9094 b6b8
00000340: 32bc cbb8 993c f6b8 c426 1eb9 c346 43b9
00000350: 2334 81b9 da37 b1b7 60e3 e9b8 eeae 0cb8
00000360: 3c70 9ab9 ed78 afb9 d3a2 a7b8 8106 0a39
00000370: ef97 bab8 ffe4 f1bb ab74 f7bb 01db 02bc
00000380: a13c 11bc 5c7a 26bc 0f79 4dbc d15d 63bc
00000390: 7b88 81bc f28a 8abc 5643 ffba 0d1e 00bc
000003a0: 6187 20bb f6b4 8dbc a406 91bc caae 30bc
000003b0: c816 063c aeeb 9dbb 811a 9db6 5de6 9bb6
000003c0: f1c2 9eb6 4fdb a5b6 17af b1b6 4f4f c4b6
000003d0: cd10 e1b6 6b62 08b7 27e3 37b7 dc3e 91b5
000003e0: 4246 b0b6 fdb4 d3b5 7b18 61b7 703c 7fb7
000003f0: f0fb 71b6 ad81 c036 9b7b 84b6 b893 fdb4

exp_avg_sq f4 [128, 17]
0.00024034709 0.00025077883 0.00029908787 0.00038001942 0.00041644985 0.00044717183 0.0004811362 0.0006977217
0.0012942832 1.4710008e-05 0.000285195 2.596197e-05 0.0017203257 0.002001751 0.0001688352 0.0003298909
0.00014868713 2.0365713e-05 2.125909e-05 2.3786051e-05 2.9101544e-05 4.0987223e-05 6.852994e-05 8.29006e-05
9.765602e-05 0.00010924581 1.3173179e-06 2.3344579e-05 2.1442886e-06 0.00012412056 0.00013804593 5.9371523e-05
2.8126546e-05 1.0577564e-05 0.00032644768 0.000429722 0.000701701 0.0012026087 0.0014366931 0.0016795584
0.0013628957 0.0017793538 0.0015459179 3.5999783e-05 0.0002538426 2.7183702e-05 0.0004903358 0.00017488317
0.0017877381 0.00019515942 3.8745726e-05 4.739661e-06 7.300359e-06 1.416462e-05 2.4375355e-05 2.435601e-05
1.9145466e-05 4.174037e-06 1.6172079e-06 9.417933e-07 5.5652185e-07 2.502928e-06 2.312326e-07 2.0842174e-06
4.1725843e-07 4.5206016e-06 4.0238055e-07 1.6761858e-08 0.00016955505 0.00020001676 0.0002692282 0.0004067397
0.0005552119 0.000853557 0.0009732609 0.0013756291 0.0011861755 1.5124326e-05 0.00015364763 1.48583895e-05
0.00038413663 0.00016186795 0.001297293 0.00013177982 2.8076596e-05 0.00076498464 0.0009366651 0.0013909325
0.0022077358 0.0026498847 0.003213267 0.0029982459 0.003978507 0.0041044415 6.960403e-05 0.00069221976
6.6075685e-05 0.0022028948 0.0015620847 0.00344919 0.0006212057 0.00018382825 6.0657074e-12 5.9757112e-12
6.1865704e-12 6.7428996e-12 7.773541e-12 9.562783e-12 1.2745551e-11 1.8926952e-11 3.5120278e-11 3.3012064e-13
7.6046626e-12 6.9561154e-13 4.8073285e-11 5.802826e-11 3.9394057e-12 8.994119e-12 4.142336e-12 0.0001073519
0.000115607356 0.00013646457 0.00018010332 0.00021800409 0.00028482729 0.00041163262 0.00083428336 0.0010075761
7.199748e-06 0.0001157405 1.0105712e-05 0.00042325657 0.00028062286 0.00072534586 0.00011444207 3.4778655e-05
0.00013436092 0.00014762834 0.00017539809 0.00023423377 0.0003355907 0.0005703988 0.00073098956 0.0010314143
0.0010286999 1.0859292e-05 0.00013659964 1.3578954e-05 0.0004772325 0.00032533216 0.0008565686 0.00015470225
4.3348053e-05 6.2323175e-05 6.4438354e-05 7.088259e-05 8.3112485e-05 0.00010094517 0.00013123846 0.00019056065
0.0003398539 0.0005911982 3.846907e-06 7.103085e-05 6.278308e-06 0.00030738578 0.0002035852 0.00018737142
9.078635e-05 3.4136665e-05 8.6768665e-07 8.8486206e-07 1.031993e-06 1.2556822e-06 1.5904717e-06 1.9928946e-06
2.3780449e-06 3.110712e-06 5.5087376e-06 5.3974443e-08 1.2700806e-06 9.659845e-08 5.654051e-06 5.288563e-06
9.637018e-07 1.2627594e-06 5.0088516e-07 0.0001351501 0.00019957399 0.00037429933 0.0007080364 0.0008224983
0.00084056833 0.00040847532 0.00026976818 8.516125e-05 1.6944718e-05 8.406473e-05 8.5736565e-06 7.789363e-05
1.3934468e-05 0.00034822733 1.8357421e-05 7.0850723e-07 7.3252495e-06 1.0969242e-05 2.0194282e-05 3.3280136e-05
3.9437942e-05 3.2707834e-05 1.6671676e-05 4.295983e-06 1.9546706e-06 6.267817e-07 5.712843e-06 2.8366514e-07
5.8068617e-06 1.1682189e-06 1.3842663e-05 4.763725e-06 1.9934753e-07 0.00074720924 0.00091053604 0.0013461283
0.0021556458 0.002590367 0.0030911153 0.002718624 0.0036377062 0.0040215855 6.999503e-05 0.0006799942
6.790536e-05 0.0022577469 0.0017095676 0.0030187145 0.0006452667 0.00019975082 6.054945e-10 6.144881e-10
6.7919315e-10 8.127542e-10 9.0667773e-10 1.039905e-09 1.1832959e-09 1.7212537e-09 3.1304044e-09 3.181477e-11
7.4092854e-10 6.587801e-11 4.7764988e-09 6.002391e-09 4.2199322e-10 8.4712204e-10 3.7194553e-10 9.59148e-08
00000000: ae05 7c39 f77a 8339 e5ce 9c39 583d c739
00000010: f456 da39 6372 ea39 0241 fc39 50e7 363a
00000020: f0a4 a93a 01cb 7637 3a86 9539 e8c8 d937
00000030: 8d7c e13a cf2f 033b 5b09 3139 35f5 ac39
00000040: e6e8 1b39 09d7 aa37 8c55 b237 2888 c737
00000050: 171f f437 b2e9 2b38 bbb7 8f38 ecda ad38
00000060: adcc cc38 e61a e538 b3ce b035 1ad4 c337
00000070: 99e6 0f36 5c26 0239 6cc0 1039 b005 7938
00000080: 4cf1 eb37 4b76 3137 1127 ab39 4f4c e139
00000090: 5bf2 373a daa0 9d3a 6c4f bc3a a124 dc3a
000000a0: 31a3 b23a 3539 e93a 66a0 ca3a 79fe 1638
000000b0: 2d16 8539 8e08 e437 e189 003a d860 3739
000000c0: 8952 ea3a b5a3 4c39 e882 2238 6109 9f36
000000d0: 9bf5 f436 94a4 6d37 ad79 cc37 2250 cc37
000000e0: 939a a037 b40e 8c36 d70e d935 8bcf 7c35
000000f0: e463 1535 faf7 2736 bc48 7834 95de 0b36
00000100: 9003 e034 acaf 9736 c306 d834 b7fb 8f32
00000110: 96ca 3139 97bb 5139 3327 8d39 ae3f d539
00000120: a48b 113a 3ec1 5f3a 6f22 7f3a 744e b43a
00000130: 7279 9b3a 7cbe 7d37 791c 2139 4c48 7937
00000140: f265 c939 19bb 2939 ee09 aa3a 602e 0a39
00000150: 0886 eb37 4089 483a 888a 753a f34f b63a
00000160: a9af 103b b0a9 2d3b ad95 523b 387e 443b
00000170: 235e 823b 8d7e 863b 61f8 9138 1576 353a
00000180: 1d92 8a38 715e 103b ddbe cc3a ce0b 623b
00000190: 69d8 223a 05c2 4039 096b d52c 6c40 d22c
000001a0: acab d92c a43e ed2c ebc0 082d f23a 282d
000001b0: dc38 602d b57b a62d eb75 1a2e 66d7 b92a
000001c0: 5bc8 052d 18cc 432b b56d 532e 0336 7f2e
000001d0: 039b 8a2c e939 1e2d d9be 912c 1d22 e138
000001e0: 3a72 f238 ee17 0f39 1eda 3c39 0798 6439
000001f0: df54 9539 65d0 d739 cfb3 5a3a a510 843a
00000200: 5d95 f136 b5b9 f238 b48b 2937 89e8 dd39
00000210: 9020 9339 2325 3e3a 9e00 f038 4cdf 1138
00000220: 3ce3 0c39 aecc 1a39 11eb 3739 a69c 7539
00000230: 39f2 af39 d186 153a e19f 3f3a 8530 873a
00000240: 71d5 863a 4e30 3637 303c 0f39 2ad1 6337
00000250: 1035 fa39 5891 aa39 588b 603a 9237 2239
00000260: 9ed0 3538 80b3 8238 1423 8738 cda6 9438
00000270: ad4c ae38 87b2 d338 0e9d 0939 3cd1 4739
00000280: 6b2e b239 a4fa 1a3a ae14 8136 66f6 9438
00000290: 41aa d236 9f28 a139 7c79 5539 2279 4439
000002a0: 8d64 be38 f72d 0f38 f9ea 6835 4287 6d35
000002b0: 0283 8a35 e988 a835 3178 d535 abbd 0536
000002c0: 8096 1f36 a0c1 5036 b2d7 b836 87d1 6733
000002d0: a377 aa35 8f71 cf33 eeb7 bd36 6974 b136
000002e0: 8b58 8135 157c a935 9174 0635 14b7 0d39
000002f0: bc44 5139 9b3d c439 859b 393a ed9c 573a
00000300: 9659 5c3a a128 d639 ac6f 8d39 9998 b238
00000310: 8124 8e37 e94b b038 93d7 0f37 d35a a338
00000320: 16c8 6937 4892 b639 43fe 9937 3f30 3e35
00000330: 6acb f536 8908 3837 e466 a937 4696 0b38
00000340: 2b6a 2538 c52f 0938 27da 8b37 3726 9036
00000350: fc2c 0336 1c40 2835 f3b0 bf36 a44a 9834
00000360: 90d8 c236 b2cb 9c35 c93d 6837 16d8 9f36
00000370: 3b0c 5634 5de0 433a 0ab1 6e3a 9270 b03a
00000380: bc45 0d3b 26c3 293b 4f94 4a3b f12a 323b
00000390: 9566 6e3b 81c7 833b 4cca 9238 a341 323a
000003a0: 6a68 8e38 b5f6 133b 9213 e03a a0d5 453b
000003b0: 1d27 293a 3474 5139 e36f 2630 c2e8 2830
000003c0: f8b1 3a30 7e68 5f30 c639 7930 68ec 8e30
000003d0: 86a1 a230 3b91 ec30 a81e 5731 3fec 0b2e
000003e0: 36aa 4b30 06de 902e 871e a431 973d ce31
000003f0: 44fe e72f eada 6830 ae7a cc2f b8f9 cd33

exp_avg f4 [128]
0.0004907483 7.3280125e-07 -0.00030068005 -4.308801e-05 0.00013281095 -0.0001382078 8.21704e-09 0.00027946074
-0.0002202906 -4.1195115e-05 -1.0842509e-05 -0.00013839586 -1.3473222e-05 -0.0009954332 -6.337694e-07 -6.457475e-08
-0.00044064206 -0.0019591462 -0.00087973766 -5.9106784e-05 -2.2026648e-05 3.1052976e-05 2.1185071e-05 -0.00025819664
-0.0008628955 0.00028306892 -3.58495e-05 6.049981e-07 7.675033e-06 -0.0003711339 1.7769962e-05 -7.485217e-05
-0.00013878862 -2.8453654e-12 -3.9697045e-07 -2.4808101e-05 -0.0010012296 -1.7968068e-05 -7.156298e-05 0.00019087165
-1.6633352e-06 0.0005104019 -1.0670561e-05 -0.00084013684 -0.00045946633 -0.00082770805 6.8643335e-10 3.436209e-05
-0.0004975766 3.0249495e-08 -0.00030689366 -3.6680623e-05 1.8401133e-05 -0.0011865539 0.00047386586 9.562166e-07
6.5865834e-06 -2.6800514e-08 -0.00015391303 0.0001242822 8.526987e-06 -0.0001768258 -0.00021497766 2.4679605e-06
0.00060807366 -2.84594e-07 -0.00012750053 -0.00018286798 -0.00034494483 0.0001557894 -3.5157035e-09 0.00019244514
-3.61295e-05 -4.1277755e-05 -9.176084e-05 3.0507905e-05 -0.0002321325 0.00030786177 -0.00091784593 -0.00069631956
3.291142e-05 0.00023554738 -0.00018907874 -2.9137389e-05 -3.1237818e-08 -0.00027035156 -0.0009482788 -1.292392e-08
-0.00066036807 -0.0011879961 -0.0013883113 -0.0005293089 -0.00017837629 -2.0780891e-07 -0.00012874146 -1.2917533e-07
-1.9089835e-08 1.942268e-06 -0.00045823946 -0.0013867002 -1.5097651e-06 0.00032132468 -1.5417683e-05 -8.7123345e-07
-0.00030608644 -0.00024684187 -0.0003673245 1.3126661e-10 -8.708473e-06 -0.0004033062 -0.0001386926 1.2450264e-06
-0.000106038744 -0.0003096895 -4.5714416e-05 1.9243816e-07 -0.00020935993 6.011775e-06 -0.0006580731 -0.00015315117
1.9495252e-05 -8.970819e-05 -7.092202e-06 0.00042804718 0.00014444056 -6.125269e-08 -0.00012735595 5.050669e-10
00000000: 90a5 003a b8b5 4435 98a4 9db9 66b9 34b8
00000010: 2b43 0b39 e0eb 10b9 ed2a 0d32 9684 9239
00000020: cffd 66b9 ebc8 2cb8 39e8 35b7 5b1e 11b9
00000030: 0c0b 62b7 3279 82ba 4d20 2ab5 58ac 8ab3
00000040: fa05 e7b9 0565 00bb 329e 66ba 6de9 77b8
00000050: dec5 b8b7 e13e 0238 98b6 b137 915e 87b9
00000060: f033 62ba de68 9439 1c5d 16b8 2767 2235
00000070: 04c4 0037 c094 c2b9 b410 9537 f4f9 9cb8
00000080: c987 11b9 8c39 48ac 341f d5b4 fe1a d0b7
00000090: b13b 83ba 22ba 96b7 1514 96b8 b824 4839
000000a0: c33f dfb5 7ecc 053a b605 33b7 a13c 5cba
000000b0: 87e4 f0b9 8cfa 58ba 74af 3c30 0320 1038
000000c0: cd6f 02ba aceb 0133 92e6 a0b9 85d9 19b8
000000d0: 225c 9a37 2486 9bba 3371 f839 5a57 8035
000000e0: 5202 dd36 f436 e6b2 b763 21b9 c051 0239
000000f0: 210f 0f37 506a 39b9 a06b 61b9 3d9f 2536
00000100: 2267 1f3a 4dca 98b4 aab1 05b9 40c0 3fb9
00000110: b6d9 b4b9 665b 2339 e998 71b1 19cb 4939
00000120: c189 17b8 a721 2db8 ba6f c0b8 3aeb ff37
00000130: 9868 73b9 8268 a139 999b 70ba 3789 36ba
00000140: 5e0a 0a38 45fd 7639 7043 46b9 116c f4b7
00000150: 582a 06b3 f9bd 8db9 ea95 78ba 0008 5eb2
00000160: 8d1c 2dba 89b6 9bba fff7 b5ba 52c1 0aba
00000170: 850a 3bb9 1422 5fb4 c6fe 06b9 72b3 0ab4
00000180: fefa a3b2 e957 0236 dc3f f0b9 f0c1 b5ba
00000190: 22a3 cab5 7877 a839 3955 81b7 b5de 69b5
000001a0: 3a7a a0b9 8e6a 81b9 7695 c0b9 4454 102f
000001b0: 9b1a 12b7 d872 d3b9 036e 11b9 c81a a735
000001c0: 1e61 deb8 d25d a2b9 7bbd 3fb8 00a1 4e34
000001d0: a187 5bb9 c1b8 c936 8a82 2cba 3497 20b9
000001e0: bc89 a337 b821 bcb8 8df9 edb6 856b e039
000001f0: f874 1739 068a 83b3 da8a 05b9 ecd4 0a30

exp_avg_sq f4 [128]
4.2363217e-06 3.6683943e-07 4.8121615e-06 4.053385e-08 2.8829695e-06 1.203458e-05 2.205542e-11 1.954811e-06
2.45959e-06 1.1642621e-06 1.545284e-08 1.5312924e-06 6.690541e-08 1.1886216e-05 1.7902052e-10 2.983891e-10
6.5097206e-06 5.2853244e-05 1.5473297e-05 8.269979e-07 4.909212e-06 1.2535126e-06 1.647762e-07 6.2633167e-06
6.0231114e-06 1.985247e-06 1.7699106e-06 2.5458005e-10 7.2679875e-09 3.222114e-06 9.2446646e-07 6.7796645e-07
7.778259e-06 8.560193e-12 1.9241513e-09 9.548802e-07 1.4266799e-05 4.1297685e-06 1.4230262e-06 1.9184013e-06
1.0365115e-09 2.6850173e-06 1.786247e-06 6.62776e-06 2.3594548e-06 9.535284e-06 1.04545895e-11 1.883886e-08
5.362953e-06 7.254704e-11 2.659873e-06 4.1394193e-07 7.252209e-08 1.9601699e-05 4.303229e-06 7.965295e-09
5.372114e-08 7.0357276e-11 2.0679024e-06 2.0634182e-07 4.55163e-08 2.443414e-06 2.2275049e-06 4.654214e-09
1.1111164e-05 4.0767008e-09 9.641e-07 4.973044e-06 2.3966443e-06 3.1873349e-06 4.9312658e-11 1.4422639e-06
5.348826e-07 6.489888e-07 5.181387e-07 3.8257315e-07 2.6349462e-06 2.1948865e-06 1.1472816e-05 9.677126e-06
2.7027386e-06 6.4598845e-07 3.7374068e-06 5.759547e-07 9.756393e-11 2.5258835e-06 1.1466914e-05 1.4927014e-09
8.196213e-06 1.84164e-05 2.2830785e-05 7.108712e-06 1.7245245e-06 1.4833469e-09 4.878164e-06 3.9019715e-10
1.308026e-10 1.0391789e-09 4.894751e-06 3.134429e-05 3.5835473e-07 1.5570213e-06 1.2597701e-07 9.9626196e-11
4.3744503e-06 2.139855e-06 1.9214408e-06 5.0054256e-11 2.3232023e-08 3.9010188e-06 1.3624831e-06 9.002137e-09
1.9301604e-06 7.866088e-06 1.684654e-07 8.388415e-09 4.636118e-06 2.5345855e-07 1.5373058e-05 3.180993e-06
1.7319233e-07 1.0106439e-06 1.927228e-08 7.4685777e-06 5.1911496e-07 5.365633e-10 6.2191094e-07 3.4368378e-10
00000000: ba25 8e36 07f2 c434 2778 a136 7017 2e33
00000010: 0a79 4136 21e8 4937 6400 c22d 662f 0336
00000020: 6f0f 2536 be43 9c35 28bd 8432 ce86 cd35
00000030: a3ad 8f33 e96a 4737 ccd5 442f 880a a42f
00000040: 136e da36 bdae 5d38 a7cc 8137 ddfe 5d35
00000050: cfb9 a436 5d3e a835 56ed 3034 7b29 d236
00000060: 221a ca36 493a 0536 aa8d ed35 f5f4 8b2f
00000070: e5b9 f931 7f3b 5836 da28 7835 80fd 3535
00000080: 5e7f 0237 af97 162d 073a 0431 6f29 8035
00000090: 6f5b 6f37 7192 8a36 cffe be35 e2bd 0036
000000a0: 0275 8e30 3f30 3436 fbbe ef35 0664 de36
000000b0: 2057 1e36 bcf9 1f37 49eb 372d 17d3 a132
000000c0: 6af3 b336 5a88 9f2e 4580 3236 bf3b de34
000000d0: 71bd 9b33 546e a437 7564 9036 bdd7 0832
000000e0: 05bb 6633 a0b7 9a2e 4bc6 0a36 cf8e 5d34
000000f0: b37d 4333 88f9 2336 3e7c 1536 e6ea 9f31
00000100: 166a 3a37 0a13 8c31 3966 8135 1fde a636
00000110: 09d6 2036 ffe5 5536 1ee1 582e cf93 c135
00000120: da94 0f35 2c36 2e35 3816 0b35 7464 cd34
00000130: 08d4 3036 dd4b 1336 5f7b 4037 f15a 2237
00000140: b260 3536 fd67 2d35 29d0 7a36 4e9b 1a35
00000150: 9c8b d62e 5982 2936 0562 4037 c327 cd30
00000160: 7782 0937 eb7c 9a37 bd84 bf37 5f87 ee36
00000170: 3676 e735 a1de cb30 1caf a336 5e83 d62f
00000180: a9d1 0f2f dbd2 8e30 973d a436 ad77 0338
00000190: e663 c034 d8fa d035 4c44 0734 9014 db2e
000001a0: 3ec8 9236 6e9a 0f36 1af2 0036 1524 5c2e
000001b0: c28f c732 7fe5 8236 90de b635 d1a7 1a32
000001c0: e787 0136 97f8 0337 6be3 3434 a41c 1032
000001d0: f38f 9b36 1413 8834 64f5 8037 0b79 5536
000001e0: bff6 3934 76a5 8735 318c a532 989a fa36
000001f0: 4f59 0b35 497d 1330 65f1 2635 31f1 bc2f
