results/test-11/Drive.onnx (onnx, 80694 bytes, 7 tensors)

network_body._body_endoder.seq_layers.0.weight f4 [128, 17]
-0.014909437 0.58879155 -0.038956285 -0.06677308 -0.42688304 -0.14385328 0.3238781 -0.0051722256
-0.30689892 -0.109901674 -0.026684217 0.22701323 -0.10112784 -0.07207959 0.47444463 -0.14909306
-0.50752777 -0.054255787 -0.049689665 0.062585995 -0.45605788 -0.03792594 0.30275425 0.13454793
0.35893106 0.02507071 0.010884809 0.20150444 0.45586133 0.19287361 -0.35294452 -0.3381162
-0.06894702 -0.508108 -0.26398048 0.37339923 -0.3927229 0.024468703 0.4300725 0.07891255
-0.08029192 -0.34965548 -0.012268684 0.13387556 -0.15125921 0.31819427 -0.05537032 -0.22774558
-0.24014513 -0.004829654 0.13171078 0.078752905 0.025787892 0.33334976 0.35739362 0.022742372
-0.3725458 -0.25901094 0.025181076 -0.49794015 0.29011592 -0.11102157 0.19503944 0.057973385
-0.49752477 0.13196298 -0.42441627 0.24340342 -0.07649067 0.080488935 0.3126587 0.36760047
-0.13083848 -0.23892438 -0.49328947 -0.14909269 -0.12006457 0.2722441 0.17603028 0.30223772
-0.0076833284 0.171414 0.035002537 -0.064753145 0.18537916 0.20591928 0.11103992 0.14072996
0.018395282 0.3462312 0.008245829 -0.16996692 -0.0733586 -0.2852733 -0.05090059 -0.12182469
0.020339014 0.25801027 0.030708043 -0.45318666 -0.10808201 0.14202455 0.1896668 0.056707874
0.059407383 -0.41050246 -0.19663443 -0.39080435 0.39103305 0.26148593 -0.5352475 0.13284324
-0.075181276 -0.19928181 -0.19224603 0.619038 -0.034450024 0.07617577 0.24589595 0.22661297
0.115783215 -0.034098633 -0.04793908 0.06682933 -0.12320154 0.15131275 -0.008811187 0.3699902
-0.2905898 -0.17644176 0.20104073 0.17105217 -0.24869697 0.13273409 0.09781948 -0.09100151
0.14259206 -0.25335613 -0.32061997 0.1998176 -0.0871729 -0.3655086 -0.13016328 0.2123922
-0.1837344 -0.36502075 0.17905149 0.43172935 -0.20778258 -0.21089327 0.46570912 -0.0084344875
0.1502134 -0.075458 0.124740474 -0.2484764 -0.3374261 -0.4660696 -0.083799355 -0.083142415
-0.14154439 -0.10973613 -0.044366967 0.18189988 0.08647566 0.5804933 0.19921023 -0.011232679
-0.21934474 -0.28936777 0.05729692 -0.0037879478 -0.131072 0.020703796 -0.09502766 0.008877523
-0.4600577 0.3384571 0.39117882 -0.015172004 -0.34439507 -0.1818661 0.10819728 -0.020759206
0.18024509 -0.16115436 -0.20406547 -0.107834205 0.049456466 -0.14672448 -0.4763058 0.3272386
0.57056177 -0.042839188 -0.47052866 0.4846449 -0.29013166 0.28051656 -0.55562294 0.10863912
-0.10239315 -0.1288118 0.031936813 0.34622774 0.17076038 -0.054534834 0.056191713 0.11819142
-0.07933319 0.013333 0.24589574 0.58938426 -0.09958798 0.12204799 -0.52105945 -0.21684682
0.23757331 -0.5157614 0.21750294 0.50966364 -0.35385716 0.3533714 0.44904158 0.03786433
-0.0046704686 -0.34110636 0.035559185 -0.10841649 0.20493557 -0.08135389 0.09037101 0.14953963
0.2440002 0.10694289 0.1505063 -0.40331075 0.060626246 0.33590925 0.25302503 -0.04367222
0.3884882 0.105270125 -0.36759788 -0.0646284 -0.117557585 -0.4635704 0.06947555 0.12636133
0.4434808 0.15315506 0.16425617 -0.2716605 0.17219317 0.22543178 -0.08398302 0.4091112
00000000: b646 74bc 0bbb 163f a090 1fbd 53c0 88bd
00000010: 6a90 dabe 464e 13be 5ad3 a53e c67b a9bb
00000020: db21 9dbe 2114 e1bd dc98 dabc 2876 683e
00000030: 1d1c cfbd 779e 93bd 68ea f23e daab 18be
00000040: 57ed 01bf 513b 5ebd 6487 4bbd 162d 803d
00000050: 6b80 e9be 3b58 1bbd 9b02 9b3e efc6 093e
00000060: d0c5 b73e 1761 cd3c 3356 323c 2e57 4e3e
00000070: a866 e93e a980 453e 25b5 b4be 911d adbe
00000080: 1834 8dbd 5e13 02bf 7328 87be 2f2e bf3e
00000090: fa12 c9be 9772 c83c 7632 dc3e e79c a13d
000000a0: 1770 a4bd 0b06 b3be 9702 49bc ad16 093e
000000b0: b2e3 1abe 5cea a23e fdcb 62bd 2336 69be
000000c0: 9be8 75be 1342 9ebb 31df 063e 3449 a13d
000000d0: 2141 d33c d2ac aa3e 4cfc b63e 364e ba3c
000000e0: 53be bebe 159d 84be 8b48 ce3c 03f2 febe
000000f0: 138a 943e 475f e3bd 6bb8 473e 8075 6d3d
00000100: 91bb febe 4e21 073e 174d d9be bf3e 793e
00000110: 24a7 9cbd 62d7 a43d cd14 a03e 2136 bc3e
00000120: 86fa 05be 98a8 74be 7090 fcbe c1ab 18be
00000130: 6ae4 f5bd 9463 8b3e 4841 343e e7be 9a3e
00000140: 6ec4 fbbb 2787 2f3e d25e 0f3d 4c9d 84bd
00000150: 09d4 3d3e 81dc 523e e668 e33d 841b 103e
00000160: b4b1 963c 3745 b13e 8319 073c cf0b 2ebe
00000170: 093d 96bd 580f 92be 237d 50bd 397f f9bd
00000180: 019e a63c ec19 843e 6f8f fb3c 1508 e8be
00000190: 1a5a ddbd e26e 113e 0338 423e 8446 683d
000001a0: 2855 733d 612d d2be 895a 49be 8217 c8be
000001b0: 7c35 c83e 7ce1 853e fb05 09bf 0f08 083e
000001c0: a4f8 99bd 8810 4cbe 25dc 44be 4679 1e3f
000001d0: 781b 0dbd 0b02 9c3d 26cc 7b3e 3b0d 683e
000001e0: c01f ed3d 02ab 0bbd c55b 44bd d1dd 883d
000001f0: 1751 fcbd bbf1 1a3e cc5c 10bc 5b6f bd3e
00000200: 30c8 94be 26ad 34be 9fdd 4d3e 4d28 2f3e
00000210: 6baa 7ebe 72eb 073e 9455 c83d 005f babd
00000220: a703 123e e5b7 81be 4d28 a4be fc9c 4c3e
00000230: b587 b2bd f123 bbbe 8649 05be 577d 593e
00000240: df24 3cbe 00e4 babe 4659 373e a10b dd3e
00000250: f5c4 54be 68f4 57be 6d71 ee3e ce30 0abc
00000260: 8bd1 193e b989 9abd ef77 ff3d 9970 7ebe
00000270: 1dc3 acbe ada0 eebe ff9e abbd 9246 aabd
00000280: 03f1 10be 56bd e0bd 23ba 35bd f643 3a3e
00000290: 271a b13d 359b 143f c4fd 4b3e 4509 38bc
000002a0: e89b 60be 0328 94be 2db0 6a3d 383f 78bb
000002b0: bd37 06be 029b a93c dd9d c2bd 0873 113c
000002c0: af8c ebbe 404a ad3e 9748 c83e ff93 78bc
000002d0: 8d54 b0be 1b3b 3abe 8996 dd3d 360f aabc
000002e0: 2b92 383e a605 25be 8af6 50be 2ed8 dcbd
000002f0: dd92 4a3d f13e 16be 5bde f3be d18b a73e
00000300: 5610 123f 2578 2fbd 22e9 f0be 6023 f83e
00000310: 238c 94be de9f 8f3e 4e3d 0ebf 307e de3d
00000320: 80b3 d1bd 3ee7 03be 2dd0 023d c344 b13e
00000330: cfdb 2e3e eb5f 5fbd 4829 663d 580e f23d
00000340: 7179 a2bd a872 5a3c 18cc 7b3e e3e1 163f
00000350: c8f4 cbbd 4cf4 f93d 2764 05bf 180d 5ebe
00000360: 6b46 733e f008 04bf 17b9 5e3e 5179 023f
00000370: c42c b5be 19ed b43e c7e8 e53e a117 1b3d
00000380: bb0a 99bb 7ea5 aebe 82a6 113d 7709 debd
00000390: a1da 513e de9c a6bd 7014 b93d eb20 193e
000003a0: 30db 793e e004 db3d 531e 1a3e bf7e cebe
000003b0: 3a53 783d 4cfc ab3e 7f8c 813e a4e1 32bd
000003c0: ede7 c63e dd97 d73d ca35 bcbe e55b 84bd
000003d0: 08c2 f0bd 1959 edbe 3249 8e3d dd64 013e
000003e0: ea0f e33e aed4 1c3e c532 283e 1617 8bbe
000003f0: 6853 303e 97d7 663e 4aff abbd 0677 d13e

network_body._body_endoder.seq_layers.0.bias f4 [128]
-0.0098167425 0.058454316 -0.054404497 -0.0351683 -0.05456983 0.016385637 -0.07140574 -0.025778862
0.014304724 0.049972314 0.018859556 -0.07312968 -0.095116094 0.06961057 -0.027455991 0.011319521
-0.06654154 -0.019493472 -0.11049551 -0.029442053 0.0064294348 -0.02912332 -0.13716915 0.06553274
0.07254855 -0.07237624 0.021835469 -0.05978674 -0.04998413 -0.09327464 -0.021857936 -0.051573317
-0.03189591 -0.049457103 -0.06283624 0.054181278 -0.045066442 0.018061943 0.012101692 -0.049856216
-0.038215045 0.07477213 -0.051222805 -0.011342476 -0.004031644 -0.074935906 -0.11351202 0.037331205
-0.036484092 0.023462005 0.026641348 -0.09658109 -0.044416483 -0.06606605 0.008876598 -0.027011
-0.043020204 0.039555963 -0.08438603 -0.10992961 0.023836402 0.072881654 -0.016214458 0.09872018
-0.054235324 -0.009124345 0.031055456 -0.054624993 -0.076719224 0.016908785 -0.053922884 0.011275659
0.0042362344 0.036995426 0.049782686 0.025738906 -0.018903097 -0.056853656 0.15403703 -0.0014076092
0.018124513 -0.00023847897 0.057836372 -0.08130661 0.0520147 0.015751911 -0.0044938815 0.0064409147
0.0008765444 -0.004007623 -0.06576294 0.012162641 -0.025188478 -0.021896286 0.035662215 -0.11075496
0.00910569 0.01694789 -0.052105177 -0.07648708 -0.022014001 0.013597301 -0.079227164 0.09615887
0.029711552 0.00950512 -0.018303601 -0.10127868 0.0052711484 -0.11199908 -0.10297666 -0.059011735
0.024425562 0.001764161 -0.024939526 0.123679794 -0.09637577 -0.034189496 -0.041444123 -0.023619993
0.006112774 0.021724321 -0.008536254 -0.057924144 0.027526135 -0.07748406 -0.09261858 0.04313784
00000000: 67d6 20bc cb6d 6f3d 40d7 5ebd a30c 10bd
00000010: 9d84 5fbd 2c3b 863c 2c3d 92bd 312e d3bc
00000020: 5c5e 6a3c c5af 4c3d 5b7f 9a3c 03c5 95bd
00000030: 3acc c2bd fd8f 8e3d 63eb e0bc 8375 393c
00000040: ee46 88bd c6b0 9fbc 784b e2bd 7630 f1bc
00000050: 02ae d23b 0794 eebc 1276 0cbe 0736 863d
00000060: 5694 943d fe39 94bd 4ce0 b23c f1e2 74bd
00000070: 29bc 4cbd c606 bfbd 6a0f b3bc 8b3e 53bd
00000080: 49a5 02bd 8893 4abd 49b0 80bd 30ed 5d3d
00000090: 9797 38bd a4f6 933c 2d46 463c 0836 4cbd
000000a0: 6187 1cbd 2122 993d 01cf 51bd cbd5 39bc
000000b0: e21b 84bb ff77 99bd fd78 e8bd 9be8 183d
000000c0: 5870 15bd 6433 c03c f53e da3c 4ecc c5bd
000000d0: 0fee 35bd a34d 87bd 276f 113c 2c46 ddbc
000000e0: f435 30bd 6f05 223d 95d2 acbd c622 e1bd
000000f0: 8f44 c33c fa42 953d 2fd4 84bc ce2d ca3d
00000100: dc25 5ebd 477e 15bc 0368 fe3c 75be 5fbd
00000110: f81e 9dbd 4b84 8a3c 3ede 5cbd 8bbd 383c
00000120: 1cd0 8a3b 8488 173d eee8 4b3d 66da d23c
00000130: abda 9abc 61df 68bd e2bb 1d3e 877f b8ba
00000140: dc79 943c 3610 7ab9 d5e5 6c3d 1484 a6bd
00000150: 5e0d 553d 270a 813c 6941 93bb 4f0e d33b
00000160: e6c7 653a 6152 83bb b8ae 86bd d045 473c
00000170: 1158 cebc d75f b3bc 8b12 123d 7fd3 e2bd
00000180: 0830 153c 4dd6 8a3c 3d6c 55bd 42a5 9cbd
00000190: b556 b4bc 37c7 5e3c da41 a2bd f1ee c43d
000001a0: a465 f33c 5dbb 1b3c 6ff1 95bc 326b cfbd
000001b0: 99b9 ac3b c65f e5bd 6de5 d2bd 4ab6 71bd
000001c0: 1e18 c83c 6c3b e73a fa4d ccbc d54b fd3d
000001d0: a960 c5bd 490a 0cbd 50c1 29bd b77e c1bc
000001e0: aa4d c83b 34f7 b13c a5db 0bbc de41 6dbd
000001f0: 7d7e e13c f6af 9ebd cfae bdbd 4eb1 303d

network_body._body_endoder.seq_layers.2.weight f4 [128, 128]
-0.122424915 -0.1952695 -0.054046202 -0.106284425 -0.121679366 -0.16930147 0.118897565 -0.083292596
0.012182027 -0.04635314 0.045941375 -0.10062365 0.0022179876 -0.12488695 -0.3148321 0.041516732
-0.0021567927 0.029020535 -0.04480689 0.04843893 -0.045851603 0.10901698 -0.24878524 0.01233788
-0.029214958 -0.013043147 -0.045025937 -0.055685986 -0.13130373 0.02324633 -0.021339722 -0.12090338
0.01759394 -0.043324336 -0.06389917 0.0729599 -0.078537256 -0.062738195 0.08788266 0.039096426
-0.26635692 -0.10420757 -0.012839613 0.12232476 -0.0162927 0.28216952 0.025795499 0.19587737
-0.1071531 -0.053806737 0.0043927412 0.053300377 -0.12343098 -0.13638097 -0.07770666 -0.05256163
-0.086907856 -0.15947996 -0.008047822 -0.16628663 0.113920644 -0.1605369 -0.0009489372 0.018053956
0.046607964 0.09835989 -0.007493918 -0.18511122 -0.07929783 -0.024430333 -0.056193043 -0.004424082
-0.17028773 -0.12672621 0.032925725 0.012102849 0.09485626 -0.083839886 0.05259595 -0.23162946
-0.085809335 -0.06996984 -0.04253921 0.096500546 0.10457927 -0.23331575 0.105019115 0.14394617
-0.046085186 -0.25456226 0.008822868 0.10700445 0.026194163 -0.0417739 -0.06075699 0.14598629
-0.054175407 -0.16805631 -0.07977548 0.0694732 0.09117744 -0.01812898 -0.0909011 -0.14919032
0.06333439 -0.21060735 0.09585403 -0.049559332 0.22405916 -0.035085987 0.030247455 -0.03607952
0.01830901 -0.13685325 -0.0144784255 -0.15015085 0.072169684 0.046544943 0.06351411 0.2537702
-0.10113589 0.12505904 -0.0294669 -0.070604034 -0.10472898 0.058146916 -0.18898785 -0.055953182
0.2502593 0.026260413 0.013055202 -0.14588082 0.055149578 -0.2587314 0.047452208 -0.007882094
-0.05339225 0.08284415 0.14798604 -0.21996893 0.1076374 0.0010113616 -0.10977713 -0.016126424
0.09253825 0.030914748 0.112128064 -0.03662867 0.083663926 0.1278988 -0.17161684 0.032651544
-0.11284457 0.080493145 -0.14016865 0.05322394 -0.12302079 0.1976517 0.10552409 -0.06113511
-0.15705481 0.0053367033 -0.016036684 0.04825393 0.03654652 -0.030678116 -0.0948979 0.035012644
-0.037041612 -0.08368167 -0.039676692 0.06888394 -0.16247392 0.090493076 -0.0783551 -0.01818424
-0.055538397 -0.0072695846 -0.16777958 -0.08881969 -0.024420757 -0.058690958 -0.1802589 0.0770902
-0.07117888 0.05761037 0.13480228 0.10776895 0.11034052 -0.21845956 0.093958095 -0.0068088304
0.14117752 -0.08733709 -0.036763445 -0.17232016 0.05613219 -0.0049339198 -0.18765496 -0.07627094
0.0009469733 0.022265984 0.08854146 0.122475185 0.088784866 -0.2974412 0.0041950718 0.021409586
-0.18004158 0.1323113 -0.025264269 0.02771564 -0.084711224 -0.15380427 -0.13390416 0.049696226
0.015422908 0.109141365 -0.16534443 0.08265183 -0.024287047 0.09998991 -0.25461686 0.059596412
0.09949182 0.10606043 -0.055495664 0.053390723 0.20013615 -0.15142743 0.054521855 -0.2021265
-0.08936551 -0.13467789 0.098732136 -0.0965932 -0.13328569 0.073619515 0.23911887 0.062623434
-0.14350536 -0.117275044 -0.12023696 0.2240822 0.06317159 0.095835105 0.08764538 0.07889184
0.1050948 -0.0671298 0.025742436 0.05055702 -0.020466035 -0.024710987 0.15195435 0.056206048
00000000: eab9 fabd baf4 47be 8d5f 5dbd a6ab d9bd
00000010: 0833 f9bd 5d5d 2dbe 9180 f33d 4f95 aabd
00000020: 2097 473c cadc 3dbd 062d 3c3d c613 cebd
00000030: a85b 113b bbc4 ffbd ac31 a1be 730d 2a3d
00000040: fa58 0dbb 79bc ed3c 6e87 37bd e667 463d
00000050: e4ce 3bbd 4b44 df3d 8fc1 7ebe d224 4a3c
00000060: 3554 efbc ecb2 55bc 1e6d 38bd fd16 64bd
00000070: 7c74 06be 166f be3c a4d0 aebc 319c f7bd
00000080: 2b21 903c dc74 31bd 91dd 82bd 006c 953d
00000090: 24d8 a0bd e27c 80bd d3fb b33d 9323 203d
000000a0: ef5f 88be c76a d5bd 3d5d 52bc 6785 fa3d
000000b0: 4578 85bc 8678 903e 1551 d33c 1494 483e
000000c0: 1673 dbbd 7464 5cbd fcf0 8f3b 7f51 5a3d
000000d0: 62c9 fcbd 74a7 0bbe ab24 9fbd dd4a 57bd
000000e0: bffc b1bd b74e 23be 03db 03bc 0b47 2abe
000000f0: 3a4f e93d c963 24be 19c2 78ba e4e5 933c
00000100: fee7 3e3d e970 c93d 8a8f f5bb cc8d 3dbe
00000110: e766 a2bd 1f22 c8bc ad2a 66bd e4f7 90bb
00000120: e85f 2ebe 84c4 01be 20dd 063d 074b 463c
00000130: 0044 c23d 3fb4 abbd da6e 573d 4630 6dbe
00000140: cebc afbd 594c 8fbd 983d 2ebd 14a2 c53d
00000150: a82d d63d 53ea 6ebe 4314 d73d a066 133e
00000160: d2c3 3cbd fc55 82be ca8d 103c 2625 db3d
00000170: 2495 d63c 1c1b 2bbd 52dc 78bd 6e7d 153e
00000180: 08e7 5dbd f416 2cbe 5461 a3bd f747 8e3d
00000190: 3dbb ba3d 3a83 94bc 5b2a babd 59c5 18be
000001a0: 76b5 813d 74a9 57be 1e4f c43d bafe 4abd
000001b0: c46f 653e 53b6 0fbd 83c9 f73c 1ec8 13bd
000001c0: c7fc 953c 4223 0cbe eb36 6dbc 25c1 19be
000001d0: b3cd 933d e9a5 3e3d b013 823d 2bee 813e
000001e0: 5520 cfbd 7a0f 003e 9164 f1bc d998 90bd
000001f0: 267c d6bd 762b 6e3d 0886 41be 2a2f 65bd
00000200: fd21 803e 1420 d73c 7ce5 553c c861 15be
00000210: 86e4 613d 7178 84be 3f5d 423d e623 01bc
00000220: d5b1 5abd 32aa a93d a789 173e 893f 61be
00000230: ff70 dc3d aa8f 843a d5d2 e0bd 901b 84bc
00000240: b284 bd3d ed40 fd3c 66a3 e53d f207 16bd
00000250: fe57 ab3d e7f7 023e 53bc 2fbe a0bd 053d
00000260: 0e1b e7bd 97d9 a43d 5f88 0fbe 5901 5a3d
00000270: 53f2 fbbd 3565 4a3e 041d d83d cf68 7abd
00000280: fad2 20be 83df ae3b 5d5f 83bc eaa5 453d
00000290: ceb1 153d ac50 fbbc d559 c2bd 6b69 0f3d
000002a0: f2b8 17bd 4c61 abbd 0784 22bd 0613 8d3d
000002b0: 905f 26be 6f54 b93d a378 a0bd 1ef7 94bc
000002c0: 3b7c 63bd b235 eebb 69ce 2bbe 19e7 b5bd
000002d0: 0a0e c8bc ee65 70bd ca95 38be 77e1 9d3d
000002e0: 3cc6 91bd daf8 6b3d 9c09 0a3e f8b5 dc3d
000002f0: 36fa e13d ddb3 5fbe 1a6d c03d 9c1c dfbb
00000300: d790 103e cadd b2bd 4495 16bd b274 30be
00000310: deea 653d b8ac a1bb 9f28 40be f033 9cbd
00000320: 4d3e 783a 2767 b63c 3a55 b53d 45d4 fa3d
00000330: d7d4 b53d 374a 98be d076 893b 2863 af3c
00000340: d25c 38be 9d7c 073e 03f7 cebc e90b e33c
00000350: 147d adbd de7e 1dbe 2c1e 09be 458e 4b3d
00000360: 5db0 7c3c 8285 df3d 0d50 29be 5d45 a93d
00000370: a1f5 c6bc 83c7 cc3d 245d 82be 5e1b 743d
00000380: 5ec2 cb3d 3636 d93d 6c4f 63bd 3bb0 5a3d
00000390: 7ef0 4c3e cb0f 1bbe 4f52 5f3d 40fa 4ebe
000003a0: 4405 b7bd 00e9 09be 1334 ca3d a8d2 c5bd
000003b0: 0b7c 08be d4c5 963d 94db 743e b740 803d
000003c0: 12f3 12be e62d f0bd cc3e f6bd ce75 653e
000003d0: 1b60 813d 3245 c43d 6c7f b33d 0c92 a13d
000003e0: f13b d73d 597b 89bd cde1 d23c e114 4f3d
000003f0: 63a8 a7bc b26e cabc ec99 1b3e 5038 663d

network_body._body_endoder.seq_layers.2.bias f4 [128]
-0.057967708 -0.009831644 -0.03940776 -0.04011014 0.049134277 -0.01829626 -0.014085422 -0.07862983
-0.014293322 -0.032211866 -0.05404758 -0.04685521 0.083146416 -0.01646413 0.013115534 0.0033024228
-0.026833856 -0.045287505 -0.01599486 0.0022486588 -0.033767164 -0.031301364 -0.011093948 3.0623203e-05
-0.035359595 -0.019461513 0.0032006046 0.00081789633 -0.0220362 0.019025028 0.017450526 0.0018236131
-0.07238195 0.007282733 0.016402753 -0.056760207 -0.026224796 -0.015635073 -0.015673932 0.026480217
0.0036921273 -0.03591358 -0.012410282 0.0012889594 0.0069595817 0.0028429038 0.023351314 0.03864593
-0.019033859 -0.04699215 -0.05479714 -0.078864776 0.0018290416 0.0041749864 0.022941906 0.023980126
0.01994088 0.021070216 -0.067203425 0.034468077 0.04986343 -0.02609929 -0.05439837 -0.015963687
-0.008026285 -0.05965078 -0.06915221 -0.010027043 0.025608066 0.030240497 -0.0030016436 -0.017117474
-0.031211505 -0.030302243 0.01481241 -0.079394504 -0.027898757 -0.00686443 0.010477449 -0.031990044
-0.0030433447 -0.01825083 0.0032642537 -0.060596775 -0.017706113 -0.017008273 -0.0039646295 -0.043978583
-0.0030460367 -0.056977633 0.028891744 -0.05351499 -0.024399599 -0.044287603 6.392327e-05 0.03180854
-0.0143786585 -0.030308325 0.004766542 -0.045013707 -0.08902745 -0.03694905 -0.030730829 -0.03070912
-0.039889403 -0.03410256 -0.035202134 0.04074841 0.00974903 0.038542923 0.010355497 -0.030435227
-0.03341719 -0.05953858 -0.007562951 -0.037200775 0.021139016 -0.049855098 -0.054203343 -0.01339434
0.008013637 -0.022965001 -0.026804198 -0.038597487 0.056701772 -0.05126629 0.024732225 0.003788472
00000000: 8c6f 6dbd e714 21bc 086a 21bd 884a 24bd
00000010: 0641 493d 0ae2 95bc 8bc6 66bc ad08 a1bd
00000020: 8a2e 6abc 97f0 03bd ff60 5dbd 40eb 3fbd
00000030: ab48 aa3d c8df 86bc 89e2 563c 766d 583b
00000040: add2 dbbc 647f 39bd a707 83bc 3c5e 133b
00000050: 704f 0abd dc35 00bd 64c3 35bc 6a71 0038
00000060: 39d5 10bd c06d 9fbc 3cc1 513b 1868 563a
00000070: 4385 b4bc 60da 9b3c 68f4 8e3c 4d06 ef3a
00000080: fd3c 94bd fea3 ee3b 115f 863c 647d 68bd
00000090: 62d5 d6bc 2015 80bc 9e66 80bc 0aed d83c
000000a0: 9ef7 713b 1e1a 13bd 7f54 4bbc 4df2 a83a
000000b0: 340d e43b 0350 3a3b 414b bf3c 324b 1e3d
000000c0: e5ec 9bbc d77a 40bd f772 60bd db83 a1bd
000000d0: 74bc ef3a 53ce 883b aaf0 bb3c f871 c43c
000000e0: 0e5b a33c 729b ac3c f3a1 89bd 662e 0d3d
000000f0: 993d 4c3d 2ece d5bc d3d0 5ebd 47c6 82bc
00000100: ae80 03bc 6054 74bd ad9f 8dbd 7748 24bc
00000110: 02c8 d13c ebba f73c 39b7 44bb f239 8cbc
00000120: 45af ffbc 693c f8bc c0af 723c 9699 a2bd
00000130: ef8b e4bc 03ef e0bb 9ba9 2b3c fe07 03bd
00000140: da72 47bb c482 95bc 17ed 553b 5334 78bd
00000150: 690c 91bc ef54 8bbc b9e9 81bb e322 34bd
00000160: 04a0 47bb 6161 69bd 61ae ec3c 8932 5bbd
00000170: abe1 c7bc eb66 35bd 8b0e 8638 ac49 023d
00000180: 7794 6bbc 2a49 f8bc a730 9c3b 4b60 38bd
00000190: 0654 b6bd e357 17bd 38bf fbbc b191 fbbc
000001a0: 1263 23bd 20af 0bbd 1d30 10bd cee7 263d
000001b0: 65ba 1f3c 2fdf 1d3d 1aaa 293c 4c53 f9bc
000001c0: 77e0 08bd bade 73bd a2d2 f7bb d75f 18bd
000001d0: bb2b ad3c dc34 4cbd 5304 5ebd ef73 5bbc
000001e0: a14b 033c 1921 bcbc 7a94 dbbc 6618 1ebd
000001f0: 1e40 683d 9afc 51bd 3c9b ca3c 0348 783b

action_model._continuous_distribution.log_sigma f4 [1, 2]
-0.5966132 -0.38500285
00000000: a5bb 18bf 181f c5be

action_model._continuous_distribution.mu.weight f4 [2, 128]
0.07551505 -0.013780796 0.09700763 0.058204204 0.1606871 -0.08822396 0.035108376 -0.061858073
0.057818558 -0.03545233 0.06723291 -0.049561005 0.06417892 -0.07039778 0.03987994 0.035753343
0.0047528557 -0.06271798 0.030013384 -0.13958234 0.14078107 0.02045524 -0.010199005 0.057096444
-0.0716988 0.006897914 0.070874915 0.097752914 0.040923357 -0.03965339 0.0046788077 0.0023587507
0.040686496 0.006369821 -0.07585368 0.0614761 0.10748182 0.11575983 0.05965386 0.077301845
-0.01301962 0.002599666 -0.0007552599 0.06050126 0.07303089 0.012161036 0.032214418 -0.043604985
-0.05195727 0.10624531 0.03998885 -0.029880887 0.046477493 -0.1107546 -0.010712221 0.1264626
-0.079080135 -0.01215991 -0.002507446 -0.04009148 -0.041938443 0.13064486 0.03286999 0.0066436534
0.054149333 -0.026333338 -0.026333092 -0.07260514 0.060832977 0.10592101 0.076582305 0.033100057
0.07990711 -0.047634326 0.077973865 0.0056993514 0.11500421 -0.025589613 -0.026563648 0.020655409
0.08693411 0.054441467 -0.08651373 -0.0040479 0.13862984 0.106346935 -0.12789851 -0.058264673
0.11656073 0.03530693 -0.11887056 0.026916774 -0.05457407 0.027316453 0.07359606 -0.14945696
0.033970125 0.03286079 -0.019240879 -0.019662676 -0.0094590755 0.08370575 0.008477941 0.025645245
0.06402129 0.03801579 0.039412357 0.018454306 0.007373685 0.10531115 -0.08164021 -0.07221406
0.0073450403 -0.06753926 0.042893846 0.012469189 -0.07123947 -0.0071169506 -0.049325794 -0.11083484
-0.11538104 0.050163887 -0.022744402 0.14668866 0.058384214 0.016621526 -0.05019119 0.04939939
0.0097192535 -0.110251896 0.056908697 -0.015923146 -0.014580604 -0.048552822 -0.031504765 -0.041509215
0.13165207 0.045241676 -0.08008675 -0.06912189 0.058910493 0.122711055 -0.15135087 -0.13574135
0.05189829 -0.009642829 0.0094191935 0.019689742 -0.070119955 0.116098225 -0.07263115 0.03282683
0.070513055 -0.06547022 -0.09212561 0.015499307 -0.01960588 -0.12549546 0.11019316 -0.15606377
0.016235463 -0.1036934 0.032322705 -0.07350085 0.01146344 -0.046964537 0.08596062 0.027347699
0.1438343 -0.034201942 0.10897467 -0.015046227 -0.08348078 -0.04992518 0.12140711 0.042481065
0.017826349 -0.029484108 0.015323084 0.108090356 0.04786961 0.00969739 0.05156873 -0.014671776
0.031669043 -0.20140187 -0.0057340395 0.15104909 -0.12727961 0.07453322 -0.019643946 0.09934468
0.07653776 0.0019067904 -0.025907408 0.06404204 -0.049782388 -0.04639335 0.04215657 0.10294993
0.100022 0.050433133 -0.06198006 0.08409533 -0.014263779 0.030018069 0.03962421 -0.03560856
0.11385881 0.0045586172 0.048457697 0.061641827 -0.00333383 -0.03408684 -0.0150234 0.08914009
0.00028798272 0.025726594 0.09646274 0.052329626 -0.12980448 -0.03280022 -0.046623766 -0.13648303
-0.023626594 0.06474931 0.055522688 0.041241985 -0.039501425 -0.018616442 -0.05458708 -0.060037594
-0.13538523 0.01601525 0.0976665 0.11467808 0.047649972 0.054978024 0.08803684 0.038251225
-0.02368992 0.03731416 0.01014919 0.08519629 0.0124228755 0.014713339 0.03696191 -0.024665544
-0.064512484 -0.03435196 0.10900186 0.032537654 0.09658752 -0.03968419 0.12576033 -0.0016127002
00000000: a2a7 9a3d d9c8 61bc f0ab c63d 8867 6e3d
00000010: 298b 243e c3ae b4bd cdcd 0f3d e45e 7dbd
00000020: 27d3 6c3d 7636 11bd 68b1 893d 7b00 4bbd
00000030: 3d70 833d b62c 90bd 2659 233d 1972 123d
00000040: d8bd 9b3b 4972 80bd a1de f53c acee 0ebe
00000050: ea28 103e bf91 a73c ba19 27bc f6dd 693d
00000060: d2d6 92bd e607 e23b de26 913d ae32 c83d
00000070: 409f 273d 986b 22bd af50 993b 4595 1a3b
00000080: e2a6 263d eeb9 d03b 2d59 9bbd 5dce 7b3d
00000090: 6e1f dc3d 7d13 ed3d 9b57 743d 6e50 9e3d
000000a0: 3f50 55bc 285f 2a3b a2fc 45ba 2bd0 773d
000000b0: 3891 953d 153f 473c 44f3 033d 249b 32bd
000000c0: 25d1 54bd 2497 d93d 59cb 233d c3c8 f4bc
000000d0: 2f5f 3e3d 4fd3 e2bd 5082 2fbc 697f 013e
000000e0: c4f4 a1bd 5c3a 47bc f753 24bb f736 24bd
000000f0: a5c7 2bbd c4c7 053e afa2 063d 01b3 d93b
00000100: b1cb 5d3d 03b9 d7bc 7fb8 d7bc 01b2 94bd
00000110: 002c 793d 1ded d83d 2fd7 9c3d ed93 073d
00000120: 57a6 a33d 361c 43bd c3b0 9f3d a0c1 ba3b
00000130: 5487 eb3d 4fa1 d1bc 029c d9bc 8835 a93c
00000140: 830a b23d 04fe 5e3d 1c2e b1bd 3fa4 84bb
00000150: fbf4 0d3e 6ccc d93d d4f7 02be f0a6 6ebd
00000160: 64b7 ee3d 009e 103d 6872 f3bd 9180 dc3c
00000170: 0f89 5fbd c1c6 df3c 88b9 963d 3f0b 19be
00000180: 4224 0b3d 0999 063d 0c9f 9dbc 9f13 a1bc
00000190: 3dfa 1abc ec6d ab3d 10e7 0a3c fa15 d23c
000001a0: 981d 833d 72b6 1b3d da6e 213d 7c2d 973c
000001b0: f49e f13b 5fad d73d fb32 a7bd f7e4 93bd
000001c0: aaae f03b 0652 8abd 75b1 2f3d 924b 4c3c
000001d0: 00e6 91bd 4f35 e9bb d809 4abd 60fd e2bd
000001e0: e54c ecbd a678 4d3d 7852 babc 8d35 163e
000001f0: 4924 6f3d de29 883c 4795 4dbd 0457 4a3d
00000200: 813d 1f3c bfcb e1bd 1819 693d 4271 82bc
00000210: 7ce3 6ebc 53df 46bd 240b 01bd 9105 2abd
00000220: cdcf 063e 564f 393d 8604 a4bd c78f 8dbd
00000230: 214c 713d ef4f fb3d b9fb 1abe c8ff 0abe
00000240: 4d93 543d f5fc 1dbc f652 1a3c 624c a13c
00000250: 0d9b 8fbd e8c4 ed3d a4bf 94bd 6d75 063d
00000260: 2669 903d 4015 86bd 5aac bcbd cef0 7d3c
00000270: 839c a0bc e281 00be f4ac e13d 2ecf 1fbe
00000280: 3c00 853c 355d d4bd d064 043d 9d87 96bd
00000290: 27d1 3b3c e35d 40bd 1f0c b03d 4808 e03c
000002a0: 4c49 133e 5617 0cbd 1d2e df3d 7384 76bc
000002b0: f9f7 aabd 587e 4cbd 4aa4 f83d a000 2e3d
000002c0: 9008 923c a888 f1bc ac0d 7b3c 7a5e dd3d
000002d0: ed12 443d cde1 1e3c bc39 533d e461 70bc
000002e0: 66b7 013d 4b3c 4ebe 9ce4 bbbb 9dac 1a3e
000002f0: 9655 02be dfa4 983d 57ec a0bc 3975 cb3d
00000300: d4bf 9c3d 45ed f93a c63b d4bc 7928 833d
00000310: 9ee8 4bbd f406 3ebd 5eac 2c3d 6ad7 d23d
00000320: 56d8 cc3d f992 4e3d cede 7dbd 2c3a ac3d
00000330: a0b2 69bc 74e8 f53c ff4c 223d 48da 11bd
00000340: cf2e e93d 7460 953b 947b 463d 247c 7c3d
00000350: 637c 5abb a49e 0bbd b524 76bc 148f b63d
00000360: 63fc 9639 94c0 d23c 428e c53d 9757 563d
00000370: 77eb 04be 8659 06bd 90f8 3ebd 35c2 0bbe
00000380: 8f8c c1bc 499b 843d c26b 633d 5bed 283d
00000390: 3fcc 21bd 8281 98bc b496 5fbd fbe9 75bd
000003a0: 6da2 0abe 6a32 833c 6005 c83d 57dc ea3d
000003b0: 9e2c 433d a330 613d a94c b43d 51ad 1c3d
000003c0: 5d11 c2bc bcd6 183d ca48 263c 647b ae3d
000003d0: 5189 4b3c 3710 713c 5f65 173d 650f cabc
000003e0: 1f1f 84bd a4b4 0cbd 5e3c df3d 3446 053d
000003f0: adcf c53d e48b 22bd 51c7 003e 3d61 d3ba

action_model._continuous_distribution.mu.bias f4 [2]
-0.009102929 0.0533693
00000000: 7424 15bc c499 5a3d
