results/test-4/Drive/Drive-16462.pt (torch, 472161 bytes, 36 tensors)

network_body._body_endoder.seq_layers.0.weight f4 [128, 16]
00000000: 7a43 3bbe 3b3e 883e 2bcb b03c 5a72 ff3e
00000010: f361 8abe 40d4 97be dec6 f93d 9709 023e
00000020: 0556 16bf 3f04 4cbe 43a9 413e 409b a03e
00000030: 622e afbc 91e0 983e dda7 893e 6bcf 753e
00000040: e14d c9bd 3695 95bd 269e cabe 0488 c83e
00000050: adc0 d63d be1b 81be 5e9f aa3d d58a 56be
00000060: 6b73 6a3d 484b 03bf a290 d4bd 0823 e83d
00000070: 4870 e83c 3327 adbd c006 4b3d 8683 83be
00000080: a67b 583e 4967 a33e 38a6 82be d33f 843e
00000090: 2031 86be 2a60 b0be 9711 9e3e 7967 febd
000000a0: c1bc a43d 39d3 50be fced a23c 8df3 d13c
000000b0: 657f 87be 8d01 873d e6eb cbbe c9d3 363e
000000c0: 8ffb 473e b0d1 ee3d 7114 963d d01b e33d
000000d0: 7d06 003e d35a 863e 37e6 b7be c62f 853d
000000e0: ae98 bebe 13ec 7abe 2ed6 0d3d 71a9 3c3e
000000f0: fd01 79bc 4310 643d 3cbc 403d 49bd c73c
00000100: cb3d 953d 9040 81be 6b39 d7bd 2756 08bd
00000110: 543d ccbd b17b dcbd ea2a 423e 2199 533d
00000120: e910 8ebe f8b8 b33d b9c9 513e 483a 28be
00000130: 13a6 a9be 4226 c9bc 2980 953e 31ee ad3e
00000140: 5006 1b3f 7ff1 7cbe 4773 eabd 4792 02be
00000150: 75e5 ea3d 70a8 9bbd 25a5 15be 926e b93e
00000160: 1161 bf3e 985e fbbe 24ea a63e 1be5 0dbe
00000170: 33c7 6ebe 2fb3 7ebe f3ed 49bf 354f c5bd
00000180: 718d 813e 0bb8 273d 58cd 99be 3622 053e
00000190: 9ddf 2d3d 6679 613e 3608 c83e ce60 213e
000001a0: 2510 933e 14a0 b33d b997 f7be a9b8 c8be
000001b0: bb7d 64bd bd67 323e 6b99 8bbe da0b 93be
000001c0: b8f0 8f3e c73d b23d 3832 5abd 2e72 0a3e
000001d0: c3c6 c63e 88fa 783e c8c9 2d3e e3d4 5ebe
000001e0: 12ac e3bd 3151 3abe edb2 09bf 1a2c cebd
000001f0: 70aa 29be 02b7 ebb9 178d 91be 520f 9d3e
00000200: 3d83 b53d 1738 58be 743f 97be 9f7a 5d3e
00000210: cbb3 a03b dc8d c1be 0fd7 a03e 217a a0be
00000220: 5611 023e 208a 1bbd 278f 353e e75b bcbe
00000230: 4794 903e 64f0 773e 79dc 5d3e 7c64 b23a
00000240: bc6f 89ba c473 f5be 124e 48bf ba02 69be
00000250: 3f62 8bbe f67a 76be 8c79 223e 5626 243e
00000260: c82b 1f3d 3966 033e d7d0 283d db2a 963e
00000270: f737 ee3c 8329 dd3d fa63 493e 30f1 323e
00000280: 6d85 a5bd e4f5 373e be3a 5bbe ced7 cf3d
00000290: 4283 313e 6f32 8c3e 2712 373e f322 8ebe
000002a0: e56e 8d3d f4fe a9be b92f 37be 4cea a3bd
000002b0: 9984 f03d d933 763e 9f14 073f 4a24 4c3d
000002c0: 173d edbd 45cd 96be 1d71 643e e197 933e
000002d0: 8384 33be 001f 5d3e 0b0d 0ebd 6794 2e3e
000002e0: b6d7 a1bd 1357 00bc 4d0a dfbe 670f 063e
000002f0: 8d88 833e 478d 9a3e 6d88 cf3e c3dd 673d
00000300: 81f4 87be da6b 053e 4428 1f3e 97be 8a3e
00000310: ecf8 bebe d158 1bbe 4a3a 7c3e 29fe 123e
00000320: 30b2 f23e 6395 d53c dcf6 04bc e11b 91be
00000330: 858d 2cbe 2aea 90be 7303 02bf 8621 9a3e
00000340: ecda 873d 58d5 963e e492 9bbe f022 77bd
00000350: 0105 953e 63b8 333e a53a 14be f6c3 00be
00000360: ff15 9ebe 54d7 1fbe 9f37 d23b eaf4 303e
00000370: 8748 78bd eff5 46bd aa7a 493e f7f2 653a
00000380: 638f a73e 80a5 ba3d 8da8 82be 36f3 a73e
00000390: 20c4 433e 1c85 963d 0e87 3e3e 4827 b0be
000003a0: 64a8 b3bc 713a 7ebe c4d1 a8be 1262 86be
000003b0: 3f7f a2bd 7c7c 1a3e e82c 033e d684 21bd
000003c0: ae79 9fbd 3521 233c 1dcf 443e dd63 993e
000003d0: 722c e5be 04c9 84be a837 67bd 5ba9 d63d
000003e0: ead4 6c3d 6338 efbe 2095 f7bd 434e 093f
000003f0: d725 143d ef63 94be 73fe 6fbe 43e4 b43e
-0.18287459 0.26609978 0.021581253 0.4989193 -0.27027854 -0.2965412 0.12196134 0.1269897
-0.58725005 -0.19923495 0.18912224 0.31368446 -0.021384422 0.2985883 0.26885882 0.24004905
-0.09829307 -0.0730385 -0.39573783 0.39166272 0.10485969 -0.25216478 0.08331178 -0.20951398
0.057238977 -0.51286745 -0.10379149 0.11334807 0.028373852 -0.08454742 0.049566984 -0.25686282
0.21140918 0.31914738 -0.2551744 0.25829944 -0.26209354 -0.34448367 0.30872795 -0.124220796
0.080438145 -0.20393075 0.01988887 0.02562883 -0.26464382 0.06592093 -0.39828414 0.17854227
0.19529556 0.116610885 0.07328118 0.11089289 0.12502475 0.26241168 -0.35917827 0.06503253
-0.3722586 -0.24504118 0.034628086 0.18424012 -0.015198228 0.05567957 0.047054514 0.02438225
0.07287177 -0.2524457 -0.105089985 -0.033285286 -0.09972635 -0.1076578 0.18961683 0.051659707
-0.27747276 0.08775514 0.20487107 -0.16428483 -0.33134517 -0.024554376 0.2919934 0.33970788
0.6055651 -0.24701498 -0.11447769 -0.12751113 0.11469547 -0.07600486 -0.14613779 0.3621717
0.37378743 -0.49095607 0.3260051 -0.13856928 -0.23318176 -0.2487304 -0.78878707 -0.09634248
0.25303224 0.040947 -0.30039477 0.13001332 0.042449582 0.22018966 0.39068764 0.15759584
0.28723255 0.08770767 -0.48357943 -0.39203385 -0.05578397 0.17422386 -0.27265486 -0.2871998
0.2811334 0.08703189 -0.05327055 0.13520119 0.38823518 0.2431432 0.16971505 -0.21760897
-0.11116804 -0.18195035 -0.53788644 -0.100670055 -0.16568923 -0.00044959044 -0.28427956 0.3067575
0.08862922 -0.21115147 -0.29540598 0.21628807 0.0049042455 -0.37803543 0.31414077 -0.31343177
0.12701926 -0.037973523 0.1773039 -0.36788866 0.28238127 0.24212795 0.21666135 0.0013610269
-0.001048557 -0.47939885 -0.78244126 -0.22754946 -0.27223393 -0.24070343 0.15866679 0.16030249
0.038860112 0.12831964 0.04121479 0.2932957 0.02907942 0.10798933 0.19667044 0.17474818
-0.080820896 0.17964894 -0.21409127 0.10148583 0.17335227 0.27382228 0.17878018 -0.2776104
0.06905917 -0.33202326 -0.17889298 -0.08003673 0.11744041 0.24043216 0.5276584 0.049839295
-0.115839176 -0.29453483 0.22308774 0.28826812 -0.17531018 0.21593857 -0.034680407 0.17048799
-0.07902472 -0.00783326 -0.43562546 0.13091813 0.25690117 0.3018591 0.40533772 0.056607973
-0.2655373 0.13029423 0.15542704 0.27098534 -0.37299287 -0.151706 0.2463161 0.14354767
0.4740157 0.02607221 -0.0081154965 -0.28341582 -0.1685086 -0.28303653 -0.50786513 0.301037
0.06633553 0.29459643 -0.30385506 -0.060336053 0.2910538 0.17550807 -0.14475496 -0.12574753
-0.30876157 -0.15609485 0.006415322 0.17280927 -0.060616042 -0.048574384 0.19675699 0.00087718613
0.32726583 0.09113598 -0.2551922 0.32802743 0.19117785 0.07349607 0.18606207 -0.3440497
-0.02193088 -0.24826981 -0.32972538 -0.26246697 -0.079344265 0.1508655 0.12810099 -0.039433323
-0.077868804 0.009956648 0.19219632 0.29959002 -0.44760472 -0.25934613 -0.056449562 0.10481521
0.05782024 -0.46722707 -0.1208899 0.5363504 0.0361689 -0.28982493 -0.23436908 0.353304

network_body._body_endoder.seq_layers.0.bias f4 [128]
00000000: 413b 1abc 4f2c 10bd b477 723c 2916 d1bb
00000010: 827d f83c e785 57bc 851e 753b 67f0 7cbc
00000020: 51c5 133c e046 b8bc 62a0 003c 9eeb f0bb
00000030: 57ec 20bc 4f20 9c3b 76ee 45bc bf3f 18bd
00000040: b1a6 8f3c 8162 10bc d566 a7bc 14e7 febb
00000050: 4df6 fdbb 4e85 9bbc 7ade 15bc 2815 bf3c
00000060: 7add 85bb bb7b c0bc c812 213d 6081 03bd
00000070: c714 dfbc 44bd d9bc e41e 24bc ef31 e13c
00000080: ecaa 1dbc ee7c ff3c 9086 e2ba 19a4 5dbc
00000090: 0f50 133b 898e 01bd ed69 0c3a bfaa e0bc
000000a0: cd78 8abb 2057 0cbc ccbd 32bb 1a32 82bc
000000b0: 688d 0e3a ac9c e83c 6e3d 8fbc 2789 a43b
000000c0: 4450 253c f103 36bb c2ab 64bb 04d8 48bc
000000d0: 64ba 08bc f625 d83b f83a bf3c b61e 92bc
000000e0: 1712 12bd 5e16 9c3c 8c5d d13a ab27 2dbb
000000f0: 32b2 abbc 1161 8e3b a514 a73c a4e9 07bb
00000100: 6a35 ab3c 7154 8bbc dcfc f0b9 974a 0abd
00000110: 2050 513c 23df 39bc 3e17 29bc edc6 32bb
00000120: e476 45bc 6d7d 77bc 7d48 9ebc 859f 1b3c
00000130: ab61 86bb 49fb 503b 0861 733c 6b50 47bc
00000140: 9701 5f3b dce6 36bc 6e76 13bc ca54 13bd
00000150: a2a6 95ba 7d00 dfbc 5bcf a0bc c9d9 9fbc
00000160: 0107 d13c 5062 f83a a9ca e9bc acaf 99bb
00000170: c2b4 843c be13 e63b b18e 4bbc c77d cc3a
00000180: a30d 3a3c 897f 5cbc dfb2 793b 5c2c b0bb
00000190: 035f 2ab9 b380 dd3a 7ae8 043c bfdf 04bd
000001a0: 0b00 9dbb b136 67bc 1b7f c4bc e948 ea3c
000001b0: cc3f 47bc fae7 2bbc c7c5 efbc c334 fbbb
000001c0: 4483 abbb 4c0b 05bb 5613 e4bc b8af 8abc
000001d0: ac02 efbb e2d1 bdba 19ee edbb 2a15 c93b
000001e0: 066f bc3c b519 913a d720 b1bb e6ec 94bb
000001f0: 20dd 983b e930 63bc 195b 253a 2998 a63b
-0.009413541 -0.035198506 0.014799047 -0.0063808155 0.030333284 -0.013154483 0.0037402224 -0.015438176
0.009019212 -0.022494733 0.007850738 -0.0073523065 -0.009821973 0.0047645937 -0.012080779 -0.037170168
0.01753554 -0.008812548 -0.020434776 -0.0077790115 -0.0077503086 -0.018984463 -0.009147281 0.023325518
-0.00408524 -0.0234965 0.03932455 -0.032105803 -0.027231587 -0.026579507 -0.0100171305 0.02748963
-0.0096232705 0.0311875 -0.0017282534 -0.013527893 0.0022478139 -0.031630073 0.00053563603 -0.027425168
-0.0042258264 -0.008565694 -0.0027273772 -0.01589303 0.0005437941 0.02839502 -0.017485347 0.0050212326
0.010089938 -0.0027773345 -0.0034892415 -0.012258533 -0.00834522 0.006596322 0.023343548 -0.01783691
-0.035661783 0.019053634 0.0015973314 -0.002642135 -0.020958994 0.0043450673 0.020395586 -0.0020738626
0.020899493 -0.017008038 -0.00045964762 -0.03376254 0.012775451 -0.011344704 -0.010320483 -0.0027279214
-0.0120522715 -0.015105587 -0.019321674 0.009498482 -0.0041009984 0.003188806 0.014854677 -0.012165169
0.0034028047 -0.01116344 -0.009000404 -0.035969533 -0.0011417458 -0.027221913 -0.019630125 -0.019513028
0.025516035 0.0018950198 -0.028539019 -0.004690131 0.016199473 0.0070213964 -0.012424157 0.0015601449
0.01135579 -0.013458141 0.0038101 -0.005376382 -0.00016247858 0.0016899317 0.008112067 -0.032439943
-0.004791265 -0.014112161 -0.02398639 0.02859922 -0.012161206 -0.010492319 -0.029269112 -0.007666202
-0.005234154 -0.0020300923 -0.027841251 -0.016929492 -0.0072940197 -0.0014482106 -0.0072610495 0.006136556
0.023002159 0.0011070283 -0.005405526 -0.004544842 0.004665032 -0.013866642 0.0006307825 0.005084057

network_body._body_endoder.seq_layers.2.weight f4 [128, 128]
00000000: b14e 1bbd afbc c4bd 0393 82bb 1cf9 be3d
00000010: 2914 5d3d 5298 0abd c1bf dc3d cf08 333e
00000020: 3c0e 823b d258 13bd f9b6 94bc 6411 96bd
00000030: aaaa 1a3e e410 62bc 7922 003d 8055 e7bd
00000040: fde3 253e 1d8a 9dbd 91d2 4dbd e983 46bd
00000050: c8bc dbbd 3266 9d3b 571f efbd 9800 2a3e
00000060: 74c0 143d 5017 21bc e312 313e 1a58 4cbd
00000070: 16ed 883d 8d69 023c 9b46 f83c c0db 4dbd
00000080: 6c8e 063e 1e84 08bd 3171 12bd 0b6a 17be
00000090: 29fa 183d adfa 43be 46b8 1abe 1a26 043e
000000a0: 925d f83c a75c 043d f9a4 90bc 9963 293c
000000b0: acf7 8f3d 0fa4 b63d 5b77 c3bd 80cd dbbc
000000c0: 77f5 243e c85b 363e 51a3 493c 49b3 87bd
000000d0: 9179 0fbd 04e8 ec3c 65dd 13be c129 dbbd
000000e0: 3b81 41bd 3496 b53c 8f62 ee3d c135 51bd
000000f0: 9573 2abe fdc6 913d bf4d f6bc 6bae 1bbc
00000100: b5d4 dcbc d045 083e 3dec f2bd 963a 85bd
00000110: f883 e9bd 1f8e 42bd 071c 403c 63d9 693c
00000120: e3f5 3b3d 3651 c539 f501 e63b 7f92 ec3b
00000130: 6b8e 2d3e eaf5 303b 49af abbc 9887 a43c
00000140: 3e8e ba3d 4d5b 013d 13fa 143d 7d3b 293e
00000150: c37b 813d 0daf ecbc f9c9 23bd 8ba2 663d
00000160: 9138 1dbd ce24 b7bc d44c a03d adcd 183e
00000170: 6d47 a53d 1bce 04be 32a0 d3bd 815f 893c
00000180: 9190 7abd fa67 32bd 23a3 9d3d e89b 39be
00000190: b073 0b3d 5455 88bc 5bbd cb3d f739 65bd
000001a0: c64d c5bc 4301 253b ee1e cabc 986d ac3c
000001b0: f42e 213d 3247 aebc 3a42 46bc 6718 a2bd
000001c0: 0aca 9dbd 877e babd e0a1 a93d 812c a7bd
000001d0: cf3e 4bbd 0c48 abbd 1d9c 0c3d 0d27 243d
000001e0: d369 17bc 60d4 53bd ae35 0cbe 8e51 003e
000001f0: db60 363e 0092 61bd 706f 04bc cc3a 5d3c
00000200: 911e 6ebd dc78 57bd a2d4 87bd 9770 db3d
00000210: 0346 b43c ae90 7abd 3cf6 6eb8 02ac 27be
00000220: a4ec 1cbd e5b6 b1bd 4c6a eebd f547 9a3d
00000230: f3c5 8b3d e2a8 013d 6668 f83a 129d b23d
00000240: 3fa3 6a3d 7586 42bc 40b1 cf3c 9d18 b33d
00000250: 9b67 3dbe 9aae 7e3d 8fcf fdbd 5341 e1bd
00000260: 9e21 63bd 8789 39bc e5b7 683d ddc9 d13c
00000270: 7561 26bc 4ef0 803d 7ee2 59be 640e 46bd
00000280: a3e9 873c 3367 bdbd a462 f73c ba28 663d
00000290: d46e c03b 2db5 103d 2afc ad3d 6c6f 31bd
000002a0: a461 c93d 958a 7b3d 25b1 adbd 58b2 5abd
000002b0: 944a b2bd 594b b73a 7fc4 06be 6a39 123e
000002c0: 77e7 1cbd 7fc2 5fbc 3e9d 69be 1c90 d4bd
000002d0: 71cc cbbd e4a3 62bd da93 3f3d d0a2 a33d
000002e0: adee baba b0dd e5bc bbde 703d 021e 21bd
000002f0: cc2d acbd f32f 9e3d 0348 28be 9f78 3a3e
00000300: 80ac 92bd bf05 97bd 57dc 19be 762c 1cbc
00000310: 3ee4 03bb 0cd4 033d 340b 3bbc 8190 b63d
00000320: 868d cf3d d84d b0bd 3f6a e1bd 1ce4 793d
00000330: 60c9 f73c d20a 373d 35f5 23be 8ec4 2abd
00000340: 0dbc 5b3d d6fc 073e 5fbc dfbd d38d a43d
00000350: fb8e aebd 92f2 323d fe28 e13d d764 f23d
00000360: f531 d5bd 1736 adbd d470 afbd 82df 283e
00000370: 6dd3 783c 1e0b febc e9c2 8dbc 670b 0ebe
00000380: 97c6 d5bd 774d f83d 8186 3cbd d7c4 b9bd
00000390: d7a4 a5bd 78a0 a83c 5f50 38ba 93fa 63bd
000003a0: f39a 1cbc 7caa 99bd 2698 be3c 81c7 743d
000003b0: b416 2dbc a4dc 363d bfd7 c2bd 1c18 a03d
000003c0: 0624 9cbc 4af6 51be 07a1 5dbb 7ee0 683c
000003d0: a1ec ba3d 5583 b33c fb80 c3bc cfe2 c8bd
000003e0: 92b1 983d b412 9ebc c041 88bd 6c0d e1bb
000003f0: d2d6 2cbd b0f3 383e a160 92bd 22a3 0ebe
-0.037916843 -0.09606301 -0.0039848103 0.093248576 0.053974304 -0.03383667 0.10778762 0.17483829
0.003968982 -0.035973378 -0.018153654 -0.07327536 0.15104166 -0.013797972 0.031282876 -0.11295605
0.16200252 -0.07692359 -0.05024964 -0.048465643 -0.107293665 0.0048034424 -0.116758995 0.16601789
0.03631635 -0.009832218 0.17292361 -0.049888708 0.066858456 0.007959736 0.030307105 -0.050258398
0.13140267 -0.03332912 -0.03575248 -0.14786546 0.037347946 -0.19138594 -0.15109357 0.1290516
0.030318055 0.032314923 -0.01765679 0.010338687 0.070296615 0.089180104 -0.095442496 -0.026831388
0.16109262 0.1780845 0.012307004 -0.06625993 -0.035028044 0.028919227 -0.14439924 -0.10701323
-0.047242384 0.022166349 0.11639892 -0.051076654 -0.16645654 0.07118032 -0.03006637 -0.009502034
-0.026956895 0.13307881 -0.11861465 -0.06505315 -0.11402124 -0.04749882 0.011725432 0.01427302
0.045888793 0.00037635275 0.0070192763 0.007219612 0.1694886 0.0027002045 -0.020957606 0.020084187
0.09109162 0.03158121 0.0363713 0.16526599 0.06322434 -0.028892064 -0.039987538 0.056307357
-0.038384024 -0.022356417 0.07827154 0.14922209 0.08070264 -0.12969248 -0.10333289 0.016769173
-0.061173026 -0.04355619 0.076971315 -0.1812588 0.034045875 -0.01664225 0.09948226 -0.055963483
-0.024084937 0.0025177754 -0.024672952 0.021048352 0.03935142 -0.021274183 -0.012100751 -0.07914811
-0.077045515 -0.091061644 0.08282828 -0.08162785 -0.049620446 -0.08363351 0.03432857 0.040076304
-0.009241539 -0.05171621 -0.13692352 0.1253111 0.17810385 -0.055070877 -0.008083209 0.013502788
-0.05813462 -0.052605495 -0.06632353 0.10714834 0.02200604 -0.061173134 -5.6972945e-05 -0.1637421
-0.038311616 -0.086774625 -0.11641368 0.07533256 0.06824865 0.0316552 0.0018952012 0.08721365
0.05728459 -0.011872877 0.025353074 0.08744929 -0.18496554 0.06217823 -0.12393104 -0.10998788
-0.05545198 -0.011324293 0.056816 0.025608951 -0.0101550715 0.062958345 -0.21277806 -0.048353568
0.016590899 -0.09248199 0.030198403 0.056191184 0.0058725867 0.035329033 0.08495362 -0.04331915
0.098330766 0.06141146 -0.08481053 -0.053392738 -0.08705631 0.0013984247 -0.13160895 0.14279714
-0.03830668 -0.013657211 -0.2281389 -0.10379049 -0.099511035 -0.05533208 0.04677186 0.079900384
-0.0014261805 -0.02805981 0.058806162 -0.03933526 -0.084071726 0.07723989 -0.1643372 0.18210076
-0.07161808 -0.07374143 -0.15025459 -0.009532085 -0.0020125057 0.032184646 -0.011416245 0.08914281
0.10134415 -0.086085975 -0.11006593 0.061008558 0.03024739 0.044688053 -0.16011508 -0.041691355
0.053646136 0.13280043 -0.10924601 0.08034863 -0.08523365 0.043688364 0.10994147 0.1183564
-0.10409919 -0.084575824 -0.08566442 0.16491511 0.015187127 -0.03101116 -0.017304854 -0.13871537
-0.10438269 0.1212415 -0.04602671 -0.09070747 -0.08088081 0.02058433 -0.0007031019 -0.055658888
-0.009558427 -0.075032204 0.02326591 0.059760574 -0.010564495 0.044644013 -0.095138066 0.078170985
-0.019060146 -0.20504108 -0.0033817904 0.014213679 0.09127165 0.02191321 -0.023865214 -0.09808885
0.07455744 -0.019296028 -0.06653166 -0.006868055 -0.042197056 0.1806171 -0.07147337 -0.13929418

network_body._body_endoder.seq_layers.2.bias f4 [128]
00000000: e312 c239 41db 95ba 6335 37bc c3fc 8abb
00000010: f4ad 6c37 3679 7ebc 5d9e 4eba 15cc 91bb
00000020: 36fa eaba 2dc3 10bc a830 9e3b 013f bd3b
00000030: 81c5 713a 7bfc a1bb c5e0 3bbc 8226 c83b
00000040: 1f05 5cbc 969c 093c d9b8 9cbc 7123 783c
00000050: bb35 4bbc 2742 27bc 02f1 3abc 16d6 fb3b
00000060: b64d e23a edba 08bc 4bf8 03bb aea3 babc
00000070: d367 32bc 00cd 0c3b 1a99 023c bca6 03bc
00000080: de2d 0cbc a012 0037 01a5 cf3b bcff c9ba
00000090: 7460 b33c 7d05 8638 65da 193a ba91 84bb
000000a0: 0ba3 09bc ac12 483b 7089 43bb c782 483b
000000b0: 226e 88bc 6d8b e53b e3df 173b 30ac 743a
000000c0: 0d15 8dbc 3384 b3bc 002e b1bc b917 123b
000000d0: 3916 8c3c e061 1ebb a956 cebc f791 66bc
000000e0: d7c3 c93b ef8c 7cbc 3d71 02bc aca0 a4bc
000000f0: 1d24 84bc 6d11 e8bb b06b 36bc 5b32 98bc
00000100: 7318 c6bc 30a3 35bc 151b b3bc f12c c9b8
00000110: 22c6 cabb ab2f f73a 7f7c 6f3b 1bfc d2ba
00000120: 3fdf ac3c 73f1 d4bb 63ed c3bb 1527 35ba
00000130: 23aa 983c fe85 98bb d48d 01bc b773 b7bc
00000140: d04f 06bc 57de 823b e355 493a a9b3 813a
00000150: f486 183a fe5a 01bc 02a5 95bc 7670 e0bb
00000160: 9823 75bc 93bd 553c 57c8 20bc 1dea b9bb
00000170: 1c81 17bc e17a 28bc 3cd4 6bbc d892 78bc
00000180: e901 10bc 1544 23bb 0d12 413c bc82 93bb
00000190: 931f 6dbc 503d c53b 91aa 50bb 3d46 293c
000001a0: ae35 b2bc 4378 d5bb 4e3b 1ebb 9de8 87bc
000001b0: 3cd1 193c e201 84bc 419a 64bb e8e3 423a
000001c0: 6b93 e8bb 5a7a 1fbc 8798 65bb 9ed1 4abc
000001d0: 1156 07bc 9134 17ba 8139 333a 6f25 d6bb
000001e0: 1c56 05b9 41ce 333c 994d 1bbb 446f 80bc
000001f0: cb61 15bc 62f0 43bc 5583 683a 49b1 2d3c
0.00037016635 -0.0011433141 -0.011182162 -0.0042415573 1.4107198e-05 -0.015531829 -0.00078818743 -0.0044493773
-0.0017927352 -0.008835596 0.0048275776 0.005775333 0.0009222851 -0.004943428 -0.011467163 0.006108106
-0.013428955 0.008399149 -0.019131111 0.015145169 -0.012402947 -0.010208643 -0.01141 0.007685433
0.0017265591 -0.008345348 -0.0020137008 -0.022783127 -0.010889011 0.0021484494 0.007971073 -0.008035358
-0.008555857 7.633731e-06 0.0063368087 -0.0015411298 0.021896578 6.39064e-05 0.000586903 -0.0040456923
-0.008400689 0.0030528707 -0.0029836558 0.0030595527 -0.016654078 0.0070051462 0.0023174218 0.0009333519
-0.017221952 -0.021913623 -0.02162838 0.0022291972 0.01710044 -0.0024167225 -0.025187807 -0.014072887
0.006157379 -0.015414461 -0.007961568 -0.020096146 -0.016130501 -0.0070821554 -0.011134073 -0.018578699
-0.02418158 -0.01108627 -0.0218635 -9.592798e-05 -0.00618817 0.0018858811 0.0036542711 -0.0016096862
0.021102546 -0.0064985096 -0.0059792264 -0.0006910426 0.018635815 -0.004654645 -0.00790735 -0.022394044
-0.00819774 0.00399379 0.00076803396 0.0009895462 0.00058184494 -0.007895229 -0.018267158 -0.006849344
-0.0149620995 0.013045686 -0.00981339 -0.0056736604 -0.009247091 -0.010283203 -0.014393862 -0.015171729
-0.008789518 -0.0024912406 0.011784089 -0.0045016687 -0.01447286 0.006019272 -0.0031839947 0.0103316875
-0.021754112 -0.0065145805 -0.0024144235 -0.01659041 0.009388264 -0.016114179 -0.0034881982 0.00074344734
-0.0070976517 -0.009733761 -0.003503354 -0.012379078 -0.008260266 -0.0005768026 0.0006836877 -0.006535224
-0.00012715947 0.010974468 -0.0023697375 -0.015678056 -0.009117554 -0.011959167 0.00088696677 0.01060135

action_model._continuous_distribution.log_sigma f4 [1, 2]
00000000: 64f5 96bd c1be bbbc
-0.07371023 -0.022918107

action_model._continuous_distribution.mu.weight f4 [2, 128]
00000000: 0ad1 4cba d4ca 25bb 23bb 8f3a fa06 58bc
00000010: b013 d2bc e292 ccbb 9b38 05bd 9bb5 92bc
00000020: 534a 6a3c 9105 d5bb 3131 1abd cde9 ffbc
00000030: 441d 1d3c 2ea9 7cbc faff f8bb 8f1a 9c3c
00000040: dce8 bd3c f5d2 efbc a0de 473b 4a69 f93c
00000050: 0b15 b93c e5df 9c3c 0c02 bf3a 0b9b a8bc
00000060: 35f5 e83c 665e 8d3a e86f 50bb 3e19 b2ba
00000070: 5f1f 0ebc 7ada 24bd 590b dcbb eca9 36bd
00000080: 7e76 a83c e52a 893b e0cf 99bc 9edc d63c
00000090: e9a2 75bd 2941 9a3b 5485 71bb 407b 813b
000000a0: 7f77 91bc 8e17 1ebd 5fb8 83bb 6f28 1bbd
000000b0: 251e 88bb 4655 253b ef3a c2bc 0589 cd3c
000000c0: 5629 18bd 30a0 463c 2967 923b 3c3f 923d
000000d0: fbca 5dbd 7ba5 ff3c 641c f23b a744 033c
000000e0: bbdb 9ebc 4217 0c3c 9f99 5cba 3528 243c
000000f0: 4f1c b7bb c462 af3b e73d f03c ae22 033c
00000100: 45e0 943b dfa4 0a3b 6a49 59bb 1079 29bc
00000110: bc79 19bc d66a e33c 771f d73c 74ab 9cbc
00000120: 205e 2e3d 12b3 903c 41b2 05bc 4d91 3dbc
00000130: b6bb fbbc 1f18 2bbd b094 1e3c 2343 20bc
00000140: 84d6 f43b 9a84 483d f85d 623b 807f 5e3c
00000150: cab5 05bd 1a17 a3ba 242c 113c a0d8 b23b
00000160: 01db 8a3b 6d1e 233c b326 a7bb 9f31 043d
00000170: 85ac 90bc bcd8 90bb f5df 80bc f09a 5bbb
00000180: d34f 59bc 96f5 a03c 6a43 2cbd bb09 d73c
00000190: a0cb b4bc 5acc 06bb 7e17 c43c 2405 dcbc
000001a0: 4583 53bb 72dd 953c 0dc1 a83c edfe 063c
000001b0: 01f0 14bd 7eca 1fbb 864e d2bc fe4d ffbc
000001c0: 164c e5bb 2a58 31bc 0394 013c 620c 15bc
000001d0: 8bca bdbb 8591 053d c990 f7bc f2c6 1c3d
000001e0: 95d5 99bc d95c f4bc 7144 b03c df17 153b
000001f0: 4b50 9fbc 910c 28bc 87b4 f93b 7d4f 163d
00000200: fc8e 643d f81e 843c 9d12 47b9 29f1 aaba
00000210: da13 bd3c cef7 253c 27a9 d1bb b606 07bc
00000220: 9960 543c 8070 ab3c 8cdd d03b 7a91 813c
00000230: efde b63c 8644 843c bbbc dc3c dff8 573c
00000240: 0d01 79bc c58d 353c 2e7c 53bc cba8 753c
00000250: 0fbd 323c 0b44 293c 5774 a2bb 4a17 743c
00000260: f445 e939 8f70 ca3b 1475 ac3c 171b c93b
00000270: 715d abbc 5393 4ebc d391 223d 5434 b7bc
00000280: 6b70 e23c 38bb dd3c 257a 32bc 7274 de3c
00000290: 32b2 b13c 49c9 ac3c f65f cc3c cb7c f6bc
000002a0: 0306 b03c 795c 123a 1d69 8d3c 1967 bebc
000002b0: 1d42 d9ba 0456 a2bc 3cc8 bdbc e349 07bc
000002c0: 411e 2fbc 4bfc 093c aafa 92bb 9060 893c
000002d0: 0887 e93c adb2 9b3b 780c fbb9 3167 9cbc
000002e0: ef09 bf3c 5253 2dbc 8de5 a2bb 1496 543c
000002f0: 9fae 8abb 704f 173c 867a debb 83a5 22bb
00000300: 3187 ebbb 372d 973c c9cd 29bb 6883 e83c
00000310: de58 483b 84a3 b1bb c301 9f3b 9001 853c
00000320: 6073 5fbc 1584 343c 584d 513b bd85 d6bc
00000330: ab67 c0bb 138e a73a dabe 563c 1947 03bc
00000340: fcfa 883b 9888 2c3c e422 503c bf00 a4ba
00000350: b4ff 41b9 e968 383c c4db 933b 7947 edbc
00000360: 7695 9a3b 790e 323d c4aa 3e3c 3a54 a9bc
00000370: 232d 5c3a a380 38ba 6441 71bb 88b4 673c
00000380: c3f1 583c 7021 7f3c ecc6 923c 93b6 173c
00000390: e316 97bb fd5e 723c aa13 a33a 73df 453a
000003a0: 8466 f1ba f7bc 9a3b bbbd 833b 3d90 623b
000003b0: 6592 04bd fdd6 603c cf33 4c3c 6094 8cbb
000003c0: cdfa b7bc 6665 f6bb 5b12 6d3c ed8e 5cbc
000003d0: ee12 3fbc 8fc9 b23b 114b e63c d09d 133c
000003e0: 7818 9a3c 2cf6 a6bc 1e0e 10bc 945c 3e3b
000003f0: 2c07 94ba b0a5 a0ba 822c 43bc 77c0 4b3d
-0.00078131317 -0.0025297897 0.0010965805 -0.013185257 -0.025644153 -0.0062430957 -0.032524686 -0.017908862
0.014299947 -0.0065009077 -0.03764457 -0.031239415 0.009589497 -0.015421195 -0.007598874 0.019055633
0.023182325 -0.029275397 0.0030497685 0.030445714 0.022593042 0.01914973 0.0014572754 -0.020581743
0.028437236 0.0010785579 -0.0031804983 -0.0013587845 -0.008674472 -0.040247418 -0.00671522 -0.044595644
0.020564314 0.0041860216 -0.01877588 0.026228245 -0.059969816 0.0047074747 -0.0036853151 0.00395146
-0.017757175 -0.038596682 -0.0040197815 -0.037880357 -0.004153984 0.002522783 -0.023709742 0.02508975
-0.037148796 0.012123153 0.004467864 0.07140967 -0.054148655 0.031206837 0.0073886383 0.008011973
-0.019391885 0.008550467 -0.00084152253 0.010019352 -0.0055880914 0.00535235 0.029326392 0.008003874
0.0045433366 0.00211554 -0.003315533 -0.010343805 -0.009367403 0.027760904 0.02626012 -0.019124724
0.042570233 0.017663512 -0.008160175 -0.011570287 -0.030729156 -0.04177105 0.009679005 -0.009781632
0.0074718613 0.048954584 0.0034540873 0.013580203 -0.03264407 -0.0012442798 0.008860622 0.0054579526
0.004237533 0.009955985 -0.005101049 0.032273885 -0.017660389 -0.004420368 -0.015731791 -0.0033509098
-0.0132636605 0.019648355 -0.04205648 0.026249757 -0.022069752 -0.002056858 0.023936983 -0.02685792
-0.0032274288 0.01829407 0.020599866 0.00823949 -0.036361698 -0.002438217 -0.025672209 -0.03116512
-0.0069975955 -0.010824243 0.007908824 -0.009097191 -0.0057919673 0.03260948 -0.030220406 0.038275667
-0.018778602 -0.02982943 0.02151701 0.0022749824 -0.019447466 -0.010256902 0.0076203975 0.0366969
0.055800423 0.016128048 -0.00018985053 -0.0013041842 0.023080755 0.010129882 -0.0063983384 -0.008241346
0.012962484 0.020927668 0.0063740667 0.015816439 0.0223231 0.016145956 0.026945462 0.013181894
-0.015198004 0.011081164 -0.012908025 0.014993857 0.010909333 0.010331164 -0.0049577164 0.014898131
0.00044493342 0.006177969 0.021051921 0.0061372626 -0.02091858 -0.012608367 0.03968985 -0.02236382
0.027641496 0.027066812 -0.010893379 0.027155135 0.021691415 0.021092074 0.024948101 -0.030088803
0.021487242 0.00055832375 0.017262036 -0.02324252 -0.001657549 -0.019816406 -0.023166768 -0.008257362
-0.010688365 0.008421968 -0.004485448 0.016769677 0.02850677 0.0047515244 -0.0004788374 -0.019092174
0.023320166 -0.010578947 -0.0049712122 0.012975235 -0.0042322422 0.009235248 -0.0067895083 -0.002481789
-0.007187747 0.018454177 -0.002591001 0.028382972 0.0030570547 -0.005421104 0.004852505 0.016236097
-0.013638347 0.011017819 0.003193697 -0.026186818 -0.005871733 0.001278343 0.013107026 -0.0080125565
0.0041803103 0.010530613 0.012703631 -0.0012512429 -0.00018501171 0.011255481 0.004512282 -0.028964745
0.004717524 0.043470833 0.011637393 -0.020670045 0.000839906 -0.00070382113 -0.0036812657 0.014142163
0.013241234 0.015571937 0.017917119 0.009259838 -0.0046108826 0.014793155 0.0012441773 0.000754825
-0.0018417393 0.0047222334 0.0040204204 0.0034570836 -0.032366175 0.013723132 0.012463524 -0.0042901486
-0.022458458 -0.007519412 0.014469708 -0.013461811 -0.011662228 0.0054561566 0.028111966 0.009009793
0.018810496 -0.020381056 -0.008792428 0.002904688 -0.0011293641 -0.001225641 -0.011912467 0.049744096

action_model._continuous_distribution.mu.bias f4 [2]
00000000: 4068 22bb 4c28 d03b
-0.0024781376 0.00635246

exp_avg f4 [128, 16]
00000000: c356 983c 9c98 953c 1956 b93c 6a20 ca3c
00000010: 6297 c13c 2831 b33c 8474 b13c 5ca8 663c
00000020: 42d3 0b3c 22d0 c7ba 4407 2b3c c2bd bc3b
00000030: c2c2 433c 5eb2 dcba c892 b23c e0ac 26bc
00000040: 58ac 06bb ba5f 25bb 18e0 40bb d8d7 7dbb
00000050: 471e 82bb 98fa 80bb 7c74 7ebb edbd c0ba
00000060: 3680 5dba 205d e6b9 3359 deba a471 a0b9
00000070: 0c9a 7dba c484 cfb9 1b59 7cbb 63ed 553b
00000080: 584e 0cba f968 1bba 1189 34ba bbf9 51ba
00000090: d9bd 7cba 5261 96ba a737 b0ba 2277 f1ba
000000a0: 0a55 18bb 7485 15bb 5e83 c9b9 7e57 c0ba
000000b0: cf9d a2b9 a8ad 2fbb 74ba e6b9 eaf1 f8ba
000000c0: 47ff ac3c 1cf1 af3c aedd da3c 1133 da3c
000000d0: 68d5 d13c d616 be3c c28f d03c c9b7 a13c
000000e0: 58bd 723c 75c9 113c d61c 323c f881 023c
000000f0: 9874 ac3c b794 243c aa0b ce3c 1845 df3b
00000100: 7864 d03b 73cd da3b fefd e43b 7a05 f23b
00000110: 9840 033c 8de5 123c 272d 233c 779c 363c
00000120: 6843 3c3c a72e 723c 0412 be3b 9808 e53b
00000130: 1422 bb3b 1863 613c 1de8 333c f6dc 2e3c
00000140: 86f6 71b9 cf95 75b9 7bf3 79b9 091d 78b9
00000150: 29da 6cb9 b07e 65b9 f742 5bb9 1849 58b9
00000160: 6a6e 53b9 6fdd d8b8 7814 13b9 35cb 66b8
00000170: ee52 11b9 fc46 50b8 855a 38b9 cae6 6b35
00000180: c708 58bc 1a3b 70bc a796 79bc 4db3 78bc
00000190: f4d5 65bc 035d 47bc ba6a 4dbc c644 10bc
000001a0: 1a01 adbb 007e 8eb9 89a2 c7bb c05c d0ba
000001b0: a247 09bc 427f 24ba 1966 70bc 687a 7e3b
000001c0: 5b9f 003c 40d7 b93b f5c7 d13b 1156 d23b
000001d0: af2f c83b da52 c43b 0032 de3b 12d9 a13b
000001e0: 64d9 473b 64e2 d83a b976 533b 0015 653a
000001f0: e65f 0c3c 58ab 033b 469b ce3b 8a49 d53b
00000200: 28c6 b2bb 726f d9bb 016a d5bb cbd3 e3bb
00000210: bc34 e5bb 82eb b6bb bc68 c6bb 86ae 38bb
00000220: 8bca 2bbb 3691 173b dcad 2bbb 14d8 e839
00000230: 2880 61bb 5fba 0f3b 3e76 e3bb 26c1 c83a
00000240: e03a b0b8 f853 e7b8 7859 27b9 362d 84b9
00000250: fc2a c1b9 ba7f f6b9 ce99 18ba 7b31 90ba
00000260: e479 c3ba 705b db38 84b4 92b8 43f3 b6ba
00000270: 800c 19b7 2889 e0b9 d09d db38 08c2 3eba
00000280: 91b0 f2ba 86cd 85bb 224d 87bb 6cb4 c4bb
00000290: 5f0f c1bb 7123 cfbb e447 a1bb e487 573a
000002a0: 0eeb d23a 628d 683b 84af 19bb cf1a 003b
000002b0: a087 903b da1c 893b f10d ecbb 735e 9e3c
000002c0: 1bf8 94bc bf67 78bc 99e4 a8bc 7c84 a1bc
000002d0: 0c1f 96bc 357c 7cbc 95f7 9abc 1c50 74bc
000002e0: 32a7 26bc 00d3 80b9 8dcf e0bb 0479 94bb
000002f0: c0ea a4bc a2a6 30bb 941c 59bc 47a0 11bc
00000300: 93e8 15ba 589c 82ba 45a7 6bbb 89ae 6cbb
00000310: ba68 69bb 2ef0 46bb 758c 3ebb 266a 3cbb
00000320: f535 3dbb 2cd5 f4ba a624 13ba 570d eeba
00000330: a82f 73bb f2e2 36bb 14af b3ba 6332 89bb
00000340: 0ea6 303c 44bb 6a3c b814 4c3c f517 4e3c
00000350: 1209 4b3c 3c55 203c d62b 273c 5b46 023c
00000360: 3616 b23b 142a 783b b662 af3b 2141 ad3b
00000370: 6ec0 e13b 238c ad3b f3fe 4f3c 2ceb 29ba
00000380: 15a0 c53c e6e8 e03c 5ec2 093d bec8 113d
00000390: aee9 0b3d 1c1c fd3c 4f02 ed3c e534 a83c
000003a0: e5f2 853c 7f18 0e3c 84e0 5b3c 9793 e73b
000003b0: b95f c43c 5039 1e3c 6660 f33c e40b 40bb
000003c0: 1ae2 db39 1cd6 413a a0bf 2d3a f7f1 213a
000003d0: b8cc 0a3a 9ae9 cd39 55ca a239 24f2 e438
000003e0: 14c7 6538 b8af 04b8 4485 6439 3401 5ab8
000003f0: f826 373a 0070 ae33 dba2 033a dbea a139
0.018596059 0.018261246 0.022624062 0.02467366 0.023631755 0.021874025 0.021662004 0.014078226
0.0085342545 -0.0015244524 0.010438744 0.0057599256 0.011948289 -0.0016837826 0.021798506 -0.010173053
-0.0020549502 -0.002523406 -0.0029430445 -0.003873339 -0.0039708945 -0.003936123 -0.0038826754 -0.001470504
-0.0008449586 -0.00043938402 -0.0016963839 -0.00030602247 -0.0009674139 -0.00039581035 -0.003850526 0.0032642714
-0.00053522503 -0.0005928423 -0.00068868796 -0.000800993 -0.00096413266 -0.0011473096 -0.001344432 -0.0018422345
-0.0023244047 -0.002281514 -0.00038435584 -0.0014674512 -0.00031016624 -0.0026806388 -0.00044007937 -0.0018992994
0.02111782 0.021477275 0.026717033 0.026635678 0.025614455 0.023204248 0.025459174 0.019740956
0.014815651 0.008898129 0.010871133 0.007965557 0.02105169 0.010045222 0.025152046 0.0068136565
0.006359633 0.0066773235 0.006988286 0.0073859068 0.008011006 0.008965862 0.009959496 0.011145703
0.01149068 0.014781631 0.0058004875 0.00698955 0.0057108495 0.013756536 0.010980633 0.010672798
-0.00023075388 -0.00023420829 -0.00023837194 -0.0002366194 -0.00022587985 -0.00021886337 -0.00020910414 -0.00020626595
-0.0002016366 -0.00010340928 -0.00014026638 -5.5025524e-05 -0.00013859171 -4.9657174e-05 -0.00017581329 8.7880164e-07
-0.013185686 -0.014662528 -0.015233672 -0.015179467 -0.014028061 -0.012168172 -0.012537653 -0.008805459
-0.0052796723 -0.00027178228 -0.0060923737 -0.0015896782 -0.008378895 -0.00062750664 -0.0146727795 0.0038830284
0.007850493 0.0056714118 0.0064020106 0.0064189513 0.0061092 0.005991322 0.006780863 0.004939207
0.0030494565 0.0016546962 0.003226681 0.0008738786 0.008567786 0.0020091143 0.006305131 0.0065090107
-0.005455751 -0.0066356 -0.006512881 -0.006952738 -0.006994812 -0.005582274 -0.006054966 -0.0028180196
-0.0026213254 0.0023127324 -0.0026196158 0.0004441148 -0.0034408662 0.0021931154 -0.006941586 0.0015316352
-8.4033e-05 -0.00011030579 -0.00015959691 -0.00025210687 -0.00036843854 -0.0004701594 -0.00058212585 -0.0011001074
-0.0014913646 0.00010459765 -6.995446e-05 -0.0013957996 -9.122421e-06 -0.000428268 0.000104721286 -0.0007276838
-0.0018515756 -0.004083338 -0.004129068 -0.0060029533 -0.005891725 -0.0063213636 -0.0049219 0.00082218484
0.001609178 0.0035484661 -0.0023450563 0.001954723 0.004410699 0.0041843476 -0.0072038104 0.019332146
-0.018184712 -0.015161454 -0.020616816 -0.019716494 -0.018325351 -0.015410473 -0.018916884 -0.014911678
-0.010171698 -0.0002457127 -0.0068606795 -0.0045310277 -0.020131469 -0.002695479 -0.013251442 -0.008888311
-0.0005718555 -0.0009964807 -0.0035957855 -0.0036114773 -0.00356154 -0.003035556 -0.0029075418 -0.0028749793
-0.0028871272 -0.0018679253 -0.0005613066 -0.0018161935 -0.0037107263 -0.0027906266 -0.0013708794 -0.004186915
0.010781778 0.014326874 0.012456112 0.012578954 0.012392299 0.009785946 0.010203322 0.007951344
0.0054347767 0.0037866877 0.0053523434 0.005287305 0.0068893945 0.0052962466 0.012695062 -0.0006481882
0.024124185 0.027454805 0.03363263 0.035591833 0.0341584 0.030897193 0.028931765 0.020533035
0.016351173 0.0086728325 0.013420228 0.0070671546 0.023971425 0.009657219 0.029709052 -0.0029303962
0.00041939394 0.00073942705 0.00066279806 0.0006177718 0.00052947877 0.00039274694 0.00031049797 0.000109169894
5.478326e-05 -3.1634903e-05 0.0002179342 -5.197637e-05 0.0006986703 8.122879e-08 0.0005021521 0.00030883294

exp_avg_sq f4 [128, 16]
00000000: ee85 143b 68a0 643b c683 b13b 08db c03b
00000010: fb97 bf3b 3b8d bf3b 82e1 9d3b 343b 763b
00000020: a3f3 443b 4bbd c43a 906f 5f3a 645e 053b
00000030: d688 eb3a 434f e93a b234 443b f259 1c3b
00000040: 23dd 9537 a082 e537 3477 3638 f365 b838
00000050: 7db5 c038 daa7 be38 021e aa38 a03e fd37
00000060: bea0 7937 d906 a036 c219 3837 dc37 ab36
00000070: 5937 5b37 36cb 9a36 62da 4938 4c87 5f38
00000080: 969c 4d39 ebb0 6b39 9843 6039 508c 7e39
00000090: 82b3 7839 0de5 9039 4155 bd39 3fc6 d039
000000a0: 0a53 d439 8b9a 6439 42ac 1538 da95 e039
000000b0: cfef 3f37 1737 9339 66e4 9a37 bb60 5c39
000000c0: 3877 853b 9e5a ef3b 47f5 1b3c b22b 203c
000000d0: 86f2 153c 91a6 ff3b 7a82 be3b fbd2 753b
000000e0: 3b83 1a3b 6cb5 743a 4461 b93a dcd7 8e3a
000000f0: 6b16 673b cf5f 9b3a de52 d63b 7b1c 523b
00000100: f2af 763a 6b7a b43a 1216 e73a 4444 f73a
00000110: 638d fe3a 40b5 f43a 2a30 de3a d446 b23a
00000120: dd47 943a 1d10 843a 7dc5 173a a0ce 5939
00000130: c1e8 183a f197 a13a 7b31 0b3b 23d8 b13a
00000140: b875 a738 5ffa 9f38 7641 8b38 955d 8038
00000150: 95a2 6038 c6c1 4c38 cb20 3138 9b9e 1838
00000160: b35f 0138 4f72 4c37 c8b4 8637 8d2e 5138
00000170: 1d3f ec35 a1a2 3a38 b6a3 3f36 601a e136
00000180: 5384 293a 96a5 703a 3f31 973a d0d2 963a
00000190: 8a15 8f3a 7d42 803a db38 423a 0032 033a
000001a0: 31ef bd39 51a0 6139 98ff 2439 0b60 6439
000001b0: 1a32 a639 fd5f 9b39 932b 163a 2564 c539
000001c0: 4fdd 523a 0c5e ac3a 1dd6 c83a 05f9 c73a
000001d0: 8961 b83a d867 9e3a 0f97 7c3a df63 3d3a
000001e0: 9b9b 0d3a d548 8f39 1556 6039 d670 a239
000001f0: a35f 213a 746d cb39 df7f 7e3a dc43 1f3a
00000200: cfde b439 9977 fa39 6fd3 303a e2f4 4d3a
00000210: ca4b 4f3a 9f04 463a 15eb 313a a34a ed39
00000220: 88b7 c439 0264 4a39 2688 4839 3798 5238
00000230: 1d38 0c3a bfe8 8239 5163 453a 52b1 c339
00000240: 3990 1737 0a7e 5637 448a 9b37 6a7f e537
00000250: 7089 2c38 d0df 0c39 5dac 1839 95c7 2539
00000260: 98d2 2039 b418 9538 fb3a b536 460d 2a39
00000270: b8d4 e036 1e20 9338 2a75 6337 4ce6 a838
00000280: 6831 ec39 3e42 4c3a 867b 9f3a b160 af3a
00000290: fadd ad3a fe62 a33a 0a45 813a a1c2 2f3a
000002a0: 32f5 083a 23a5 9f39 b6ac 6439 71b1 9539
000002b0: 7492 0e3a 766b b639 22ac 623a ab06 183a
000002c0: 9978 df3b 45f3 393c aa41 783c fb03 823c
000002d0: 876a 7b3c 2726 643c 2033 343c 0a1f 023c
000002e0: 4545 c23b d636 3c3b 6370 1e3b 75b7 413b
000002f0: 1dc8 d23b 8ecc 7c3b 1b8e 1e3c 2919 cd3b
00000300: 4cf9 2d39 7edf b539 336b f439 a01e 053a
00000310: 8e38 0b3a c7b5 093a 775b f739 1afd de39
00000320: 720a d139 a110 6239 4c1e a538 9e73 6d39
00000330: 378d a039 a07a 8439 b0fc 5b39 7106 ad39
00000340: f90d 993a 1606 073b a2c1 303b b5bb 3b3b
00000350: 9887 343b 6b63 1f3b 13dd f43a ad84 a43a
00000360: cf31 4b3a 2369 8d39 ec45 d939 541a f339
00000370: 5207 963a 863c f039 ec48 f23a 12b9 723a
00000380: e26e 633b b901 c43b 984d f13b 8f08 f63b
00000390: b849 e43b f218 c43b 31c8 973b b608 563b
000003a0: 7079 0d3b a9c5 773a bd9b 953a fa2a 753a
000003b0: 8d5a 333b 4a74 cc3a f27a a63b 2640 1c3b
000003c0: b4b1 ca37 dcf3 6f38 9867 a638 d670 cc38
000003d0: beba c438 3fb3 fb38 4aec f038 b4c2 df38
000003e0: dfb4 c438 4a44 0a38 5885 0c37 a7a6 f438
000003f0: c291 3038 5fec 2838 fc30 a337 b6d8 8d38
0.0022662836 0.0034885649 0.00541732 0.0058854856 0.005846975 0.0058456934 0.0048181424 0.003757191
0.0030052445 0.0015010027 0.0008523399 0.002035045 0.0017969857 0.0017800111 0.0029938635 0.0023857323
1.7865159e-05 2.7359754e-05 4.3503198e-05 8.792793e-05 9.189078e-05 9.091171e-05 8.111821e-05 3.0189112e-05
1.4878982e-05 4.7691688e-06 1.0973252e-05 5.1027e-06 1.3066304e-05 4.6132145e-06 4.812552e-05 5.3293348e-05
0.00019608656 0.00022477254 0.00021387485 0.00024275598 0.00023717995 0.00027636476 0.00036112408 0.00039820556
0.0004049766 0.00021801346 3.5684796e-05 0.00042836257 1.1440322e-05 0.0002807907 1.8464587e-05 0.0002101687
0.00407305 0.0073045036 0.009518928 0.009776043 0.00915206 0.0078018387 0.005813894 0.0037509787
0.0023576755 0.00093348953 0.0014143367 0.0010898071 0.0035261165 0.0011854115 0.0065406403 0.0032060433
0.0009410373 0.0013769394 0.0017630479 0.0018864949 0.0019420799 0.0018669739 0.001695161 0.0013601431
0.0011312921 0.0010075603 0.0005789621 0.00020771706 0.0005833023 0.0012328607 0.002123921 0.0013568442
7.9851074e-05 7.628346e-05 6.6402295e-05 6.120947e-05 5.3557178e-05 4.8817856e-05 4.223063e-05 3.6387337e-05
3.0845124e-05 1.2185962e-05 1.6058228e-05 4.9872837e-05 1.7601739e-06 4.4497316e-05 2.855651e-06 6.708593e-06
0.0006466556 0.00091799477 0.0011535062 0.0011506919 0.0010916453 0.000978544 0.0007408985 0.0005004704
0.000362271 0.00021517395 0.00015735475 0.00021779553 0.00031699316 0.0002963542 0.0005728539 0.00037649382
0.0008043842 0.0013150587 0.00153226 0.0015256709 0.0014067154 0.0012085391 0.00096355466 0.000722466
0.000540191 0.0002732935 0.00021394373 0.00030983117 0.00061559136 0.00038800726 0.00097083853 0.00060754805
0.0003449828 0.00047772823 0.0006745373 0.000785662 0.0007907717 0.0007553789 0.0006787044 0.0004525977
0.00037520775 0.00019301477 0.00019124206 5.0209663e-05 0.00053489377 0.00024968942 0.0007529753 0.00037325412
9.033881e-06 1.278474e-05 1.8541825e-05 2.735826e-05 4.1135994e-05 0.00013434817 0.0001456006 0.00015809976
0.00015337241 7.109475e-05 5.4010866e-06 0.00016217408 6.700484e-06 7.0154885e-05 1.3557534e-05 8.0537604e-05
0.00045050238 0.0007791853 0.001216755 0.0013380257 0.0013265007 0.0012465415 0.0009862494 0.0006704722
0.0005224525 0.0003044988 0.00021808114 0.000285517 0.00054386933 0.0003479381 0.00086468656 0.00057993334
0.0068197963 0.011349504 0.015152374 0.015871039 0.015345222 0.013925112 0.010998517 0.007941971
0.0059286677 0.0028719208 0.0024175874 0.0029558812 0.006432547 0.0038574073 0.009677435 0.006259103
0.00016591436 0.00034689525 0.00046619176 0.0005078111 0.00053108565 0.0005253222 0.00047179658 0.00042531715
0.0003987137 0.00021559234 7.873456e-05 0.00022645152 0.0003062279 0.00025268365 0.00020979601 0.0003300193
0.0011677138 0.0020602993 0.0026970883 0.0028645818 0.002754664 0.0024320732 0.0018681608 0.0012551747
0.00077512575 0.0002697195 0.0004144156 0.00046368188 0.0011446273 0.0004582146 0.0018484867 0.0009259145
0.0034703542 0.0059816507 0.007363986 0.0075083445 0.006966796 0.005984419 0.004632019 0.0032659
0.0021587275 0.0009451756 0.0011414211 0.00093524123 0.0027367205 0.0015598622 0.005080574 0.0023841946
2.4163026e-05 5.7209152e-05 7.934793e-05 9.748495e-05 9.380792e-05 0.00012002 0.00011488104 0.00010669735
9.379698e-05 3.2965363e-05 8.375697e-06 0.00011665868 4.2097417e-05 4.027446e-05 1.9453924e-05 6.7637695e-05

exp_avg f4 [128]
00000000: 7ecd 803a 97fc 26b9 e238 e1b8 8b5f a93a
00000010: 36fd 493a 66b4 6bb7 656c 1fba e4db a939
00000020: 1a47 78b9 382f 14b8 b0cc e4b8 17f1 60ba
00000030: 993d 32b9 fc40 203a f942 ca3a 4fb0 a137
00000040: 10c3 05ba 54bb ec39 062b 8539 191f a5ba
00000050: b544 1439 56a0 9bb9 b55c 0839 abb2 6739
00000060: 5b67 8438 b957 39b9 c4b6 b839 2e8b 9439
00000070: 860e bdb8 04b7 bd37 d461 9e38 80c0 e1ba
00000080: a158 14b6 f8b6 c5b7 a1ef 0dae 8617 ec39
00000090: d019 0eb7 e6ff 55b9 a5e5 0eb9 59c0 4b34
000000a0: 5313 06b0 2bdf 17ba f421 2cba 5dbe 2238
000000b0: 1584 3cb9 a24f 5039 f99c 9638 21c1 5bb4
000000c0: f864 0cba 6fad 403a b66e 81b5 c0d0 3eb2
000000d0: 90fe 1db8 39e9 33b9 a6b2 9e39 f68d 6dba
000000e0: 1d9c 013a 5bf6 eab9 3cbf 872f 22ab abb8
000000f0: fe23 b03a 0052 8cb9 428b 60b8 ee86 1a3a
00000100: e3da d6b9 3efc 82ba e6c6 8aba 44b8 233a
00000110: 446e 8dba b718 a1b9 9ba7 3cba 1d1b 4cba
00000120: ed38 083a 0142 8539 a52a d9b9 6f23 be39
00000130: 1e23 de39 4354 3faf 77a7 bc3a 2ad9 9ab8
00000140: 34ac d237 e0ec 573a 1a03 193a f60e 3e39
00000150: 90a2 9b3a 2a79 79b9 2e3e 0639 1c23 2937
00000160: 802f 10b7 9bbc d4b0 2e0f 25ba c019 18ba
00000170: caa0 23b9 f41d a139 f8db ad39 249c 43b9
00000180: e1c3 c3b9 c7eb ad39 1f0b ea39 601b c5b7
00000190: 3c23 0dba 729b feb9 ef12 36ba e642 7c3a
000001a0: 8421 4738 c8c2 1f39 966a 15ba f0dd 8038
000001b0: c236 c530 0451 0dba f4f1 9538 a87b 5c3a
000001c0: ebab 883a 6fa4 2532 64f1 2a3a ce6c 08ba
000001d0: cccb 1f37 a605 1fba 16ef 87b6 2f6c 37b9
000001e0: c5b1 933a ef85 afb9 2c7d 91b5 6665 15ba
000001f0: d642 6439 cbb5 87b8 0935 8735 0e3a e534
0.0009826866 -0.0001592509 -0.00010739431 0.0012922151 0.0007705273 -1.4049094e-05 -0.00060815207 0.00032398023
-0.0002367761 -3.5329926e-05 -0.00010910013 -0.0008580847 -0.0001699835 0.0006113199 0.0015431336 1.9274796e-05
-0.0005102614 0.00045152998 0.00025399792 -0.0012597769 0.00014139975 -0.00029683363 0.00013004507 0.00022096436
6.313502e-05 -0.00017675654 0.00035231386 0.00028332457 -9.0149275e-05 2.2615779e-05 7.552249e-05 -0.0017223507
-2.2105307e-06 -2.3569432e-05 -3.227252e-11 0.00045030954 -8.4698695e-06 -0.00020408593 -0.00013627725 1.8975824e-07
-4.877638e-10 -0.00057934475 -0.00065663387 3.88011e-05 -0.00017978282 0.00019866091 7.181796e-05 -2.0466224e-07
-0.00053556217 0.00073500624 -9.64347e-07 -1.110692e-08 -3.7668797e-05 -0.00017157652 0.00030269212 -0.00090619863
0.0004944222 -0.00044815507 2.4692237e-10 -8.1857914e-05 0.0013438461 -0.00026763976 -5.3535456e-05 0.000589474
-0.00040980344 -0.0009993387 -0.0010587841 0.0006245414 -0.0010790308 -0.00030726727 -0.0007196606 -0.00077860226
0.0005196471 0.00025416914 -0.00041421238 0.00036266024 0.00042369304 -1.7401285e-10 0.001439317 -7.383742e-05
2.511414e-05 0.0008236896 0.0005836949 0.00018125385 0.0011874009 -0.00023791628 0.000128024 1.00813595e-05
-8.594128e-06 -1.5478635e-09 -0.00062965124 -0.0005802177 -0.0001560479 0.0003073063 0.0003316102 -0.00018654816
-0.0003733924 0.000331728 0.00044640244 -2.3496978e-05 -0.00053839735 -0.0004856247 -0.00069455703 0.0009623006
4.747651e-05 0.00015235983 -0.00056997815 6.144855e-05 1.43492e-09 -0.00053907954 7.149941e-05 0.000841076
0.0010427212 9.641652e-09 0.00065209554 -0.00052042014 9.524589e-06 -0.00060662103 -4.051147e-06 -0.00017492542
0.0011268189 -0.0003347839 -1.0839772e-06 -0.00056990085 0.00021768673 -6.471163e-05 1.0073719e-06 4.2696814e-07

exp_avg_sq f4 [128]
00000000: b3e7 6137 2794 1f34 b31a 8135 4953 9a37
00000010: 8b52 c636 b10f 2534 cee9 1c36 551f 5436
00000020: 3fed 0736 114a a134 6414 4336 7d5f 0e38
00000030: edff b735 3652 b836 05e0 7d37 3f62 9034
00000040: b942 2637 b8e1 5d37 4e13 de35 0805 9937
00000050: 422b b436 5b99 1d36 2a9c 0c37 3acd ce37
00000060: 6bd9 6e35 026d 4a35 b86d 1335 1b98 8536
00000070: cb64 5f36 aced e834 cb5a 6636 b36a a037
00000080: 3e47 c72f e85b bb34 bc22 2a2d acc6 2437
00000090: 097a 8435 7bb4 5034 bb03 2137 88cc d82f
000000a0: 911b 2e2d 52d1 8637 5148 3b37 18cb 2535
000000b0: c1c4 2836 4f61 d735 b978 d734 a27b b62f
000000c0: 89b2 ab35 6694 3f37 fd09 3631 8963 972c
000000d0: 5294 6836 e7cc 8136 2e47 8337 1633 b136
000000e0: 4954 0436 e52a c435 2bdf ff2f 64eb 2035
000000f0: ebe3 8337 c2bd 6c37 9a57 0234 de72 1437
00000100: fde3 a237 5524 3737 b297 9c37 90b2 d836
00000110: cc37 c636 da6e 4d36 c067 a636 1714 8f37
00000120: bf46 8136 3d25 ef35 3040 1837 ae9f 7b36
00000130: aa05 2738 3db1 0b2b 7420 1137 4eb0 e135
00000140: 8d10 8936 1b49 0738 4435 a636 a6c1 6c36
00000150: 9ec1 1337 1c5b e936 0785 d635 bc3b 6533
00000160: d51a 9c36 1e4c 252c dd1d be36 5db3 0a38
00000170: 2a13 df36 9689 9836 d43a 6d35 307e 3635
00000180: 7ff4 1336 23c1 3637 df39 ff36 5085 5f35
00000190: f2dd c537 fe1b 8137 ea82 8e36 6352 f536
000001a0: ad31 a336 6c69 3736 e5ae 2d36 e5e0 8837
000001b0: 4a43 832e ace4 c336 fe07 ba33 8de8 4237
000001c0: 1e10 5e37 a37f 3030 ce9e 1a37 bcd7 4b36
000001d0: bef2 7432 faac 9936 da58 e531 26f2 a036
000001e0: 235f 7e37 68f1 8137 81e5 0632 eb00 8e37
000001f0: b054 af35 e464 dc32 2c69 0532 9b77 9232
1.3464992e-05 1.4861926e-07 9.61902e-07 1.8397013e-05 5.910469e-06 1.5372531e-07 2.3381904e-06 3.16087e-06
2.0254663e-06 3.0042477e-07 2.9069133e-06 3.394437e-05 1.3709047e-06 5.493198e-06 1.5132134e-05 2.6893574e-07
9.909906e-06 1.3225181e-05 1.6545907e-06 1.8241364e-05 5.369454e-06 2.3484088e-06 8.38101e-06 2.465268e-05
8.8978294e-07 7.540949e-07 5.492143e-07 3.9814163e-06 3.3288259e-06 4.3386297e-07 3.432552e-06 1.9123172e-05
3.624851e-10 3.4898335e-07 9.671094e-12 9.821419e-06 9.870283e-07 1.9437168e-07 9.597216e-06 3.94355e-10
9.896876e-12 1.6071517e-05 1.1162906e-05 6.176283e-07 2.5148477e-06 1.6047069e-06 4.0134708e-07 3.3193454e-10
1.2792453e-06 1.1419039e-05 2.6490163e-09 4.3027287e-12 3.4657028e-06 3.8683534e-06 1.5649563e-05 5.2809582e-06
1.9718593e-06 1.4615622e-06 4.65428e-10 5.9947183e-07 1.572255e-05 1.4110878e-05 1.2139063e-07 8.848232e-06
1.941807e-05 1.0916109e-05 1.8667288e-05 6.458089e-06 5.9073554e-06 3.0611905e-06 4.9592636e-06 1.7056283e-05
3.8527355e-06 1.7817725e-06 9.074851e-06 3.749486e-06 3.9821178e-05 4.962869e-13 8.65023e-06 1.6815118e-06
4.084845e-06 3.2254593e-05 4.9533865e-06 3.5279459e-06 8.806963e-06 6.9545476e-06 1.5982959e-06 5.3372545e-08
4.652286e-06 2.3490164e-12 5.665918e-06 3.306881e-05 6.648149e-06 4.54597e-06 8.8374986e-07 6.798391e-07
2.2047022e-06 1.08930135e-05 7.6063293e-06 8.326797e-07 2.3587581e-05 1.5391033e-05 4.24717e-06 7.31116e-06
4.8635616e-06 2.7330489e-06 2.588081e-06 1.6317188e-05 5.969143e-11 5.838074e-06 8.662754e-08 1.1617446e-05
1.3235984e-05 6.420981e-10 9.21609e-06 3.0374931e-06 1.42578624e-08 4.5798924e-06 6.6748784e-09 4.7965614e-06
1.51617305e-05 1.5490412e-05 7.85201e-09 1.6928147e-05 1.3063163e-06 2.565725e-08 7.765532e-09 1.7051027e-08
