results/test-4/Drive/Drive-16462.onnx (onnx, 80182 bytes, 7 tensors)

network_body._body_endoder.seq_layers.0.weight f4 [128, 16]
0	0xbe3b437a	-0.18287459
1	0x3e883e3b	0.26609978
2	0x3cb0cb2b	0.021581253
3	0x3eff725a	0.4989193
4	0xbe8a61f3	-0.27027854
5	0xbe97d440	-0.2965412
6	0x3df9c6de	0.12196134
7	0x3e020997	0.1269897
8	0xbf165605	-0.58725005
9	0xbe4c043f	-0.19923495
10	0x3e41a943	0.18912224
11	0x3ea09b40	0.31368446
12	0xbcaf2e62	-0.021384422
13	0x3e98e091	0.2985883
14	0x3e89a7dd	0.26885882
15	0x3e75cf6b	0.24004905
16	0xbdc94de1	-0.09829307
17	0xbd959536	-0.0730385
18	0xbeca9e26	-0.39573783
19	0x3ec88804	0.39166272
20	0x3dd6c0ad	0.10485969
21	0xbe811bbe	-0.25216478
22	0x3daa9f5e	0.08331178
23	0xbe568ad5	-0.20951398
24	0x3d6a736b	0.057238977
25	0xbf034b48	-0.51286745
26	0xbdd490a2	-0.10379149
27	0x3de82308	0.11334807
28	0x3ce87048	0.028373852
29	0xbdad2733	-0.08454742
30	0x3d4b06c0	0.049566984
31	0xbe838386	-0.25686282
32	0x3e587ba6	0.21140918
33	0x3ea36749	0.31914738
34	0xbe82a638	-0.2551744
35	0x3e843fd3	0.25829944
36	0xbe863120	-0.26209354
37	0xbeb0602a	-0.34448367
38	0x3e9e1197	0.30872795
39	0xbdfe6779	-0.124220796
40	0x3da4bcc1	0.080438145
41	0xbe50d339	-0.20393075
42	0x3ca2edfc	0.01988887
43	0x3cd1f38d	0.02562883
44	0xbe877f65	-0.26464382
45	0x3d87018d	0.06592093
46	0xbecbebe6	-0.39828414
47	0x3e36d3c9	0.17854227
48	0x3e47fb8f	0.19529556
49	0x3deed1b0	0.116610885
50	0x3d961471	0.07328118
51	0x3de31bd0	0.11089289
52	0x3e00067d	0.12502475
53	0x3e865ad3	0.26241168
54	0xbeb7e637	-0.35917827
55	0x3d852fc6	0.06503253
56	0xbebe98ae	-0.3722586
57	0xbe7aec13	-0.24504118
58	0x3d0dd62e	0.034628086
59	0x3e3ca971	0.18424012
60	0xbc7901fd	-0.015198228
61	0x3d641043	0.05567957
62	0x3d40bc3c	0.047054514
63	0x3cc7bd49	0.02438225
64	0x3d953dcb	0.07287177
65	0xbe814090	-0.2524457
66	0xbdd7396b	-0.105089985
67	0xbd085627	-0.033285286
68	0xbdcc3d54	-0.09972635
69	0xbddc7bb1	-0.1076578
70	0x3e422aea	0.18961683
71	0x3d539921	0.051659707
72	0xbe8e10e9	-0.27747276
73	0x3db3b8f8	0.08775514
74	0x3e51c9b9	0.20487107
75	0xbe283a48	-0.16428483
76	0xbea9a613	-0.33134517
77	0xbcc92642	-0.024554376
78	0x3e958029	0.2919934
79	0x3eadee31	0.33970788
80	0x3f1b0650	0.6055651
81	0xbe7cf17f	-0.24701498
82	0xbdea7347	-0.11447769
83	0xbe029247	-0.12751113
84	0x3deae575	0.11469547
85	0xbd9ba870	-0.07600486
86	0xbe15a525	-0.14613779
87	0x3eb96e92	0.3621717
88	0x3ebf6111	0.37378743
89	0xbefb5e98	-0.49095607
90	0x3ea6ea24	0.3260051
91	0xbe0de51b	-0.13856928
92	0xbe6ec733	-0.23318176
93	0xbe7eb32f	-0.2487304
94	0xbf49edf3	-0.78878707
95	0xbdc54f35	-0.09634248
96	0x3e818d71	0.25303224
97	0x3d27b80b	0.040947
98	0xbe99cd58	-0.30039477
99	0x3e052236	0.13001332
100	0x3d2ddf9d	0.042449582
101	0x3e617966	0.22018966
102	0x3ec80836	0.39068764
103	0x3e2160ce	0.15759584
104	0x3e931025	0.28723255
105	0x3db3a014	0.08770767
106	0xbef797b9	-0.48357943
107	0xbec8b8a9	-0.39203385
108	0xbd647dbb	-0.05578397
109	0x3e3267bd	0.17422386
110	0xbe8b996b	-0.27265486
111	0xbe930bda	-0.2871998
112	0x3e8ff0b8	0.2811334
113	0x3db23dc7	0.08703189
114	0xbd5a3238	-0.05327055
115	0x3e0a722e	0.13520119
116	0x3ec6c6c3	0.38823518
117	0x3e78fa88	0.2431432
118	0x3e2dc9c8	0.16971505
119	0xbe5ed4e3	-0.21760897
120	0xbde3ac12	-0.11116804
121	0xbe3a5131	-0.18195035
122	0xbf09b2ed	-0.53788644
123	0xbdce2c1a	-0.100670055
124	0xbe29aa70	-0.16568923
125	0xb9ebb702	-0.00044959044
126	0xbe918d17	-0.28427956
127	0x3e9d0f52	0.3067575
128	0x3db5833d	0.08862922
129	0xbe583817	-0.21115147
130	0xbe973f74	-0.29540598
131	0x3e5d7a9f	0.21628807
132	0x3ba0b3cb	0.0049042455
133	0xbec18ddc	-0.37803543
134	0x3ea0d70f	0.31414077
135	0xbea07a21	-0.31343177
136	0x3e021156	0.12701926
137	0xbd1b8a20	-0.037973523
138	0x3e358f27	0.1773039
139	0xbebc5be7	-0.36788866
140	0x3e909447	0.28238127
141	0x3e77f064	0.24212795
142	0x3e5ddc79	0.21666135
143	0x3ab2647c	0.0013610269
144	0xba896fbc	-0.001048557
145	0xbef573c4	-0.47939885
146	0xbf484e12	-0.78244126
147	0xbe6902ba	-0.22754946
148	0xbe8b623f	-0.27223393
149	0xbe767af6	-0.24070343
150	0x3e22798c	0.15866679
151	0x3e242656	0.16030249
152	0x3d1f2bc8	0.038860112
153	0x3e036639	0.12831964
154	0x3d28d0d7	0.04121479
155	0x3e962adb	0.2932957
156	0x3cee37f7	0.02907942
157	0x3ddd2983	0.10798933
158	0x3e4963fa	0.19667044
159	0x3e32f130	0.17474818
160	0xbda5856d	-0.080820896
161	0x3e37f5e4	0.17964894
162	0xbe5b3abe	-0.21409127
163	0x3dcfd7ce	0.10148583
164	0x3e318342	0.17335227
165	0x3e8c326f	0.27382228
166	0x3e371227	0.17878018
167	0xbe8e22f3	-0.2776104
168	0x3d8d6ee5	0.06905917
169	0xbea9fef4	-0.33202326
170	0xbe372fb9	-0.17889298
171	0xbda3ea4c	-0.08003673
172	0x3df08499	0.11744041
173	0x3e7633d9	0.24043216
174	0x3f07149f	0.5276584
175	0x3d4c244a	0.049839295
176	0xbded3d17	-0.115839176
177	0xbe96cd45	-0.29453483
178	0x3e64711d	0.22308774
179	0x3e9397e1	0.28826812
180	0xbe338483	-0.17531018
181	0x3e5d1f00	0.21593857
182	0xbd0e0d0b	-0.034680407
183	0x3e2e9467	0.17048799
184	0xbda1d7b6	-0.07902472
185	0xbc005713	-0.00783326
186	0xbedf0a4d	-0.43562546
187	0x3e060f67	0.13091813
188	0x3e83888d	0.25690117
189	0x3e9a8d47	0.3018591
190	0x3ecf886d	0.40533772
191	0x3d67ddc3	0.056607973
192	0xbe87f481	-0.2655373
193	0x3e056bda	0.13029423
194	0x3e1f2844	0.15542704
195	0x3e8abe97	0.27098534
196	0xbebef8ec	-0.37299287
197	0xbe1b58d1	-0.151706
198	0x3e7c3a4a	0.2463161
199	0x3e12fe29	0.14354767
200	0x3ef2b230	0.4740157
201	0x3cd59563	0.02607221
202	0xbc04f6dc	-0.0081154965
203	0xbe911be1	-0.28341582
204	0xbe2c8d85	-0.1685086
205	0xbe90ea2a	-0.28303653
206	0xbf020373	-0.50786513
207	0x3e9a2186	0.301037
208	0x3d87daec	0.06633553
209	0x3e96d558	0.29459643
210	0xbe9b92e4	-0.30385506
211	0xbd7722f0	-0.060336053
212	0x3e950501	0.2910538
213	0x3e33b863	0.17550807
214	0xbe143aa5	-0.14475496
215	0xbe00c3f6	-0.12574753
216	0xbe9e15ff	-0.30876157
217	0xbe1fd754	-0.15609485
218	0x3bd2379f	0.006415322
219	0x3e30f4ea	0.17280927
220	0xbd784887	-0.060616042
221	0xbd46f5ef	-0.048574384
222	0x3e497aaa	0.19675699
223	0x3a65f2f7	0.00087718613
224	0x3ea78f63	0.32726583
225	0x3dbaa580	0.09113598
226	0xbe82a88d	-0.2551922
227	0x3ea7f336	0.32802743
228	0x3e43c420	0.19117785
229	0x3d96851c	0.07349607
230	0x3e3e870e	0.18606207
231	0xbeb02748	-0.3440497
232	0xbcb3a864	-0.02193088
233	0xbe7e3a71	-0.24826981
234	0xbea8d1c4	-0.32972538
235	0xbe866212	-0.26246697
236	0xbda27f3f	-0.079344265
237	0x3e1a7c7c	0.1508655
238	0x3e032ce8	0.12810099
239	0xbd2184d6	-0.039433323
240	0xbd9f79ae	-0.077868804
241	0x3c232135	0.009956648
242	0x3e44cf1d	0.19219632
243	0x3e9963dd	0.29959002
244	0xbee52c72	-0.44760472
245	0xbe84c904	-0.25934613
246	0xbd6737a8	-0.056449562
247	0x3dd6a95b	0.10481521
248	0x3d6cd4ea	0.05782024
249	0xbeef3863	-0.46722707
250	0xbdf79520	-0.1208899
251	0x3f094e43	0.5363504
252	0x3d1425d7	0.0361689
253	0xbe9463ef	-0.28982493
254	0xbe6ffe73	-0.23436908
255	0x3eb4e443	0.353304

network_body._body_endoder.seq_layers.0.bias f4 [128]
0	0xbc1a3b41	-0.009413541
1	0xbd102c4f	-0.035198506
2	0x3c7277b4	0.014799047
3	0xbbd11629	-0.0063808155
4	0x3cf87d82	0.030333284
5	0xbc5785e7	-0.013154483
6	0x3b751e85	0.0037402224
7	0xbc7cf067	-0.015438176
8	0x3c13c551	0.009019212
9	0xbcb846e0	-0.022494733
10	0x3c00a062	0.007850738
11	0xbbf0eb9e	-0.0073523065
12	0xbc20ec57	-0.009821973
13	0x3b9c204f	0.0047645937
14	0xbc45ee76	-0.012080779
15	0xbd183fbf	-0.037170168
16	0x3c8fa6b1	0.01753554
17	0xbc106281	-0.008812548
18	0xbca766d5	-0.020434776
19	0xbbfee714	-0.0077790115
20	0xbbfdf64d	-0.0077503086
21	0xbc9b854e	-0.018984463
22	0xbc15de7a	-0.009147281
23	0x3cbf1528	0.023325518
24	0xbb85dd7a	-0.00408524
25	0xbcc07bbb	-0.0234965
26	0x3d2112c8	0.03932455
27	0xbd038160	-0.032105803
28	0xbcdf14c7	-0.027231587
29	0xbcd9bd44	-0.026579507
30	0xbc241ee4	-0.0100171305
31	0x3ce131ef	0.02748963
32	0xbc1daaec	-0.0096232705
33	0x3cff7cee	0.0311875
34	0xbae28690	-0.0017282534
35	0xbc5da419	-0.013527893
36	0x3b13500f	0.0022478139
37	0xbd018e89	-0.031630073
38	0x3a0c69ed	0.00053563603
39	0xbce0aabf	-0.027425168
40	0xbb8a78cd	-0.0042258264
41	0xbc0c5720	-0.008565694
42	0xbb32bdcc	-0.0027273772
43	0xbc82321a	-0.01589303
44	0x3a0e8d68	0.0005437941
45	0x3ce89cac	0.02839502
46	0xbc8f3d6e	-0.017485347
47	0x3ba48927	0.0050212326
48	0x3c255044	0.010089938
49	0xbb3603f1	-0.0027773345
50	0xbb64abc2	-0.0034892415
51	0xbc48d804	-0.012258533
52	0xbc08ba64	-0.00834522
53	0x3bd825f6	0.006596322
54	0x3cbf3af8	0.023343548
55	0xbc921eb6	-0.01783691
56	0xbd121217	-0.035661783
57	0x3c9c165e	0.019053634
58	0x3ad15d8c	0.0015973314
59	0xbb2d27ab	-0.002642135
60	0xbcabb232	-0.020958994
61	0x3b8e6111	0.0043450673
62	0x3ca714a5	0.020395586
63	0xbb07e9a4	-0.0020738626
64	0x3cab356a	0.020899493
65	0xbc8b5471	-0.017008038
66	0xb9f0fcdc	-0.00045964762
67	0xbd0a4a97	-0.03376254
68	0x3c515020	0.012775451
69	0xbc39df23	-0.011344704
70	0xbc29173e	-0.010320483
71	0xbb32c6ed	-0.0027279214
72	0xbc4576e4	-0.0120522715
73	0xbc777d6d	-0.015105587
74	0xbc9e487d	-0.019321674
75	0x3c1b9f85	0.009498482
76	0xbb8661ab	-0.0041009984
77	0x3b50fb49	0.003188806
78	0x3c736108	0.014854677
79	0xbc47506b	-0.012165169
80	0x3b5f0197	0.0034028047
81	0xbc36e6dc	-0.01116344
82	0xbc13766e	-0.009000404
83	0xbd1354ca	-0.035969533
84	0xba95a6a2	-0.0011417458
85	0xbcdf007d	-0.027221913
86	0xbca0cf5b	-0.019630125
87	0xbc9fd9c9	-0.019513028
88	0x3cd10701	0.025516035
89	0x3af86250	0.0018950198
90	0xbce9caa9	-0.028539019
91	0xbb99afac	-0.004690131
92	0x3c84b4c2	0.016199473
93	0x3be613be	0.0070213964
94	0xbc4b8eb1	-0.012424157
95	0x3acc7dc7	0.0015601449
96	0x3c3a0da3	0.01135579
97	0xbc5c7f89	-0.013458141
98	0x3b79b2df	0.0038101
99	0xbbb02c5c	-0.005376382
100	0xb92a5f03	-0.00016247858
101	0x3add80b3	0.0016899317
102	0x3c04e87a	0.008112067
103	0xbd04dfbf	-0.032439943
104	0xbb9d000b	-0.004791265
105	0xbc6736b1	-0.014112161
106	0xbcc47f1b	-0.02398639
107	0x3cea48e9	0.02859922
108	0xbc473fcc	-0.012161206
109	0xbc2be7fa	-0.010492319
110	0xbcefc5c7	-0.029269112
111	0xbbfb34c3	-0.007666202
112	0xbbab8344	-0.005234154
113	0xbb050b4c	-0.0020300923
114	0xbce41356	-0.027841251
115	0xbc8aafb8	-0.016929492
116	0xbbef02ac	-0.0072940197
117	0xbabdd1e2	-0.0014482106
118	0xbbedee19	-0.0072610495
119	0x3bc9152a	0.006136556
120	0x3cbc6f06	0.023002159
121	0x3a9119b5	0.0011070283
122	0xbbb120d7	-0.005405526
123	0xbb94ece6	-0.004544842
124	0x3b98dd20	0.004665032
125	0xbc6330e9	-0.013866642
126	0x3a255b19	0.0006307825
127	0x3ba69829	0.005084057

network_body._body_endoder.seq_layers.2.weight f4 [128, 128]
0	0xbd1b4eb1	-0.037916843
1	0xbdc4bcaf	-0.09606301
2	0xbb829303	-0.0039848103
3	0x3dbef91c	0.093248576
4	0x3d5d1429	0.053974304
5	0xbd0a9852	-0.03383667
6	0x3ddcbfc1	0.10778762
7	0x3e3308cf	0.17483829
8	0x3b820e3c	0.003968982
9	0xbd1358d2	-0.035973378
10	0xbc94b6f9	-0.018153654
11	0xbd961164	-0.07327536
12	0x3e1aaaaa	0.15104166
13	0xbc6210e4	-0.013797972
14	0x3d002279	0.031282876
15	0xbde75580	-0.11295605
16	0x3e25e3fd	0.16200252
17	0xbd9d8a1d	-0.07692359
18	0xbd4dd291	-0.05024964
19	0xbd4683e9	-0.048465643
20	0xbddbbcc8	-0.107293665
21	0x3b9d6632	0.0048034424
22	0xbdef1f57	-0.116758995
23	0x3e2a0098	0.16601789
24	0x3d14c074	0.03631635
25	0xbc211750	-0.009832218
26	0x3e3112e3	0.17292361
27	0xbd4c581a	-0.049888708
28	0x3d88ed16	0.066858456
29	0x3c02698d	0.007959736
30	0x3cf8469b	0.030307105
31	0xbd4ddbc0	-0.050258398
32	0x3e068e6c	0.13140267
33	0xbd08841e	-0.03332912
34	0xbd127131	-0.03575248
35	0xbe176a0b	-0.14786546
36	0x3d18fa29	0.037347946
37	0xbe43faad	-0.19138594
38	0xbe1ab846	-0.15109357
39	0x3e04261a	0.1290516
40	0x3cf85d92	0.030318055
41	0x3d045ca7	0.032314923
42	0xbc90a4f9	-0.01765679
43	0x3c296399	0.010338687
44	0x3d8ff7ac	0.070296615
45	0x3db6a40f	0.089180104
46	0xbdc3775b	-0.095442496
47	0xbcdbcd80	-0.026831388
48	0x3e24f577	0.16109262
49	0x3e365bc8	0.1780845
50	0x3c49a351	0.012307004
51	0xbd87b349	-0.06625993
52	0xbd0f7991	-0.035028044
53	0x3cece804	0.028919227
54	0xbe13dd65	-0.14439924
55	0xbddb29c1	-0.10701323
56	0xbd41813b	-0.047242384
57	0x3cb59634	0.022166349
58	0x3dee628f	0.11639892
59	0xbd5135c1	-0.051076654
60	0xbe2a7395	-0.16645654
61	0x3d91c6fd	0.07118032
62	0xbcf64dbf	-0.03006637
63	0xbc1bae6b	-0.009502034
64	0xbcdcd4b5	-0.026956895
65	0x3e0845d0	0.13307881
66	0xbdf2ec3d	-0.11861465
67	0xbd853a96	-0.06505315
68	0xbde983f8	-0.11402124
69	0xbd428e1f	-0.04749882
70	0x3c401c07	0.011725432
71	0x3c69d963	0.01427302
72	0x3d3bf5e3	0.045888793
73	0x39c55136	0.00037635275
74	0x3be601f5	0.0070192763
75	0x3bec927f	0.007219612
76	0x3e2d8e6b	0.1694886
77	0x3b30f5ea	0.0027002045
78	0xbcabaf49	-0.020957606
79	0x3ca48798	0.020084187
80	0x3dba8e3e	0.09109162
81	0x3d015b4d	0.03158121
82	0x3d14fa13	0.0363713
83	0x3e293b7d	0.16526599
84	0x3d817bc3	0.06322434
85	0xbcecaf0d	-0.028892064
86	0xbd23c9f9	-0.039987538
87	0x3d66a28b	0.056307357
88	0xbd1d3891	-0.038384024
89	0xbcb724ce	-0.022356417
90	0x3da04cd4	0.07827154
91	0x3e18cdad	0.14922209
92	0x3da5476d	0.08070264
93	0xbe04ce1b	-0.12969248
94	0xbdd3a032	-0.10333289
95	0x3c895f81	0.016769173
96	0xbd7a9091	-0.061173026
97	0xbd3267fa	-0.04355619
98	0x3d9da323	0.076971315
99	0xbe399be8	-0.1812588
100	0x3d0b73b0	0.034045875
101	0xbc885554	-0.01664225
102	0x3dcbbd5b	0.09948226
103	0xbd6539f7	-0.055963483
104	0xbcc54dc6	-0.024084937
105	0x3b250143	0.0025177754
106	0xbcca1eee	-0.024672952
107	0x3cac6d98	0.021048352
108	0x3d212ef4	0.03935142
109	0xbcae4732	-0.021274183
110	0xbc46423a	-0.012100751
111	0xbda21867	-0.07914811
112	0xbd9dca0a	-0.077045515
113	0xbdba7e87	-0.091061644
114	0x3da9a1e0	0.08282828
115	0xbda72c81	-0.08162785
116	0xbd4b3ecf	-0.049620446
117	0xbdab480c	-0.08363351
118	0x3d0c9c1d	0.03432857
119	0x3d24270d	0.040076304
120	0xbc1769d3	-0.009241539
121	0xbd53d460	-0.05171621
122	0xbe0c35ae	-0.13692352
123	0x3e00518e	0.1253111
124	0x3e3660db	0.17810385
125	0xbd619200	-0.055070877
126	0xbc046f70	-0.008083209
127	0x3c5d3acc	0.013502788
128	0xbd6e1e91	-0.05813462
129	0xbd5778dc	-0.052605495
130	0xbd87d4a2	-0.06632353
131	0x3ddb7097	0.10714834
132	0x3cb44603	0.02200604
133	0xbd7a90ae	-0.061173134
134	0xb86ef63c	-5.6972945e-05
135	0xbe27ac02	-0.1637421
136	0xbd1ceca4	-0.038311616
137	0xbdb1b6e5	-0.086774625
138	0xbdee6a4c	-0.11641368
139	0x3d9a47f5	0.07533256
140	0x3d8bc5f3	0.06824865
141	0x3d01a8e2	0.0316552
142	0x3af86866	0.0018952012
143	0x3db29d12	0.08721365
144	0x3d6aa33f	0.05728459
145	0xbc428675	-0.011872877
146	0x3ccfb140	0.025353074
147	0x3db3189d	0.08744929
148	0xbe3d679b	-0.18496554
149	0x3d7eae9a	0.06217823
150	0xbdfdcf8f	-0.12393104
151	0xbde14153	-0.10998788
152	0xbd63219e	-0.05545198
153	0xbc398987	-0.011324293
154	0x3d68b7e5	0.056816
155	0x3cd1c9dd	0.025608951
156	0xbc266175	-0.0101550715
157	0x3d80f04e	0.062958345
158	0xbe59e27e	-0.21277806
159	0xbd460e64	-0.048353568
160	0x3c87e9a3	0.016590899
161	0xbdbd6733	-0.09248199
162	0x3cf762a4	0.030198403
163	0x3d6628ba	0.056191184
164	0x3bc06ed4	0.0058725867
165	0x3d10b52d	0.035329033
166	0x3dadfc2a	0.08495362
167	0xbd316f6c	-0.04331915
168	0x3dc961a4	0.098330766
169	0x3d7b8a95	0.06141146
170	0xbdadb125	-0.08481053
171	0xbd5ab258	-0.053392738
172	0xbdb24a94	-0.08705631
173	0x3ab74b59	0.0013984247
174	0xbe06c47f	-0.13160895
175	0x3e12396a	0.14279714
176	0xbd1ce777	-0.03830668
177	0xbc5fc27f	-0.013657211
178	0xbe699d3e	-0.2281389
179	0xbdd4901c	-0.10379049
180	0xbdcbcc71	-0.099511035
181	0xbd62a3e4	-0.05533208
182	0x3d3f93da	0.04677186
183	0x3da3a2d0	0.079900384
184	0xbabaeead	-0.0014261805
185	0xbce5ddb0	-0.02805981
186	0x3d70debb	0.058806162
187	0xbd211e02	-0.03933526
188	0xbdac2dcc	-0.084071726
189	0x3d9e2ff3	0.07723989
190	0xbe284803	-0.1643372
191	0x3e3a789f	0.18210076
192	0xbd92ac80	-0.07161808
193	0xbd9705bf	-0.07374143
194	0xbe19dc57	-0.15025459
195	0xbc1c2c76	-0.009532085
196	0xbb03e43e	-0.0020125057
197	0x3d03d40c	0.032184646
198	0xbc3b0b34	-0.011416245
199	0x3db69081	0.08914281
200	0x3dcf8d86	0.10134415
201	0xbdb04dd8	-0.086085975
202	0xbde16a3f	-0.11006593
203	0x3d79e41c	0.061008558
204	0x3cf7c960	0.03024739
205	0x3d370ad2	0.044688053
206	0xbe23f535	-0.16011508
207	0xbd2ac48e	-0.041691355
208	0x3d5bbc0d	0.053646136
209	0x3e07fcd6	0.13280043
210	0xbddfbc5f	-0.10924601
211	0x3da48dd3	0.08034863
212	0xbdae8efb	-0.08523365
213	0x3d32f292	0.043688364
214	0x3de128fe	0.10994147
215	0x3df264d7	0.1183564
216	0xbdd531f5	-0.10409919
217	0xbdad3617	-0.084575824
218	0xbdaf70d4	-0.08566442
219	0x3e28df82	0.16491511
220	0x3c78d36d	0.015187127
221	0xbcfe0b1e	-0.03101116
222	0xbc8dc2e9	-0.017304854
223	0xbe0e0b67	-0.13871537
224	0xbdd5c697	-0.10438269
225	0x3df84d77	0.1212415
226	0xbd3c8681	-0.04602671
227	0xbdb9c4d7	-0.09070747
228	0xbda5a4d7	-0.08088081
229	0x3ca8a078	0.02058433
230	0xba38505f	-0.0007031019
231	0xbd63fa93	-0.055658888
232	0xbc1c9af3	-0.009558427
233	0xbd99aa7c	-0.075032204
234	0x3cbe9826	0.02326591
235	0x3d74c781	0.059760574
236	0xbc2d16b4	-0.010564495
237	0x3d36dca4	0.044644013
238	0xbdc2d7bf	-0.095138066
239	0x3da0181c	0.078170985
240	0xbc9c2406	-0.019060146
241	0xbe51f64a	-0.20504108
242	0xbb5da107	-0.0033817904
243	0x3c68e07e	0.014213679
244	0x3dbaeca1	0.09127165
245	0x3cb38355	0.02191321
246	0xbcc380fb	-0.023865214
247	0xbdc8e2cf	-0.09808885
248	0x3d98b192	0.07455744
249	0xbc9e12b4	-0.019296028
250	0xbd8841c0	-0.06653166
251	0xbbe10d6c	-0.006868055
252	0xbd2cd6d2	-0.042197056
253	0x3e38f3b0	0.1806171
254	0xbd9260a1	-0.07147337
255	0xbe0ea322	-0.13929418

network_body._body_endoder.seq_layers.2.bias f4 [128]
0	0x39c212e3	0.00037016635
1	0xba95db41	-0.0011433141
2	0xbc373563	-0.011182162
3	0xbb8afcc3	-0.0042415573
4	0x376cadf4	1.4107198e-05
5	0xbc7e7936	-0.015531829
6	0xba4e9e5d	-0.00078818743
7	0xbb91cc15	-0.0044493773
8	0xbaeafa36	-0.0017927352
9	0xbc10c32d	-0.008835596
10	0x3b9e30a8	0.0048275776
11	0x3bbd3f01	0.005775333
12	0x3a71c581	0.0009222851
13	0xbba1fc7b	-0.004943428
14	0xbc3be0c5	-0.011467163
15	0x3bc82682	0.006108106
16	0xbc5c051f	-0.013428955
17	0x3c099c96	0.008399149
18	0xbc9cb8d9	-0.019131111
19	0x3c782371	0.015145169
20	0xbc4b35bb	-0.012402947
21	0xbc274227	-0.010208643
22	0xbc3af102	-0.01141
23	0x3bfbd616	0.007685433
24	0x3ae24db6	0.0017265591
25	0xbc08baed	-0.008345348
26	0xbb03f84b	-0.0020137008
27	0xbcbaa3ae	-0.022783127
28	0xbc3267d3	-0.010889011
29	0x3b0ccd00	0.0021484494
30	0x3c02991a	0.007971073
31	0xbc03a6bc	-0.008035358
32	0xbc0c2dde	-0.008555857
33	0x370012a0	7.633731e-06
34	0x3bcfa501	0.0063368087
35	0xbac9ffbc	-0.0015411298
36	0x3cb36074	0.021896578
37	0x3886057d	6.39064e-05
38	0x3a19da65	0.000586903
39	0xbb8491ba	-0.0040456923
40	0xbc09a30b	-0.008400689
41	0x3b4812ac	0.0030528707
42	0xbb438970	-0.0029836558
43	0x3b4882c7	0.0030595527
44	0xbc886e22	-0.016654078
45	0x3be58b6d	0.0070051462
46	0x3b17dfe3	0.0023174218
47	0x3a74ac30	0.0009333519
48	0xbc8d150d	-0.017221952
49	0xbcb38433	-0.021913623
50	0xbcb12e00	-0.02162838
51	0x3b1217b9	0.0022291972
52	0x3c8c1639	0.01710044
53	0xbb1e61e0	-0.0024167225
54	0xbcce56a9	-0.025187807
55	0xbc6691f7	-0.014072887
56	0x3bc9c3d7	0.006157379
57	0xbc7c8cef	-0.015414461
58	0xbc02713d	-0.007961568
59	0xbca4a0ac	-0.020096146
60	0xbc84241d	-0.016130501
61	0xbbe8116d	-0.0070821554
62	0xbc366bb0	-0.011134073
63	0xbc98325b	-0.018578699
64	0xbcc61873	-0.02418158
65	0xbc35a330	-0.01108627
66	0xbcb31b15	-0.0218635
67	0xb8c92cf1	-9.592798e-05
68	0xbbcac622	-0.00618817
69	0x3af72fab	0.0018858811
70	0x3b6f7c7f	0.0036542711
71	0xbad2fc1b	-0.0016096862
72	0x3cacdf3f	0.021102546
73	0xbbd4f173	-0.0064985096
74	0xbbc3ed63	-0.0059792264
75	0xba352715	-0.0006910426
76	0x3c98aa23	0.018635815
77	0xbb9885fe	-0.004654645
78	0xbc018dd4	-0.00790735
79	0xbcb773b7	-0.022394044
80	0xbc064fd0	-0.00819774
81	0x3b82de57	0.00399379
82	0x3a4955e3	0.00076803396
83	0x3a81b3a9	0.0009895462
84	0x3a1886f4	0.00058184494
85	0xbc015afe	-0.007895229
86	0xbc95a502	-0.018267158
87	0xbbe07076	-0.006849344
88	0xbc752398	-0.0149620995
89	0x3c55bd93	0.013045686
90	0xbc20c857	-0.00981339
91	0xbbb9ea1d	-0.0056736604
92	0xbc17811c	-0.009247091
93	0xbc287ae1	-0.010283203
94	0xbc6bd43c	-0.014393862
95	0xbc7892d8	-0.015171729
96	0xbc1001e9	-0.008789518
97	0xbb234415	-0.0024912406
98	0x3c41120d	0.011784089
99	0xbb9382bc	-0.0045016687
100	0xbc6d1f93	-0.01447286
101	0x3bc53d50	0.006019272
102	0xbb50aa91	-0.0031839947
103	0x3c29463d	0.0103316875
104	0xbcb235ae	-0.021754112
105	0xbbd57843	-0.0065145805
106	0xbb1e3b4e	-0.0024144235
107	0xbc87e89d	-0.01659041
108	0x3c19d13c	0.009388264
109	0xbc8401e2	-0.016114179
110	0xbb649a41	-0.0034881982
111	0x3a42e3e8	0.00074344734
112	0xbbe8936b	-0.0070976517
113	0xbc1f7a5a	-0.009733761
114	0xbb659887	-0.003503354
115	0xbc4ad19e	-0.012379078
116	0xbc075611	-0.008260266
117	0xba173491	-0.0005768026
118	0x3a333981	0.0006836877
119	0xbbd6256f	-0.006535224
120	0xb905561c	-0.00012715947
121	0x3c33ce41	0.010974468
122	0xbb1b4d99	-0.0023697375
123	0xbc806f44	-0.015678056
124	0xbc1561cb	-0.009117554
125	0xbc43f062	-0.011959167
126	0x3a688355	0.00088696677
127	0x3c2db149	0.01060135

action_model._continuous_distribution.log_sigma f4 [1, 2]
0	0xbd96f564	-0.07371023
1	0xbcbbbec1	-0.022918107

action_model._continuous_distribution.mu.weight f4 [2, 128]
0	0xba4cd10a	-0.00078131317
1	0xbb25cad4	-0.0025297897
2	0x3a8fbb23	0.0010965805
3	0xbc5806fa	-0.013185257
4	0xbcd213b0	-0.025644153
5	0xbbcc92e2	-0.0062430957
6	0xbd05389b	-0.032524686
7	0xbc92b59b	-0.017908862
8	0x3c6a4a53	0.014299947
9	0xbbd50591	-0.0065009077
10	0xbd1a3131	-0.03764457
11	0xbcffe9cd	-0.031239415
12	0x3c1d1d44	0.009589497
13	0xbc7ca92e	-0.015421195
14	0xbbf8fffa	-0.007598874
15	0x3c9c1a8f	0.019055633
16	0x3cbde8dc	0.023182325
17	0xbcefd2f5	-0.029275397
18	0x3b47dea0	0.0030497685
19	0x3cf9694a	0.030445714
20	0x3cb9150b	0.022593042
21	0x3c9cdfe5	0.01914973
22	0x3abf020c	0.0014572754
23	0xbca89b0b	-0.020581743
24	0x3ce8f535	0.028437236
25	0x3a8d5e66	0.0010785579
26	0xbb506fe8	-0.0031804983
27	0xbab2193e	-0.0013587845
28	0xbc0e1f5f	-0.008674472
29	0xbd24da7a	-0.040247418
30	0xbbdc0b59	-0.00671522
31	0xbd36a9ec	-0.044595644
32	0x3ca8767e	0.020564314
33	0x3b892ae5	0.0041860216
34	0xbc99cfe0	-0.01877588
35	0x3cd6dc9e	0.026228245
36	0xbd75a2e9	-0.059969816
37	0x3b9a4129	0.0047074747
38	0xbb718554	-0.0036853151
39	0x3b817b40	0.00395146
40	0xbc91777f	-0.017757175
41	0xbd1e178e	-0.038596682
42	0xbb83b85f	-0.0040197815
43	0xbd1b286f	-0.037880357
44	0xbb881e25	-0.004153984
45	0x3b255546	0.002522783
46	0xbcc23aef	-0.023709742
47	0x3ccd8905	0.02508975
48	0xbd182956	-0.037148796
49	0x3c46a030	0.012123153
50	0x3b926729	0.004467864
51	0x3d923f3c	0.07140967
52	0xbd5dcafb	-0.054148655
53	0x3cffa57b	0.031206837
54	0x3bf21c64	0.0073886383
55	0x3c0344a7	0.008011973
56	0xbc9edbbb	-0.019391885
57	0x3c0c1742	0.008550467
58	0xba5c999f	-0.00084152253
59	0x3c242835	0.010019352
60	0xbbb71c4f	-0.0055880914
61	0x3baf62c4	0.00535235
62	0x3cf03de7	0.029326392
63	0x3c0322ae	0.008003874
64	0x3b94e045	0.0045433366
65	0x3b0aa4df	0.00211554
66	0xbb59496a	-0.003315533
67	0xbc297910	-0.010343805
68	0xbc1979bc	-0.009367403
69	0x3ce36ad6	0.027760904
70	0x3cd71f77	0.02626012
71	0xbc9cab74	-0.019124724
72	0x3d2e5e20	0.042570233
73	0x3c90b312	0.017663512
74	0xbc05b241	-0.008160175
75	0xbc3d914d	-0.011570287
76	0xbcfbbbb6	-0.030729156
77	0xbd2b181f	-0.04177105
78	0x3c1e94b0	0.009679005
79	0xbc204323	-0.009781632
80	0x3bf4d684	0.0074718613
81	0x3d48849a	0.048954584
82	0x3b625df8	0.0034540873
83	0x3c5e7f80	0.013580203
84	0xbd05b5ca	-0.03264407
85	0xbaa3171a	-0.0012442798
86	0x3c112c24	0.008860622
87	0x3bb2d8a0	0.0054579526
88	0x3b8adb01	0.004237533
89	0x3c231e6d	0.009955985
90	0xbba726b3	-0.005101049
91	0x3d04319f	0.032273885
92	0xbc90ac85	-0.017660389
93	0xbb90d8bc	-0.004420368
94	0xbc80dff5	-0.015731791
95	0xbb5b9af0	-0.0033509098
96	0xbc594fd3	-0.0132636605
97	0x3ca0f596	0.019648355
98	0xbd2c436a	-0.04205648
99	0x3cd709bb	0.026249757
100	0xbcb4cba0	-0.022069752
101	0xbb06cc5a	-0.002056858
102	0x3cc4177e	0.023936983
103	0xbcdc0524	-0.02685792
104	0xbb538345	-0.0032274288
105	0x3c95dd72	0.01829407
106	0x3ca8c10d	0.020599866
107	0x3c06feed	0.00823949
108	0xbd14f001	-0.036361698
109	0xbb1fca7e	-0.002438217
110	0xbcd24e86	-0.025672209
111	0xbcff4dfe	-0.03116512
112	0xbbe54c16	-0.0069975955
113	0xbc31582a	-0.010824243
114	0x3c019403	0.007908824
115	0xbc150c62	-0.009097191
116	0xbbbdca8b	-0.0057919673
117	0x3d059185	0.03260948
118	0xbcf790c9	-0.030220406
119	0x3d1cc6f2	0.038275667
120	0xbc99d595	-0.018778602
121	0xbcf45cd9	-0.02982943
122	0x3cb04471	0.02151701
123	0x3b1517df	0.0022749824
124	0xbc9f504b	-0.019447466
125	0xbc280c91	-0.010256902
126	0x3bf9b487	0.0076203975
127	0x3d164f7d	0.0366969
128	0x3d648efc	0.055800423
129	0x3c841ef8	0.016128048
130	0xb947129d	-0.00018985053
131	0xbaaaf129	-0.0013041842
132	0x3cbd13da	0.023080755
133	0x3c25f7ce	0.010129882
134	0xbbd1a927	-0.0063983384
135	0xbc0706b6	-0.008241346
136	0x3c546099	0.012962484
137	0x3cab7080	0.020927668
138	0x3bd0dd8c	0.0063740667
139	0x3c81917a	0.015816439
140	0x3cb6deef	0.0223231
141	0x3c844486	0.016145956
142	0x3cdcbcbb	0.026945462
143	0x3c57f8df	0.013181894
144	0xbc79010d	-0.015198004
145	0x3c358dc5	0.011081164
146	0xbc537c2e	-0.012908025
147	0x3c75a8cb	0.014993857
148	0x3c32bd0f	0.010909333
149	0x3c29440b	0.010331164
150	0xbba27457	-0.0049577164
151	0x3c74174a	0.014898131
152	0x39e945f4	0.00044493342
153	0x3bca708f	0.006177969
154	0x3cac7514	0.021051921
155	0x3bc91b17	0.0061372626
156	0xbcab5d71	-0.02091858
157	0xbc4e9353	-0.012608367
158	0x3d2291d3	0.03968985
159	0xbcb73454	-0.02236382
160	0x3ce2706b	0.027641496
161	0x3cddbb38	0.027066812
162	0xbc327a25	-0.010893379
163	0x3cde7472	0.027155135
164	0x3cb1b232	0.021691415
165	0x3cacc949	0.021092074
166	0x3ccc5ff6	0.024948101
167	0xbcf67ccb	-0.030088803
168	0x3cb00603	0.021487242
169	0x3a125c79	0.00055832375
170	0x3c8d691d	0.017262036
171	0xbcbe6719	-0.02324252
172	0xbad9421d	-0.001657549
173	0xbca25604	-0.019816406
174	0xbcbdc83c	-0.023166768
175	0xbc0749e3	-0.008257362
176	0xbc2f1e41	-0.010688365
177	0x3c09fc4b	0.008421968
178	0xbb92faaa	-0.004485448
179	0x3c896090	0.016769677
180	0x3ce98708	0.02850677
181	0x3b9bb2ad	0.0047515244
182	0xb9fb0c78	-0.0004788374
183	0xbc9c6731	-0.019092174
184	0x3cbf09ef	0.023320166
185	0xbc2d5352	-0.010578947
186	0xbba2e58d	-0.0049712122
187	0x3c549614	0.012975235
188	0xbb8aae9f	-0.0042322422
189	0x3c174f70	0.009235248
190	0xbbde7a86	-0.0067895083
191	0xbb22a583	-0.002481789
192	0xbbeb8731	-0.007187747
193	0x3c972d37	0.018454177
194	0xbb29cdc9	-0.002591001
195	0x3ce88368	0.028382972
196	0x3b4858de	0.0030570547
197	0xbbb1a384	-0.005421104
198	0x3b9f01c3	0.004852505
199	0x3c850190	0.016236097
200	0xbc5f7360	-0.013638347
201	0x3c348415	0.011017819
202	0x3b514d58	0.003193697
203	0xbcd685bd	-0.026186818
204	0xbbc067ab	-0.005871733
205	0x3aa78e13	0.001278343
206	0x3c56beda	0.013107026
207	0xbc034719	-0.0080125565
208	0x3b88fafc	0.0041803103
209	0x3c2c8898	0.010530613
210	0x3c5022e4	0.012703631
211	0xbaa400bf	-0.0012512429
212	0xb941ffb4	-0.00018501171
213	0x3c3868e9	0.011255481
214	0x3b93dbc4	0.004512282
215	0xbced4779	-0.028964745
216	0x3b9a9576	0.004717524
217	0x3d320e79	0.043470833
218	0x3c3eaac4	0.011637393
219	0xbca9543a	-0.020670045
220	0x3a5c2d23	0.000839906
221	0xba3880a3	-0.00070382113
222	0xbb714164	-0.0036812657
223	0x3c67b488	0.014142163
224	0x3c58f1c3	0.013241234
225	0x3c7f2170	0.015571937
226	0x3c92c6ec	0.017917119
227	0x3c17b693	0.009259838
228	0xbb9716e3	-0.0046108826
229	0x3c725efd	0.014793155
230	0x3aa313aa	0.0012441773
231	0x3a45df73	0.000754825
232	0xbaf16684	-0.0018417393
233	0x3b9abcf7	0.0047222334
234	0x3b83bdbb	0.0040204204
235	0x3b62903d	0.0034570836
236	0xbd049265	-0.032366175
237	0x3c60d6fd	0.013723132
238	0x3c4c33cf	0.012463524
239	0xbb8c9460	-0.0042901486
240	0xbcb7facd	-0.022458458
241	0xbbf66566	-0.007519412
242	0x3c6d125b	0.014469708
243	0xbc5c8eed	-0.013461811
244	0xbc3f12ee	-0.011662228
245	0x3bb2c98f	0.0054561566
246	0x3ce64b11	0.028111966
247	0x3c139dd0	0.009009793
248	0x3c9a1878	0.018810496
249	0xbca6f62c	-0.020381056
250	0xbc100e1e	-0.008792428
251	0x3b3e5c94	0.002904688
252	0xba94072c	-0.0011293641
253	0xbaa0a5b0	-0.001225641
254	0xbc432c82	-0.011912467
255	0x3d4bc077	0.049744096

action_model._continuous_distribution.mu.bias f4 [2]
0	0xbb226840	-0.0024781376
1	0x3bd0284c	0.00635246
