results/test-6/Drive/checkpoint.pt (torch, 475170 bytes, 36 tensors)

network_body._body_endoder.seq_layers.0.weight f4 [128, 17]
0	0xbe03eebe	-0.12884042
1	0x3dc518a5	0.09623841
2	0xbe97c6a3	-0.29643735
3	0xbe80a273	-0.2512394
4	0x3e95999e	0.29218763
5	0x3f13611f	0.5757007
6	0xbefa3884	-0.48871243
7	0x3da72f27	0.081632905
8	0x3cfeb3b0	0.031091541
9	0xbec16fcd	-0.3778061
10	0x3f071ab4	0.5277512
11	0xbe1de2d6	-0.15418562
12	0x3cf1e151	0.029526385
13	0xbe7755a3	-0.24153762
14	0xbe108f5e	-0.1411719
15	0xbdad84ff	-0.084726326
16	0xbe040104	-0.12891012
17	0x3c970169	0.01843329
18	0xbe2afb14	-0.16697341
19	0x3e7de13d	0.24792953
20	0xb983ba67	-0.00025125148
21	0xbecea6b3	-0.40361556
22	0xbdf82649	-0.12116677
23	0x3e86ba30	0.26313925
24	0xbc447070	-0.011989698
25	0x3ca8f6e5	0.020625541
26	0x3e03cfaa	0.12872186
27	0x3e468966	0.19388351
28	0x3e40a57e	0.1881313
29	0x3e6061b0	0.21912265
30	0x3eade47e	0.33963388
31	0xbde59bd3	-0.11211362
32	0x3d456fbf	0.048202273
33	0x3e7ab04f	0.24481319
34	0xbd2935d2	-0.041311093
35	0x3daed7ea	0.08537276
36	0x3e5dbe1a	0.21654549
37	0xbd8f2705	-0.06989864
38	0xbf07e420	-0.53082466
39	0x3e81588a	0.25262862
40	0xbd0f90d1	-0.035050217
41	0xbe5a5acb	-0.21323697
42	0xbe85ebf3	-0.26156577
43	0x3c684431	0.014176414
44	0x3db978d7	0.090562515
45	0x3e42c588	0.19020665
46	0xbc41177f	-0.011785387
47	0x3e4acb2b	0.19804065
48	0x3f528714	0.8223736
49	0xbda193dd	-0.07889531
50	0x3e977937	0.29584667
51	0x3dd8f307	0.10593229
52	0xbe9b0492	-0.30276924
53	0x3dbb1560	0.09134936
54	0xbe56fa3a	-0.20993891
55	0xbd887c3a	-0.06664319
56	0x3e269bdf	0.16270398
57	0xbebac425	-0.3647777
58	0x3d8d3b36	0.06896059
59	0x3e299f8f	0.16564773
60	0x3e8ce1ef	0.27516124
61	0xbe8876a4	-0.26653016
62	0x3d0944d3	0.0335129
63	0xbe4eb2e5	-0.2018543
64	0x3e938310	0.2881093
65	0x3e808d94	0.25108016
66	0xbe33c179	-0.17554273
67	0xbe82ee2b	-0.25572333
68	0xbe4ad72e	-0.19808647
69	0xbdc53b90	-0.09630501
70	0xbea30eb7	-0.31847164
71	0xbd2a727f	-0.0416131
72	0x3daf3524	0.08555058
73	0xbe9d472e	-0.30718368
74	0x3f32abc0	0.6979332
75	0x3ead8781	0.33892444
76	0x3e3dc7a9	0.18533196
77	0x3dbc64fc	0.09198949
78	0xbdf6941a	-0.12039967
79	0xbe3e5707	-0.18587886
80	0xbe968469	-0.29397896
81	0x3e0a14f9	0.13484563
82	0xbd305b12	-0.0430556
83	0xbe156977	-0.14591013
84	0x3b9a2a7d	0.004704772
85	0x3e589bc7	0.21153174
86	0xbda9dbc4	-0.0829387
87	0x3da9d993	0.08293452
88	0x3d11bbd0	0.035579503
89	0xbd17a688	-0.03702405
90	0xbc921f2b	-0.017837128
91	0x3e2159dd	0.15756936
92	0xbe622cf8	-0.22087467
93	0xbdf306e3	-0.11866548
94	0x3d715a14	0.058923796
95	0x3ddd04f0	0.107919574
96	0xbe55c851	-0.20877196
97	0xbebc4961	-0.36774734
98	0x3ebd0ed1	0.36925367
99	0xbee4aeb9	-0.44664553
100	0x3ee43fde	0.44579977
101	0xbc8e0b1b	-0.01733928
102	0xbe59cb9c	-0.21269077
103	0x3d42d921	0.04757035
104	0xbdc2cd89	-0.09511859
105	0xbd56b7a8	-0.052421242
106	0xbe886ce7	-0.26645586
107	0xbe91a6e7	-0.2844765
108	0xbe28e1f6	-0.16492447
109	0xbd1973dd	-0.03746401
110	0x3e5c5fe9	0.21520962
111	0x3d5ab9f2	0.053399988
112	0xbd1763b0	-0.036960304
113	0x3eb1984d	0.3468651
114	0x3dce3545	0.10068754
115	0xbeacf2a9	-0.33778885
116	0x3e6c43b0	0.23072696
117	0x3d7b136e	0.061297826
118	0x3e19d77a	0.15023604
119	0x3ea55175	0.3228871
120	0xbd9f844d	-0.07788906
121	0xbeb17b7f	-0.34664533
122	0xbf06f11c	-0.52711654
123	0xbb6ae401	-0.0035841467
124	0xbe820bef	-0.2539973
125	0x3ea03b21	0.31295112
126	0xbdf60da3	-0.1201432
127	0x3edf9478	0.4366796
128	0xbd42a7f3	-0.04752345
129	0x3e9bcf06	0.30431384
130	0x3b746a0d	0.0037294657
131	0xbe4d1193	-0.20026235
132	0xbc8411fa	-0.016121853
133	0x3d825d68	0.06365472
134	0x3e8bc862	0.27301317
135	0x3e8d3831	0.27581933
136	0x3db05038	0.086090505
137	0x3e893c37	0.26803753
138	0xbb233cdd	-0.0024908104
139	0x3d2b097e	0.0417571
140	0x3e4a6397	0.19764553
141	0x3df007ff	0.11720275
142	0xbe1541a7	-0.14575826
143	0xbe4b99a3	-0.19882827
144	0x3e3f9d84	0.18712431
145	0xbf0b1be6	-0.54339445
146	0xbdccfa3b	-0.10008665
147	0xbee053e7	-0.43814012
148	0xbe78a4f9	-0.24281682
149	0x3e5f2c59	0.21794261
150	0x3d4204a4	0.047367707
151	0x3ebc3c98	0.3676498
152	0xbec50657	-0.384814
153	0x3e5b7bca	0.2143394
154	0xbeddd64e	-0.43327564
155	0x3e31fa4e	0.1738064
156	0xbce3e41d	-0.027818734
157	0xbe216046	-0.15759382
158	0x3e11ef26	0.14251384
159	0xbb8317fa	-0.004000661
160	0x3e874240	0.26417732
161	0xbee0c3dc	-0.4389943
162	0x3e4977c0	0.19674587
163	0xbe095f80	-0.13415337
164	0xbe0871be	-0.13324639
165	0x3eb6c259	0.3569515
166	0xbdcbbc7a	-0.099480584
167	0xbe28f52c	-0.16499776
168	0xbe517faa	-0.20458856
169	0xbc208ba5	-0.009798919
170	0x3df9b4fa	0.12192722
171	0xbd8c7430	-0.068580985
172	0xbf13d8f4	-0.5775292
173	0x3ea259e9	0.3170922
174	0xbe6c3d2c	-0.2307021
175	0x3b8ebb96	0.004355858
176	0xbed7849a	-0.42093354
177	0x3eab9db4	0.33518755
178	0x3d153216	0.03642472
179	0x3dce61f4	0.10077277
180	0x3e7cb7ba	0.24679461
181	0xbd9b2c1a	-0.07576771
182	0x3d9e7f21	0.07739092
183	0xbe72aa6b	-0.23697822
184	0x3e7e48ec	0.24832505
185	0xbc659e44	-0.014014784
186	0xbe703a1c	-0.23459667
187	0xbea88fa7	-0.32922098
188	0xbee30b7a	-0.44344693
189	0x3ea55655	0.3229243
190	0xbe87535e	-0.26430792
191	0xbebf520f	-0.37367293
192	0xbf01380e	-0.5047616
193	0x3f07a9fe	0.5299376
194	0xbbf41472	-0.0074487263
195	0xbbc340f2	-0.00595867
196	0xbe4b28fe	-0.19839856
197	0xbd061454	-0.03273423
198	0xbe8c5f40	-0.2741642
199	0x3e896024	0.26831162
200	0xbe662ea7	-0.22478734
201	0x3e2ac34a	0.1667606
202	0x3d51efc8	0.051254064
203	0x3d367854	0.044548348
204	0x3e158247	0.14600478
205	0x3db26349	0.087103434
206	0xbde9034f	-0.11377584
207	0xbec87d55	-0.3915812
208	0xbeeacdcd	-0.4586014
209	0x3e06a322	0.13148168
210	0x3e5157b5	0.20443614
211	0xbdd53ae7	-0.10411625
212	0xbddec06a	-0.10876544
213	0xbe38f5db	-0.18062536
214	0x3c92fe93	0.017943656
215	0x3dde756a	0.10862239
216	0x3f06d2a1	0.52665144
217	0x3dfa6146	0.12225585
218	0x3e570bf8	0.2100066
219	0x3e23f557	0.16011558
220	0x3e530d82	0.20610622
221	0xbd8d69e4	-0.06904963
222	0xbc464c79	-0.012103193
223	0x3ec9cb16	0.39412755
224	0xbec5c745	-0.38628593
225	0x3e8a2c09	0.2698672
226	0xbe667c53	-0.22508363
227	0x3ebeb0a2	0.37244135
228	0x3e8c6df3	0.27427635
229	0x3e66527b	0.22492401
230	0x3ddc922c	0.107700676
231	0x3d8e9eb5	0.06963865
232	0xbe87d386	-0.26528567
233	0xbe240323	-0.16016822
234	0x3e5050fb	0.20343392
235	0xbf09dac9	-0.53849465
236	0xbee32413	-0.4436346
237	0xbea9e3c5	-0.33181587
238	0xbe86f3ca	-0.2635787
239	0x3ede91f0	0.43470716
240	0x3e47d3f2	0.19514444
241	0x3d86f117	0.06588953
242	0x3ea0ff61	0.3144484
243	0xbd896b04	-0.06709865
244	0xbe3aca57	-0.18241249
245	0x3d9453fa	0.0724258
246	0xbea86090	-0.3288617
247	0x3d91662b	0.07099565
248	0x3c8034e9	0.01565023
249	0xbe681b19	-0.22666587
250	0x3e83d4bf	0.2574825
251	0x3ccd526b	0.025063714
252	0x3e91b6e9	0.28459862
253	0x3e357491	0.17720248
254	0xbdbe5492	-0.09293474
255	0x3e80fb43	0.25191697

network_body._body_endoder.seq_layers.0.bias f4 [128]
0	0x3d39fc13	0.045406412
1	0x3d030602	0.03198815
2	0xbcdbc61d	-0.026827866
3	0xbd11a822	-0.035560735
4	0xbd862cca	-0.065515116
5	0x3b8a7e44	0.004226478
6	0xbcb7fa5d	-0.02245825
7	0xbcd12dbd	-0.025534505
8	0xbcc83512	-0.024439368
9	0xbd0bc286	-0.03412106
10	0x3ca8ba91	0.020596774
11	0xbc84df3c	-0.016219728
12	0x3d2984d7	0.04138645
13	0xbc672dbb	-0.014110024
14	0xbca7b57e	-0.020472284
15	0x3cfbfd05	0.030760298
16	0xbcf1fba9	-0.029538946
17	0x3cb3db66	0.021955203
18	0xbc74cff1	-0.014942155
19	0xbc8ee3fc	-0.017442696
20	0xbbd2cbf6	-0.0064330054
21	0xbd1090fa	-0.03529451
22	0xbdb0d33c	-0.0863404
23	0xbba2efeb	-0.004972448
24	0x3d4dd08c	0.050247714
25	0x3da66e99	0.081265636
26	0xbd51d143	-0.05122496
27	0x3d09815e	0.03357064
28	0x3b01bb68	0.001979554
29	0x3d04be73	0.03240819
30	0xbd026978	-0.031838864
31	0xbc410b08	-0.011782415
32	0xbc677259	-0.014126384
33	0xbd6975d9	-0.056997154
34	0xbd3bb4d9	-0.045826767
35	0xbd09f745	-0.03368308
36	0xbd551a81	-0.05202723
37	0x3c67bb5b	0.01414379
38	0xbc26ca89	-0.010180124
39	0x3c5a0105	0.013305907
40	0xbc802001	-0.01564026
41	0x3c9aa9f5	0.01887987
42	0xbc656709	-0.014001616
43	0xbc3b6f7d	-0.011440155
44	0xbd3ba7f1	-0.04581446
45	0xbbc3d62b	-0.0059764585
46	0xbc50a04a	-0.012733528
47	0xbd0fcbd8	-0.03510651
48	0xbdc7c965	-0.0975521
49	0xbcf9b058	-0.030479595
50	0xbc75a419	-0.014992737
51	0xbd00fa6b	-0.031488817
52	0x3b82209f	0.003971174
53	0xbd127018	-0.035751432
54	0xbd897a1b	-0.06712743
55	0xbd932cb8	-0.07186264
56	0x3ce273aa	0.027643044
57	0x3a1afb13	0.0005912047
58	0x3c90695e	0.017628368
59	0xbd076285	-0.03305294
60	0xbca31fdf	-0.019912658
61	0x3c9d9220	0.019234717
62	0xbcbe5e60	-0.02323836
63	0xbd3390da	-0.043839313
64	0xbd90adf9	-0.07064433
65	0xbd1b921b	-0.037981134
66	0xbd5eb081	-0.054367546
67	0xbcb7fb19	-0.0224586
68	0xbd11376b	-0.03545324
69	0xbcb43046	-0.021995675
70	0xbc931280	-0.017953157
71	0xbc31b93d	-0.010847387
72	0x3b503b98	0.0031773802
73	0xbd7ed5ac	-0.062215492
74	0x3d0622dc	0.03274809
75	0xbbf60f57	-0.007509153
76	0xbdaa7ff8	-0.08325189
77	0xbd3e03a1	-0.04639018
78	0x3cda1950	0.026623398
79	0xbd52e482	-0.051487453
80	0xbc510500	-0.01275754
81	0xbd52be00	-0.05145073
82	0xbd0c27e6	-0.034217738
83	0x3d0adac2	0.03390003
84	0xbd072d0d	-0.03300195
85	0xbb9ff262	-0.004881189
86	0xbca7c70b	-0.020480653
87	0x39b87026	0.00035178772
88	0xbc4f9c15	-0.01267149
89	0xbbe35b1d	-0.006938352
90	0x3bb0e799	0.0053987023
91	0x3d6d61fa	0.057954766
92	0xbd90946d	-0.0705956
93	0xbd84d8ef	-0.06486689
94	0xbd131a70	-0.035913885
95	0xbd75ad1d	-0.059979547
96	0x3cabe53b	0.020983329
97	0x3d032f7d	0.03202771
98	0x3cb3609c	0.021896653
99	0xbd89cb1a	-0.06728192
100	0x3c3b5411	0.011433617
101	0x3dd89b3c	0.105764836
102	0x3c8c8887	0.017154945
103	0xbc066df9	-0.00820493
104	0xbd32abad	-0.043620754
105	0xbd898772	-0.06715287
106	0x3c053d30	0.008132264
107	0x3a93681d	0.0011246238
108	0xbce36738	-0.02775918
109	0x3cfcf550	0.030878693
110	0xbd80a4ca	-0.06281431
111	0x3b34bb75	0.0027577553
112	0x3c02ba62	0.007979007
113	0xbd89b6a1	-0.06724287
114	0xbcb9b5ea	-0.022669751
115	0x3c99e904	0.018787868
116	0x3c93f41f	0.018060742
117	0x3d867d60	0.06566882
118	0xbca410b3	-0.020027494
119	0x3c86cfd3	0.01645652
120	0xbdcb4b47	-0.099264674
121	0xbdc10544	-0.094248325
122	0xbd954a01	-0.07289506
123	0xbccb0325	-0.024781773
124	0x3bc68c40	0.0060591996
125	0xbb97dba2	-0.0046343366
126	0xbd75857b	-0.05994175
127	0xbc818fe0	-0.015815675

network_body._body_endoder.seq_layers.2.weight f4 [128, 128]
0	0x3daacf48	0.08340317
1	0xbdb050db	-0.08609172
2	0x3cda245f	0.026628671
3	0x3cd34bb2	0.02579293
4	0xbdc4db94	-0.09612194
5	0x3d535b44	0.05160071
6	0xbd21de5e	-0.039518707
7	0x3d85786b	0.065171085
8	0x3e1f38be	0.15548989
9	0xbce13b18	-0.027493998
10	0x3db2c847	0.08729606
11	0x3d4fd150	0.050736725
12	0xbe2ee357	-0.17078911
13	0xbe707bdf	-0.23484753
14	0xbd6c546d	-0.057697702
15	0x3e23b460	0.15986776
16	0x3cf65363	0.030069059
17	0xbe046a80	-0.12931252
18	0xbd9b3109	-0.07577712
19	0xbd293301	-0.041308407
20	0x3d78341f	0.06059658
21	0x3e22287d	0.15835758
22	0x3d216686	0.039404415
23	0x3df2b1af	0.11850297
24	0xbd89edc8	-0.06734806
25	0x3e56d08d	0.20977993
26	0xbd933b2e	-0.07189022
27	0xbd005338	-0.031329364
28	0xbccefe2e	-0.025267687
29	0xbc80b9a1	-0.015713515
30	0x3da7169a	0.08158608
31	0xbdec9d94	-0.11553493
32	0x3dc70767	0.09718209
33	0xbcc65e01	-0.024214746
34	0x3d4bc426	0.04974761
35	0x3bb2485f	0.005440756
36	0x3e118263	0.14209895
37	0x3d71f759	0.05907378
38	0xbe2978db	-0.16550009
39	0x3e00cc60	0.12577963
40	0xbe724365	-0.23658521
41	0xbd5bd66b	-0.05367128
42	0x3e0c2e2b	0.13689487
43	0x3b624218	0.0034524258
44	0x3dfb5d26	0.12273626
45	0x3d0599f3	0.03261752
46	0xbdf01207	-0.117221884
47	0xbde6953c	-0.11258933
48	0xbddffc8f	-0.109368436
49	0x3e32573f	0.17416094
50	0x3dddbb3c	0.10826728
51	0x3d3e03ac	0.04639022
52	0xbd2adef2	-0.041716523
53	0xbe9e9d5c	-0.3097943
54	0xbc457e1c	-0.012053993
55	0xbe198de9	-0.1499554
56	0x3c93d0a4	0.018043824
57	0x3cefa91a	0.029255439
58	0x3deeccdb	0.11660167
59	0xb9905b37	-0.0002753378
60	0xbe4fc933	-0.20291595
61	0x3e2f478f	0.17117141
62	0x3d07f961	0.03319681
63	0x3c5d0d53	0.013491946
64	0x3de808e2	0.11329819
65	0x3e3862de	0.18006465
66	0xbca46797	-0.020068927
67	0x3d8e9fe0	0.069640875
68	0xbd718965	-0.05896892
69	0xbd7314d4	-0.059346035
70	0xbdffaacf	-0.12483751
71	0xbe0fb849	-0.14035143
72	0x3df92baf	0.12166535
73	0x3b920ba1	0.0044569527
74	0x3df51dd1	0.11968578
75	0x3d348b12	0.04407794
76	0xbc1f3a46	-0.009718483
77	0x3bd06f84	0.00636095
78	0xbe2a5ad3	-0.16636209
79	0xbcdd1f23	-0.026992386
80	0x3da743e5	0.08167247
81	0x3daac4b4	0.083382994
82	0x3e07f75c	0.13277954
83	0x3d221c44	0.039577737
84	0x3d6932d1	0.056933228
85	0x3c41cf43	0.0118292
86	0x3e19e47b	0.15028565
87	0xbd965fca	-0.07342489
88	0x3cda3a3b	0.026639095
89	0xbdc17c96	-0.09447591
90	0xbe12166e	-0.14266369
91	0x3da4e7b2	0.08052005
92	0xbd855256	-0.06509845
93	0x3e05cbd4	0.13066036
94	0xbc07050b	-0.008240948
95	0xbe4a034b	-0.19727819
96	0xbd857df5	-0.06518165
97	0xbe5a9d43	-0.21349053
98	0x3d836000	0.06414795
99	0x3e193c39	0.1496438
100	0xbd144811	-0.03620154
101	0x3e12f91e	0.14352843
102	0xbdfc75e4	-0.12327173
103	0x3d4f7ef3	0.050658178
104	0x3db697f6	0.08915703
105	0x3e3d5202	0.18488315
106	0x3c0346e4	0.008012507
107	0x3e0f2c4d	0.13981743
108	0x3c15833b	0.009125526
109	0xbddbb916	-0.10728662
110	0x3e08b9a8	0.13352072
111	0xbd3bc8a1	-0.04584563
112	0xbb9ed79c	-0.00484748
113	0x3d9184b9	0.07105393
114	0x3c3fa5b1	0.011697219
115	0xbc7a2126	-0.015266692
116	0xbdd85bbc	-0.10564372
117	0x3e3af8de	0.18258998
118	0xbbeb6fb1	-0.0071849455
119	0x39378a4a	0.00017503757
120	0x3a9955d5	0.0011698554
121	0x3dcc16a6	0.09965257
122	0x3d9d9d8f	0.076960675
123	0xbe4855ac	-0.19563931
124	0xbd08a7a4	-0.033363
125	0xbd593470	-0.053028524
126	0xbcb9e0be	-0.022690173
127	0x3c8e2a59	0.017354177
128	0xbd20c742	-0.039252527
129	0xbd4119fa	-0.047143914
130	0x3d849d2b	0.0647529
131	0x3ca3a675	0.019976834
132	0x3d9a2764	0.075270444
133	0xbd066cce	-0.032818608
134	0x3d9b2e71	0.07577217
135	0xbe551327	-0.20808087
136	0x3db7b08e	0.08969222
137	0xbdd3222c	-0.10309252
138	0xbdbde69a	-0.092724994
139	0xbe2edb1b	-0.1707577
140	0x3de578e3	0.11204698
141	0x3d04b9ef	0.032403883
142	0xbdb513e0	-0.088416815
143	0x3e4c9b03	0.19981007
144	0xbd6bd261	-0.05757368
145	0xbc937dda	-0.018004347
146	0x3e6e0809	0.23245253
147	0x3e6cdb91	0.23130633
148	0x3e33bc0b	0.17552201
149	0xbc7cfe1b	-0.015441443
150	0x3d689d05	0.05679037
151	0x3d98c984	0.07460311
152	0xbc80aab5	-0.0157064
153	0xbd6dac9c	-0.05802594
154	0xbd57f3c5	-0.05272271
155	0x3d23b980	0.03997183
156	0x3d983c05	0.07433323
157	0x3db1a3a1	0.08673788
158	0x3d1b7797	0.037955847
159	0xbc810430	-0.015749067
160	0x3e676a03	0.22599034
161	0x3e1ca1db	0.15296118
162	0x3bf538f4	0.007483596
163	0x3dc1c6fa	0.0946178
164	0x3dcc6c11	0.099815495
165	0x3ce1ff6b	0.027587613
166	0x3df8ab92	0.121420994
167	0xbd739659	-0.059469555
168	0xbcd34839	-0.025791274
169	0xbd815094	-0.06314197
170	0xbd9f115c	-0.07766983
171	0xbd858ae8	-0.06520635
172	0x3d98984a	0.07450922
173	0xbccc835e	-0.024964985
174	0x3c8f1b46	0.01746906
175	0x3dad7bbb	0.08470865
176	0x3cc7708e	0.024345662
177	0x3dacca1e	0.08436988
178	0x3b41682a	0.002951155
179	0x3be44ac0	0.0069669187
180	0xbd311ce5	-0.043240447
181	0xbcb5d05f	-0.022194086
182	0xbdaf670c	-0.085645765
183	0xbd29ae6f	-0.04142612
184	0xbdeba491	-0.11505998
185	0x3db3f9ae	0.08787857
186	0xbd1b3caa	-0.03789965
187	0x3d2a8dd9	0.041639183
188	0xbd2dc840	-0.0424273
189	0xbcb3cbc4	-0.021947749
190	0xbe1f8bcf	-0.15580676
191	0x3e1a2b28	0.15055525
192	0xbce0cfbc	-0.027442805
193	0x3d8e6c50	0.06954253
194	0x3dae7418	0.08518237
195	0xbc97a6e7	-0.018512202
196	0x3b2684e9	0.002540881
197	0x3cca66e9	0.024707275
198	0x3c7741cd	0.015091372
199	0x3d7d7326	0.061877392
200	0x3dcde177	0.1005277
201	0x3cce726d	0.025201047
202	0xbe92b8b2	-0.28656536
203	0xbdcc7ea4	-0.09985092
204	0xbd1f3d61	-0.038876895
205	0xbe71c212	-0.23609188
206	0xbd067aa5	-0.032831807
207	0xbe1cdb9a	-0.15318146
208	0x3dfe2432	0.124092475
209	0xbca3b51b	-0.019983819
210	0xbbc7fbf9	-0.0061030355
211	0xbd814ebc	-0.063138455
212	0xbe4b7052	-0.19867066
213	0x3deba110	0.115053296
214	0x3e43ba5c	0.19114059
215	0xbda45c24	-0.08025387
216	0x3bf160a3	0.0073662563
217	0x3e08605b	0.13318007
218	0xbe350ef1	-0.17681481
219	0x3e3f799a	0.18698731
220	0xbdc2e75a	-0.09516783
221	0x3da84a12	0.08217253
222	0xbd6ab786	-0.057303928
223	0xbdb78e65	-0.089627065
224	0x3c3f3ce3	0.011672231
225	0x3e33d544	0.17561823
226	0xbe237063	-0.15960841
227	0xbe7d7bde	-0.24754283
228	0xbe117950	-0.14206433
229	0x3e117e02	0.14208224
230	0xbe355ca5	-0.17711122
231	0x3da0aae6	0.07845096
232	0xbdf29673	-0.11845102
233	0x3bcd4682	0.0062645087
234	0xbe6afe4d	-0.2294857
235	0xb99e5b00	-0.0003020391
236	0xbe42b6c6	-0.19015035
237	0x3de584ef	0.11206996
238	0x3d87acbd	0.06624744
239	0x3e165fbf	0.14684962
240	0xbe2777b0	-0.16354251
241	0x3dac34cb	0.08408507
242	0x3e0fe023	0.14050345
243	0x3d86c4f7	0.06580537
244	0xbdd6cfa9	-0.10488827
245	0x3e0709ff	0.13187407
246	0x3e122770	0.14272857
247	0x3da89f97	0.08233564
248	0xbe011c63	-0.12608485
249	0xbce921c1	-0.028458478
250	0x3d2ae246	0.041719697
251	0x3e2fdb22	0.17173436
252	0xbe7e6edf	-0.24846981
253	0x3d5f808a	0.054565944
254	0xbdc258cf	-0.09489595
255	0xbc0cb697	-0.008588455

network_body._body_endoder.seq_layers.2.bias f4 [128]
0	0xbb4f70f2	-0.0031653014
1	0x3b8a8edd	0.0042284564
2	0xbd4632b2	-0.04838819
3	0xbc24b24b	-0.010052274
4	0xbc23f717	-0.010007641
5	0xbcd76453	-0.026292956
6	0xbcd51492	-0.026010785
7	0xbacef9ac	-0.0015790961
8	0x3cbc9c67	0.023023797
9	0xbc406f74	-0.0117453225
10	0x3c1c76c0	0.009549797
11	0xbd53c72e	-0.051703624
12	0xbc7b8f10	-0.015353933
13	0xbd17da68	-0.037073523
14	0xbce87dc9	-0.028380292
15	0xbbb334e1	-0.00546895
16	0xbd30a0a9	-0.043121967
17	0xbcb1bbcc	-0.021695994
18	0xbc5b29c9	-0.013376662
19	0xbcd22ff6	-0.025657635
20	0xbd48d1ea	-0.049028315
21	0xbb661dd2	-0.003511299
22	0x3c2d353e	0.010571776
23	0x3c673359	0.014111363
24	0xbcca4d86	-0.02469517
25	0xbc429268	-0.011875726
26	0xbd88958c	-0.06669149
27	0x3c5d9f4a	0.013526747
28	0xbcc859d9	-0.024456905
29	0xbca3c9e0	-0.019993722
30	0xbcdae533	-0.026720619
31	0xbc20dc87	-0.009818203
32	0x3ccee1f8	0.025254235
33	0xbccaac7a	-0.024740446
34	0xba370f84	-0.0006983208
35	0xbd92ddfc	-0.071712464
36	0xbd3c5644	-0.045980707
37	0xbacdb905	-0.0015695399
38	0x3b1a573d	0.0023550533
39	0xbbb566c9	-0.0055359346
40	0xbd046424	-0.032322064
41	0xbcf28aba	-0.029607166
42	0xbd2ca7b1	-0.04215211
43	0xbc08abb5	-0.008341719
44	0xbbf68328	-0.0075229593
45	0xbd4fabc5	-0.05070092
46	0xbb0e9bb6	-0.0021760291
47	0xbd42802c	-0.047485515
48	0x3c45e8be	0.012079416
49	0xbcf76d7c	-0.030203573
50	0xbb1133d0	-0.0022156127
51	0xbd856b85	-0.06514648
52	0xbccc7cbd	-0.024961824
53	0xbd51086e	-0.05103343
54	0xbcbaa525	-0.022783825
55	0xbd002f4b	-0.031295102
56	0x3c164635	0.009172012
57	0x3b71e8d9	0.003691247
58	0xbcbb6b00	-0.02287817
59	0xbce465e3	-0.027880615
60	0x3ca1d5b2	0.019755218
61	0xbd5e1b5f	-0.05422532
62	0xbcbbec70	-0.02293989
63	0xbd8bdc09	-0.06829078
64	0xbb9af23e	-0.0047285846
65	0xbd5993b5	-0.05311938
66	0xbcc1945b	-0.023630312
67	0xbc8b3014	-0.016990699
68	0xbbede569	-0.007260014
69	0xbb6e05e5	-0.0036319431
70	0xbd077a29	-0.033075485
71	0xbcd64193	-0.026154315
72	0xbc97953d	-0.01850378
73	0x3cd436b7	0.025904996
74	0xbc682263	-0.014168355
75	0xbbb151e8	-0.0054113753
76	0xbc9cc336	-0.019136053
77	0xbd5c3275	-0.053759057
78	0xbc0fd6d8	-0.00877925
79	0xbcf06553	-0.02934519
80	0xbc836edf	-0.016044078
81	0xbcb79c87	-0.022413505
82	0xbd54cc55	-0.05195268
83	0xbc4e91cf	-0.012608006
84	0xbc67e0e3	-0.014152738
85	0xbb897f46	-0.0041960804
86	0xbb5d57d8	-0.0033774283
87	0xbd608289	-0.054811988
88	0xbd23aa29	-0.0399572
89	0xbc92c93f	-0.017918227
90	0xbcc3760c	-0.02386
91	0xbd306638	-0.043066233
92	0xbd5c7d25	-0.053830285
93	0x3a07ba29	0.00051775813
94	0xbd4acfe3	-0.049514662
95	0x3b389fdd	0.0028171458
96	0xbd828c16	-0.063743755
97	0xbd3812d0	-0.044939816
98	0xbca577c9	-0.02019872
99	0xbc5f5efd	-0.013633487
100	0xbd359b1e	-0.044337384
101	0xbcdb0c7a	-0.026739348
102	0x3cb89a8b	0.02253463
103	0xbc55f464	-0.013058756
104	0xbd0c2bfc	-0.034221634
105	0x3c76232e	0.015023036
106	0xbaae83f0	-0.0013314467
107	0xbc8d3f3c	-0.017242067
108	0xbca5c2ef	-0.020234553
109	0xbcaf337b	-0.021386852
110	0xbc9c263b	-0.019061198
111	0x3d117d50	0.035519898
112	0xbbfc0a46	-0.0076916544
113	0xbc633989	-0.013868698
114	0xbc659833	-0.014013338
115	0xbcf8b7a9	-0.030361013
116	0xbb9c3320	-0.0047668368
117	0xbc12915b	-0.008945788
118	0xbd62f235	-0.055406768
119	0xbd70cf42	-0.058791406
120	0xbd459073	-0.04823346
121	0xbc63d900	-0.013906717
122	0xbd0d7e06	-0.034544013
123	0xbc54bd7b	-0.012984629
124	0xbcce9834	-0.02521906
125	0xbd3afb2b	-0.04564969
126	0x3c6ac54d	0.014329267
127	0xbceeb8cc	-0.029140852

action_model._continuous_distribution.log_sigma f4 [1, 2]
0	0xbe65a2dc	-0.22425407
1	0xbd058d87	-0.032605674

action_model._continuous_distribution.mu.weight f4 [2, 128]
0	0xbb559f71	-0.0032596255
1	0xbcadf9fd	-0.021237368
2	0x3cf10c8c	0.029424928
3	0xbd749594	-0.05971296
4	0x3d8f690a	0.070024565
5	0xbb68dce1	-0.0035532045
6	0x3c996765	0.01872606
7	0x3d99d093	0.075104855
8	0x3d394901	0.045235638
9	0x3c965926	0.018353056
10	0xbdac9bfe	-0.08428191
11	0xbcc1fec7	-0.023681058
12	0x3ce4aa78	0.027913317
13	0xbd08f4c7	-0.033436563
14	0x3cb07585	0.021540413
15	0x3caa6695	0.020800868
16	0xbb1988fa	-0.0023427592
17	0xbcf069ea	-0.029347379
18	0xbc254cd8	-0.010089122
19	0xbd742b7f	-0.059611794
20	0xbd1d7103	-0.038437854
21	0xbcb9dcb9	-0.022688257
22	0x3d25aeaf	0.040449794
23	0x3beaa3f4	0.007160658
24	0x3b7f7992	0.0038982374
25	0xbd2a7500	-0.041615486
26	0xbbbf280b	-0.005833631
27	0x3d3468f3	0.0440454
28	0x3ab59e55	0.0013856391
29	0x3aa0b793	0.0012261741
30	0xbd22e3e3	-0.03976811
31	0x3ce74b08	0.02823402
32	0x3d9da5e4	0.07697657
33	0xbd89a899	-0.067216106
34	0x3d190aa6	0.03736367
35	0x3c389488	0.011265881
36	0x3c919663	0.017771905
37	0x3d47c1dc	0.048768863
38	0x3d68f420	0.05687344
39	0x3c86f189	0.016472595
40	0x3d60798c	0.054803416
41	0x3c36fbea	0.011168459
42	0x3a1ae09b	0.00059081026
43	0x3d0d274e	0.034461312
44	0xbd06a35b	-0.03287063
45	0x3cc701e0	0.024292886
46	0x3cb56e4c	0.02214732
47	0xbd2125c3	-0.039342653
48	0xbd2903f2	-0.04126353
49	0xbc08f5fc	-0.0083594285
50	0x3cee4a9d	0.029088313
51	0xbb02e144	-0.0019970695
52	0x3d9390f3	0.07205381
53	0xbd173642	-0.03691698
54	0xbd191308	-0.037371665
55	0xbcb11464	-0.021616168
56	0xbc006edf	-0.007838934
57	0xbd673f37	-0.05645677
58	0x3d7b28f8	0.061318368
59	0x3d669ec2	0.056303747
60	0xbda51798	-0.08061141
61	0xbc9634e7	-0.018335773
62	0xbc7565e7	-0.014977909
63	0x3b4f73ac	0.003165464
64	0x3bfdeb1b	0.007748974
65	0xbd427524	-0.047474995
66	0xbcc91f5b	-0.024551084
67	0x3c3d87ad	0.011567992
68	0x3d4aee26	0.049543522
69	0x3bed307a	0.007238445
70	0xbcf0b117	-0.029381318
71	0xbd736acf	-0.059428032
72	0x3d322b04	0.043498054
73	0xbcd02e49	-0.025412695
74	0xbcbdac41	-0.023153426
75	0x3c144ad6	0.009051045
76	0xbcaf2115	-0.02137808
77	0xbc10697f	-0.008814215
78	0x3d675799	0.056480024
79	0xba3abd5d	-0.0007123554
80	0xbd252413	-0.040317606
81	0xba54f43a	-0.0008123551
82	0xbd2cc967	-0.04218426
83	0xbd937184	-0.07199386
84	0x3d8913ac	0.06693205
85	0x3d8e8d89	0.069605894
86	0xbce333bc	-0.02773463
87	0x3c241653	0.010015088
88	0x3bb65713	0.0055645793
89	0x3d50042c	0.05078523
90	0xbcc8fd21	-0.024534764
91	0xbcd859e9	-0.02641006
92	0x3cb1d1ac	0.021706425
93	0xbce9e1b4	-0.028550006
94	0xbc4cac77	-0.012492291
95	0x3c6c6318	0.014427923
96	0xbc67f3e6	-0.014157271
97	0xbb50f59f	-0.0031884683
98	0xbd4e7d73	-0.050412606
99	0xbcdeb51a	-0.027185965
100	0x3cd8d027	0.026466442
101	0xbc69bdac	-0.014266413
102	0x398a69ef	0.00026400338
103	0x3b9f43ef	0.0048603932
104	0x3c4cf120	0.012508661
105	0xbc190b08	-0.009341009
106	0xbbb52ac6	-0.0055287806
107	0xbb7b5f1d	-0.0038356252
108	0xbbcbb38c	-0.006216472
109	0xbcaf0026	-0.021362375
110	0xba392e6e	-0.00070641085
111	0xbc7294d1	-0.014805988
112	0xbd1d14bb	-0.03834985
113	0x3cb2d30e	0.021829154
114	0xbcac53fc	-0.02103614
115	0xbcdd974c	-0.027049683
116	0xbb94669f	-0.004528835
117	0xbc8dd92a	-0.017315466
118	0xb98cd050	-0.00026858086
119	0x3bf63fff	0.007514953
120	0x3c939a99	0.018018054
121	0x3c9ac2df	0.01889175
122	0x3c383b10	0.01124455
123	0x3b5da581	0.0033820572
124	0xbc86e879	-0.016468273
125	0xbcc195b7	-0.02363096
126	0xbc85197d	-0.016247505
127	0xbcc87ffd	-0.024475092
128	0x3ce7f7a6	0.02831633
129	0x3d2e8c65	0.04261436
130	0x3d9ba286	0.07599358
131	0xbc426c9b	-0.011866714
132	0x3bfc0ba3	0.007691817
133	0xbcaa473e	-0.020785924
134	0x3d864e92	0.06557955
135	0x3c1e873a	0.009675795
136	0x3cf7061c	0.03015428
137	0xbd850f7b	-0.06497093
138	0x3d3a9ef2	0.04556174
139	0xba4b2ea4	-0.00077507854
140	0x3cf48d2d	0.029852474
141	0x3ba755d7	0.0051066685
142	0xbc3ca252	-0.01151331
143	0xbb19734d	-0.0023414672
144	0xbcddc238	-0.02707015
145	0xbd1f2c1c	-0.038860425
146	0xbd0347fc	-0.03205107
147	0x3d6d3cd4	0.05791934
148	0x3ccd5388	0.025064245
149	0x3cba74f3	0.022760844
150	0x3b910e75	0.0044267722
151	0x3d301d9d	0.04299699
152	0x3de5ea1b	0.11226293
153	0xbd18c007	-0.037292507
154	0x3b1fc527	0.0024378987
155	0xbb038975	-0.0020070944
156	0x3dc51f3b	0.09625097
157	0xbd01edf3	-0.031721067
158	0xbd5daae5	-0.054118056
159	0xbba17691	-0.0049274643
160	0xbd4b994d	-0.049706746
161	0x3d405de4	0.04696454
162	0xbdbdbb14	-0.09264198
163	0xbcee2446	-0.02907003
164	0xbd32617c	-0.04355
165	0xbba20af0	-0.0049451515
166	0x3cc1e1bc	0.023667209
167	0x3d7c58d1	0.06160814
168	0x3c51004d	0.012756419
169	0x3d18fe7f	0.03735208
170	0x3c1f42b5	0.009720494
171	0x3d704716	0.058661543
172	0x3d7b1ba7	0.06130567
173	0xbb88e0c1	-0.0041771834
174	0xbc513d32	-0.012770938
175	0x3bee15c3	0.007265778
176	0x3c85ae97	0.016318602
177	0x3d25c6a2	0.040472634
178	0x3ccdd2d3	0.025124943
179	0xbca7d75d	-0.020488435
180	0xbcb4218a	-0.021988649
181	0x3d467612	0.048452444
182	0x3b81a7d2	0.0039567733
183	0xbc91f729	-0.01781805
184	0x3ceedb59	0.029157327
185	0xbd2fdd64	-0.042935744
186	0x3cc1715c	0.023613624
187	0xbcdde24e	-0.02708545
188	0xbd14a9fa	-0.036294915
189	0xbcb83d30	-0.022490114
190	0x3c445e2f	0.011985346
191	0x3c690c85	0.014224176
192	0x3cda223f	0.026627658
193	0x3cf2b461	0.029627027
194	0xbd41b876	-0.047295056
195	0xbd796b31	-0.06089324
196	0x3c8d25e5	0.017229984
197	0xbd820474	-0.063485056
198	0xbd222b79	-0.03959224
199	0x3bb23c2e	0.005439303
200	0xbd4f5c6c	-0.05062525
201	0xbd8e6570	-0.069529414
202	0x3d8243c6	0.06360583
203	0x3d41f5b8	0.047353476
204	0x3d0890bf	0.033341166
205	0x3ccc2ef8	0.02492474
206	0xbca1e2f9	-0.01976155
207	0x3cf26096	0.029587071
208	0xbd011597	-0.03151473
209	0x3d0f556e	0.03499358
210	0x3c02cc52	0.007983284
211	0x3d22347a	0.039600827
212	0xbcd9a480	-0.026567698
213	0xbc1b05d2	-0.009461837
214	0xbdb3446c	-0.08753285
215	0x3d1c4aa9	0.03815714
216	0x3d149753	0.036277127
217	0x3c8eb329	0.017419415
218	0x3d135f68	0.03597966
219	0x3c94d437	0.018167598
220	0xbab8cdd3	-0.0014099426
221	0xbd59a304	-0.05313398
222	0xbc29ff73	-0.010375845
223	0x3d6d5765	0.057944674
224	0xbcfd5335	-0.030923465
225	0x3d8fe47a	0.07026
226	0xbc8b051b	-0.016970208
227	0x3d89b9ef	0.06724917
228	0xbb02e2b7	-0.0019971558
229	0x3c58e09a	0.013237143
230	0xbd407444	-0.04698588
231	0x3d4d5eb5	0.050139148
232	0x3c991a8e	0.01868942
233	0x3d54d3ae	0.051959686
234	0x3d8bc1de	0.068240866
235	0x3cf265f2	0.029589627
236	0xbd428752	-0.047492333
237	0xbd480f98	-0.048842996
238	0x3d3a9c43	0.04555918
239	0xbd3384a7	-0.04382768
240	0x3c8231af	0.015892832
241	0xbc186b49	-0.0093029225
242	0x3d0b1c08	0.03396228
243	0xbd503172	-0.050828405
244	0x3d1b76f2	0.037955232
245	0x3c529280	0.012852311
246	0x3c64826d	0.013947112
247	0x3c96a5dd	0.018389637
248	0xbae2e232	-0.0017309843
249	0xbd532f7b	-0.051558953
250	0x3d3c69d9	0.04599938
251	0xbcf060e7	-0.029343082
252	0xbd415923	-0.047204148
253	0x3d30f1d3	0.04319937
254	0x3d8868b9	0.06660599
255	0x3cd076e6	0.02544732

action_model._continuous_distribution.mu.bias f4 [2]
0	0x3bfc059f	0.0076911
1	0x3c0b5ba4	0.008505736

exp_avg f4 [128, 17]
0	0xbb02285b	-0.001986048
1	0xb7abcb64	-2.04795e-05
2	0x3ab8c999	0.0014098167
3	0x3b73abb3	0.0037181198
4	0x3bdaa9e8	0.0066730864
5	0x3be1271e	0.006871118
6	0x3c0bcdfe	0.008532999
7	0x3b95ad83	0.0045678033
8	0x3af474f3	0.0018650576
9	0xba48d50e	-0.0007661142
10	0xba549344	-0.00081091025
11	0x39eb0c94	0.00044832064
12	0x3abf6123	0.0014601093
13	0x3a82b3bf	0.0009971781
14	0x3b27e3cf	0.0025617962
15	0x3b2f1220	0.0026713684
16	0x3a82e810	0.0009987373
17	0xba1d7654	-0.0006006707
18	0x3a1f4a28	0.0006076419
19	0xba32bf04	-0.00068186247
20	0xbaa74f48	-0.0012764717
21	0xbb2a9dcc	-0.0026033996
22	0xbb1fc736	-0.0024380214
23	0xbb0770b4	-0.0020666542
24	0xbb9005cf	-0.0043952237
25	0x3a932f8c	0.001122938
26	0xbb151526	-0.00227482
27	0xbaea9458	-0.0017896993
28	0xb9ba1224	-0.000354902
29	0xba6b31ea	-0.00089719763
30	0x3b899224	0.0041983295
31	0xbb91fcba	-0.004455176
32	0xbae989a2	-0.0017817507
33	0x3aa88efc	0.0012859995
34	0x3b9630ea	0.0045834677
35	0x3b9e1020	0.0048236996
36	0x3b6cdd2c	0.003614257
37	0x3b2faa2c	0.0026804311
38	0x3bc7cff4	0.006097788
39	0x3bb6eacc	0.005582189
40	0x3b254298	0.0025216695
41	0xba09a368	-0.00052504847
42	0xba773d38	-0.00094314246
43	0xbb6c0b34	-0.003601742
44	0x3bf4b49e	0.0074678203
45	0x3aeac804	0.0017912393
46	0xb9d747c0	-0.00041061454
47	0xba788f34	-0.0009481788
48	0xbbf963ff	-0.0076107974
49	0xba2907a8	-0.0006447979
50	0xbb6c9ef6	-0.003610549
51	0xbbb8b56e	-0.0056368625
52	0xbbc8c6fd	-0.006127237
53	0xbbd2dd57	-0.006435077
54	0xbbea0cbf	-0.0071426327
55	0xbbb7c778	-0.0056084953
56	0xbbc5fd0f	-0.00604213
57	0xbbbb37fc	-0.005713461
58	0xbbb50f8d	-0.0055255354
59	0xbbb1db99	-0.0054277894
60	0xbb941595	-0.0045191743
61	0xbb7a14bf	-0.0038159338
62	0xbbac4dd3	-0.005258301
63	0xbb9ebd93	-0.0048443764
64	0xbb8b26b0	-0.0042465553
65	0xbc2fe506	-0.010735756
66	0xbb893362	-0.0041870335
67	0x3b1edeae	0.0024241614
68	0xbbe30ae6	-0.0069287894
69	0xbc0581b1	-0.008148597
70	0xbbe5cfc7	-0.0070132944
71	0xbc06cce3	-0.00822756
72	0xbc287ba8	-0.010283388
73	0xbc293239	-0.010326915
74	0xbc27dc6a	-0.010245422
75	0xbb177815	-0.0023112346
76	0xbba0ef39	-0.00491133
77	0xb9b96c6f	-0.0003536674
78	0xbba79c23	-0.0051150485
79	0xbbd18d7d	-0.0063950405
80	0xbb1705a9	-0.0023044145
81	0xbc677eb0	-0.014129326
82	0xbb4deb05	-0.00314206
83	0x3a54c9ea	0.0008117246
84	0x3aa4dfc1	0.0012578891
85	0x3b80b788	0.0039281286
86	0x3bc4478f	0.0059899758
87	0x3bca34ad	0.00617083
88	0x3bab49d1	0.0052273055
89	0x3bd82bc9	0.0065970165
90	0x3bdfe833	0.0068331
91	0x3bdd3b57	0.0067514586
92	0x3b692364	0.0035574073
93	0x3ba9207b	0.0051613427
94	0xbb5d0e4d	-0.0033730448
95	0x3b1a54b5	0.0023549024
96	0xbba2d00f	-0.00496865
97	0xbad6eed3	-0.001639808
98	0x3bd8c07e	0.0066147437
99	0xbb589d17	-0.0033052617
100	0xba0ab3b0	-0.0005291058
101	0x3c0f171e	0.008733539
102	0xba6330bb	-0.0008666624
103	0xba652158	-0.00087406253
104	0xba6b8f77	-0.00089859165
105	0xba7b39e8	-0.0009583519
106	0xba893dc6	-0.001047068
107	0xba95ce72	-0.0011429323
108	0xba93cc9e	-0.0011276191
109	0xba6857be	-0.0008863172
110	0xb9ea18c6	-0.00044650416
111	0x39fef580	0.00048629567
112	0xba6acc1a	-0.0008956805
113	0x39a9b972	0.0003237236
114	0xbabfa8a8	-0.0014622407
115	0x391191d4	0.00013882603
116	0x3a5253b8	0.00080233393
117	0xbb7032de	-0.0036651413
118	0x397afe72	0.00023936646
119	0x3b8a54d7	0.0042215395
120	0x3b2d4e2a	0.0026444294
121	0x3b1afa10	0.0023647584
122	0x3b0d5622	0.0021566232
123	0x3af26c63	0.0018495437
124	0x3ad5f19c	0.0016322616
125	0x3ac0205e	0.0014658084
126	0x3a9ac312	0.0011807403
127	0x3a9df18c	0.0012050136
128	0xbac89f18	-0.0015306203
129	0x3bb8a318	0.0056346767
130	0xb8f5c158	-0.000117185235
131	0x39e0eac8	0.00042899535
132	0x3aa5adba	0.0012640276
133	0xba98b5d6	-0.0011650871
134	0xbabf3e11	-0.0014590641
135	0xbb455798	-0.0030112024
136	0x3c8d6e0e	0.017264392
137	0x3c87f99d	0.016598517
138	0x3c9660d2	0.018356714
139	0x3c91a042	0.017776612
140	0x3cb5b85c	0.022182636
141	0x3cc73d7c	0.02432131
142	0x3ca9f055	0.020744482
143	0x3c1c6eb0	0.009547874
144	0x3bf559dc	0.0074875187
145	0xb896e36c	-7.194918e-05
146	0x3c1310b7	0.008976153
147	0xb959683f	-0.00020733567
148	0x3b1f13df	0.0024273319
149	0x3c0149b1	0.007891105
150	0x3bfee98e	0.0077793067
151	0xba4e2550	-0.00078638364
152	0x3c02ac4b	0.007975648
153	0xbb2d20d5	-0.0026417274
154	0xbb31f38a	-0.0027153217
155	0xbbccb87e	-0.006247579
156	0xbbbad4ec	-0.005701652
157	0xbba9d45c	-0.005182786
158	0xbba5153a	-0.005037931
159	0xbb9cb4d4	-0.0047822986
160	0xbba21c85	-0.0049472474
161	0x38e04e10	0.000106956926
162	0xb95c22f0	-0.0002099385
163	0xbb08fe8a	-0.002090367
164	0x39242618	0.0001565445
165	0xbb1809ce	-0.0023199203
166	0x3a67dae6	0.0008844569
167	0xbb1e81f4	-0.0024186345
168	0xbb2afdfc	-0.0026091328
169	0x3adb321b	0.0016723307
170	0xbad80ee2	-0.0016483928
171	0xbaafa57c	-0.0013400759
172	0xba81a115	-0.0009889925
173	0xbb20e886	-0.0024552657
174	0xbae31888	-0.0017326036
175	0xbb04026f	-0.0020143052
176	0xbac59c3e	-0.0015076471
177	0xbafdd922	-0.0019367079
178	0x3a1d24fc	0.0005994586
179	0xba5594a4	-0.00081474544
180	0x3aeb4e7b	0.0017952466
181	0x3a2404ce	0.00062568195
182	0xba455640	-0.0007527806
183	0x3a43c09a	0.00074673595
184	0xbb83ec88	-0.0040259995
185	0xbb5da776	-0.0033821738
186	0xba087c48	-0.00052065076
187	0xb841ac65	-4.617534e-05
188	0xb846ff37	-4.7444566e-05
189	0xb8517351	-4.993688e-05
190	0xb861e664	-5.385875e-05
191	0xb8777412	-5.8997488e-05
192	0xb888a890	-6.5163826e-05
193	0xb88e785f	-6.7935085e-05
194	0xb88854b8	-6.5007654e-05
195	0xb866ebbe	-5.5055825e-05
196	0xb8ad0a64	-8.251218e-05
197	0xb8421e5c	-4.628148e-05
198	0xb82347da	-3.8929145e-05
199	0xb855be35	-5.09603e-05
200	0xb81d6c07	-3.7532325e-05
201	0xb960556b	-0.00021394125
202	0xb921c974	-0.00015429204
203	0x375103c5	1.2458248e-05
204	0x3c0d66e0	0.008630484
205	0x3ba7c2ff	0.005119681
206	0x3b95312d	0.0045529814
207	0x3b3b066d	0.0028537766
208	0x3ae93288	0.0017791549
209	0x3ab95786	0.0014140464
210	0x3a8d7b28	0.001079415
211	0x3a6f0970	0.0009118533
212	0x3acb309b	0.0015502156
213	0xb8f6e158	-0.000117721676
214	0x3be49096	0.006975244
215	0x3af4ef7a	0.0018687092
216	0xbb5065a9	-0.0031798875
217	0x3afd0a64	0.0019305465
218	0x3b117fd5	0.0022201438
219	0xbbf2f93b	-0.0074149645
220	0xbb8f1ac8	-0.0043672062
221	0x3aa858d5	0.0012843857
222	0x3b099082	0.0020990674
223	0x3a9d0ddc	0.001198228
224	0x3be9b472	0.0071321065
225	0x3b4846d0	0.0030559786
226	0x3b03aee4	0.0020093257
227	0x3afd2fe2	0.0019316638
228	0x3c1683cf	0.009186699
229	0x3a86bbc3	0.0010279346
230	0x3c636ae5	0.013880466
231	0x3b440399	0.002990937
232	0x3bfa102a	0.0076313214
233	0x3bc734e8	0.006079305
234	0xbbc8ab65	-0.0061239474
235	0x3c26ddde	0.010184733
236	0x3bdbec3e	0.006711512
237	0xbc7680bb	-0.01504534
238	0x3bb9f926	0.0056754528
239	0x3bc52400	0.0060162544
240	0x3ba6d098	0.0050907843
241	0x3b86de58	0.004115861
242	0x3be37fae	0.006942711
243	0x3be0126e	0.0068381345
244	0x3c0244cb	0.007950972
245	0x390c96b0	0.00013407576
246	0x3b4673a6	0.0030281334
247	0xbbaaeb0c	-0.005216008
248	0x3b9e20c8	0.004825685
249	0xba5f6d05	-0.000852302
250	0xbad9a51f	-0.0016604996
251	0x3c4304f3	0.011903035
252	0x396cc6cc	0.00022580771
253	0xbac93418	-0.0015350608
254	0x3ba80c70	0.005128436
255	0xba5148fe	-0.0007983594

exp_avg_sq f4 [128, 17]
0	0x3a790e6a	0.0009500744
1	0x3a56ff45	0.000820149
2	0x3a704457	0.0009165457
3	0x3a992a73	0.0011685624
4	0x3aa93484	0.0012909328
5	0x3a9d3832	0.0011994897
6	0x3a2d26c1	0.0006605201
7	0x39d09e18	0.0003979064
8	0x39816ba1	0.00024684987
9	0x393483c3	0.00017215223
10	0x3a83456d	0.0010015197
11	0x39083f27	0.00012993497
12	0x39873c49	0.00025794122
13	0x391635ba	0.0001432513
14	0x39fc6f15	0.00048147948
15	0x3a1cb989	0.00059785746
16	0x391f69d2	0.00015202843
17	0x3a802353	0.0009776152
18	0x3a92758d	0.0011173949
19	0x3ac818be	0.0015266163
20	0x3b0255cd	0.0019887567
21	0x3b0fb90f	0.0021930372
22	0x3b1369ce	0.0022493484
23	0x3b0c6287	0.0021421032
24	0x3ac9d959	0.0015399858
25	0x3a786192	0.00094749883
26	0x3aa503ea	0.0012589667
27	0x3a2aa81c	0.00065100356
28	0x3a878626	0.0010339662
29	0x39e86dcf	0.00044332302
30	0x3a605808	0.00085580396
31	0x3a50deb3	0.0007967755
32	0x3a14127e	0.00056485075
33	0x39715a00	0.00023017079
34	0x3afe865a	0.0019418702
35	0x3b1842b8	0.0023233127
36	0x3b312167	0.0027027966
37	0x3b3ac694	0.002849971
38	0x3b381541	0.002808884
39	0x3b27e082	0.0025615995
40	0x3afc5dda	0.0019254044
41	0x3aa2f287	0.0012431898
42	0x3a5b22cc	0.0008359372
43	0x3b188b6e	0.0023276466
44	0x3ab5efc7	0.0013880663
45	0x3a9534a6	0.0011383488
46	0x3a8b1f0a	0.0010614109
47	0x3a34c675	0.00068960275
48	0x3b17aa44	0.0023142258
49	0x3a8d62a3	0.0010786842
50	0x39e30efd	0.0004330798
51	0x39948268	0.0002832592
52	0x39b3e5f6	0.00034312875
53	0x39e7d98d	0.0004422184
54	0x39f9e89f	0.00047666297
55	0x39f2383f	0.00046199744
56	0x39eb1314	0.00044836907
57	0x39ce6d0c	0.00039372628
58	0x39b4206a	0.00034356426
59	0x399e412b	0.00030184662
60	0x3a4f3529	0.0007904345
61	0x3925ee5a	0.00015824419
62	0x39f8cf6c	0.00047456787
63	0x390bf7ca	0.00013348382
64	0x3994c433	0.0002837494
65	0x3a94f049	0.0011363114
66	0x39139a29	0.00014076442
67	0x38d58d46	0.00010182946
68	0x39cb49e0	0.00038774218
69	0x3a12948a	0.0005591592
70	0x3a64e172	0.0008731104
71	0x3a93909b	0.0011258306
72	0x3aa8ae10	0.0012869257
73	0x3aafd3ab	0.0013414522
74	0x3aa93953	0.0012910761
75	0x3a80f695	0.0009839112
76	0x3a38d87e	0.0007051303
77	0x3aa820c9	0.0012827154
78	0x398bf182	0.00026692083
79	0x3a5c80fc	0.0008411554
80	0x391773ec	0.00014443666
81	0x3a0c3523	0.0005348494
82	0x3a217a1e	0.00061598595
83	0x398ea144	0.00027204503
84	0x393e0861	0.00018122933
85	0x3a98db2e	0.0011662
86	0x3ac59339	0.0015073783
87	0x3b1512ab	0.0022746723
88	0x3b473e07	0.0030401961
89	0x3b651bd1	0.0034959207
90	0x3b68d281	0.003552586
91	0x3b3ddbd2	0.0028970134
92	0x3ae89a7a	0.0017746233
93	0x3a833865	0.0010011314
94	0x3a296418	0.00064617535
95	0x3a536a10	0.0008064816
96	0x3a34d09e	0.00068975415
97	0x3941854c	0.00018455571
98	0x3b099ef3	0.0020999282
99	0x39ac9a9f	0.00032921598
100	0x3a2bd96b	0.000655553
101	0x39208c25	0.00015310997
102	0x3817a5d7	3.6155656e-05
103	0x381a9480	3.6854763e-05
104	0x38239d32	3.9008628e-05
105	0x383169fb	4.229879e-05
106	0x3842555b	4.6332698e-05
107	0x38531ff5	5.0336082e-05
108	0x385e35b3	5.2978936e-05
109	0x38639e38	5.426837e-05
110	0x3862e1aa	5.4092765e-05
111	0x3964271e	0.00021758347
112	0x38292b97	4.0333336e-05
113	0x3864d0a5	5.455375e-05
114	0x393f6cd8	0.00018255727
115	0x38435efd	4.6580088e-05
116	0x3a822da6	0.0009931817
117	0x38f16cc3	0.00011512034
118	0x36c2edb8	5.8093246e-06
119	0x3b945fcb	0.004528021
120	0x3b546db1	0.0032414014
121	0x3b28557b	0.0025685716
122	0x3b22c720	0.0024837926
123	0x3b33740c	0.0027382402
124	0x3b42b087	0.002970727
125	0x3b4195bd	0.0029538714
126	0x3b26b0a7	0.0025434883
127	0x3b01ca8e	0.001980457
128	0x3b237026	0.0024938672
129	0x3bbed0fc	0.0058232527
130	0x3a779eb1	0.0009445949
131	0x3ace81d6	0.0015755247
132	0x3a5ffb77	0.0008544246
133	0x3b62e73d	0.0034622692
134	0x3b102bd1	0.0021998773
135	0x3a46ef62	0.00075887714
136	0x3b6f5e5b	0.0036524746
137	0x3ba75701	0.005106807
138	0x3be26cfd	0.006909965
139	0x3c0c5637	0.008565477
140	0x3c1ac56c	0.009446483
141	0x3c150b43	0.009096923
142	0x3be83a5e	0.007087036
143	0x3b8a1f03	0.0042151227
144	0x3b15a4bc	0.0022833785
145	0x3a9a2363	0.0011759814
146	0x3b0d8bd8	0.0021598246
147	0x3a84c0ba	0.0010128238
148	0x3aa77ac1	0.0012777672
149	0x3b539266	0.0032283305
150	0x3b485bae	0.0030572223
151	0x3b361386	0.0027782633
152	0x3a0dc48e	0.0005408012
153	0x3992da15	0.00028009774
154	0x399efcc4	0.00030324433
155	0x3a368857	0.0006963065
156	0x3a4751f2	0.00076034584
157	0x3a454427	0.0007525109
158	0x3a3fb96d	0.00073137024
159	0x3a2ed63a	0.00066694955
160	0x3a02b335	0.00049858104
161	0x3956895e	0.00020459804
162	0x3a681846	0.00088537147
163	0x393c21f6	0.00017941729
164	0x393f6e3b	0.00018256243
165	0x39a8066b	0.0003204824
166	0x38c1fb2a	9.24974e-05
167	0x39b195c3	0.00033871652
168	0x3903d78a	0.00012573428
169	0x38de74a5	0.00010607512
170	0x3aae99b8	0.0013320958
171	0x3a88e959	0.001044552
172	0x3a7655c8	0.00093969377
173	0x3a8d1f15	0.001076671
174	0x3a81b0e1	0.0009894633
175	0x3a7448ae	0.00093186914
176	0x3a579d6a	0.00082250556
177	0x3a3f4b88	0.0007297327
178	0x3a0b8339	0.0005321983
179	0x3ac2121d	0.0014806424
180	0x3ad511f5	0.0016255962
181	0x39bdaad9	0.0003617618
182	0x3a5474e8	0.00081045786
183	0x3988e10a	0.0002610761
184	0x3aca1d94	0.0015420192
185	0x3a13c6a2	0.00056372036
186	0x3999bedf	0.00029324644
187	0x35ef64c2	1.7836212e-06
188	0x35e088fc	1.6729168e-06
189	0x35d96d7f	1.6199627e-06
190	0x35d4a421	1.5842999e-06
191	0x35d561f7	1.5898248e-06
192	0x35d70543	1.602028e-06
193	0x35e387dd	1.6952359e-06
194	0x35e45bd9	1.7014055e-06
195	0x35d6e2c4	1.601024e-06
196	0x361fc7be	2.3809112e-06
197	0x361c0c6e	2.3253046e-06
198	0x3560ec92	8.379076e-07
199	0x3773d2c5	1.4533002e-05
200	0x358839d4	1.014962e-06
201	0x382798ec	3.9958322e-05
202	0x36c1ecb0	5.7794023e-06
203	0x3487da84	2.53047e-07
204	0x3ae6705d	0.0017581094
205	0x3ac9a777	0.0015384991
206	0x3a9b404a	0.0011844721
207	0x3a8e2ca1	0.0010847041
208	0x3a92fc0b	0.0011214031
209	0x3a9a3c8a	0.001176731
210	0x3a989b46	0.0011642955
211	0x3a869271	0.0010267032
212	0x3a546802	0.00081026566
213	0x3a830155	0.0009994904
214	0x3b0364c8	0.0020049084
215	0x39f89b20	0.00047417823
216	0x3b785fa9	0.0037898815
217	0x39ddf6a2	0.0004233616
218	0x3b36650d	0.0027831227
219	0x3b068768	0.0020527486
220	0x3992a18f	0.0002796766
221	0x3ace2747	0.0015728258
222	0x3b07785b	0.0020671103
223	0x3b367cca	0.0027845376
224	0x3b9586d2	0.004563191
225	0x3bb1416c	0.00540941
226	0x3bba900c	0.0056934413
227	0x3bb6536b	0.0055641434
228	0x3b8a4af2	0.00422036
229	0x3b11c1ed	0.0022240833
230	0x3ae1959f	0.0017210728
231	0x3a5ec29d	0.00084976276
232	0x3b2f208b	0.0026722278
233	0x39edb5bc	0.00045339565
234	0x3b08a2a2	0.002084889
235	0x3a50c025	0.0007963202
236	0x39cabde1	0.00038669913
237	0x3a0fcd32	0.00054855936
238	0x3a96f013	0.001151564
239	0x3acd6264	0.0015669581
240	0x3b15d0a8	0.0022859965
241	0x3b5d4715	0.0033764292
242	0x3b6f44d8	0.003650954
243	0x3b6481f5	0.00348675
244	0x3b2aa313	0.0026037141
245	0x3ade60f7	0.0016966154
246	0x3a80a20f	0.0009813922
247	0x3a368f33	0.00069640874
248	0x3a3d16f7	0.00072132
249	0x3a34c930	0.00068964344
250	0x39e5459f	0.00043730155
251	0x3a894486	0.0010472692
252	0x3a631362	0.0008662251
253	0x3a926ca8	0.0011171298
254	0x393fb406	0.00018282243
255	0x3ad3a293	0.0016146473

exp_avg f4 [128]
0	0x3930ab88	0.00016848568
1	0xb8f890e4	-0.000118525495
2	0xb8946240	-7.0754904e-05
3	0xba112029	-0.0005536103
4	0xba1f54db	-0.0006078013
5	0x39866f99	0.00025641618
6	0x383c91de	4.4958542e-05
7	0xb82c4aa2	-4.1077503e-05
8	0x3a9328f4	0.0011227415
9	0xb8af113c	-8.3478604e-05
10	0xb84e0255	-4.91164e-05
11	0xb6e59301	-6.8418453e-06
12	0x38583c70	5.15547e-05
13	0x3918c31f	0.00014568538
14	0x39bf5127	0.00036490822
15	0xb9630640	-0.00021650735
16	0x396dbd7c	0.0002267267
17	0xbacf4c13	-0.0015815519
18	0xb63d12c0	-2.8174109e-06
19	0x3aa7cea3	0.0012802671
20	0xb60c22d3	-2.0881896e-06
21	0x39068ed0	0.00012832438
22	0xb92a8a77	-0.00016264046
23	0x391b9c40	0.0001484016
24	0xb94a64ae	-0.00019301727
25	0xb931fe3d	-0.00016974747
26	0xb8f79444	-0.000118054944
27	0x3988d3b0	0.0002609766
28	0x39620dc2	0.00021558165
29	0xb8b20cfb	-8.490119e-05
30	0x3910adb4	0.0001379762
31	0x39ce9cd0	0.00039408216
32	0x3481a0e3	2.4145183e-07
33	0x39fafa81	0.00047870356
34	0xb94b640d	-0.0001939686
35	0xb880f4e0	-6.149127e-05
36	0x30450e90	7.1688877e-10
37	0x3a3d3e66	0.0007219076
38	0xba327b5b	-0.00068085425
39	0xb8982822	-7.2554e-05
40	0x36c475e0	5.8549776e-06
41	0xba6a2ab8	-0.0008932757
42	0xb865b4c8	-5.476622e-05
43	0x38f3f0c6	0.000116319905
44	0xb5702854	-8.946565e-07
45	0x3a218d26	0.00061626954
46	0x3a8390c1	0.0010037647
47	0xb84cef08	-4.8860005e-05
48	0x3097e902	1.1052921e-09
49	0xb79c8980	-1.8660678e-05
50	0x36e15f02	6.716583e-06
51	0xb966a57e	-0.0002199616
52	0x391381c7	0.00014067358
53	0xba0eb11b	-0.0005443261
54	0xb950282b	-0.0001985139
55	0x3a2a0b32	0.00064866536
56	0x37bc35ba	2.2436365e-05
57	0x3a1b2f32	0.00059198134
58	0x3899941e	7.3231975e-05
59	0xb97c6c0d	-0.00024072845
60	0x3626bd4a	2.4846108e-06
61	0x39ff79ef	0.00048728238
62	0xb3df2000	-1.03900675e-07
63	0xb827a923	-3.9973424e-05
64	0x31a3d66a	4.7683004e-09
65	0x3ac566ca	0.0015060541
66	0x36a29f59	4.8465267e-06
67	0x38d9a586	0.000103781975
68	0xb97f62c2	-0.00024355485
69	0x36403be6	2.8645095e-06
70	0x38c877dd	9.5590694e-05
71	0xb9919335	-0.00027766233
72	0x38cc6da7	9.7479024e-05
73	0x38e2af60	0.00010809186
74	0x3963e12e	0.00021732293
75	0x37599398	1.2968572e-05
76	0xb9c289ad	-0.0003710514
77	0x32bf5352	2.2273216e-08
78	0xba1c25f4	-0.0005956583
79	0xb9e5b78c	-0.00043815037
80	0xba0acb30	-0.00052945595
81	0x38425100	4.632864e-05
82	0x397c5f8e	0.0002406819
83	0xbac05f04	-0.0014676754
84	0x32336cbe	1.0443896e-08
85	0x3a0ba4bf	0.0005326978
86	0x39bce5f2	0.00036029477
87	0xb599b6c3	-1.1452579e-06
88	0xb96720ea	-0.00022042138
89	0x395d5280	0.00021106936
90	0xba28df5c	-0.00064419745
91	0xba07018a	-0.00051500706
92	0xb9f58f7f	-0.00046836954
93	0x39b8110a	0.0003510791
94	0xb16a67f0	-3.4110563e-09
95	0x3806c96c	3.213568e-05
96	0xb7ec2662	-2.8151266e-05
97	0x38cf9188	9.8976365e-05
98	0x3a218fbe	0.0006163082
99	0xb2dff64f	-2.6072625e-08
100	0x3825e68d	3.9553783e-05
101	0xba3720fa	-0.000698581
102	0xb92ccc19	-0.0001647923
103	0x3986ecce	0.00025734905
104	0x39ea4627	0.00044684226
105	0x39df66b2	0.00042610388
106	0x391aaf2a	0.00014751838
107	0xb8a5d03c	-7.9066e-05
108	0xb9ae03f4	-0.00033190812
109	0x3a02b956	0.00049867237
110	0xb790b178	-1.7248778e-05
111	0xb20148bd	-7.525327e-09
112	0xb987a3f7	-0.0002587137
113	0xb991c419	-0.0002780266
114	0xb9c85e52	-0.00038217247
115	0xb48a1366	-2.5718617e-07
116	0xb8846b72	-6.314264e-05
117	0xb99445f2	-0.00028280873
118	0xb9c4aec4	-0.00037514244
119	0xb89c962d	-7.466632e-05
120	0x38dcdaae	0.0001053115
121	0xb994f7b8	-0.00028413325
122	0xb941972f	-0.00018462235
123	0xb9f9d63d	-0.000476526
124	0xb6d956fa	-6.4772294e-06
125	0xb6358356	-2.704755e-06
126	0xb9a62b9e	-0.00031694485
127	0xb932e101	-0.00017059223

exp_avg_sq f4 [128]
0	0x3668e0a2	3.4701447e-06
1	0x36dad829	6.5220706e-06
2	0x3735326c	1.08001805e-05
3	0x3663ead7	3.396233e-06
4	0x369effa5	4.738528e-06
5	0x36e2f4e9	6.763836e-06
6	0x35f01de3	1.7890092e-06
7	0x378b2c65	1.6590764e-05
8	0x37aa80bf	2.0325531e-05
9	0x3622fc86	2.428687e-06
10	0x36d3c0ea	6.310748e-06
11	0x33a77d55	7.799341e-08
12	0x373d49c2	1.1282451e-05
13	0x37379ca7	1.09441235e-05
14	0x36fbf883	7.5093135e-06
15	0x374c6a6c	1.2184126e-05
16	0x369b0323	4.619725e-06
17	0x3819470c	3.654421e-05
18	0x3660cae8	3.3496708e-06
19	0x37407f74	1.1473767e-05
20	0x317162da	3.5126306e-09
21	0x355f3e5d	8.3164724e-07
22	0x36e3af6d	6.7855494e-06
23	0x370581da	7.957651e-06
24	0x379bbf1d	1.8566434e-05
25	0x35916504	1.0832741e-06
26	0x35ac80c2	1.2852472e-06
27	0x3743f5a2	1.1680097e-05
28	0x37e5f504	2.7413022e-05
29	0x36cb7206	6.0631455e-06
30	0x351d30ce	5.855808e-07
31	0x3667be77	3.4532547e-06
32	0x31e0d09f	6.5429755e-09
33	0x3792948b	1.7473727e-05
34	0x37135642	8.781966e-06
35	0x3694798c	4.4248936e-06
36	0x2b6a8e7d	8.333124e-13
37	0x38026edc	3.109766e-05
38	0x375b86e4	1.3084824e-05
39	0x35ea7b42	1.7470231e-06
40	0x341491dd	1.3836639e-07
41	0x37471a23	1.186741e-05
42	0x360a1be5	2.057984e-06
43	0x35337b86	6.6862447e-07
44	0x330d31e5	3.28745e-08
45	0x3774326d	1.4555274e-05
46	0x37a6ef31	1.9900124e-05
47	0x36076640	2.0176085e-06
48	0x2ec7cbf7	9.085704e-11
49	0x35e302c9	1.6913629e-06
50	0x332ec008	4.0687183e-08
51	0x3693c2b3	4.4036074e-06
52	0x36ad93ad	5.1729935e-06
53	0x37969bc9	1.7953937e-05
54	0x365cebfb	3.2919913e-06
55	0x36a87814	5.020769e-06
56	0x33e0a31a	1.0460481e-07
57	0x36b0192f	5.2481405e-06
58	0x3491bb3f	2.7144594e-07
59	0x372fdf8b	1.04828605e-05
60	0x311e524a	2.3038802e-09
61	0x363c3203	2.8043294e-06
62	0x379d606c	1.8760758e-05
63	0x35c7bf56	1.4882341e-06
64	0x2a18cd6b	1.357158e-13
65	0x37c406d2	2.3368197e-05
66	0x3545ce82	7.368873e-07
67	0x35cfff1a	1.5496946e-06
68	0x373498c1	1.0764402e-05
69	0x3219a4f6	8.94328e-09
70	0x358697e5	1.0027985e-06
71	0x362ddb30	2.5906593e-06
72	0x371b1a31	9.244818e-06
73	0x35cea0be	1.5394978e-06
74	0x3742ace4	1.1603555e-05
75	0x36a68c46	4.9635155e-06
76	0x368b2104	4.1463663e-06
77	0x2da03460	1.8213153e-11
78	0x382410bb	3.911623e-05
79	0x37a51e6b	1.9683697e-05
80	0x37b2a886	2.1297728e-05
81	0x35871ee8	1.0067279e-06
82	0x37397dab	1.1056119e-05
83	0x3844f3e0	4.6957168e-05
84	0x2a346c9f	1.6024897e-13
85	0x37836b20	1.56663e-05
86	0x3735af5f	1.08292725e-05
87	0x33f41b13	1.136706e-07
88	0x36edf79f	7.0919773e-06
89	0x36b49a87	5.3824074e-06
90	0x3787b346	1.6176735e-05
91	0x36958b72	4.4567796e-06
92	0x368a23b1	4.1168755e-06
93	0x36c314ee	5.8138894e-06
94	0x2df0cfdd	2.7377151e-11
95	0x33356e03	4.22424e-08
96	0x364d1cf3	3.056423e-06
97	0x367abddf	3.7363423e-06
98	0x371f81d8	9.50737e-06
99	0x32133895	8.569391e-09
100	0x3508b4d0	5.0927065e-07
101	0x3713ec1f	8.816859e-06
102	0x370ff4b5	8.5804395e-06
103	0x35be02bf	1.4156902e-06
104	0x3734ac21	1.0768913e-05
105	0x3777b308	1.4764031e-05
106	0x35a8fa5c	1.258984e-06
107	0x3469a77d	2.1760748e-07
108	0x374709c7	1.1863601e-05
109	0x3792c092	1.7494229e-05
110	0x3599d262	1.1460618e-06
111	0x2c020a96	1.8479988e-12
112	0x36b1eb1f	5.3023828e-06
113	0x36a1c46a	4.8210395e-06
114	0x368d04f3	4.2027036e-06
115	0x31e302d4	6.606891e-09
116	0x36a0eb38	4.7957546e-06
117	0x373eb79b	1.13676315e-05
118	0x37ab2553	2.0402169e-05
119	0x36f06431	7.164221e-06
120	0x36911f0e	4.324952e-06
121	0x37386586	1.0990892e-05
122	0x36bc295a	5.6076506e-06
123	0x37866dd2	1.6025184e-05
124	0x3643a585	2.915361e-06
125	0x33a85ddf	7.840185e-08
126	0x3787d915	1.619434e-05
127	0x3577044a	9.202091e-07
