results/test-8/Drive/checkpoint.pt (torch, 475170 bytes, 36 tensors)

network_body._body_endoder.seq_layers.0.weight f4 [128, 17]
000000 70 35 96 bd 54 09 ce bd cd c5 a9 be 5e 5e a8 3e
       -0.07334411 -0.10060373 -0.33158723 0.32884496
000010 94 2b 3e 3e 31 14 52 3d c9 c6 cf be c6 39 8f 3e
       0.18571311 0.051288787 -0.4058135 0.27973765
000020 b8 87 ea 3e db c4 b9 3e 14 48 59 3d 3e 4a 8a be
       0.4580667 0.36283 0.053047255 -0.27009767
000030 ea 71 08 bf f2 f8 6d bd bb 5b 41 be f7 4a 83 3e
       -0.5329882 -0.05809874 -0.18882649 0.2564313
000040 57 39 b8 3d 0e 1d 27 be 3c 01 a1 be 71 4c d7 be
       0.08995312 -0.16319677 -0.31446254 -0.42050508
000050 f0 fa 4a 3e fc b3 60 3e cb 0b 06 be 5d fd 93 be
       0.19822288 0.21943659 -0.13090436 -0.28904238
000060 7d d0 8b bd e8 8b 81 3d 1e 61 b4 bd 5b e2 81 be
       -0.06826875 0.06325513 -0.08807586 -0.25368008
000070 2d b9 bc bc 10 92 08 3e 25 69 0d 3f 38 be 00 3e
       -0.023037517 0.13336968 0.5523856 0.12572563
000080 90 9e a3 3e 05 44 ee bd 3d 87 84 be 30 20 65 3e
       0.3195691 -0.116340674 -0.2588443 0.2237556
000090 c4 16 27 bd a8 fa 22 3e 74 35 c4 bd 79 bd b5 be
       -0.040793195 0.1591593 -0.09580508 -0.3549612
0000a0 87 ef f4 3c 7e 1a 72 be 57 e8 c5 be 04 58 39 3e
       0.029899372 -0.23642918 -0.38653824 0.18099982
0000b0 c1 5f ca 3e 22 64 35 3f 08 d9 ac 3d be 25 98 3e
       0.3952618 0.70855916 0.08439833 0.29716295
0000c0 a8 43 9f 3e 0c 99 5e 3e 86 f8 af 3d 55 47 e2 be
       0.31106305 0.2173807 0.08592324 -0.44195047
0000d0 7d 02 c6 be b7 3d c8 3e 65 6c 75 3e 2f 14 0e 3f
       -0.38673773 0.39109585 0.2396713 0.5549955
0000e0 fd 95 02 be c0 6d 0b be d8 73 ed 3e ac 80 5a 3d
       -0.12752528 -0.13616085 0.46377444 0.053345367
0000f0 46 77 b3 bd 06 77 30 be d9 a9 0b 3e 93 17 98 be
       -0.08762984 -0.17232904 0.1363901 -0.29705486
000100 d5 90 0c 3f 94 a5 6d be 1f df 35 be 79 5c 1d 3f
       0.54908496 -0.23207694 -0.17760895 0.6146923
000110 19 c6 9b bd e2 ec 7e 3e 9f 78 85 3d 55 aa 46 3e
       -0.076061435 0.24895051 0.06517147 0.19400914
000120 a4 ba 52 3e 1c dc 07 bd 4a 41 3a be 2c 78 26 3e
       0.2057901 -0.033168897 -0.18188968 0.1625678
000130 9a c1 a0 bd 9f af 40 bd be 56 9d 3e 4f f0 70 bd
       -0.078494266 -0.047042485 0.30730242 -0.058822926
000140 af 52 57 be 5c aa 51 bc 61 db 13 bf b6 d9 cf ba
       -0.21027635 -0.0127969645 -0.5775662 -0.001585773
000150 f6 e3 74 3c c7 06 9a bc 65 2f a2 bd d0 c3 a1 3e
       0.014946928 -0.01880206 -0.07919196 0.31594706
000160 c5 64 4d 3b 3d 76 0c 3e 79 4c 61 3e 39 46 97 3e
       0.003134058 0.1371698 0.22001828 0.29545763
000170 a5 4f e0 3c bc b2 68 3e b6 c4 8d be 03 f1 95 bd
       0.027381727 0.22724432 -0.2768914 -0.0732136
000180 03 18 e8 3d 67 24 0f bd cd 9d 69 be 37 d5 86 be
       0.11332705 -0.034946825 -0.22814102 -0.26334545
000190 f2 55 00 be 6d 3d f4 3d 10 b2 be 3e fa 2a 0c 3f
       -0.12532786 0.119257785 0.37245226 0.5475308
0001a0 83 de ba bc d7 21 9a be ca af e3 3d 3b 31 f4 3d
       -0.02281118 -0.30103943 0.111175135 0.119234525
0001b0 0a da 93 3e 34 ac c2 be 9e 05 b0 be cb 3d db 3e
       0.28877288 -0.38022006 -0.34379286 0.42820582
0001c0 84 5f 4d be ed 61 15 bf 2c 87 9c 3e 0b 06 5e 3e
       -0.20055968 -0.5835255 0.30571878 0.21681993
0001d0 8a e1 00 be d4 60 59 be 0b 18 55 3e 51 a7 83 be
       -0.12586036 -0.21228343 0.20809953 -0.2571359
0001e0 7d 41 32 be e5 d8 c1 be 6e a1 a1 be f6 96 05 bf
       -0.17407794 -0.3786079 -0.31568474 -0.52183473
0001f0 b8 cd 9a bd bb b5 af 3d a7 19 58 3d 10 54 c0 3e
       -0.07558769 0.08579584 0.05275884 0.37564135
000200 10 36 78 be 42 58 cb 3d c6 27 aa 3e d2 7e 48 be
       -0.24239373 0.09928943 0.3323347 -0.19579628
000210 7a 78 20 be 0f ba 73 3e 3f 49 ae be dd 57 84 bd
       -0.15670958 0.23801444 -0.34040257 -0.06462071
000220 27 32 23 be 55 fd 96 3d b4 cb cf 3c 22 d9 b0 3d
       -0.159371 0.07372538 0.025365688 0.08635165
000230 9c 04 a6 3e 73 cd b9 bc 84 bc e7 bd d6 9e b2 3e
       0.32425392 -0.022680974 -0.113152534 0.34886807
000240 c0 54 1a be d9 f8 7b bd 63 1d c1 be 45 2b 8d be
       -0.15071392 -0.061516616 -0.37717733 -0.27572075
000250 bd 68 d1 bd f4 6c d4 3d a1 91 2a 3e 47 27 25 3e
       -0.10225055 0.10372344 0.16657116 0.16128264
000260 71 d3 a1 be 8b 95 0e be ed 42 0d 3e 97 75 33 3e
       -0.3160663 -0.13924234 0.13795061 0.17525326
000270 10 83 48 3e 5d a1 e3 be 65 36 f0 be 80 45 23 3d
       0.19581246 -0.44459048 -0.469165 0.039861202
000280 e2 7f a7 3d 23 43 3d be ca d8 1d bd d2 ba 67 3e
       0.081786886 -0.18482642 -0.038536824 0.2262986
000290 22 7d df be 3c 4a 82 3e 2d a2 da bd cc 32 8a 3e
       -0.43650156 0.2544726 -0.10675464 0.2699188
0002a0 42 69 8d bd 30 78 2b be f7 e1 41 3e 6b 96 80 be
       -0.06904842 -0.16745067 0.18933855 -0.2511476
0002b0 26 83 58 3e 44 05 e4 3e 62 57 a5 bd 84 c9 d8 bd
       0.21143779 0.44535267 -0.080733076 -0.10585311
0002c0 fa a8 50 be 6c 10 7a 3e 82 73 b1 3d cb 22 03 3c
       -0.2037696 0.24420327 0.086646095 0.008003901
0002d0 8c 2c 46 be 90 55 3a bf 6d 1f d0 be 45 b9 86 bc
       -0.19352931 -0.7278681 -0.40648976 -0.016445765
0002e0 29 e2 54 be 1a 31 e4 3d f3 0b 19 bd c2 70 8f be
       -0.20789398 0.11142178 -0.03736491 -0.28015715
0002f0 af 60 03 bf cb b2 23 3e cb ac 8d 3e 14 c6 81 bd
       -0.513194 0.15986173 0.27670893 -0.063366085
000300 5e b8 92 3e 0c 2f 91 be b3 8c 54 be ef c8 46 bd
       0.28656286 -0.28356206 -0.20756797 -0.04853147
000310 88 51 1d be c8 1b 87 be 7d 4e ed be 32 81 a9 be
       -0.15363133 -0.26388383 -0.46348944 -0.3310638
000320 12 97 4b be 22 da fe bd 5c 33 8b bd f6 6f 0e 3e
       -0.19881848 -0.12443949 -0.067969054 0.13909897
000330 4a a5 06 bf e2 59 96 be c3 6b 83 3e c4 7b 4c 3e
       -0.5259596 -0.2936545 0.25668153 0.19969088
000340 c2 27 37 3d e4 f1 95 be 37 50 a8 3e 71 45 5f bd
       0.04471565 -0.2928611 0.328737 -0.054509584
000350 e5 c6 58 bc a2 e0 4c be 92 93 85 3e f9 c8 b2 3e
       -0.013231014 -0.20007566 0.2608915 0.34918955
000360 bb ff 21 3d 89 12 0d 3e 19 57 d6 3d 16 27 8d be
       0.039550524 0.13776602 0.10465831 -0.27568883
000370 ff af 9d be ff ba 45 bd 22 3d 02 be 9c 97 04 3e
       -0.30798337 -0.048274036 -0.12718633 0.1294846
000380 a7 27 e8 bd bc d7 69 be ed 7c 09 be 77 fb 90 bd
       -0.11335688 -0.22836202 -0.13426562 -0.07079213
000390 4a e2 22 bd 30 35 4e be ce bd 8e 3e 8d f9 3b 3e
       -0.039766587 -0.20137477 0.27879184 0.18356915
0003a0 03 ec ea 3d 35 52 81 be 56 5d 10 3e 7a 16 b2 3e
       0.11470797 -0.2525803 0.14098105 0.34782773
0003b0 b7 2c ab 3d 85 a3 cc 3d 1b 13 81 bd 1e 88 a4 3e
       0.08358138 0.099921264 -0.06302472 0.321351
0003c0 a0 04 15 3e 8b cd 14 be ad 4b 4d 3e cf 0b 6c 3e
       0.14552546 -0.14531533 0.200484 0.2305138
0003d0 dd 58 8c 3e 9b 80 7e bd ad dd 46 bd 00 06 1f 3e
       0.27411547 -0.062134366 -0.04855125 0.15529633
0003e0 ca cc 81 be ca 5d 91 bd 53 bc c4 3e 22 5a 10 be
       -0.25351554 -0.07097967 0.3842493 -0.14096883
0003f0 bc 27 dd bd 40 71 61 3e ab c9 80 be 3f 59 00 bd
       -0.10798594 0.22015858 -0.2515386 -0.03133511

network_body._body_endoder.seq_layers.0.bias f4 [128]
000000 49 5a 9e bc f8 8c 37 3d 4e e6 8c 3b 3b 59 2a bc
       -0.01933016 0.044812173 0.0042999154 -0.010397251
000010 5e 18 42 bd 35 91 a8 bc 1b 09 03 3c aa f7 48 3d
       -0.04738652 -0.020577053 0.007997776 0.049064316
000020 5b c2 16 bd 82 70 9c 3d b4 81 be bb f8 5b c6 bd
       -0.036806446 0.07638647 -0.0058138017 -0.096855104
000030 68 98 a3 3d 61 c9 d7 3b 7d 27 55 bd 3e 0f b1 bd
       0.079880536 0.0065852855 -0.052039612 -0.08645485
000040 e4 0a 19 3d 73 9a a8 3b 76 bb 38 bd e2 71 3e 3d
       0.0373639 0.005145365 -0.04510065 0.046495326
000050 8c 10 ba bc 72 bb 7e bd ab ad 67 3c f1 c1 16 bd
       -0.022712968 -0.06219048 0.014140527 -0.03680605
000060 92 fc 98 bc 05 ad 88 bd 7d 18 b1 3c 8e c3 da 3d
       -0.018675122 -0.06673626 0.021618122 0.1068183
000070 4a de d1 bc 1a 80 3c be a8 e0 8f 3b 39 36 33 3d
       -0.025618691 -0.18408242 0.004390795 0.043752883
000080 05 91 1a bc f7 f5 82 bd 30 c1 96 bd 5e da 77 bd
       -0.009433989 -0.0639457 -0.07361066 -0.060510986
000090 cf 39 03 3c b9 51 32 3d 6e 39 83 bd 97 42 ec 3b
       0.008009388 0.043534968 -0.06407438 0.0072100866
0000a0 7d c5 88 bb d7 fe 48 bc 88 61 a2 3c 61 a6 e3 3c
       -0.004173933 -0.01226779 0.019821897 0.027789297
0000b0 87 46 16 3d 84 54 68 3d bb 00 56 3c 7e b8 6c bd
       0.036688354 0.056721225 0.013061698 -0.057793133
0000c0 f4 6d ad bd 20 e0 e3 3c 31 e1 b1 bc fb 75 48 bd
       -0.084682375 0.027816832 -0.021713825 -0.04894064
0000d0 fc aa 55 3d 05 26 d4 3c b1 cf 17 3d 73 a7 81 3d
       0.052165017 0.025897035 0.037063304 0.063307665
0000e0 89 ef f8 bc 99 e7 5a 3c 71 db 59 bd 3e 2b 30 3d
       -0.030387657 0.013360881 -0.05318779 0.04300999
0000f0 1f 44 35 bc aa 20 5f bb fd 48 69 bc 3d c1 03 be
       -0.011063605 -0.003404657 -0.014238593 -0.12866683
000100 dd 07 bc bc e6 0b 99 bb 68 71 70 3c 80 92 f3 bb
       -0.022952968 -0.004670608 0.014675476 -0.0074332356
000110 85 17 e6 3c 3c be a8 bd f0 28 b3 3b 20 f6 a2 3a
       0.028087387 -0.08239409 0.0054675266 0.001243297
000120 f8 fd f1 bd e6 0e 33 bd 7e 17 40 3d 79 c7 c6 bd
       -0.11816019 -0.04371538 0.046897404 -0.09706015
000130 1e b6 5d 3c 75 51 db 3c 50 d0 81 bd 1e 26 2b 3d
       0.01353219 0.02677224 -0.063385606 0.0417844
000140 1d 58 d4 bd 2f 05 14 3d 22 38 6f bc ed 4a 1c 3c
       -0.10368369 0.036137756 -0.014600785 0.009539348
000150 89 e9 a0 bc f7 82 96 3d 7f 02 59 3d 7c 08 e9 bd
       -0.019642608 0.07349198 0.052980896 -0.113785714
000160 dd 47 82 bd 85 79 2e bd 8c 57 ee bc 9f 51 11 bd
       -0.06361363 -0.04259636 -0.02909448 -0.03547823
000170 fb f0 7a bd 19 50 a6 bd f4 65 23 bd e0 0e da bd
       -0.061264973 -0.08120746 -0.039892152 -0.106473684
000180 2a 47 94 bd d6 7d 55 3d da 68 4a 3c 84 b5 0b bd
       -0.07240136 0.05212196 0.0123541 -0.034108654
000190 a5 ee e3 3c b0 c3 ea bd 14 aa b8 3d e8 69 79 3d
       0.027823756 -0.11463106 0.09016815 0.060892016
0001a0 ab 35 0d bd f6 e0 f2 3b 33 03 9e 3d 18 15 30 3c
       -0.03447501 0.0074120713 0.07715454 0.010747217
0001b0 91 5b 0b 3e 76 7e cc bc c5 3e f6 bc b6 26 21 bd
       0.13609149 -0.024962645 -0.030059228 -0.03934356
0001c0 4a 0c af bd 2b fd 7e bd f4 d6 62 3c 6f f4 80 3d
       -0.08547266 -0.06225316 0.013845194 0.06296622
0001d0 15 c1 03 3b 38 b1 38 bd 97 40 c2 bb d1 b3 fe 3c
       0.00201041 -0.045090884 -0.00592811 0.031091603
0001e0 33 c0 b5 3c 56 4f 05 bd 28 01 1c 3d e4 9b 95 3a
       0.022186374 -0.032546364 0.03808704 0.0011414257
0001f0 e6 a9 18 bd 2d bc 5e bc 48 22 92 bd 6a 3d a0 3b
       -0.037271403 -0.013594669 -0.07135445 0.0048901336

network_body._body_endoder.seq_layers.2.weight f4 [128, 128]
000000 e5 9d 99 bc 91 47 dd 3a 03 4b 03 3e 09 2d 9c 3e
       -0.018752048 0.001688229 0.12821583 0.3050311
000010 39 e3 f7 3d 1a 75 e7 bc 96 35 00 3e 20 8c 23 bd
       0.12103886 -0.02825408 0.12520441 -0.039928555
000020 6e b9 f1 ba 60 e3 51 bd 2c 0b f5 3d d5 40 82 bd
       -0.0018442103 -0.051242232 0.119650215 -0.06360022
000030 b0 50 16 3e 2c ac bf bd 47 be 85 3e fd e5 09 3e
       0.14679217 -0.09359011 0.26121733 0.1346664
000040 c7 28 36 be 4f c3 12 3e 73 de db bb 5f 43 82 3d
       -0.17788993 0.14332317 -0.0067098676 0.06360506
000050 95 6b 68 ba 53 25 9d 3d 07 45 31 bd 6f 10 54 3e
       -0.00088661286 0.07673135 -0.04327872 0.20709394
000060 47 89 dc 3d f8 08 c8 bc 70 62 62 bd a2 f9 58 be
       0.10768371 -0.02441834 -0.05526966 -0.21188977
000070 37 01 61 3d 2f a7 40 3d de 08 f0 3d bd 84 8c bc
       0.0549328 0.04703444 0.11720441 -0.017153138
000080 3a b9 67 bd b3 c9 10 bd 1f 9b e5 3d a9 7e c0 3d
       -0.05657313 -0.035348605 0.112112276 0.093991585
000090 c4 6d 11 be 8b c8 ec bc 40 65 6c 3b 6c 7a 7b 3d
       -0.14202029 -0.02890422 0.0036071092 0.061396047
0000a0 3a 78 ea 3d c8 d9 8c bd 0e c7 b2 3c f1 9b 20 3e
       0.11448713 -0.06877476 0.021823432 0.15684487
0000b0 e6 40 1f 3e f5 d6 30 be 52 d7 d3 bc 34 1c 77 bc
       0.155521 -0.172695 -0.025859509 -0.015082408
0000c0 f5 9d dc 3d 20 51 ce 3d bd 97 a4 b9 d2 9c a6 bd
       0.107723154 0.10074067 -0.0003139357 -0.0813538
0000d0 f3 8a 40 3e 8b 79 b3 bc 70 39 ba 3c 9d 64 1c be
       0.18803005 -0.021908542 0.022732466 -0.15272756
0000e0 5c 7a 81 be 5a 3a 4a be 8a 7e b7 3d 8d 4b 76 3d
       -0.25288665 -0.19748822 0.08959682 0.060130645
0000f0 5a 43 ee 3b 23 68 e2 3c bf e2 66 3e c9 e1 98 bd
       0.0072712125 0.027637547 0.22547434 -0.0746494
000100 f5 7e aa 3d ab 75 62 bd 47 d4 0b 3e 4d d7 0b be
       0.083249964 -0.055288 0.13655196 -0.1365635
000110 83 b9 92 39 09 2a ea 3d 8d d1 fb bd 3b 55 ed 3c
       0.00027985507 0.11433799 -0.12295828 0.028971305
000120 38 07 ac bc c4 d0 34 3d 34 e6 e6 bd d6 11 47 3c
       -0.020999536 0.044144407 -0.112743765 0.0121502485
000130 ba f3 16 bd 9e 35 f2 3b 8f e9 7e 3d 11 3b eb 3d
       -0.03685353 0.0073916456 0.062234458 0.114858754
000140 b5 d5 a4 3d 23 a4 c8 bd 9b 2e 98 be c9 3f 0f be
       0.08048574 -0.097969316 -0.29723057 -0.13989176
000150 41 6c 0d 3d 89 02 8f 3d 98 4d 9e bd 1e 98 85 bd
       0.034527067 0.069829054 -0.077296436 -0.06523155
000160 5d a5 1e be 23 d6 43 bb 30 95 ca 3c a5 94 bf bd
       -0.15492769 -0.0029882274 0.024729341 -0.093545236
000170 fe bd 0b 3e 78 87 18 3d 78 37 86 be 30 02 71 bd
       0.13646695 0.037238568 -0.26214194 -0.058839977
000180 9b 96 08 3b e1 be f3 3d 4b 77 89 3e 5d f8 99 3a
       0.002084172 0.11901642 0.26848826 0.0011746992
000190 3b b0 ac bd e2 72 ec bd f6 71 07 be 36 23 0d be
       -0.08432051 -0.1154535 -0.13227066 -0.13782963
0001a0 0f fb 16 be a8 85 12 3d 87 98 82 be 7d cf 72 bc
       -0.14744209 0.035771996 -0.25506994 -0.014819977
0001b0 49 9f eb bd 68 28 e1 bd f2 2d a1 bd 1c c2 34 3e
       -0.115049906 -0.10994035 -0.078700915 0.17652172
0001c0 2b 54 2a be da 11 6f be dd 2f a7 3d a1 7f 91 3d
       -0.1663367 -0.23346654 0.08163426 0.071044214
0001d0 3e 40 9d 3d 11 97 60 3d b4 76 8d bd 3c 6e 81 bd
       0.07678269 0.05483157 -0.069074064 -0.06319854
0001e0 83 3b 8e bc 30 0a 0e be 20 23 ad 3c 01 a1 0d be
       -0.017362362 -0.13871074 0.021134913 -0.1383095
0001f0 45 24 00 bd 9e 33 04 3e fa a9 b5 bd da 9c a0 bd
       -0.03128459 0.12910315 -0.08870311 -0.07842417
000200 26 63 1d bc 63 b8 b2 3d 36 7c e1 bc 38 1f b1 3c
       -0.009606158 0.08726575 -0.027525049 0.021621332
000210 e0 fe b4 bc 27 06 08 be 0b 1c 58 3d db 18 46 bd
       -0.02209419 -0.13283597 0.05276112 -0.048363548
000220 29 bd 87 be 9d 83 82 3d e4 ac b3 be ea 58 ab bd
       -0.26511505 0.063727595 -0.35092843 -0.083665684
000230 29 36 86 3d 9a d8 45 3c 57 2a 5a 3d 3c c5 dc 3c
       0.06553299 0.012075568 0.053263035 0.026949517
000240 91 39 fb bd 7a 64 a7 bd 6e e4 9b 3d b5 bc 12 3d
       -0.12266839 -0.08173461 0.07611929 0.035824496
000250 cc 20 10 be 68 6d da 3d e6 04 0a bd 4e 8d c9 3d
       -0.14075011 0.10665399 -0.033696078 0.09841405
000260 ec 64 9b 3c c3 cc 15 3d 95 cd 85 bd b7 aa 52 bd
       0.018969022 0.03657223 -0.06533352 -0.051432338
000270 71 dd 28 3e ab f0 69 bd 61 0c 02 3e bc 14 f2 bd
       0.16490723 -0.057114284 0.12700035 -0.11820361
000280 12 07 6a bc a2 14 66 be 50 7b 05 3d 2c 7d 55 bd
       -0.014283912 -0.22468808 0.032588303 -0.052121326
000290 e7 d9 af bc 3a 04 05 3d 45 1b c8 3d 80 90 a3 bd
       -0.021466209 0.032474734 0.09770826 -0.079865456
0002a0 8b 7e f9 bd 17 a5 2c 3d 73 4a da bd 52 10 ba 3d
       -0.12182339 0.04214963 -0.10658731 0.09085144
0002b0 a9 5c 7f 3d 04 bf 23 be 9e e3 c7 bd a9 50 8a 3d
       0.062344227 -0.15990835 -0.097602114 0.06753666
0002c0 91 99 ae 3d 2a 73 08 be 46 0c 35 be 85 fd a6 bd
       0.08525384 -0.13325182 -0.17680463 -0.08153824
0002d0 94 ac a4 bd 83 31 06 be 2d 98 6c 3d 33 8b 21 3d
       -0.08040729 -0.13104825 0.057762314 0.03943939
0002e0 15 c4 b6 bd 62 f3 3a be 99 61 e8 bc c7 d6 8c bd
       -0.089241184 -0.18256906 -0.02836685 -0.06876903
0002f0 a1 e0 5a 3d 41 c7 79 be 2f e0 06 3e 74 23 0e be
       0.05343688 -0.24392416 0.13171457 -0.13880712
000300 ad 35 8c bd 02 38 dc 3b e9 0d d8 3c b0 d7 1d 3d
       -0.06846175 0.006720544 0.02637382 0.038535774
000310 30 82 92 bc 32 e0 c0 bc 22 8e f5 bd 1a be 5a bd
       -0.017884344 -0.023544405 -0.1199 -0.05340395
000320 11 ad cc bc eb b3 5f bc 44 5f 9d 3c 96 29 4e 3d
       -0.024984868 -0.013653736 0.019210465 0.05033263
000330 a5 32 97 bd 8e 46 b8 3b 99 22 8e 3d 90 a5 e5 bd
       -0.073827066 0.005623645 0.06940193 -0.11213219
000340 68 b4 9e bd c4 e0 f3 bd b2 58 96 3d 13 2e 99 3c
       -0.077492535 -0.11908105 0.07341136 0.018698728
000350 d1 e6 d3 bd 40 89 5c be 47 27 1e bd b2 95 ce bd
       -0.10346759 -0.21536732 -0.038611677 -0.10087146
000360 1b 1d 5f be 4c ff 48 3c 7d d5 0a bd 15 01 d6 bc
       -0.21788447 0.012267899 -0.033895005 -0.026123563
000370 2b 2e 8c bb 55 c9 63 bd 3a 9a ae 3c 37 62 6c bd
       -0.0042779646 -0.055611927 0.021313775 -0.057710852
000380 40 00 a9 bd 13 ec 4b 3e 36 6d 28 3d b4 72 82 bd
       -0.08252001 0.19914274 0.041119777 -0.06369534
000390 20 6d 81 3d c6 80 04 be 3c 8e 6a 3e d3 d1 ed 3d
       0.06319642 -0.12939748 0.2290582 0.116122864
0003a0 f5 bf f8 bd 70 37 0f bc c1 8f ff bd b8 e3 39 be
       -0.12145988 -0.008741245 -0.12478591 -0.18153274
0003b0 9a 1b 8f bd 1d c3 1d bd 34 18 32 3d 25 26 03 be
       -0.069876865 -0.038516153 0.043480113 -0.1280752
0003c0 7c 2a 84 3d 75 65 4d ba ed 23 dd bd 23 b8 ba 3d
       0.06453416 -0.00078352477 -0.10797868 0.091171525
0003d0 82 1e e1 3c 24 10 e8 bd a2 3e 8d bd ae 33 41 3d
       0.027480368 -0.113312036 -0.06896712 0.047168426
0003e0 3c 10 0d bd 40 5b ae 3b 48 ac 09 3e ae 34 51 3c
       -0.03443931 0.0053209364 0.13444626 0.0127689075
0003f0 2a 45 d3 3c 83 1d 46 3e c0 63 ee bd df 3a 0c 3e
       0.025789816 0.19347195 -0.116401196 0.13694333

network_body._body_endoder.seq_layers.2.bias f4 [128]
000000 c3 19 16 3d 7b dd 71 bd 1e db 1f bd d5 66 73 bd
       0.036645662 -0.05904911 -0.039027326 -0.05942424
000010 7c 03 b5 bc b5 f6 0a bd 20 d3 e6 bc 6e 72 dd 3c
       -0.022096388 -0.033926684 -0.028176844 0.027032103
000020 f6 ad f5 bb 76 79 56 bd 7a 9f 93 bc 0f e1 c5 bb
       -0.0074975444 -0.052361928 -0.01802038 -0.006038792
000030 74 d1 38 bc 67 cd 9b bd 22 93 0d bd e7 bd 50 3c
       -0.011280406 -0.07607537 -0.034564145 0.012740589
000040 b8 bd 9f bd 5e c6 f5 3c e6 69 db bc 51 1d a3 3c
       -0.07799858 0.030001815 -0.026783895 0.01991144
000050 08 26 fb bc d4 13 3c bd b7 af b1 bc c6 95 35 bd
       -0.030657783 -0.045917347 -0.021690233 -0.04433229
000060 57 46 1d 3d f6 ed c6 bc 7f ea b3 ba 11 c3 07 3b
       0.03839716 -0.02428339 -0.0013726501 0.0020715634
000070 91 94 e5 3c c5 eb 65 3a d5 cb 6d bd b7 d3 02 bd
       0.028024944 0.0008770789 -0.058055717 -0.03194019
000080 1c b6 b6 3b fb ca 41 bd e3 c1 33 bd a0 df 0e bc
       0.0055759083 -0.047312718 -0.043886077 -0.008720309
000090 4e d8 9e ba 59 83 5f 3c ad b4 a1 bc 8a 3f e3 bc
       -0.0012118907 0.013642156 -0.019739473 -0.027740259
0000a0 c6 d2 b9 3a 9a c6 de b9 9f d2 6b 3d be 7c 5c bc
       0.0014177195 -0.0004249111 0.05757391 -0.013457475
0000b0 c1 d2 62 bc 37 89 26 3b 1e 1a 70 bb e5 b2 0c bd
       -0.013844193 0.0025411376 -0.003663666 -0.034350295
0000c0 6c 61 48 bd 15 d6 4f 3c bb 34 88 3d ea ca b4 ba
       -0.048921034 0.0126853185 0.066506825 -0.0013793383
0000d0 d9 82 32 3c 7d 9b d9 bc 07 bd 23 3c 7f 9e c4 3a
       0.010895454 -0.0265634 0.009993798 0.0015000849
0000e0 5b 03 b4 bc 40 e4 1b 3d a6 36 f2 3c 92 f7 e4 3c
       -0.021974256 0.038059473 0.029567074 0.027950082
0000f0 09 18 04 3d d4 5d f6 bc 3c 9f e0 3b 00 2c 67 bc
       0.032249484 -0.030074038 0.0068549197 -0.0141096115
000100 d7 96 7b bd ae d7 e8 bc ef 64 2e bd 31 ec 91 bc
       -0.06142315 -0.028423157 -0.042576727 -0.01781282
000110 75 65 b2 bd a3 14 13 bd 32 04 d0 bc 93 a0 4b bb
       -0.08710758 -0.035908353 -0.025392625 -0.0031071051
000120 d8 23 ec bc b8 06 59 bc 99 09 67 bc cb ef d6 3c
       -0.028825685 -0.013246231 -0.014101409 0.02623739
000130 f9 24 e6 3c e1 b8 a3 3d dc a1 be bc 2b 7c 1a bd
       0.028093802 0.07994247 -0.02327054 -0.037716072
000140 27 72 31 bc 87 9d 7d 3b 01 f4 31 3c e9 7c 92 3c
       -0.010830439 0.003869863 0.010861398 0.017881827
000150 bb fd 0a bd 99 24 89 bc 2a 25 84 bd b4 91 73 39
       -0.033933382 -0.016741084 -0.06452401 0.00023228565
000160 de 41 c3 bc 27 83 ae 3c f8 09 bb 3c 6b 7a b1 bd
       -0.023835119 0.021302773 0.022831902 -0.086659275
000170 a4 92 13 bd e3 7e 23 bc 6e 9a 82 bb 12 83 1a 3c
       -0.03602852 -0.009978983 -0.0039856946 0.009430664
000180 55 57 b4 3c 91 a1 c2 3c 21 ce 2b bd 83 10 a0 bc
       0.0220143 0.023758681 -0.041944627 -0.019539123
000190 9f a1 c2 bc 87 63 b1 3a 26 63 cd 3b 64 d0 8f 3c
       -0.023758708 0.001353369 0.006267923 0.017555423
0001a0 84 cb fc bc e6 c7 a0 bc 0a 5e 33 bd 28 e0 c6 bd
       -0.030858763 -0.019626569 -0.043790855 -0.09710723
0001b0 09 1b 80 bc ad b2 95 3c a5 d0 c8 bc c1 56 15 bd
       -0.015637891 0.018273676 -0.024513552 -0.036459688
0001c0 9b 8b aa bc f6 6a 90 bb 1d 15 74 bd ea 68 6f bc
       -0.020818522 -0.004407282 -0.059590448 -0.014612416
0001d0 02 e7 47 3d 81 3a 4c bb 06 be 38 bd c0 04 25 bd
       0.04880429 -0.00311628 -0.045103095 -0.040287733
0001e0 8c 87 94 ba a3 31 0d bc 9f 56 00 bd 43 b0 c7 3a
       -0.00113319 -0.008617791 -0.03133261 0.0015235025
0001f0 07 a1 05 3d ea ed 5b 3d 9e 20 36 bc d3 0a b6 3c
       0.03262427 0.05369369 -0.011116175 0.022221958

action_model._continuous_distribution.log_sigma f4 [1, 2]
000000 5c 2d ed be 6e bc f2 be
       -0.4632367 -0.47409385

action_model._continuous_distribution.mu.weight f4 [2, 128]
000000 ac 10 4f 3d 8a d6 14 bd 01 84 20 3d 38 e3 36 bd
       0.05055301 -0.036337413 0.03918839 -0.044650286
000010 44 6c 94 bd 4d 7f 9d bd 7e df 84 3c 61 b3 f2 3c
       -0.072472125 -0.07690296 0.01621985 0.02962655
000020 f6 79 a1 3d aa ca 12 3d ac 4a 7c 3d 15 dc f5 bc
       0.0788459 0.035837807 0.06159465 -0.03001217
000030 6a d0 00 be 9c b9 90 3d d8 b2 cf 3c 60 ec 63 3d
       -0.12579504 0.07066652 0.025353834 0.055645347
000040 37 21 56 3c 2e 82 2d 3d c1 ab a1 bc ad 36 0d be
       0.0130694425 0.042360477 -0.019735219 -0.13790388
000050 25 43 0f 3d f6 a6 6e 3b 36 76 b9 bb 1f 8a 34 bd
       0.034976143 0.0036415434 -0.005659844 -0.044077035
000060 bb 42 c4 3d e6 c2 77 bd bf 9a e2 bc 53 38 98 3d
       0.0958304 -0.060488604 -0.02766168 0.07432618
000070 72 84 7a 3d 4e 3e 46 bd 7a 48 93 3b 43 5f 5d bc
       0.061161466 -0.048399262 0.004494724 -0.013511482
000080 8b 79 0b bc 0b 1c fb 3c e1 2a 8a 3d 96 ae 96 bc
       -0.008512865 0.03065302 0.0674646 -0.018393796
000090 a4 99 39 be f7 7c b6 3d fa 97 f6 bc 02 b3 3c be
       -0.18125015 0.08910554 -0.030101765 -0.18427661
0000a0 28 de 02 be cc 7d 82 bc bb ca a7 3d 53 96 f1 3c
       -0.12780058 -0.015929125 0.08192965 0.029490625
0000b0 47 55 b5 bd 6e a8 92 3d af 14 95 3d 76 10 3d bd
       -0.08854156 0.07161032 0.07279336 -0.046158276
0000c0 5b 01 7c bd 21 e3 ea 3d f3 c9 c9 3d 9f 3f 3c be
       -0.06152473 0.11469103 0.09852972 -0.18383645
0000d0 b4 a7 1f 3d 55 71 55 bd 40 24 7a 3d 47 4b ac bd
       0.038978294 -0.052110035 0.061069727 -0.084127955
0000e0 21 18 0d 3b a6 41 76 3d cf 2d 5f 3d 6c ec 51 3d
       0.0021529275 0.0601212 0.054487046 0.05125086
0000f0 3f b0 68 3d 15 ec ef 3c 12 f0 f6 bd f1 7f 79 bd
       0.056808706 0.029287377 -0.120575085 -0.06091303
000100 8f 41 a5 bd 02 b8 8f bd fa de af 3c ec d4 8b 3d
       -0.08069145 -0.070175186 0.021468628 0.06827721
000110 91 71 66 bd 88 a8 28 bd 18 37 ca 3d 3d 56 65 bc
       -0.05626065 -0.04117635 0.098737895 -0.013997612
000120 a8 48 bb bd 99 bc 8b bc be 18 0d 3d 4c e4 7b 3c
       -0.091447175 -0.017057704 0.034447424 0.015374254
000130 b2 d9 da 3c 4a 10 b6 3d 98 be 0f 3e b8 55 02 3d
       0.026715133 0.08889826 0.1403755 0.03182003
000140 b8 d0 a7 bd e0 77 c9 3c e7 67 66 bd 70 5d f8 3d
       -0.08194107 0.024593294 -0.056251433 0.12127197
000150 56 be a5 bd b4 d2 18 3e d7 28 8e bd 06 9f 55 bd
       -0.08092944 0.14924127 -0.06941383 -0.05215361
000160 08 83 80 3d c8 c2 88 3b 17 4c 26 bc 27 23 61 3d
       0.06274992 0.0041736104 -0.010149977 0.054965165
000170 5d af 5c bd 2c 63 f3 3d a6 a4 e0 3c 21 59 50 3b
       -0.053878177 0.1188415 0.02742226 0.0031791406
000180 6d 98 a9 3d e7 86 fb 3c a5 fe 30 bc e3 f9 a9 bd
       0.08281026 0.030703975 -0.0108028995 -0.08299615
000190 34 5b 69 bd 8b e1 87 bb cb c7 22 3d 61 0d 16 3e
       -0.056971744 -0.00414676 0.03974132 0.14653541
0001a0 99 0b 0f be c5 a7 68 bd eb 65 4e bd c9 92 d6 bb
       -0.13969268 -0.056800622 -0.050390165 -0.00654826
0001b0 30 2a 05 3d f2 e2 40 3d 4c b3 bf 3d c1 6b f7 3d
       0.032510936 0.047091432 0.0936037 0.12081099
0001c0 52 fb e0 bc 9a 84 c1 3d 38 bc 92 3c 07 3d 56 bd
       -0.027463589 0.0944912 0.017912015 -0.052304294
0001d0 4b d7 3e 3e e4 f1 7c bd 48 7e 4d bc a0 0f 61 3d
       0.18636815 -0.061754122 -0.012542315 0.05494654
0001e0 1a 18 4b 3b 77 ed ff b9 8d a9 76 bc 7e 23 e4 3d
       0.0030989707 -0.00048814315 -0.0150550725 0.11139582
0001f0 d3 c4 18 3d 52 a7 c0 3d c5 f9 bc 3c fd 1a c6 3d
       0.03729708 0.09406914 0.023068318 0.09673116
000200 47 d7 86 3d 97 93 50 3d 20 f3 ba 3d e9 2d a4 3c
       0.0658403 0.050922003 0.09128404 0.020041423
000210 68 d4 80 bb 6e 5f b6 bd f5 bd 19 3e 50 db c9 bd
       -0.003931571 -0.089049205 0.15013869 -0.09856284
000220 c1 ed e5 3d b9 41 54 bc fd 67 9c 3d 02 e3 dd bc
       0.112269886 -0.012955123 0.07637022 -0.027085785
000230 b6 27 13 3c e4 27 b3 bb e7 bf ed 3d 7d 8b c1 bd
       0.008981636 -0.005467402 0.11608868 -0.094504334
000240 e5 38 e9 bc 18 7b 9b bb 2c 9b e5 bc f6 c4 58 3d
       -0.028469512 -0.0047448985 -0.028028093 0.05292221
000250 13 73 56 bd 3a bc 82 bd 48 ff dd 3c 68 c6 8e bd
       -0.052355837 -0.063835576 0.027099267 -0.06971437
000260 f1 a2 58 3d 98 1e 17 bc 91 49 54 3d 65 a3 84 bc
       0.052889768 -0.009223603 0.05182797 -0.016191194
000270 77 92 90 bd c1 e2 6a bb 37 13 38 bd 4f be 98 3d
       -0.07059186 -0.0035840722 -0.0449402 0.074581735
000280 57 60 80 bd ff c7 59 3d 92 f8 a0 bb 8b b9 4a bd
       -0.06268375 0.053169247 -0.0049124444 -0.049493354
000290 cc 93 91 3c c3 32 ce 3c 6e 71 37 3d 75 70 ba bd
       0.01777067 0.02517069 0.04478591 -0.09103481
0002a0 1e 4d 56 3d ad ab dd bd bc 5b 37 bd e8 f8 fc bd
       0.05231964 -0.1082376 -0.04476522 -0.123521626
0002b0 3d e0 4d 3d a2 63 14 3c d8 f9 5c 3d d1 ee 52 3c
       0.05026268 0.009056957 0.053949207 0.012874321
0002c0 1a 10 68 bc 21 95 7f bd b6 a4 0a bc a2 3b 0a bc
       -0.014163995 -0.06239808 -0.008462122 -0.008437069
0002d0 97 11 36 bc 06 3c a3 bd 95 b4 9f 3d 03 c8 07 bd
       -0.011112592 -0.07970433 0.07798115 -0.03314973
0002e0 c2 cf 9a 3b f0 41 f5 bb 4e de 92 bd da 67 13 3d
       0.0047244737 -0.007484667 -0.071713075 0.035987712
0002f0 03 ef ad bd 59 7e 11 3d 53 8e df 3c 97 f8 ac bd
       -0.084928535 0.035520885 0.027289545 -0.08445852
000300 8c 80 ee bd 1d dd 8d 3a 59 06 11 3d a5 17 38 3d
       -0.11645612 0.0010823343 0.035406444 0.044944424
000310 41 d2 15 bd 64 66 0c 3d 28 71 b2 bd b1 66 58 bc
       -0.036577467 0.034277335 -0.08712989 -0.013208077
000320 cf 2d 77 bb 89 b1 0d bd 99 90 10 3d 9c f0 87 bd
       -0.0037716513 -0.03459314 0.03529415 -0.066376895
000330 8d 06 88 bd 1a 30 94 3d 10 75 3a bd 02 f1 6e 3d
       -0.066418745 0.07235737 -0.045521796 0.05833531
000340 5b 2c 9a bd dc cf 8d 3d 62 4c 5e 3c 61 a2 01 3c
       -0.075279914 0.06924412 0.013568016 0.007912249
000350 b2 53 64 3d f4 87 4f 3c fd 3c b4 3d 50 fa a6 3c
       0.05574388 0.012666691 0.08800695 0.02038303
000360 f9 5b 45 3b e6 48 66 bd 26 ad fc 3d f1 53 b8 3b
       0.0030114634 -0.056221865 0.12337713 0.005625241
000370 39 27 38 bd 87 35 0a 3d a4 9d 9f bd e4 a0 8c 3d
       -0.04495928 0.033742454 -0.077937394 0.06866625
000380 d7 49 d6 bb 11 dd 3a 3d 34 11 bb 3d 17 04 44 3d
       -0.006539564 0.04562098 0.091341406 0.047855463
000390 3c 9c f0 3c 31 59 ac 3d 5f 89 ce bd 15 10 d7 3d
       0.029371373 0.084154494 -0.10084795 0.10501114
0003a0 32 fa 2a bd 8f a6 28 3e 06 ac 32 3d 70 07 49 3a
       -0.04174251 0.16469787 0.043621086 0.000766865
0003b0 5e e8 37 3d a7 de e1 3d 2f d2 91 3d 00 f2 5a 3b
       0.044899337 0.11028796 0.071201675 0.0033408403
0003c0 b0 5d 92 3b 5e 20 67 bc 85 57 7e bd e6 c5 48 bd
       0.004466735 -0.014106838 -0.062095184 -0.049016856
0003d0 30 2b 9e 3b e4 67 eb 3c 8c 26 d9 3c 61 8d 45 bd
       0.0048269257 0.028736062 0.026507638 -0.048230533
0003e0 46 46 df bd b0 ed 94 3c b5 0b 87 bd 6d 0c ed bd
       -0.109020755 0.018179744 -0.0659403 -0.11574636
0003f0 0f 01 5a 3d 89 4a f2 3b 05 e7 16 3e 32 95 9b bc
       0.053223666 0.007394139 0.14736564 -0.01899204

action_model._continuous_distribution.mu.bias f4 [2]
000000 b0 25 71 3d b2 40 09 3d
       0.058873832 0.033508964

exp_avg f4 [128, 17]
000000 18 95 74 b9 0a f4 bf bb f2 e5 f0 ba 7e fe 3a bc
       -0.00023325195 -0.005857949 -0.0018379076 -0.011413215
000010 ad fd 47 bc 5d 85 43 bc 26 63 4a bc 18 31 13 bc
       -0.012206477 -0.011933652 -0.01235274 -0.008983873
000020 80 9a 2d bc 08 3f e2 3a 1e ce 9c 3b 1e 4e 1e bb
       -0.010595918 0.0017261216 0.0047853133 -0.0024155448
000030 e3 ee 1f 3a 82 1f b5 bb 25 f4 3e bc 0d 5d 9f 3c
       0.00061009655 -0.0055274377 -0.011654888 0.01945355
000040 4e 4b 42 3c e8 e2 6f 3b 36 b6 81 3b d8 23 a7 3b
       0.011858774 0.0036603753 0.003958489 0.0051007085
000050 83 9d c2 3b 69 a2 fc 3b 04 b3 00 3c d8 d0 0a 3c
       0.005939187 0.0077097905 0.007855181 0.008472644
000060 20 eb 09 3c 2a 1e ff 3b af 23 84 3b 70 65 67 3b
       0.008417875 0.0077855783 0.004032574 0.0035308264
000070 75 a3 0a 3b e4 ad 89 ba f9 f5 86 3b fe f0 24 3c
       0.0021154557 -0.0010504094 0.0041186777 0.010067223
000080 29 71 31 3c b3 bb af ba 63 76 c4 bc c8 78 07 bd
       0.010830202 -0.0013407379 -0.023982232 -0.03307417
000090 2c ed 09 bd 92 e3 71 bc a2 5c 5e bc 10 bd f9 bb
       -0.03367345 -0.01476373 -0.01357189 -0.007621415
0000a0 a0 69 96 bb a8 4f 0d bb 1c ee de bc 6c 0a 47 bc
       -0.004590228 -0.0021562371 -0.027213149 -0.012148481
0000b0 65 87 53 3b 58 c2 10 bc 5f cb 86 3c 3a a7 86 bc
       0.0032276746 -0.008835398 0.016454397 -0.016437162
0000c0 c2 3b 9e bc 88 ad 31 3b e2 b9 85 3a 10 5a 7e bb
       -0.019315604 0.002711149 0.0010202492 -0.0038811006
0000d0 e2 1d 6c bb 11 bb d8 bb 3b b7 68 bc 53 cb 76 bc
       -0.0036028554 -0.006614097 -0.014203842 -0.015063125
0000e0 07 6a 63 bc c8 f7 9d ba b8 6f 31 3c c1 b6 7a 3b
       -0.013880259 -0.0012051994 0.0108298585 0.0038255902
0000f0 01 9a bf bb dd 20 17 bb 70 46 43 bb 14 cf 36 3c
       -0.005847216 -0.002306036 -0.0029796623 0.01115777
000100 c4 56 84 ba 63 bf 01 bc 97 a1 e5 bc e4 33 98 3b
       -0.0010096659 -0.007919165 -0.028031154 0.0046448577
000110 c6 46 10 3d 0e 96 34 3d dc d6 68 3d 27 3a 3b 3d
       0.035223745 0.044088416 0.05684553 0.045709755
000120 c8 37 4c 3d ea 0a 51 3d 70 09 65 3d 32 c6 6e 3d
       0.049857885 0.0510358 0.055917203 0.058294483
000130 a7 b9 f6 3c f7 10 ab 3c 2e 35 88 3c be 15 7d 3c
       0.030117823 0.020882113 0.01662692 0.015447078
000140 74 b5 13 3d 84 02 94 3c 67 8d 09 3d 09 f7 8b bc
       0.03606172 0.018067606 0.033582117 -0.017085569
000150 88 a6 67 bc 24 9e a9 3b b0 89 2b 3c 48 07 5e 3b
       -0.014138825 0.0051763225 0.010469839 0.0033878852
000160 9a 74 49 3c ae 86 59 3c 8a 3c 7e 3c 8a 13 6b 3c
       0.012295866 0.013276739 0.015517363 0.01434792
000170 4c a2 d5 3b 30 31 bc 3c c0 70 5b b9 8e 0c d1 bb
       0.0065195914 0.022972673 -0.0002092747 -0.0063796705
000180 2c df 8b 3a 4d 02 8d bc 4e 21 f2 3b be a7 89 3c
       0.0010671369 -0.017213011 0.007389224 0.016803619
000190 97 70 d1 bc 6c eb 2c 3c 8e 18 36 bc 80 10 58 bb
       -0.025566382 0.010554176 -0.011114253 -0.003296882
0001a0 c8 89 9a 3a c3 57 bd 3c 6d e6 1c 3d 09 05 46 3d
       0.001179033 0.023113137 0.03830569 0.048344646
0001b0 e0 01 80 3d 92 64 3f 3d b3 6d d9 3c 1e 70 19 bc
       0.06250358 0.04672677 0.026541566 -0.00936511
0001c0 ac 7b 3c 3c 02 09 d5 bb ee 3d a1 3c 62 28 21 3c
       0.011504095 -0.006501318 0.01968285 0.009836288
0001d0 35 66 0c 3c be bb e2 3c 76 bf 11 bd f0 88 a6 b8
       0.00856929 0.027677413 -0.035582982 -7.9410034e-05
0001e0 78 1d b5 b8 60 d0 d0 b8 67 45 ed b8 b9 3d 22 b9
       -8.6362415e-05 -9.957026e-05 -0.00011313968 -0.00015472517
0001f0 c0 e5 88 b9 72 39 89 b9 3c 3d 88 b9 88 a6 43 b9
       -0.00026111118 -0.00026173476 -0.00025985565 -0.00018658687
000200 3f ba f3 b7 7d 7b 99 b8 05 06 e3 b7 8d 59 bf b8
       -2.9054585e-05 -7.31861e-05 -2.7063312e-05 -9.12427e-05
000210 f4 3f 31 b8 41 41 87 b9 4c 90 55 39 56 63 82 b7
       -4.225965e-05 -0.00025797824 0.00020367018 -1.5543465e-05
000220 8b 39 05 3d 6b 1a 0e 3d 0f 93 a1 3c 6e 76 af 3c
       0.03252558 0.034693163 0.019723443 0.021418776
000230 32 36 91 3c 85 fc a0 3c 68 cd 66 3c 7e 8f 89 3c
       0.017726038 0.01965166 0.014087059 0.016792055
000240 9a 06 92 3c 92 55 5f 3c d3 7d 0e 3c e2 d1 41 3c
       0.017825413 0.013631241 0.008696991 0.011829825
000250 98 87 be 3a ec 79 98 3c da 99 14 3d 80 8d 89 bb
       0.001453626 0.018612824 0.036279537 -0.0041977763
000260 4a d9 de bb 0e 2e f4 bb 4d 60 11 bc e1 6a 12 bc
       -0.006800805 -0.007451779 -0.008873058 -0.008936615
000270 a6 f1 1e bc f4 bb 1b bc 00 91 1a bc 61 ea 11 bc
       -0.009701168 -0.009505261 -0.009433985 -0.008905978
000280 7b 0e 12 bc 8d 9c 2a bb 16 6e 46 bb 49 17 1a bb
       -0.008914585 -0.0026033253 -0.0030278019 -0.0023512414
000290 06 a8 59 ba 54 a2 0d bb 55 79 2a ba 41 7f b7 bb
       -0.00083029305 -0.0021611648 -0.0006503065 -0.0055998866
0002a0 fd 70 8f 3b db 9a f2 3b 50 93 93 bb 18 6b b4 bb
       0.004377483 0.007403714 -0.004503645 -0.0055059306
0002b0 7a 4d bd bb 44 62 25 bc 7a 27 1f bc c4 6e 04 bc
       -0.005777058 -0.010094229 -0.009714002 -0.008083049
0002c0 a8 3b 84 3b 6f 80 e6 3b 52 6d 75 3b 64 67 11 ba
       0.004035432 0.0070343534 0.0037449193 -0.00055467174
0002d0 d9 0c 4c bb c0 0b 98 b8 22 8f 0a bb 1e 34 96 3a
       -0.0031135587 -7.2501134e-05 -0.0021142443 0.0011459624
0002e0 90 50 e2 b9 de 09 68 bc f5 eb 27 3b 31 9a 84 37
       -0.00043166103 -0.014162509 0.002562282 1.5807427e-05
0002f0 3f e3 a2 37 f2 70 d4 37 7d 81 16 38 d3 00 17 38
       1.9417725e-05 2.5324964e-05 3.5883382e-05 3.6001973e-05
000300 70 12 18 38 62 7e 51 37 a2 d1 05 37 d2 5f cd 36
       3.6256795e-05 1.2486797e-05 7.976227e-06 6.120631e-06
000310 54 41 bd 36 70 31 4a 37 47 34 71 36 29 8b 35 37
       5.640244e-06 1.2051649e-05 3.5942228e-06 1.0820841e-05
000320 5a 4a 84 36 e8 5d a4 37 57 75 05 b8 74 84 f3 b5
       3.942562e-06 1.9594052e-05 -3.1818952e-05 -1.814346e-06
000330 ab 02 2e 3d cf c5 47 3d 92 1c e9 3c 78 90 5b 3d
       0.042483013 0.04877263 0.028456006 0.053604573
000340 53 6e 80 3d 24 b8 84 3d 08 9d 55 3d 05 ad f3 3c
       0.06271043 0.064804345 0.05215171 0.029745588
000350 0a 23 0c 3d 8b 3e 95 3c 84 42 af 3c 85 59 87 3c
       0.034213103 0.0182183 0.021394022 0.016522178
000360 76 39 ba 3c 01 cc b3 3c ae 91 6d 3d 1c 65 95 bc
       0.022732478 0.021947863 0.05800026 -0.01823669
000370 dc 50 b9 bc 18 bd 34 3b d0 32 ae 3a 02 ad 22 39
       -0.022621565 0.002757853 0.001329029 0.00015513974
000380 34 db ac 3a 82 56 0b 3b 35 71 4c 3b d2 25 36 3b
       0.0013187886 0.002126128 0.0031195406 0.0027793539
000390 82 52 a3 3a bc 15 c6 3a 46 66 ee ba f8 4d e6 3a
       0.0012460502 0.0015112679 -0.0018188439 0.0017570844
0003a0 aa c6 da 39 7d 4a df ba 4c 1e b7 3a 54 b3 28 3b
       0.00041728216 -0.0017035749 0.0013970821 0.0025741654
0003b0 42 bf 8c 3a b7 0c b0 b9 16 31 2c 3c 12 b0 b1 3b
       0.0010738152 -0.0003357881 0.01050975 0.0054226005
0003c0 1e de 65 bc 12 50 e1 3b 62 22 53 3c 42 b6 a8 3c
       -0.014030008 0.006876 0.0128866155 0.02059472
0003d0 74 29 91 3c 70 7b 01 bb 10 37 d0 3b c8 7f 23 ba
       0.017719962 -0.0019757412 0.00635422 -0.00062369974
0003e0 96 3b da 3b 67 1e 8c 3b 40 a8 00 bb 55 77 17 3c
       0.006659935 0.004276085 -0.0019631535 0.00924476
0003f0 6c 73 c8 3c 00 56 a7 39 28 bf e3 bc 23 5f 05 3b
       0.0244691 0.00031916797 -0.027801111 0.0020350895

exp_avg_sq f4 [128, 17]
000000 84 57 80 3b 52 7e cd 3b ec f3 5c 3c 83 ff b8 3c
       0.0039166827 0.006271162 0.01348589 0.022582775
000010 0f 38 d1 3c 9b 5f c3 3c f7 bb 97 3c 1a d0 6c 3c
       0.025539426 0.0238493 0.018522246 0.014453912
000020 9a 48 20 3c 06 62 77 3b ea d0 66 3b e3 fc 02 3b
       0.009782935 0.0037747636 0.0035219737 0.0019987158
000030 e6 e1 56 3b b2 ca 58 3b 6e 95 0f 3c 9e 5c 44 3c
       0.0032788455 0.00330798 0.008763654 0.011984972
000040 8a 18 6c 3b 46 8d be 3a e8 28 02 3b 59 be 5e 3b
       0.0036025369 0.0014537952 0.0019860808 0.0033987968
000050 d5 ec 14 3c 19 a4 2b 3c a2 59 2c 3c a9 02 0e 3c
       0.009089668 0.010476136 0.010519417 0.008667626
000060 7d 18 ce 3b eb 7b 92 3b 1d d6 e0 3a c5 79 89 3a
       0.0062895403 0.0044703386 0.0017153654 0.0010488561
000070 10 09 ca 3a a9 0a 4e 3b 6f 60 2b 3b 92 af ed 3b
       0.0015414078 0.003143946 0.0026150008 0.0072535956
000080 58 f8 f5 3b 7f a7 f6 3a ac 67 8b 3d 12 82 c1 3d
       0.0075064115 0.0018818228 0.06806883 0.09448637
000090 03 f5 fe 3d 44 f0 16 3e 03 df 18 3e 8a b7 07 3e
       0.12449076 0.14740092 0.14928822 0.13253608
0000a0 90 e0 cc 3d d5 c0 91 3d d8 c0 70 3d ff da 0b 3d
       0.100037694 0.07116858 0.05877766 0.034144398
0000b0 13 1f 08 3d 7d 25 13 3d dd 0f b8 3d b0 25 56 3d
       0.03323276 0.035924423 0.08987401 0.052282035
0000c0 e9 79 01 3e 06 d4 a6 3d 00 24 3d 3d b6 33 05 3c
       0.12644161 0.08145909 0.04617691 0.008130005
0000d0 99 e9 63 3c fc ba ec 3c 7e e5 3f 3d e2 d1 64 3d
       0.0139106745 0.028897755 0.04684972 0.055864222
0000e0 76 bc 61 3d c0 36 3c 3d 86 6a f1 3c e4 02 8d 3c
       0.05511137 0.04595065 0.02946974 0.017213292
0000f0 e5 34 f7 3b 4d 09 c9 3b 7c fa aa 3b 88 10 4c 3c
       0.0075441473 0.006135142 0.0052178483 0.012455113
000100 06 0a 04 3c 58 0d ee 3c 6d 28 fa 3c c5 54 1b 3c
       0.00805903 0.029059097 0.030536855 0.00948066
000110 fb 41 01 3c 1f 2e 43 3c b8 15 97 3c a6 a4 e3 3c
       0.007889266 0.011912852 0.018442973 0.027788471
000120 c5 d9 07 3d 34 5a 0a 3d 08 ef 00 3d f4 65 c8 3c
       0.033166666 0.03377743 0.031477958 0.024462678
000130 d5 9b 34 3c 8b c5 01 3c 5b f2 d0 3b 52 56 5a 3b
       0.011023481 0.007920633 0.0063765473 0.003331561
000140 74 e8 10 3c b6 e4 4f 3b 25 8d e6 3b e2 b3 5a 3c
       0.008844484 0.0031722016 0.0070358687 0.0133485515
000150 f5 4c 00 3c 24 53 90 3c bb 68 c3 3c 48 bd 0b 3d
       0.007830848 0.01761777 0.02385365 0.03411606
000160 0d 55 48 3d e7 85 5a 3d 03 b2 56 3d e7 ae 37 3d
       0.048909236 0.053350355 0.05241586 0.044844534
000170 ca b7 0a 3d 51 62 c9 3c 9b ef 2e 3c a7 b4 42 3c
       0.03386668 0.024583014 0.010677244 0.011883891
000180 c2 a5 2a 3c 9b af d6 3c d7 d2 83 3c 71 66 18 3d
       0.010415496 0.026206782 0.016091747 0.03720707
000190 e5 b9 e5 3c 0f 4f 70 3c 36 1c 6d 3d ca 6f ab 3d
       0.028042743 0.014667287 0.057888232 0.083709314
0001a0 b3 40 e4 3d 94 a0 00 3e 18 f0 01 3e 36 a7 e7 3d
       0.11145153 0.12561256 0.12689245 0.1131119
0001b0 2b 97 b0 3d 1a 5c 81 3d 61 82 17 3d 99 c1 e3 3c
       0.08622583 0.06316395 0.036989573 0.027802275
0001c0 e5 d9 94 3c e0 7c ab 3c 42 2f 90 3d c9 2f c3 3c
       0.018170306 0.020933568 0.07040264 0.023826497
0001d0 6d 6d 79 3d dc a1 60 3d de ae 05 3d 72 8b 55 36
       0.060895372 0.05484186 0.03263747 3.1820641e-06
0001e0 88 fe 82 36 38 3f ae 36 23 b1 0f 37 65 47 71 37
       3.9039332e-06 5.1929637e-06 8.564707e-06 1.4381342e-05
0001f0 34 8c 98 38 c9 cd 9b 38 de 6a a2 38 2d 91 98 38
       7.27404e-05 7.4293064e-05 7.7446675e-05 7.274966e-05
000200 83 7d 0b 38 ea 43 42 36 76 5d 1f 38 a3 2c 7d 38
       3.3257074e-05 2.8947784e-06 3.7995596e-05 6.036147e-05
000210 ef f2 f7 37 43 ed 2e 38 e5 6b c0 37 ea c9 28 38
       2.955782e-05 4.17058e-05 2.2938426e-05 4.024237e-05
000220 62 55 c1 3c c1 17 0d 3d 80 3d 37 3d f4 6c 68 3d
       0.023600284 0.03444648 0.044736385 0.05674453
000230 ab 66 7c 3d cb d3 69 3d fd 88 3c 3d 94 5f f7 3c
       0.06162135 0.057086747 0.04602908 0.030196942
000240 d6 17 b0 3c ab 7d 5b 3c 0d 66 00 3c 89 b2 16 3c
       0.02149574 0.013396661 0.007836831 0.00919784
000250 50 74 8b 3c 1a 9e 73 3c ae af 3a 3d 32 2b 0f 3d
       0.017023236 0.014869237 0.045577697 0.034953304
000260 09 4e 63 3c 21 36 00 3c 9e dd 0f 3c 90 08 12 3c
       0.0138735855 0.007825405 0.008780865 0.008913174
000270 0b a1 06 3c 2d 3b c2 3b 72 ab aa 3b 9c a3 b4 3b
       0.008217107 0.0059274645 0.005208426 0.005512668
000280 c1 cb 8d 3b 32 4c 06 3b 0c 0b e1 3a e4 be b5 3b
       0.004327268 0.0020492193 0.001716943 0.0055464376
000290 66 c4 f8 3a 9b 44 14 3c 3e 35 e8 3a c3 52 e3 3b
       0.001897943 0.00904956 0.0017716063 0.006937356
0002a0 33 13 fa 3a 46 9a 83 3b d0 5e 3b 3b 15 aa 98 3b
       0.0019079208 0.0040161936 0.0028590448 0.0046589472
0002b0 28 a9 41 3c f2 33 a4 3c dc 7d a8 3c f0 9c 8b 3c
       0.011820115 0.0200443 0.020567827 0.017042607
0002c0 20 68 1d 3c 5b 49 a1 3b 47 52 25 3b 02 5c c6 3a
       0.009607345 0.0049220747 0.0025226043 0.0015133622
0002d0 02 1b cb 3a 61 87 06 3a 37 b3 98 3a da 50 43 3a
       0.001549572 0.00051318674 0.001165009 0.00074507075
0002e0 55 4b 5a 3b c1 ad 2d 3c a7 b3 0a 3a 64 60 8e 32
       0.0033309062 0.010600508 0.00052910525 1.6574809e-08
0002f0 1b 92 e1 32 48 bb 9c 33 b9 ad cf 33 be b2 cf 33
       2.6259888e-08 7.298382e-08 9.6707886e-08 9.671702e-08
000300 99 09 cb 33 ce 51 c4 32 7f 3d 00 32 80 7f 81 31
       9.45467e-08 2.2854604e-08 7.464563e-09 3.768889e-09
000310 f2 a0 11 31 30 ab 21 32 fb 3e 82 30 68 c1 08 32
       2.1191764e-09 9.410357e-09 9.476645e-10 7.960217e-09
000320 8f d8 af 30 3e 92 c2 32 09 27 82 33 35 16 47 30
       1.2794475e-09 2.2651076e-08 6.060697e-08 7.2427336e-10
000330 29 1a e2 3c f8 a3 44 3d 1c ba 91 3d 18 2c bc 3d
       0.027600365 0.048007935 0.07115576 0.09188098
000340 bb b8 c8 3d 6e 74 bd 3d bf f8 a9 3d 9f a6 6f 3d
       0.098008595 0.09250723 0.08299398 0.05850851
000350 8d 99 26 3d 21 73 c8 3c 90 bd 9d 3c b2 21 9d 3c
       0.04067378 0.02446896 0.01925543 0.019181106
000360 33 65 30 3d 5d 4e f3 3c 59 00 8c 3d dd c2 2f 3d
       0.04306526 0.029700452 0.06836004 0.042910445
000370 92 cc 0f 3d c6 a9 03 3c da ee 8b 3c 57 b1 62 3c
       0.035107203 0.008036083 0.017081667 0.013836226
000380 c0 06 4f 3c 34 68 46 3c db be 33 3c e7 9a 2b 3c
       0.012635887 0.012109805 0.010970796 0.010473943
000390 4e e0 2c 3c 72 a0 32 3c 15 5a a5 3b 60 56 da 3b
       0.010551525 0.010902511 0.005046139 0.0066631287
0003a0 33 50 c7 3b 64 7d c6 3b 1f fe 4a 3c aa 7f 15 3d
       0.0060825585 0.006057428 0.012389689 0.036498703
0003b0 42 63 77 3c 46 7f 8f 3b 21 8d 5b 3c 34 42 9d 3c
       0.0150993485 0.004379186 0.013400347 0.019196607
0003c0 7e 31 d8 3c c4 e9 0a 3d 5b 99 15 3d f1 21 0b 3d
       0.026390787 0.033914343 0.036523204 0.033967916
0003d0 5b 02 da 3c 1f 37 91 3c 62 48 2b 3c 62 b0 e5 3b
       0.026612451 0.01772648 0.010454269 0.007009552
0003e0 41 41 de 3b 08 8a b7 3b 75 70 98 3c f5 33 cf 3b
       0.006782681 0.0056011714 0.018608311 0.0063233324
0003f0 78 9d 8a 3c 29 04 7a 3c 09 4a 2c 3c 94 2e df 3b
       0.01692079 0.015259781 0.010515698 0.0068109725

exp_avg f4 [128]
000000 48 31 ff b9 d6 cf 05 3a 09 3b af ba 84 b6 3b ba
       -0.00048674108 0.00051045173 -0.0013369034 -0.0007160681
000010 3f ee 15 3b 64 0f 30 3a ad 36 af 3a 06 bf 2e b7
       0.0022877601 0.00067161606 0.0013367735 -1.0415684e-05
000020 fd 8a cb 3a 3d af b7 b9 a2 e4 99 b9 0b 22 c1 35
       0.0015529093 -0.00035035043 -0.0002935278 1.4389528e-06
000030 bc b7 47 3b 4c c8 a4 38 16 91 76 3a b9 46 90 39
       0.0030474504 7.8574376e-05 0.0009405775 0.00027518513
000040 1f f7 ed 39 82 99 19 3b e4 6d 40 b8 e8 9a 98 b8
       0.00045388282 0.0023437445 -4.587871e-05 -7.276778e-05
000050 ae c2 86 3a b8 df 4b bb 27 37 e4 3a 1a f5 21 3b
       0.0010281408 -0.0031108689 0.0017411456 0.0024712742
000060 c8 62 4d 39 1e d9 bf ba b0 1a 35 ba 36 2d f6 39
       0.00019587122 -0.001463685 -0.0006908579 0.0004695446
000070 ac f1 57 3a 83 5d 83 3a c7 3a 75 b4 65 37 5d ba
       0.0008237611 0.0010022375 -2.2838786e-07 -0.00084387354
000080 da d4 be ba 50 c1 36 3a 06 04 0d 3b 85 5f 8a 3a
       -0.0014559284 0.0006971555 0.002151729 0.0010557031
000090 b4 70 fe 38 da aa 03 ba 6e 57 b3 b9 57 33 d3 b9
       0.000121326564 -0.0005022712 -0.0003420668 -0.00040283307
0000a0 57 72 97 b6 5d d4 b2 39 29 8d 01 bb d2 a0 78 38
       -4.5134616e-06 0.0003410903 -0.0019767976 5.9277583e-05
0000b0 42 52 ff 3a a2 40 28 ba e9 00 f0 38 04 4c d1 b8
       0.0019479471 -0.00064183224 0.00011444261 -9.9800556e-05
0000c0 ea 48 fb b6 f8 41 b2 ba 02 df d1 b8 72 c0 ab ba
       -7.4888712e-06 -0.0013599982 -0.00010007435 -0.0013103618
0000d0 a8 f0 96 38 03 a5 81 b9 00 56 96 b7 85 28 ec 39
       7.197383e-05 -0.0002472774 -1.792144e-05 0.00045043617
0000e0 ee 5a 9c b9 97 98 d6 32 d5 78 58 3a 46 d5 b2 3a
       -0.00029822387 2.4982269e-08 0.00082577515 0.0013643883
0000f0 a8 05 58 38 fe 3f 35 38 65 bb 28 bb 04 96 a1 39
       5.150368e-05 4.321336e-05 -0.0025746461 0.00030820083
000100 01 75 8e bb c7 48 47 ba 94 26 d2 3a 7a 31 da 37
       -0.004347444 -0.0007602092 0.0016033226 2.6010664e-05
000110 ee 7d b8 3a d1 04 56 3a 22 3c dc ba 8c fa cf 35
       0.0014075616 0.000816417 -0.0016802589 1.5495621e-06
000120 e5 62 21 ba 85 80 d4 3a 52 d0 9e 39 df a5 28 2f
       -0.0006156399 0.0016212618 0.0003029132 1.533844e-10
000130 12 73 0e 36 64 c4 92 3a d0 b6 d4 b9 f0 92 de ba
       2.1226629e-06 0.0011197445 -0.00040571997 -0.0016981047
000140 52 c5 8a b8 24 1e 05 bb bd 4c 69 37 6f 5f 61 3a
       -6.6171066e-05 -0.0020312155 1.3905749e-05 0.00085972896
000150 8e 5f 1b bb c8 66 f8 b8 cb 2c 0d 39 5b 59 20 39
       -0.0023708078 -0.00011844706 0.00013463495 0.00015292077
000160 36 12 80 39 34 f1 be ba dd 08 0f 35 f8 9f 83 3a
       0.0002442763 -0.0014567734 5.328455e-07 0.0010042181
000170 53 b8 d3 3a 4c a4 84 3a df f6 ba ba 0c c3 91 39
       0.0016152955 0.0010119765 -0.0014264247 0.00027801876
000180 c0 fc e4 38 ee 6d 08 bb 22 93 4a 3b d3 6d dd 3a
       0.000109189656 -0.0020817476 0.0030910452 0.0016893692
000190 d1 a4 9c 3a b7 4f ca ab 92 03 38 ba 00 aa 6e 37
       0.0011950975 -1.4375089e-12 -0.0007019575 1.4225487e-05
0001a0 c9 89 76 38 49 e7 f7 3a 77 82 d4 39 ff b8 0e ba
       5.8779293e-05 0.0018913533 0.00040532995 -0.00054444367
0001b0 4c f9 76 3a 56 9d 9a ba 38 b6 3b ba b8 0a 60 ba
       0.00094213034 -0.0011796157 -0.00071606366 -0.0008546519
0001c0 92 df 02 bb be e9 a7 3a a4 bc a2 39 f8 3e ef ba
       -0.0019969684 0.001281075 0.00031039596 -0.0018253019
0001d0 00 ad 9a 1e c8 5d fa 38 5a 72 ec 39 12 af 21 b9
       1.6376935e-20 0.00011938397 0.00045098626 -0.00015419375
0001e0 88 39 1d 39 82 08 42 39 4e 89 7d 38 ae 6a e2 b8
       0.00014994119 0.00018504451 6.0447775e-05 -0.000107963904
0001f0 a2 17 2e ba 12 07 42 3b 6f 28 9f b9 d4 f9 93 39
       -0.0006641095 0.0029606265 -0.0003035697 0.0002822416
