Assets/Brains/Run-10.onnx (onnx, 80694 bytes, 7 tensors)

network_body._body_endoder.seq_layers.0.weight f4 [128, 17]
00000000: 1dd3 afbd 0d46 99be 6473 6b3e 093c 11be
00000010: dad5 21be 2d2d b0bc 88a5 86be 49b8 8fbe
00000020: e4cc 9dbe f6f1 78be 854c d93b 1b13 31be
00000030: 610c 0cbe 8150 9ebe d752 ad3e 108b 08be
00000040: 54a2 603e 0374 3abe 9ce4 4f3e 6204 9abd
00000050: f37f e3be 85f0 9a3c 059e 393e cd39 a8bd
00000060: a85c b1bc b851 5a3c a054 debd 9fc7 603e
00000070: 7963 133e 7112 843e f10b 243d 086c 0cbd
00000080: b7e0 b5be ab90 96be 0045 583d 007b 1fbe
00000090: ffe2 29be b6e4 d33e 31a8 9d3e 5ad3 8f3e
000000a0: 7d76 0bbb 6bf0 3bbe faf2 babd eea3 8abd
000000b0: 099a a0bd de81 f5ba afb5 0cbe 93ec 77be
000000c0: 6e80 c13c 3ece 343d 23a3 fdbe 7243 7bbe
000000d0: 526c 76be c88e 1cbe 077c d03e a9a3 823e
000000e0: 6098 26bd ffbe cf3e 1768 c43d 4879 ebbe
000000f0: abfc ffbe 9bfb 4cbe f06c f3be 1ca1 173d
00000100: 0e14 7c3e a2a1 66be 2697 1ebe 18fc b9bd
00000110: 608a 7abe 0dcd fc3d dc22 9bbe 130f 813c
00000120: fab5 8b3e 1035 643e 9d46 5abe 04fd debd
00000130: 53e4 76be 8713 9ebd 8134 6ebe 9db8 053f
00000140: be3a 0a3d 290f 4dbd 405c 833e 59af a8bd
00000150: 42c7 603e 2d64 813d 7865 8a3d c879 d4bd
00000160: 1d2b fe3e 2c05 15be 6a0e d1bd 18de a9bd
00000170: 6113 003b 6fa8 be3b c7fd c83c a4d4 fa3e
00000180: 098d 98be c4d3 7dbe 6023 3cbe 02d2 a5be
00000190: c69f fc3b 21c7 e33e 9612 31bd 28e4 57be
000001a0: f5d8 d8be 3f1f a53e 5562 20be 03fc d33b
000001b0: b120 0cbd 75b8 033e ad04 2a3e d1e3 3ebe
000001c0: 1150 593e d15f e6bb a768 85be 55e8 5d3e
000001d0: 9980 aabd fa39 c13e f2c6 4c3e 15db 82be
000001e0: 3833 8cbd 2547 5b3d c523 2dbd 0b81 98be
000001f0: dd59 e63b eac6 36be 85fe 9ebe 7a37 753d
00000200: 1d28 78be a5e2 a0bd f0e4 983e a62b ecbb
00000210: 5704 8cbe fec9 c7bd 37e2 27be d7eb 5cbe
00000220: 86ea ea3e 413f 25be 16d7 113f 6ad8 79be
00000230: 2fbe 1cbe 26c5 fe3c e8ef d7bd 147a 533e
00000240: fbba d13d 8ccc b1be 5660 743e 972f 0dbf
00000250: 97b2 c8bd 3bc8 97be 8d9a 44be c66a 0cbd
00000260: 22c1 73bc efcf 21be b1a4 bc3e 0ee6 4c3d
00000270: faba 0dbe 29a9 bdbc 57eb 59be 12c9 763e
00000280: 9bac c83d 12d4 cfbd c866 68be 971e 903e
00000290: 8947 223e efc5 b8bd f381 1bbd abe2 e2bd
000002a0: 9499 df3e 56e4 c1be 5765 a23e 398b 96bd
000002b0: 0af3 a2bd c70a 2dbe fe89 b8bd 7956 05be
000002c0: be20 26be cf6d f73c bd41 393e b6c7 523e
000002d0: eb5b 583e f125 1ebf 24fd 7c3e 853a 423e
000002e0: 793b a0bd dda1 253e a300 d4be e8d3 773d
000002f0: c784 65bc 067a b23d 1691 86bd 1d9a 743e
00000300: 1fe4 ff3e f475 b73e 36d9 d0be eea5 b4bd
00000310: 5b54 1abe 7fe6 4ebe 377a 4f3d ea9a ae3d
00000320: fe22 6dbe a389 7bbe 7b90 933e 30f1 b9bd
00000330: 69d1 f03d b143 8fbe 604c d73d 1787 263d
00000340: 6ec1 b4be 6373 133f 9dbb 0dbd 14c5 083e
00000350: fe07 a73d 3bc5 3bbd 71b0 c63d 88f2 50be
00000360: 6965 71be aedb 07be c2b0 203e 0152 dcbe
00000370: 2f0e 343d 7011 b9bd 7003 0e3e 388b cdbd
00000380: 42c4 d73e bd45 933e ccb5 83be 379d 623e
00000390: 878b 87be 4eb1 63be 02d1 efbc a88e 593e
000003a0: fd3c afbe c573 41be 626e 98be eeae a9bd
000003b0: f61f 203e 63d6 40bd 5ff1 123f 104e 273e
000003c0: b07f 623d 0de4 e0bd eda5 043e 3e39 17be
000003d0: d897 88be 9d7d 113e e235 aebe 31d5 9d3d
000003e0: b3e1 ae3d 1e3c 1f3e 537d 343e 4ae9 5e3e
000003f0: bc42 423c b317 873e e56a ad3c 60f4 d4be
-0.085851885 -0.29936257 0.22993237 -0.14183058 -0.15804234 -0.021505916 -0.26298165 -0.28070286
-0.30820382 -0.24311051 0.0066314363 -0.17292444 -0.13676597 -0.30920795 0.33852264 -0.13334298
0.21936923 -0.18208317 0.20302051 -0.07520367 -0.44433555 0.018913517 0.18126686 -0.082141496
-0.021650627 0.013325147 -0.10855985 0.2195115 0.14393415 0.2579532 0.04005045 -0.034282714
-0.35523006 -0.29407248 0.05280018 -0.15574265 -0.16590498 0.4138543 0.30792382 0.28090936
-0.0021280341 -0.18353431 -0.09128375 -0.06769548 -0.0784188 -0.001873072 -0.13741182 -0.2421134
0.02362081 0.044142 -0.49538526 -0.24537447 -0.24064758 -0.15288842 0.40719625 0.25515488
-0.04067266 0.40575406 0.09590166 -0.45990968 -0.49997458 -0.20017855 -0.4754405 0.03701888
0.24617025 -0.22522596 -0.15487346 -0.09081286 -0.24466848 0.12343798 -0.30300033 0.015754258
0.27287275 0.22285867 -0.21316 -0.10888103 -0.24110536 -0.07718568 -0.23262216 0.5223482
0.033747427 -0.050063286 0.2565632 -0.0823657 0.21951011 0.06317935 0.06757635 -0.103747904
0.49642268 -0.14552754 -0.102078274 -0.08294314 0.00195428 0.0058184187 0.024535073 0.48990357
-0.297951 -0.24787813 -0.1837287 -0.32386786 0.007709476 0.4448786 -0.043230616 -0.21083128
-0.42353025 0.322504 -0.1566251 0.006469251 -0.034210864 0.12863334 0.16603346 -0.18641593
0.21221949 -0.007030465 -0.26056406 0.21670659 -0.08325309 0.37739545 0.19997767 -0.2555777
-0.06845707 0.053534646 -0.04227044 -0.29785952 0.0070297555 -0.17849317 -0.31053558 0.05986736
-0.24234052 -0.07855729 0.29862165 -0.0072073517 -0.2734706 -0.09755324 -0.16394888 -0.21574341
0.45882052 -0.1613741 0.5696882 -0.24398962 -0.15306924 0.031099867 -0.10543805 0.20652038
0.10240742 -0.3472637 0.23864874 -0.5515074 -0.09799688 -0.2964495 -0.19199581 -0.034281515
-0.014877589 -0.15801977 0.368444 0.050024085 -0.13840857 -0.02315195 -0.21281181 0.2410014
0.09798547 -0.10147871 -0.22695458 0.28148338 0.15847601 -0.09022128 -0.037965726 -0.1107839
0.43671858 -0.3786952 0.3171794 -0.07350773 -0.07956512 -0.16898642 -0.09010695 -0.13021268
-0.16223428 0.030203728 0.18091483 0.20583996 0.21128814 -0.61776644 0.2470594 0.18967636
-0.078238435 0.16175027 -0.41406736 0.060504824 -0.014008707 0.087146804 -0.06570642 0.23886915
0.4997873 0.3583218 -0.4079072 -0.08820711 -0.15071242 -0.20205115 0.050653663 0.08525641
-0.2315788 -0.24564223 0.28821167 -0.09079206 0.11758692 -0.27981332 0.10512614 0.040656175
-0.35303825 0.5759794 -0.03460275 0.1335643 0.08155821 -0.04584239 0.09701622 -0.20405018
-0.23573841 -0.13267395 0.15692428 -0.43031314 0.04395884 -0.09036529 0.13868499 -0.100363195
0.4214192 0.28764144 -0.25724638 0.22130285 -0.26473638 -0.22235605 -0.029274467 0.21245825
-0.34226218 -0.18891819 -0.29771715 -0.08285318 0.15637192 -0.047079455 0.57399553 0.16338372
0.055297554 -0.10980997 0.1295392 -0.1476793 -0.26678348 0.14208074 -0.34025484 0.07706679
0.085391425 0.15550277 0.17625932 0.2176868 0.011856731 0.2638527 0.021169135 -0.41592693

network_body._body_endoder.seq_layers.0.bias f4 [128]
00000000: 897b 9fbc 2d15 043d 059e 7e3b 0adb 30bd
00000010: 384a c63b 97d0 c6bc fb9a d3bd 537a a8bc
00000020: 48e0 813d 1bb4 403c 0a6b 26bd 798f 17bd
00000030: c312 4f3d 3b76 dd3c 8871 c5bc dccf 913c
00000040: 858b 613c a438 f5bc c9d3 c23b d8f5 acbc
00000050: 03b1 1dbb 762d 393d 2711 653c 1496 463c
00000060: c007 1fbc 3bc5 e03d 154d 47bd 93c4 7e3d
00000070: 3485 493d 7272 943c b885 05bc cd23 4d3a
00000080: 23df 77bc 2c30 eebc aaba c83c 2d26 b2bd
00000090: 4987 e2bd 7206 e4bd 70e4 3abd 1c75 a63c
000000a0: eb38 593d b02b aebd fb55 f9bb a42c 11bd
000000b0: 5c74 fe3c 6e89 303c dc00 aebd d7f4 9ebb
000000c0: 4781 0a3d 63bf 06bd 0a44 9ebd a412 a9bd
000000d0: c075 a1bd 465f 0a3d 79b2 59bd bee3 75ba
000000e0: 7d87 4dbd 6563 233d 00c8 89bd ffba debd
000000f0: 856a 5f3d f48c 523d df92 34bd 1815 10bd
00000100: de94 bf3c bc31 88bd 994b 9abd 7ce4 b73d
00000110: cada 10bc 2e0c d73c 515c 54bd b2c1 d7bc
00000120: e3b5 083b 2318 0dbe 6dab 97bd 0c88 9d3d
00000130: f87b 73bd 6274 30bd 6e97 cf3c 3bb3 49bd
00000140: cd01 3e3d 8b2c b63c d1b2 ac3d 98e0 e1bc
00000150: ea73 66bd b905 cd3c cba0 863c 3c80 ee3c
00000160: a724 c2bd 3a1f 6bbd 988b 8cbd d1f5 d9bb
00000170: c07f bcbd cfe5 143d 720d 05be b5b6 33bd
00000180: 0535 2dbd 3d79 a83c 0243 973d dbad f3bc
00000190: 0749 4abd 17d6 05bc b436 e43c 25df cf3d
000001a0: 4892 3fbd b96e 733c e660 dbbd 816a 8bbd
000001b0: ced9 3dbd 6a8b 81bd 90e2 9e3c a1f8 b63b
000001c0: 9de8 363d b404 aa3d 9f42 ba3c fd9e 72bc
000001d0: 8c9f 433d 4937 043d 851f 4cbd 7270 e2bc
000001e0: b8d5 cc3c 1de9 13bc 94da 52bc 3c8f b43b
000001f0: 8af4 e8bb 62d4 203d fe59 0a3d b07d 38bd
-0.019468086 0.032246757 0.0038851511 -0.043177642 0.006051328 -0.024269385 -0.103322946 -0.020566141
0.063416064 0.0117616905 -0.040629424 -0.03700206 0.050555002 0.027033916 -0.024101987 0.01779931
0.013766174 -0.029934235 0.005945657 -0.021113321 -0.0024061806 0.04520937 0.01398114 0.012120742
-0.009706438 0.10975119 -0.048657496 0.062199187 0.049199298 0.018120978 -0.008149557 0.0007825464
-0.0151288835 -0.029075705 0.02450307 -0.08698688 -0.1106096 -0.11134042 -0.04562801 0.020319514
0.053032797 -0.085044265 -0.0076091266 -0.035442963 0.031061344 0.010774953 -0.08496258 -0.0048509645
0.033814695 -0.032897364 -0.07727821 -0.082555085 -0.07883787 0.033782266 -0.05314872 -0.00093799445
-0.05017804 0.039889712 -0.067276 -0.108755104 0.054544944 0.051403955 -0.04408538 -0.035176367
0.023386415 -0.06650111 -0.0753395 0.08979127 -0.008841226 0.026250925 -0.051845852 -0.026337478
0.0020860366 -0.13778739 -0.07405744 0.076919645 -0.059444398 -0.04307974 0.025340762 -0.049243193
0.046388436 0.022238037 0.08432544 -0.027572915 -0.056262888 0.025027143 0.016434094 0.029113881
-0.09479647 -0.057402827 -0.06862563 -0.006651618 -0.09204054 0.036351975 -0.1299341 -0.043875415
-0.04228689 0.020565623 0.073858276 -0.029745987 -0.04938605 -0.008168719 0.027858116 0.10149983
-0.046770364 0.014857941 -0.10711841 -0.068074234 -0.046350293 -0.06325419 0.019395143 0.005583838
0.04465543 0.08301678 0.022736846 -0.014808414 0.047759578 0.032279287 -0.049834747 -0.027641509
0.025004253 -0.0090277465 -0.012869496 0.005510239 -0.0071092295 0.039265044 0.03377723 -0.04504174

network_body._body_endoder.seq_layers.2.weight f4 [128, 128]
00000000: 9453 8f3c 1d94 c93d 2a0f 2f3d f46e 4c3d
00000010: aa86 e6bd c489 a43d 6439 4f3d 67bb 8bbc
00000020: 8ca8 b7bd cba9 0c3e 3bcf b63d 34dd 213d
00000030: 369d f53c 2ca3 023d 3058 7e3d 13fd 0cbe
00000040: 6ad3 94bc 0536 73bc d87c 96bd f687 c5bd
00000050: ecee ec3d 58e7 09be ab3a d3bd 9a20 b3bd
00000060: 4499 84bc 49b6 8fbd 3e97 963d 08e5 e0bc
00000070: eb7d 1d3d 3ddd a6bb eb46 91bc 6e24 a8bd
00000080: 1dd2 5d3c ac0a 0b3e 10a5 da3c 91a4 f2bc
00000090: 8551 233d 1654 0b3e df43 28bc bf56 703e
000000a0: bae8 f0bd 8486 15be 8eb0 3d3d 1ab5 02be
000000b0: 558b de3a 79f3 423d 650e 313c e64c a93d
000000c0: ec7b ac3d 0991 0e3e e789 5e3d 981e d9bd
000000d0: 1524 473d 6bec 283e f1df 9a3c a769 11be
000000e0: 39cb 37bd c7b6 443c bd5c 993d b14b ad3c
000000f0: dc1a 96bd 970f 4d3e 6971 a73e df32 0c3d
00000100: 1f4b d23d 0e08 00be ea49 44bd 7cfe cbbd
00000110: 3064 6e3e 506b 5f3d 1cd9 3bbc 24cc 82bd
00000120: 38e0 053e 1280 46be 1ab3 363d a0dd 15bd
00000130: 37bc 04bc d5da 143e 35ab b83d 62a0 033e
00000140: 37b5 0dbe 08fe 3fbe 7356 64be aacf 00be
00000150: d631 003e b6a1 b33c 0bfc 82be 3c79 c03d
00000160: f953 08bc 1be9 b4bb 1612 06be 2a40 13bd
00000170: 914a 113e 20f4 923d 96af fcbd 6d25 1e3e
00000180: 9b65 71bc 548a 3bbd 9e93 94be fc0e 6a3b
00000190: e1b9 eebd 7406 ef3c 4469 a53d 3d99 9bbc
000001a0: 797f 2abe 6736 9fbc ebac 9abe 2e58 733a
000001b0: 12cf 4e3d 6485 67bc 5fd4 31be 2c0d cebc
000001c0: a974 1e3d 5d94 f6bd 6a98 9ebc 7aa7 27bd
000001d0: a248 b43d 7c58 b4bd 516e 2dbc 0d83 2f3c
000001e0: 315f 153e 6fce 77bd 2736 7abd 3e7d 703c
000001f0: e041 7d3e 4855 23bd 61b9 693e 555b 963d
00000200: 50cc 423e 8943 cabd 545e ab3b e737 2fbd
00000210: 0e46 92bd ae35 a3bd d18a bd3d b43c c13d
00000220: 5791 0f3d 9394 bf3c 113b ddba b7f6 b0bb
00000230: 7e06 1e3e bddf b33c 5589 a3bd b142 3cbd
00000240: ed3a 3fbd 1f98 80be affb f4bd 217c 57bd
00000250: 1967 01be 362f 74bd 8463 443e 21be 89bc
00000260: 11b8 ebbd 902b 093a 4e55 483e 696e c5bd
00000270: 0668 0ebe 02f2 0c3d ccce e33b 73c8 77be
00000280: 172e c83c 761b d6bd 99d0 03be 6bce 383e
00000290: 8133 9fbd 0afc 27be 4de2 f33d b94c eebd
000002a0: 08b6 8f3e 3199 cebd 1423 883d 8c19 b7bd
000002b0: e9e3 613d c89e b53d 6933 4cbd f143 163d
000002c0: 9b98 59be 2ea8 66be bca6 3dbe bfd0 77bd
000002d0: 2c70 22bd d81b a9bc 24eb dbbd 572c 0ebd
000002e0: a760 1ebe 0520 d13d 09c4 49be 3879 593d
000002f0: 1b0c 453e 428f 2dbd 8187 a03d 812d 7abc
00000300: bc92 913c de0b ce3c ec51 223e 4eb8 9f3c
00000310: 68ea 923d 9c66 39bd a810 193d 9839 323d
00000320: 97d7 343e 0170 4b3d 3b14 673e 6006 103e
00000330: c3b5 94bd 617f b13d 3e94 d3bc 7017 aebd
00000340: 68b3 76bd 01f4 9cbb 36c2 fd3d 432d a53c
00000350: 52bd 583c 2332 c0bd b6a0 3e3e c4f9 86be
00000360: 81fe d5bc 3325 9f3d 04a0 c7bd 6687 73bd
00000370: 42b5 083d e47c 35be 3b1c db3d 3992 993d
00000380: 98be 1abd 5064 c43b d99c 4fbe 3dea b6bc
00000390: 9bd7 f7bd 1ddc d8bd 5178 803c b255 f6bd
000003a0: e04a 4f3c 313c 843c 234c 33bd 56fd 9f3c
000003b0: 1643 30bd 73bf 5dbd 1684 01bd f178 d0bd
000003c0: bee0 00be 2f89 48be 7736 0ebe 2625 ca3d
000003d0: 942c 0a3c 52c2 073e c5cf 823e dbf0 c3bd
000003e0: 99ee 9b3c 991f b03c c329 363d 704c 0f3d
000003f0: 442a 2abe 2fab 0dbc d810 5cbe 3547 62be
0.017495908 0.098427035 0.04273907 0.0499105 -0.11256154 0.08034089 0.05059184 -0.017057134
-0.08967695 0.13736646 0.08926245 0.039517596 0.02998219 0.031893894 0.06209582 -0.13768415
-0.018167216 -0.014844422 -0.07348031 -0.09645073 0.11569008 -0.13467157 -0.103139244 -0.08746453
-0.016186364 -0.0701719 0.07353066 -0.02745296 0.038450163 -0.0050922916 -0.017734012 -0.082100734
0.013538864 0.1357829 0.026690036 -0.029619487 0.039872665 0.13606295 -0.010270088 0.23470591
-0.11763139 -0.14602095 0.046310954 -0.12764397 0.001697878 0.047595475 0.010806655 0.0826662
0.08422074 0.13922514 0.054330733 -0.106015384 0.048618395 0.16496436 0.018905612 -0.1420046
-0.044871543 0.012006468 0.074883915 0.021154257 -0.07329342 0.20025478 0.32703713 0.034228202
0.102682345 -0.12503073 -0.047922052 -0.099606484 0.23280406 0.0545457 -0.011465337 -0.06386593
0.13073814 -0.19384792 0.0446044 -0.03658831 -0.008101515 0.14536603 0.0901703 0.1285415
-0.13838659 -0.18749249 -0.22298603 -0.12579218 0.12519011 0.021927696 -0.2558292 0.093981236
-0.008320802 -0.0055209524 -0.13092837 -0.035949863 0.14188601 0.071754694 -0.12338178 0.15443964
-0.014733697 -0.045786217 -0.29018873 0.0035714498 -0.11656547 0.029177882 0.080767184 -0.018993968
-0.1665019 -0.01943512 -0.3021005 0.0009282854 0.050490446 -0.014130924 -0.1736617 -0.025152765
0.038685475 -0.12040017 -0.019359786 -0.040931202 0.08802916 -0.088059396 -0.0105853835 0.010712397
0.14587094 -0.060499605 -0.0610868 0.014678298 0.2473216 -0.039876252 0.22824623 0.07341639
0.19023252 -0.098761626 0.0052297506 -0.042777922 -0.07142268 -0.07969223 0.09254993 0.09435406
0.035050716 0.023386275 -0.0016878565 -0.0054005045 0.15432164 0.021957273 -0.079851784 -0.04596204
-0.046687055 -0.2511606 -0.11962067 -0.052608613 -0.12636985 -0.059615336 0.19178587 -0.016814293
-0.11509717 0.00052326266 0.19563791 -0.096402 -0.1390687 0.034410484 0.0069521423 -0.24197559
0.02443604 -0.104544565 -0.12872542 0.18047492 -0.077734955 -0.16404739 0.11908398 -0.116357274
0.28068566 -0.10087813 0.066473156 -0.089404196 0.055148993 0.08868176 -0.049853716 0.036685888
-0.2124962 -0.22525093 -0.18520635 -0.06050181 -0.039657757 -0.02064316 -0.10738209 -0.034710255
-0.15466557 0.10211185 -0.19703688 0.05309412 0.19242899 -0.04237295 0.07838345 -0.015269638
0.017770164 0.025152143 0.15851563 0.019497063 0.07173616 -0.04526387 0.0373694 0.043511957
0.17660366 0.049667362 0.22566311 0.14064932 -0.07261231 0.08666874 -0.025827523 -0.08500564
-0.06022969 -0.0047898297 0.123905584 0.020163184 0.013228731 -0.09384563 0.18615994 -0.2636243
-0.026122333 0.07770767 -0.097473174 -0.059455298 0.033375986 -0.17723423 0.10698744 0.07498593
-0.03777942 0.0059934035 -0.20274676 -0.02232849 -0.1210167 -0.10588858 0.015682371 -0.12028064
0.012652129 0.016141983 -0.04377378 0.01952998 -0.043032728 -0.05413766 -0.031620108 -0.10179318
-0.12585732 -0.19583581 -0.13887964 0.09870367 0.00843348 0.13257721 0.2554914 -0.09567424
0.01903467 0.021499442 0.04447342 0.034985006 -0.16617686 -0.00864677 -0.214908 -0.22097476

network_body._body_endoder.seq_layers.2.bias f4 [128]
00000000: b84a 1f3c 2cb2 8ebc bceb 683d 6356 b1bc
00000010: 1afa 8fbc 1bf5 37bd 174c 22bd 3948 11bd
00000020: 08dc 3e3a b010 c3bc 7b53 3cbd 69ef 5dbd
00000030: ca19 6ebd 69fc 283c 0467 1bbd 0bea 0ebc
00000040: 5d90 a2bb b7e6 b6bc 89ec b3bd a767 b03b
00000050: 2202 543c 0a7e 933c bf2c 4ebd add1 64bb
00000060: 03f3 b8bc d80a e33a 18b6 a6bc ce45 ab3b
00000070: f209 3e3d 6858 9abb df0a 21bb 92c5 7f3c
00000080: 8214 dcba d44d 0c3d effa 09bd eeae 9bbc
00000090: 11c5 ba3c 6ed5 67bd e66e 8d3c ad34 2a3d
000000a0: 4af1 45bd c924 28bd c936 05bd 4a08 70bc
000000b0: dd38 48bd 8ee6 19bd d937 a9bc b086 44bd
000000c0: 99b1 0abd a0cd 77bd 6765 a2bc 2134 993b
000000d0: dbb1 4d3b 2d1d e23a 6c81 5a3c 4962 9fbd
000000e0: 5189 d5bc 2907 803c c96e c0bc 744d 9dbd
000000f0: a1fe 1dbd 0584 d2bc 0b68 ccbc a3c5 e8bc
00000100: a95a 81bd 0c1c 83bc 9383 82bd 3d4b 2a3d
00000110: 4314 b3bc 3f1c 6cbd 0c37 c43c 37e4 47bc
00000120: c97c 83bd 0511 3a3c 0c17 643d ae64 95bc
00000130: bb51 57bd 0324 6cbc fcdf b0bb b6cc e4bd
00000140: 30b8 2abc 8da9 84bd 57f2 22bd 9714 4dbd
00000150: 3a53 e0bc c177 72bc 6b42 e9bc 1c33 ccbc
00000160: 1775 65bc d487 26bd d3ef 88bd cfa3 34bd
00000170: 04fc bdbd 44e2 95bc 1d94 e33c b79b e33c
00000180: e084 ddbc 9118 b03d 5e38 3abd be5d 913c
00000190: 2446 39bd 3778 c93b ae80 77bd 99ab 5ebd
000001a0: befd eebc 48da 77bd 4708 df3c ecbe 1f3c
000001b0: d24d 20bd e3d4 2fbd 759b dfbc beb0 60bd
000001c0: fd6c 1ebc 56c7 fe3b fb9d 9ebc a04a a1bc
000001d0: a265 723b 078f 5cbd dbb4 41bd 1aba d53b
000001e0: 6eb5 82bc aecd 46bd de11 54bd b1ee 95bd
000001f0: 7c7e dcbc 3d7f 8b3c 3b5f 39bc b976 4cbd
0.009722404 -0.017418943 0.05686544 -0.021647638 -0.017575312 -0.044911485 -0.039623346 -0.035469268
0.0007280712 -0.023811668 -0.04597805 -0.054183397 -0.058130063 0.0103140855 -0.03794004 -0.008722792
-0.004961057 -0.02232681 -0.0878535 0.00538345 0.012939962 0.018004436 -0.050335642 -0.0034915016
-0.022576815 0.0017321957 -0.020350501 0.005226827 0.046396203 -0.004710246 -0.002457313 0.015611069
-0.001679078 0.03425391 -0.033686575 -0.019004311 0.022799047 -0.056600027 0.017264795 0.04155414
-0.048325814 -0.041050706 -0.03252295 -0.014650414 -0.048882354 -0.03757339 -0.020656513 -0.04798001
-0.033860777 -0.060498834 -0.019823743 0.0046754037 0.0031386528 0.0017251127 0.013336521 -0.07782418
-0.026066454 0.015628414 -0.023490326 -0.07680789 -0.03857291 -0.025697717 -0.024951955 -0.028414553
-0.0631612 -0.016004585 -0.06372752 0.04157566 -0.021860247 -0.057644125 0.02395203 -0.012200407
-0.06420285 0.011356597 0.05568604 -0.018236484 -0.05256818 -0.014412883 -0.005397795 -0.11171858
-0.01041989 -0.06477652 -0.039781895 -0.050068464 -0.027383436 -0.014799059 -0.028474053 -0.024926715
-0.014004967 -0.04065688 -0.06686368 -0.044101533 -0.09276584 -0.018296368 0.027780587 0.027784212
-0.027040899 0.08598436 -0.045463912 0.017744895 -0.045232907 0.006148364 -0.060425453 -0.054362867
-0.029173728 -0.060510904 0.027225627 0.009750109 -0.039136715 -0.042927634 -0.027295807 -0.054856054
-0.0096695395 0.0077752275 -0.01936244 -0.019688904 0.0036986847 -0.05384734 -0.047291618 0.006522429
-0.015955653 -0.048535995 -0.051774852 -0.073209174 -0.026915781 0.017028445 -0.011314209 -0.04991791

action_model._continuous_distribution.log_sigma f4 [1, 2]
00000000: 310e 8fbe e039 47bd
-0.27940515 -0.04863918

action_model._continuous_distribution.mu.weight f4 [2, 128]
00000000: 2d6a c53c 1fe3 8bbd e6df a0bd 99e6 2a3b
00000010: 2b51 e0bd ee89 2c3d 6561 8b3d 11c7 603d
00000020: b4d7 9b3d e67d a03d 6012 ce3c 898d 7abd
00000030: c636 9f3c ea95 a3bd 05a1 97bb ac84 bcbc
00000040: e4d3 02bd ae71 4cbb 6f52 13bd 0c0e 95bd
00000050: 7d72 8abd fba3 cfbc 77a4 29bc a272 57bd
00000060: 0206 9d3c 0b54 d53c 9eab 78bd 6c35 cdbd
00000070: 3d4b 11bd 6adc 10bd d65f f33d b0e7 ae3d
00000080: d593 8dbd 86b1 06be 33ba 95bd 0df1 d03d
00000090: 403d fb3c 888c e53c fff0 55bd 0d8e 863d
000000a0: b1b3 5abd 2589 8bbd 1022 a73d 8547 963c
000000b0: 1478 90bd 3e5b 753d 36a9 bcbc 1ab7 713d
000000c0: b484 a7bd 016f 2ebc 470a b73c 8963 59bd
000000d0: cd08 a6bc ac8c 253d 12d0 f63c 4499 94bc
000000e0: f453 72bd 2588 c2bb 66df 903d 42ae 853b
000000f0: c409 4b3d 11f8 09bd f74b 853d c368 57bb
00000100: 4e34 d3bc d181 e9bd 34c4 19bc 6e87 13bd
00000110: 3e5b 7e3d 6250 433c 2805 9cbc fc64 b83d
00000120: 4b25 20bd 9691 2ebd a088 8f3b 5906 23bd
00000130: 4310 993d 8222 65bd 4586 b5bd 5e67 49bd
00000140: e89d 873d 284d 0e3d 2534 793d 878e 1a3d
00000150: 35a3 d23d 90f8 1a3d cab4 6c3d 08d6 883d
00000160: 70ae 60bd c3aa 9dbd 5b5f 903d 7fc9 46bd
00000170: 998f a43b 65ef 023d 20b3 153e 2358 953d
00000180: 1176 04bd fd85 ca3d 3873 2dbc 8313 8c3d
00000190: 964e 1ebd af92 a43d 909c 6b3c e1ab 4a3c
000001a0: 1aa8 66bd 9604 263d f1e9 623d b6bb e1bb
000001b0: ce85 5a3d 3432 cabd 3e8c 5fbd 6167 04bc
000001c0: 238d b8bd 1d93 a3bd a8df c33c 4fe6 96bd
000001d0: 4444 9b3d fdf9 573d 032f de3c ab0a 333d
000001e0: 3bb5 f0bc c14e 08bd 3179 30bc 5324 efba
000001f0: 8b69 5dbd db78 16bc f9ee 30bd 43d2 8f3d
00000200: b535 6dba 604c 173d 5108 e83d c0b6 513d
00000210: 3aed dcbb 8f56 ef3d 3f6c bfbc adbb 8b3c
00000220: b7f9 15bd 76ae 843c 694f dc3d a331 b2bc
00000230: ff83 86bd cf4c b63c f75e 4bbd 5b96 553d
00000240: f77c a8bc 2aa9 cf3d d908 a1bc 5429 a53d
00000250: c033 0d3d 762e babd 5b64 473d b94f 00bd
00000260: 3288 283d a156 993d 0cdb 88bd d0d3 233d
00000270: f286 ba3d 0703 99bc f920 b63c bf4d a63b
00000280: fa71 7bbd 923b 503c abd6 98bd b322 0cbd
00000290: 5a21 0a3e 6c44 debc 0940 cfbd 05ce 393c
000002a0: cf4b 05bd c131 c43c 55e5 7ebc b4bf 193d
000002b0: ecf6 f0bc 9e90 9dbd b96e 8fbd b697 adbb
000002c0: 1ef9 28bd 69d9 39bd 834a 763d fe78 e0bd
000002d0: 8084 023d acd5 263d 9164 853d 247f 883d
000002e0: 085c 9abc a1d8 4f3d 5e43 f5bd 1b88 4ebd
000002f0: c3d8 693d f235 68bd 9fdb 1f3d ea3e 833b
00000300: f310 92bd f3e3 65bc 0206 8cbd aaa1 323e
00000310: 9465 d4ba b6ba 8bbd d90b 393d 33d2 c5bc
00000320: a2ad 893c 5823 4ebc b828 b93d a850 0abd
00000330: 62a3 473d 7b3f ae3d 2afd 21bd 9db1 f5bc
00000340: b524 8f3d 8755 0dbd 6e3d 05bb 84dd 693c
00000350: f012 f2bc 5118 9cbb ed4e 98bc 94c3 53bc
00000360: 56f5 5bbd 2b17 00be 4b64 173d f439 143b
00000370: 41b8 acb9 0790 09bd 8738 853c 6529 88bd
00000380: 5420 bdbc 7374 1abe 3833 3c3c 6bbf 373c
00000390: 5232 38bd f22c c4bc ec9c 763d 8227 c5bc
000003a0: 51f5 f4bb e261 5abd b695 653d df3e 973d
000003b0: 86e3 5c3d 4b2b 5bbc 9d9b 473c 0568 ccbd
000003c0: 8891 133c 7181 ff3d 7f0e 8f3c 9c38 67ba
000003d0: 7e13 e93c e30e c0ba ff3c 973c da80 933d
000003e0: 692e a73d 73bd a43d de8f 373d 33bd b4bd
000003f0: 6109 213d 176c 15bd 0799 1d3b 517f 423c
0.02409848 -0.06830429 -0.07855205 0.0026077388 -0.109529816 0.042123728 0.06805686 0.054877345
0.076095015 0.07836513 0.025155246 -0.061170135 0.019435298 -0.07987578 -0.0046273493 -0.023012482
-0.031940356 -0.0031195688 -0.035967287 -0.0727807 -0.06760118 -0.025346747 -0.010354153 -0.052599557
0.019167904 0.026041051 -0.060710542 -0.10019955 -0.035472143 -0.035366453 0.11883514 0.08540285
-0.06912962 -0.13153657 -0.07310905 0.10202227 0.030668855 0.028021112 -0.052231785 0.06570063
-0.053394023 -0.068132676 0.08160794 0.01834465 -0.07054153 0.05990147 -0.023029905 0.05901251
-0.08179608 -0.010646583 0.022343768 -0.05307344 -0.020267868 0.04041736 0.030128513 -0.018139489
-0.059162095 -0.00593664 0.0707386 0.004079611 0.04956986 -0.03368384 0.0650863 -0.003286884
-0.025781777 -0.11401714 -0.009385157 -0.036017828 0.062098734 0.01192102 -0.019045427 0.09003636
-0.039098065 -0.04261931 0.0043803006 -0.039800975 0.07473805 -0.055941112 -0.088635005 -0.049170844
0.06621915 0.03474155 0.060840745 0.03773358 0.102850355 0.037834704 0.0577896 0.06681448
-0.054853857 -0.07698586 0.070494376 -0.048532005 0.005022001 0.031966586 0.14619112 0.07292201
-0.03233916 0.098888375 -0.010586552 0.06839659 -0.038649164 0.0803579 0.014380589 0.012370081
-0.056312658 0.040531717 0.055398885 -0.006888832 0.053350262 -0.09872857 -0.054577105 -0.008081288
-0.09011295 -0.07987044 0.023910359 -0.07368147 0.0758138 0.05272864 0.027122026 0.043711346
-0.029383292 -0.03327823 -0.010771082 -0.0018245078 -0.05405573 -0.009184088 -0.043196652 0.07022526
-0.00090488355 0.03693807 0.11329711 0.051199675 -0.006742147 0.116864316 -0.023367045 0.017057264
-0.0366151 0.01619647 0.10757334 -0.021752184 -0.06568145 0.022253422 -0.049651112 0.052145343
-0.0205674 0.10139687 -0.01965754 0.08064523 0.03447318 -0.09090893 0.04867969 -0.03132603
0.04114551 0.07487226 -0.06682405 0.039996922 0.0910777 -0.018678201 0.02223252 0.005075186
-0.061387993 0.012709515 -0.0746282 -0.03421278 0.13489285 -0.027132235 -0.101196356 0.011340623
-0.032543 0.023949506 -0.015557607 0.037536338 -0.029414617 -0.07693599 -0.070035405 -0.0052976264
-0.0412532 -0.045373354 0.060129654 -0.109605774 0.031864643 0.040731117 0.06513322 0.06664875
-0.018842712 0.050743703 -0.1197574 -0.05042277 0.057091486 -0.05669207 0.039027806 0.0040053027
-0.07132139 -0.014031398 -0.068370834 0.17444482 -0.0016204589 -0.06822722 0.045177314 -0.024148082
0.016806427 -0.012581669 0.090409696 -0.033768326 0.0487398 0.08508202 -0.039548077 -0.02999192
0.06989423 -0.034505393 -0.0020330804 0.014274005 -0.029550046 -0.004763641 -0.018592322 -0.012925047
-0.053700767 -0.12508838 0.03696088 0.002261755 -0.00032943676 -0.03358462 0.016262306 -0.066485204
-0.023086704 -0.15083484 0.011486821 0.011215071 -0.044969864 -0.023947213 0.060208246 -0.02406669
-0.007475533 -0.053316005 0.05605098 0.073850386 0.05392792 -0.013377021 0.012183097 -0.09980778
0.009006865 0.12475861 0.017462967 -0.0008820386 0.028451677 -0.0014652874 0.018461702 0.07202311
0.08163149 0.08043947 0.044814937 -0.088251494 0.039315585 -0.036480036 0.002404751 0.011871175

action_model._continuous_distribution.mu.bias f4 [2]
00000000: 5664 503c cad8 8c3d
0.012719234 0.06877287
