Assets/Brains/Run-17.onnx (onnx, 27163 bytes, 9 tensors)

network_body.observation_encoder.processors.0.normalizer.running_mean f4 [17]
000000 c9 35 1a 41 cb 91 43 41 63 d0 85 41 f2 50 a4 41
       9.638131 12.223094 16.726751 20.539524
000010 81 45 ac 41 2c 94 a6 41 1e b7 9a 41 74 ee 87 41
       21.533937 20.82235 19.339413 16.991432
000020 3a bc 61 41 e5 51 1e 41 6b 0b e9 40 84 f2 01 41
       14.108454 9.894994 7.282644 8.121708
000030 dc 39 14 41 70 22 11 41 97 35 88 41 f2 2a c9 bd
       9.264126 9.070908 17.026167 -0.09822644
000040 cc 29 9b 3f
       1.212213

network_body._body_endoder.seq_layers.0.weight f4 [64, 17]
000000 c5 8e b6 bd 29 bb a9 3e c0 43 43 3e a2 e7 89 be
       -0.0891395 0.33150604 0.19068813 -0.26934534
000010 d9 9d 67 39 44 71 62 be 4e a1 1e be 0f 58 32 bd
       0.0002208868 -0.2211352 -0.1549122 -0.04354101
000020 43 1d 44 3e 87 6e f1 3d 88 51 72 be 60 18 2f be
       0.19151787 0.117886595 -0.23663914 -0.17099142
000030 62 35 34 be 41 f2 7e be d1 9d cd bb 69 a0 79 bd
       -0.17598489 -0.248971 -0.0062749167 -0.060943995
000040 ba dd d8 3e 5f be 6a be d9 68 0b 3e 77 cc 2d bd
       0.42356664 -0.22924183 0.13614215 -0.04243132
000050 f9 8b 90 bd 1e e2 46 3e 09 5d ec be a8 cf 91 3c
       -0.07057948 0.19422194 -0.4616473 0.017799214
000060 78 95 a3 be 67 f7 40 3d 29 57 d9 be 24 0c bf be
       -0.31949973 0.04711094 -0.4244931 -0.3731395
000070 cb f2 99 3e 5b fe 70 3e f2 44 aa bd d1 56 eb be
       0.3006805 0.23534529 -0.083139315 -0.45964673
000080 0d b5 25 be 54 38 38 bd 1f ca 5e 3e 90 74 d6 3e
       -0.16182347 -0.044975594 0.2175679 0.41885805
000090 a5 41 8c bd bc fc 95 3d 12 b0 7b be ff f9 d4 be
       -0.06848458 0.07323596 -0.24578884 -0.41596982
0000a0 f5 f1 14 be 1d bd ce be 33 04 f3 3d f3 b7 ec 3c
       -0.14545424 -0.40378657 0.11866035 0.028896308
0000b0 f6 7e 43 3e 36 d4 9b be 51 4a 6f be ee 26 04 3f
       0.190914 -0.30435342 -0.23368193 0.516219
0000c0 64 3d be be dd 1c fc be a9 0c 93 3e 1e 4e ef bd
       -0.37156212 -0.4924077 0.28720596 -0.116848215
0000d0 6c 1d 5a 3e 70 60 b5 3e df d9 16 be 53 01 8b be
       0.21300286 0.35425138 -0.14731549 -0.27149448
0000e0 82 4e 4c 3e 46 22 4c bf ca fe 0d bf 59 64 06 bc
       0.19951823 -0.797398 -0.554669 -0.008202636
0000f0 9c 5d 31 be 4d 9d 6c 3c e2 dd 9e 3c 1b dc a6 bc
       -0.17320865 0.0144418 0.019392911 -0.020368626
000100 ce 57 8b 3e 80 46 07 be cf 36 17 be 0e 2e b8 3e
       0.27215427 -0.13210487 -0.14767002 0.35972637
000110 19 a6 6a 3e e8 40 4c 3e 06 d1 af be 4e ea 73 3e
       0.22914924 0.19946635 -0.3433916 0.23819849
000120 c2 00 84 be 71 13 43 be 45 50 03 3e 2d 09 bc be
       -0.25781828 -0.19050385 0.12823589 -0.3672575
000130 0f 6f b8 3d 21 11 99 3d c4 f3 56 3e 21 41 1b 3d
       0.09005558 0.0747397 0.20991427 0.03790391
000140 e3 dc 05 3e 4e 47 e7 be e4 69 e1 bd ad e5 b9 3e
       0.13072543 -0.4517159 -0.11006525 0.3630804
000150 65 09 92 bc cb 83 32 3e 1a 51 3c be 45 c7 fd bd
       -0.017826745 0.17433088 -0.18390313 -0.12391523
000160 2a 63 05 bf 22 6a ee 3b 1d 5f cc 3d 65 72 c3 3e
       -0.5210444 0.0072758356 0.09979079 0.38173214
000170 54 51 4c 3d e2 d6 dd 3e bb 69 34 be 78 ec 01 3f
       0.049882248 0.43328005 -0.17618458 0.5075145
000180 d3 7c 2c be 0a 93 90 3e 67 36 2d 3d 2a e2 2d be
       -0.16844492 0.28237182 0.04228821 -0.16980806
000190 0e 82 2b be 2f 4b d6 bc a8 8e 9c bd 05 34 3d be
       -0.1674883 -0.026158897 -0.07644397 -0.18476875
0001a0 dd 42 ac 3d 7c c4 08 bc f9 d4 92 bd 9b 9e 1f 3d
       0.08411191 -0.008347627 -0.071695276 0.038969617
0001b0 d5 62 16 bf 66 d8 b8 3e fb ef 84 3e be 2b 12 be
       -0.58744556 0.361026 0.2596434 -0.14274499
0001c0 ad 65 0e 3a 93 e3 ed 3d 48 d4 a3 be aa cc 09 bd
       0.0005432021 0.11615672 -0.31997895 -0.03364245
0001d0 13 c3 5d 3e 38 e3 a3 be 45 32 b3 bd eb f3 96 3e
       0.21656446 -0.32009292 -0.087498225 0.2948297
0001e0 3c d6 ef 3d b4 0b a2 3e 76 7c 71 3e 75 d9 9e be
       0.11710784 0.31649554 0.23582634 -0.31025282
0001f0 ed 27 bf be 95 b4 09 be fd 29 c9 3e 99 ae 64 bd
       -0.37335148 -0.13447793 0.39289847 -0.05583057
000200 45 e2 8a 3d 47 10 09 3d ef d1 02 3e 70 6b 08 be
       0.06781439 0.03346279 0.12775396 -0.13322234
000210 72 49 e5 3d 5e d2 71 3c b5 1b 2b bd 44 7a 9c 3e
       0.11195649 0.014759628 -0.04177447 0.3056203
000220 06 8c 05 bf 17 18 11 bd a9 8c 0a bb d6 28 97 bd
       -0.52166784 -0.035423364 -0.002114097 -0.07380836
000230 65 a4 06 bf 49 c0 a9 be 24 af 18 be 91 33 07 be
       -0.52594596 -0.33154514 -0.14910561 -0.13203265
000240 87 e5 ca 3e de ea d6 3d df 12 8b 3e 69 1d 7a be
       0.3962824 0.10494016 0.27162835 -0.24425282
000250 c3 d0 75 be d4 71 dc 3b a7 fa 85 3d cc 6a c8 bd
       -0.24005418 0.0067274366 0.06541949 -0.09785995
000260 d6 3a a7 3e be fb f4 3c b1 78 d8 3d 2b 11 20 bd
       0.32662076 0.029905196 0.10569895 -0.039078873
000270 c0 df dd 3d 65 4d 89 bd 60 e5 6a 3e 81 b6 a4 3e
       0.108336926 -0.06704215 0.22939062 0.3217049
000280 de 76 ab 3e 06 59 b4 be d1 b3 bb 3e 20 2b 04 3c
       0.33489126 -0.3522417 0.36660627 0.008066922
000290 04 67 b4 3e e6 98 ab bd b0 02 97 be 35 a6 ac be
       0.35234845 -0.083787724 -0.29494238 -0.33720556
0002a0 41 42 c4 3d 7f 39 eb 3d c1 f3 27 3e ba 79 f4 bd
       0.095829494 0.11485576 0.16401578 -0.1193728
0002b0 ee 58 00 3c 62 c8 14 3e 9a f7 34 3e 8e c9 38 be
       0.0078337025 0.14529565 0.17672578 -0.18045637
0002c0 7c 50 f4 3e 4d 26 e8 3e 11 2f b6 3e e5 58 21 3e
       0.47717655 0.4534172 0.35582784 0.15756567
0002d0 09 1e 8a 3e c4 77 8a 3d 08 0e 38 3c 4f f6 ad be
       0.2697604 0.06761125 0.011233814 -0.3397698
0002e0 11 db a4 be bd 93 2a 3e 69 9b bd bd 9d dd 8d be
       -0.32198384 0.1665792 -0.09258158 -0.2770814
0002f0 c3 0a b9 3e 70 61 ac bd ad ad 88 be 90 85 02 be
       0.36141023 -0.08417022 -0.26695004 -0.12746263
000300 d9 48 b4 bd d9 91 b0 3d e4 af b8 3e 9a d8 30 be
       -0.08802957 0.08621568 0.36071694 -0.17270127
000310 de 0f f5 bd d6 58 87 3e af b2 a9 3e 07 89 1f 3e
       -0.11965917 0.26434964 0.33144137 0.15579616
000320 b6 7a 14 3f ea 95 7c bd 96 a3 81 3e ef b7 20 3d
       0.5799974 -0.061666407 0.2532012 0.039237913
000330 1b 65 29 be d5 ab a5 be c2 6c 42 3f e8 37 a4 3e
       -0.16542475 -0.3235766 0.759472 0.32073903
000340 0f 6c 1c 3e bd 30 c8 3e 85 90 2d bd 71 e8 3a 3d
       0.15275596 0.39099684 -0.042374153 0.04563183
000350 2b ed 3f 3e 88 b2 b3 bd 4f 58 80 3a a8 30 b2 bc
       0.18742816 -0.087742865 0.0009791943 -0.021751717
000360 3e 94 81 3e 18 0a 29 be 5e c1 7c 3d 23 15 c5 3e
       0.25308412 -0.16507757 0.061707847 0.3849269
000370 9c 1e de 3e 57 b2 1f be 8a 66 13 be d1 84 9b be
       0.43382728 -0.15595375 -0.14394584 -0.30374768
000380 89 a2 6a bc 91 62 13 3e 54 51 91 3e 03 9a ed bd
       -0.014320978 0.14393069 0.2838236 -0.11601641
000390 2e 3d 88 3d fb 97 68 3e 9f 3d 9f bd 55 74 2a 3d
       0.06652294 0.22714226 -0.07775425 0.04161485
0003a0 0b 75 18 bd 20 c4 8d bd dc 17 80 3e 05 2d d8 be
       -0.037220996 -0.069221735 0.25018203 -0.42221847
0003b0 4f 57 b5 3e e3 b0 15 3e f4 7e 60 be c1 b2 a2 be
       0.35418174 0.14618258 -0.21923429 -0.31777003
0003c0 c6 50 a0 bd 5f 71 95 be 69 21 47 be a4 6d fe 3e
       -0.07827906 -0.29188058 -0.19446339 0.49693024
0003d0 24 9b f5 3e 87 2b 0c 3f 2f 34 81 3e 24 1c d2 3e
       0.47969925 0.5475392 0.25235125 0.41037095
0003e0 a6 e7 31 3e 1e eb 07 3d 2a 9b 19 3f 23 7d 82 3e
       0.17373523 0.03318321 0.60002387 0.25486097
0003f0 fa 3f 85 3e d1 e2 27 be 34 a7 c5 bd 24 03 b1 bd
       0.26025373 -0.16395117 -0.09651032 -0.08643177

network_body._body_endoder.seq_layers.0.bias f4 [64]
000000 54 0f 43 3c e9 4e 23 39 ff 62 97 3d 3d 69 b3 3d
       0.01190551 0.00015574288 0.07391929 0.08760307
000010 70 d1 c0 3d 8d ab 52 3d 35 7c a9 3d 22 35 56 3d
       0.09414947 0.051433135 0.08275644 0.052296765
000020 1c 68 b3 bc a8 6a 0d 3c ad 76 92 3c bd 11 bd 3d
       -0.02190023 0.008631386 0.017878855 0.09231899
000030 15 07 fb 3d 0e d6 b9 3c 79 f7 1a 3c d7 1f 98 3d
       0.1225721 0.022685077 0.009458416 0.07427948
000040 83 8b c3 3c 09 60 e6 3d 0d 32 b6 3d 84 b5 88 3d
       0.023870235 0.11248786 0.08896265 0.06675246
000050 c7 05 c5 3d 83 01 ed 3d 48 2f 81 bc 63 9e 18 bd
       0.096202426 0.11572554 -0.015769616 -0.037260424
000060 18 2d dc 3d ce f3 b1 3d f1 b5 68 bd 72 fd 64 3d
       0.107507885 0.0868908 -0.056814138 0.055905767
000070 71 d8 65 3d d0 7d f5 3c 04 fb 46 bd 43 74 6f 3d
       0.056114618 0.029967219 -0.04857923 0.058460485
000080 1a 21 85 3d 68 8c bf 3d ba 59 b5 3c c4 ee 9f 3c
       0.06500454 0.09352952 0.022137512 0.019523032
000090 d8 99 9f 3d b4 89 a2 3d fd ae 9b 3d c5 1e f0 3d
       0.07793015 0.07936421 0.07601736 0.11724619
0000a0 6b 41 a0 bd 81 7c 0a 3e a2 a1 52 3d 40 ae 18 bd
       -0.078249775 0.13524057 0.051423676 -0.037275553
0000b0 98 18 04 bb 38 8c d0 3d a4 bf 87 3d 8b 8a 08 3e
       -0.002015626 0.101829946 0.066283494 0.133341
0000c0 c1 46 84 3d e0 7d 62 3d 3d 81 ac 3d bb 01 52 bd
       0.06458808 0.055295825 0.08423088 -0.05127118
0000d0 56 f4 02 3e 4b a8 a1 3c 5d 71 ad 3d fb 03 52 bc
       0.1278852 0.019733569 0.08468888 -0.012818332
0000e0 bc d4 ac 3d d1 37 a4 3d 93 f2 b2 3d 0a 49 fe 3d
       0.08439013 0.08018459 0.087376736 0.12416275
0000f0 2d c9 f8 3d 99 4d f2 3d d2 e6 d4 3d 53 d3 34 3c
       0.12147746 0.11831207 0.10395588 0.011036712

network_body._body_endoder.seq_layers.2.weight f4 [64, 64]
000000 1b 5f d2 3c 65 80 8c 3d 49 8a 8c bd 07 45 ff bd
       0.025680115 0.06860427 -0.06862313 -0.12464338
000010 c9 e9 36 bd 2b 4b 3c 3d 2c c1 1d 3e 07 1d a8 3e
       -0.04465655 0.045970123 0.1540572 0.32834646
000020 5e 05 22 be 7a 13 fd bb 65 03 5d 3e cb 5a 27 3e
       -0.1582236 -0.007723269 0.21583326 0.16343229
000030 d4 42 4e bd 09 1c 5d 3e 1b d0 06 3e 63 96 96 bd
       -0.0503567 0.21592726 0.13165323 -0.07352903
000040 5e a3 4a 3d a3 79 10 3e 4e 3a 92 3e 2f 4f b1 3d
       0.049472205 0.141089 0.28560108 0.08657681
000050 3d 1b 98 bb b5 a5 13 be cf 0c 99 bd ef 63 0b be
       -0.004641919 -0.14418681 -0.07473146 -0.1361234
000060 64 91 09 3e d2 0e 3d be 5c 58 39 be 60 10 98 be
       0.13434368 -0.18462685 -0.18100113 -0.29699993
000070 71 b2 5d be a9 16 34 3e f8 5a ff 3d 68 2d 42 bd
       -0.21650101 0.17586769 0.12468523 -0.047406584
000080 98 83 3a bd 56 f2 c3 3d e5 26 3b 3e 59 c8 74 3c
       -0.045535654 0.09567706 0.18276556 0.014940345
000090 bb 16 11 3d 00 6a 3c 3e a3 c1 11 3e c4 c0 cd 3d
       0.035422068 0.18399811 0.14234023 0.10046533
0000a0 81 f4 f5 3d f7 68 1e 3e 7a d7 96 be 54 6e fa 3d
       0.12009526 0.15469728 -0.2946127 0.12228075
0000b0 d0 02 93 3d cf 71 d7 3d 2e a2 9b bd 5e ed 32 3e
       0.07178271 0.10519754 -0.07599293 0.17473361
0000c0 d5 56 6f 3e b1 1c bd 39 4d a0 d8 3d 85 86 e8 bd
       0.23372968 0.00036070266 0.1057745 -0.113537826
0000d0 34 6d fa bd 4c db 3e 3e eb b8 06 3d 3c c9 bd bd
       -0.1222786 0.18638343 0.032891195 -0.09266898
0000e0 e9 d4 1b bb 46 a4 13 3e c5 31 04 be 0b 42 3b 3d
       -0.0023778027 0.14418134 -0.1290961 0.04571728
0000f0 06 0c 70 bd 77 3e 5d 3d 30 ab 74 3e 2e 7b 29 be
       -0.058605216 0.05401465 0.23893428 -0.16550896
000100 30 38 8a 3d ab f3 0d bd 69 57 11 3d 16 1d 61 be
       0.06748998 -0.034656208 0.03548375 -0.21983752
000110 0d 6b 25 3e 98 1e af bc 22 ff 15 3e 40 8a 84 bd
       0.16154118 -0.021376893 0.14648107 -0.064716816
000120 19 70 93 bd 8d 81 0e be f6 04 ba 3d 7d ba 45 bb
       -0.07199115 -0.13916607 0.090829775 -0.003017097
000130 e1 93 f2 bb 34 0e 44 3e af 34 7b 3e a3 71 22 3e
       -0.0074028824 0.19146043 0.24531816 0.15863661
000140 e6 96 db bd 67 a3 46 3d a3 51 16 be 8d 4a fd 3c
       -0.10722141 0.048495676 -0.1467958 0.030919338
000150 1d da 23 be e3 91 c7 3d 92 1d 5c 3e 7d be 8e be
       -0.16001172 0.097446226 0.21495655 -0.27879706
000160 60 89 4b bd 22 95 9b bd b4 a7 54 3e cd ac 24 bd
       -0.049691558 -0.07596804 0.20767099 -0.04020386
000170 ab f9 5d 3d 9d 51 46 be e3 83 0d 3e 3c 37 94 3d
       0.05419318 -0.1936707 0.13819842 0.072370976
000180 02 52 e6 3c 5d 68 f3 bd 05 03 0a 3e 28 ab 20 3e
       0.028115276 -0.1188514 0.13477714 0.15690291
000190 a9 ef 36 be 1f b5 ab bd bf 3e 9c bd c4 51 0c 3d
       -0.1786486 -0.083841555 -0.07629155 0.034257665
0001a0 38 06 11 3e ca 67 96 bd d2 01 0f be ed 81 2c bd
       0.14162529 -0.07344015 -0.13965538 -0.042116094
0001b0 60 d6 c2 3d 08 9a c1 3c 4f ad 38 3e cc 7f 8d bc
       0.09513545 0.023633018 0.18034862 -0.017272852
0001c0 2d d2 23 be ea 23 63 3b cf 75 4c 3c a2 9b 39 3e
       -0.15998144 0.0034658858 0.01247926 0.18125775
0001d0 b9 60 8c 3c b8 31 01 be e8 6d aa bd 86 d8 81 3d
       0.017135965 -0.12616622 -0.08321744 0.06340127
0001e0 63 8e cb bc d0 d1 eb bd 71 76 d4 3c f3 c7 d8 3d
       -0.024848169 -0.11514628 0.025935384 0.10585012
0001f0 c1 4b d1 3d 52 09 03 3d 78 db 7c 3d b4 c8 c8 be
       0.10219527 0.03199131 0.06173274 -0.39215624
000200 92 be c7 bc 0b 55 82 3e c9 e0 6f bc ad 88 b3 3d
       -0.024382863 0.25455508 -0.014640995 0.08766303
000210 24 bb 20 3e d7 b6 0b 3c e9 3a f4 bc ae cf d2 3c
       0.15696388 0.008527479 -0.029813247 0.025733795
000220 06 73 1d 3d 4d 89 88 be ce 8d 07 be a4 ce 98 bd
       0.038439773 -0.26667252 -0.13237688 -0.074612886
000230 ab 24 63 bd 72 b5 2c 3e 47 38 e7 3d 77 87 32 be
       -0.05545489 0.16866091 0.11290031 -0.17434488
000240 cd 90 09 be bb b2 60 bd 09 2b 27 be 76 91 bd bd
       -0.13434143 -0.05485795 -0.1632501 -0.0925626
000250 c8 4f 69 be 89 b1 5a bd cc ce 48 be 19 ea 59 3c
       -0.2278434 -0.053391967 -0.19610137 0.013300442
000260 21 e8 13 be 5b 49 d4 bc 36 f5 27 bc 07 6a 14 bd
       -0.14444019 -0.025913885 -0.010251334 -0.036233928
000270 85 7e 1f 3d 3a 6a 0b be f3 aa 1c 3d 19 c1 58 3d
       0.038939018 -0.13614741 0.038248967 0.052918527
000280 6a 50 b4 3d 08 e6 f0 3d 17 23 78 3e 3f b6 f0 bd
       0.088044 0.11762625 0.24232136 -0.11753511
000290 85 99 08 3e 2c e5 5d 3c 88 6b 6e 3d 1e d1 18 be
       0.13339813 0.013543408 0.05820802 -0.14923522
0002a0 93 07 35 3d 36 cb 92 be dc a3 f8 3d 85 ff 0f be
       0.044196676 -0.28670663 0.12140629 -0.14062317
0002b0 91 13 28 3e f9 0a 81 3e 42 f9 ec bc d7 17 9d bd
       0.16413714 0.25203684 -0.02892745 -0.07670563
0002c0 e1 2f 63 3c fd 40 2f bd f2 70 3c be 54 36 37 be
       0.013866396 -0.042786587 -0.1840246 -0.17891818
0002d0 67 d9 45 be 97 71 06 be ed bf 14 3d 53 81 9e bd
       -0.19321214 -0.13129269 0.036315847 -0.077395104
0002e0 2b 47 15 3d bc c0 20 3e e3 30 96 3c 01 da 8a bd
       0.036444824 0.15698522 0.018333858 -0.06779862
0002f0 6b e7 28 be a3 fc a2 3d e4 a8 80 3d bf 7c 89 3d
       -0.16494529 0.07958343 0.06282213 0.067132466
000300 6b 86 ce 3d cc b5 c7 3d 78 58 2a 3d e3 50 db 3c
       0.10084232 0.09751472 0.041588277 0.026771968
000310 8d a7 13 be c3 d0 e0 bc 46 ac 0c bd 59 2d ba bd
       -0.14419384 -0.027443295 -0.03434398 -0.09090681
000320 03 16 1f 3b d0 90 25 3c d7 f0 eb bc db 0d c3 3d
       0.0024274595 0.010105327 -0.028801365 0.09524127
000330 b7 16 fa bd a4 4d a9 bd c8 99 ed bd ac 06 21 be
       -0.12211364 -0.08266762 -0.11601597 -0.15725201
000340 de 05 ae bc 3e 7b 72 3e 0e 24 89 bc 2c 6c 57 bd
       -0.021243032 0.23679826 -0.016740825 -0.052593395
000350 fa 3d 21 be 00 a6 d8 bd 28 59 8b be 66 3c ab 3d
       -0.15746298 -0.10578537 -0.27216458 0.083611295
000360 d8 bd 66 be 84 80 cb bd 68 92 f2 3c 8e 35 69 be
       -0.22533357 -0.09936622 0.029610828 -0.22774336
000370 15 ae 02 3e 81 03 dd 3e 20 1a c2 bd 74 bc f7 bd
       0.1276172 0.43166736 -0.09477639 -0.120964915
000380 c7 a2 4f 3d 43 2b 98 bc 30 94 94 3d 7b b8 7d 3e
       0.050692346 -0.018575316 0.07254827 0.24777405
000390 03 25 4e 3e 2e 93 21 3e a8 3b b9 bd ec 36 81 3c
       0.20131306 0.15778801 -0.09044582 0.01577326
0003a0 d8 cd dd 3d 7b 23 82 bd be f1 b9 3d 5e be b2 3d
       0.10830277 -0.063544236 0.09079312 0.08727716
0003b0 28 4e c1 3d 46 a0 32 be 40 50 f1 3c da a2 1e bd
       0.09438735 -0.17443952 0.029457211 -0.038729526
0003c0 41 a5 03 be 6d b5 a2 be f3 02 01 be 85 7d 35 3e
       -0.12856008 -0.31779042 -0.12598781 0.17723663
0003d0 2c 11 7d 3d 96 a7 75 3d 44 59 22 be c9 fa 65 be
       0.061783955 0.059974276 -0.15854365 -0.22458948
0003e0 93 d7 01 3e d5 ba 24 be 88 ee 44 bd 7b 76 7b bc
       0.12679891 -0.16086896 -0.048079044 -0.015348072
0003f0 f8 87 24 be 54 d2 a0 3c 25 6a 30 be 0c 3c 92 3d
       -0.16067493 0.019631542 -0.17227991 0.07140359

network_body._body_endoder.seq_layers.2.bias f4 [64]
000000 d2 0f ac 3d fb 13 b2 3c 83 3f 43 bc a4 2c 56 bd
       0.08401455 0.021738043 -0.011916998 -0.052288666
000010 01 79 4a 3c aa 31 8e bc b8 e2 1c 3d 66 77 d4 bc
       0.012357951 -0.017357666 0.038302153 -0.02593584
000020 fa 88 94 3d 01 a9 1a 3d a9 ee 49 bd e9 18 40 3d
       0.07252689 0.03775883 -0.04929987 0.046898756
000030 b0 45 d8 3d 44 c3 a8 3d 2b c8 53 3d 0e 33 7e 3c
       0.10560167 0.08240369 0.051704567 0.015515102
000040 18 0e ee bc d6 20 a3 3d d8 54 07 3d 7b 3d a5 3d
       -0.029059455 0.07965247 0.033039898 0.08068367
000050 16 07 be 3d a1 3a 44 3d f0 ee 5c bc 9f 65 dd bc
       0.09278695 0.047907475 -0.0134847015 -0.027025996
000060 02 0b be bc fb f2 d1 3d 44 04 96 3d f4 f3 09 bd
       -0.023198608 0.10251423 0.07325032 -0.033679917
000070 d9 d3 b6 bb 0c b0 93 3d e0 f6 e5 bb 1c 9f 85 3d
       -0.0055794534 0.07211313 -0.007017955 0.06524488
000080 e8 bb bc 3d 53 e4 3f bc 38 eb d1 3d 28 f8 d3 bc
       0.09215528 -0.011712152 0.102499425 -0.025875166
000090 17 3f b5 3d 80 c3 ea 3b 8a fd c2 3d d1 65 a4 3d
       0.08849924 0.0071644187 0.09521015 0.080272324
0000a0 0a 4e b4 3d a7 59 99 3d 1b 5a c9 3d ff dc 9e 3d
       0.08803947 0.07487803 0.098316394 0.077569954
0000b0 dc 88 bd 3d 77 65 b5 3d 09 1b ab 3d e3 d8 c3 3d
       0.092546195 0.088572435 0.08354766 0.09562852
0000c0 a9 6f ae bc d6 a3 24 bd 7b e0 da bb c7 89 f5 bc
       -0.021293478 -0.04019531 -0.006679592 -0.029972924
0000d0 0c ee a3 bb 1b c0 88 3d 39 24 ad 3b a3 e9 a7 3d
       -0.0050027426 0.06677266 0.005283859 0.081988595
0000e0 92 22 89 3d e8 00 03 bd 9d f3 cc 3d 70 22 44 3d
       0.06696047 -0.031983286 0.10007403 0.047884405
0000f0 7f 0f 80 3b 56 a9 ae 3d af 81 c2 3d 3e 00 31 3d
       0.0039080973 0.08528392 0.094973914 0.04321312

action_model._continuous_distribution.log_sigma f4 [1, 2]
000000 dd aa 09 be 8d cf f0 bd
       -0.13444085 -0.11758337

action_model._continuous_distribution.mu.weight f4 [2, 64]
000000 6d 61 a8 3c 92 b8 85 bd e4 62 05 3c 7f 32 15 bd
       0.020554269 -0.065293446 0.008141253 -0.03642511
000010 50 7e 28 be 39 cc 85 3d dc f9 b5 3d e6 c7 8d bd
       -0.16454434 0.06533093 0.088855475 -0.06922893
000020 c1 6d de 3c ff 0c 85 3d 96 2b 9c bd 96 49 c3 3d
       0.027151944 0.064966194 -0.07625501 0.0953552
000030 c5 9e b9 bd 7a 2f ea 3d 72 bc fc bc 58 1d 8a bd
       -0.09063486 0.11434837 -0.030851576 -0.06743878
000040 3b 7d 96 bd dd 5f 35 3d 9a 70 e8 bd 72 81 aa 3d
       -0.073481046 0.044280875 -0.11349602 0.08325471
000050 9a 5c 33 3c 47 23 c4 3d 62 cd 0a be e7 92 59 bd
       0.010947371 0.09577041 -0.1355491 -0.053118613
000060 a7 bb f6 bd c3 e1 4d 3c 8b 54 d4 3d 09 82 ae bd
       -0.120475106 0.012566033 0.10367688 -0.08520896
000070 3a 0d ae 3c ce 11 42 3d ca 24 d1 bd 13 d5 79 3d
       0.021246541 0.04738026 -0.10212095 0.06099422
000080 bc c2 c1 3b dc ea 9a bd bc e2 07 3d 83 22 b5 bd
       0.0059131067 -0.07564327 0.033175215 -0.08844473
000090 95 25 d2 3d 70 94 e9 bd 8f 10 5d bb 15 b1 60 3d
       0.102610745 -0.11405265 -0.0033731794 0.05485638
0000a0 bf d8 03 3e ad 2c 8b 3d 9b b3 91 3d a9 5a a3 3d
       0.12875651 0.067956306 0.07114335 0.079762764
0000b0 ea 74 19 3e a5 b1 b1 3d 7c c1 db bc fb 4c 6d 3d
       0.14986005 0.08676461 -0.026825659 0.057934742
0000c0 33 d0 45 bd 9c 1e b0 bd 68 01 90 bd 9a a3 c5 bd
       -0.048294257 -0.08599588 -0.07031518 -0.09650345
0000d0 be 78 2e bd c9 4b d8 3d 9a 03 05 be 57 88 70 3d
       -0.042595617 0.1056133 -0.12989655 0.058723774
0000e0 4e 61 96 3d 25 af 90 bd be 12 5f 3d 5c bc e7 bd
       0.07342778 -0.07064656 0.054461233 -0.113152236
0000f0 e8 02 ee bd 97 5a 85 3d fe c4 c8 3d 32 8a d9 3d
       -0.11621648 0.06511419 0.09803198 0.10622062
000100 62 9c 92 3d 3f cb 49 3d 1e 7a bb bd 85 bd 87 bd
       0.07158734 0.049266096 -0.091541514 -0.06627945
000110 bf bb da bc 56 fb b1 bc 22 56 10 bd ed 65 10 bd
       -0.026700852 -0.021726292 -0.035238393 -0.035253454
000120 bf bf 17 3d ad 46 8d bd 07 e3 6d bd 21 0c 8f bc
       0.037048098 -0.06898246 -0.05807784 -0.017461838
000130 5f 52 0f 3e 38 9f 61 3d 80 d4 aa 3d 88 30 df 3b
       0.13996266 0.055083483 0.083413124 0.0068112053
000140 ce fc 2a bd 3a b0 ad 3d 6f 86 3e 3d bf 83 f3 3b
       -0.041745 0.08480878 0.046514925 0.007431477
000150 78 72 88 3d 81 89 a9 bd 41 ff bc bd 0d 4b 51 bd
       0.06662458 -0.0827818 -0.09228373 -0.051096965
000160 e4 d3 91 bd 7b ae df 3d 29 1b 46 3d 74 b4 a3 bd
       -0.07120493 0.109219514 0.048365746 -0.07993403
000170 5a 4a 62 bd 5a dd 51 3d 63 69 61 3c d8 76 dd bc
       -0.05524669 0.051236488 0.013758036 -0.027034208
000180 4a e5 ed 3d 71 f4 7e 3d c8 ab c2 3d 5c f7 39 3c
       0.11615999 0.062244836 0.09505421 0.011350479
000190 8d f7 0b bb 45 c8 85 bd de d7 d3 3d 2b 6f 03 3e
       -0.0021357269 -0.06532339 0.10343908 0.12835376
0001a0 b2 67 0a 3d 28 58 95 bb 31 9c 77 3d ef c4 45 bc
       0.033790298 -0.004557628 0.06045169 -0.012070878
0001b0 5e d0 df 3b 7a 30 a9 bc d7 af dd 3d 07 0d 3e 3d
       0.006830259 -0.020652998 0.108245544 0.046399143
0001c0 52 4d 8c bd 8a ee 98 bd 00 e7 9f 3c 5f e2 b4 bc
       -0.06850685 -0.07467373 0.01951933 -0.022080598
0001d0 82 9c ac bc ab 28 29 bb 34 80 6c bd 20 8e 4c 3d
       -0.021070722 -0.0025811594 -0.05773945 0.04994023
0001e0 71 58 5a 3b 6b 9d 4b bd 4d 4b 04 3e 3a 85 a6 3d
       0.0033316875 -0.049710672 0.1291935 0.0813088
0001f0 51 89 06 3d 39 74 df 3c 40 95 9d 3c 6a b1 91 bd
       0.0328458 0.027277099 0.019236207 -0.07113917

action_model._continuous_distribution.mu.bias f4 [2]
000000 e6 44 2c 3d 15 60 6e 3d
       0.042057894 0.0581971

onnx::Div_51 f4 [17]
000000 12 c9 b3 40 49 4d d4 40 f1 3d e3 40 58 63 b8 40
       5.6182947 6.634434 7.101311 5.762127
000010 ea ce a1 40 2f da a1 40 b2 ce a3 40 af c2 9e 40
       5.056508 5.0578837 5.1189814 4.961265
000020 b9 1c 8c 40 2c e9 95 40 28 72 80 40 f3 92 88 40
       4.378506 4.6847134 4.013935 4.267938
000030 77 6a c7 40 0d b0 56 40 46 79 dc 40 af 68 3a 41
       6.231746 3.3544953 6.889804 11.6505575
000040 66 5c 21 41
       10.085058
