results/test-9/Drive/Drive-500028.pt (torch, 475296 bytes, 36 tensors)

network_body._body_endoder.seq_layers.0.weight f4 [128, 17]
-0.1935796 0.01968449 -0.41314897 -0.031743817 0.44242123 0.3075595 -0.19084568 -0.13167259
-0.19409072 0.1597953 -0.05117388 0.1805095 0.41386858 -0.2680029 0.22295217 0.21182941
0.25770852 -0.40682587 0.12738775 0.167324 0.07442343 0.076337665 -0.27975577 -0.06229771
-0.19113943 0.1632129 -0.18517256 -0.001696039 -0.18956317 0.19241814 -0.20149608 -0.5424281
-0.05725365 0.14461215 -0.119915806 -0.231852 -0.0016456834 -0.09185531 0.4585721 0.13735497
-0.19212244 0.046958685 -0.06538114 -0.20068501 -0.16925965 -0.34143078 0.2389291 -0.23425056
0.21076061 -0.16566871 0.07141504 -0.025847664 -0.080243394 0.14950623 -0.29194298 -0.09431969
-0.47045362 0.4399477 0.35339534 0.030580217 0.06916212 -0.049346607 -0.17485881 0.32984138
0.34851515 -0.36792764 0.025174752 0.26927793 0.19586366 0.11825609 0.3199267 -0.09734736
0.058488734 -0.20667043 -0.20732008 -0.39830175 -0.1892637 0.07992026 -0.32399917 -0.31741896
0.05978063 -0.22652459 0.53411806 0.12552015 0.053698074 -0.46753314 0.07793342 0.20929088
0.1925125 0.18577498 -0.08709728 -0.16700846 -0.045571648 0.20594227 0.1683733 0.3637856
-0.1653955 -0.044259816 0.038384028 -0.16938809 0.07308557 0.0867899 0.011473624 -0.3011403
-0.33610684 0.04079197 0.23365346 0.09144085 -0.2697034 -0.13632362 0.20447288 -0.4762643
0.1450203 -0.2912163 -0.19529276 0.058957618 0.20021793 -0.23692009 0.041139483 0.016207071
0.2879064 -0.28566834 -0.28914952 0.2856509 -0.21480383 -0.015182161 -0.51638496 0.04483686
0.28513306 -0.04934721 -0.3684593 -0.14317414 0.4751623 -0.25520852 -0.22757275 -0.0030554845
-0.08986233 0.24057259 0.22931126 0.008464141 -0.47117177 0.05807871 0.038853467 0.32896394
-0.1419629 0.0073268614 -0.32694015 0.026916178 -0.23790775 -0.0055352803 -0.4043829 0.2269176
-0.09231113 -0.42026123 0.25031096 0.025349991 0.49216172 -0.2113485 -0.023719456 0.2563511
-0.13862428 -0.5520363 -0.11815831 -0.2848254 0.050971627 -0.22178644 -0.22020768 -0.010387909
-0.096961305 0.17163578 -0.11412159 0.2158401 0.41949707 -0.13964897 0.406517 0.009033104
-0.36490932 -0.22200346 0.21590464 -0.15421972 0.16882822 -0.03043062 0.14841609 0.016867807
0.25793996 -0.30474547 0.28582665 -0.40654606 -0.016633429 -0.23064525 0.13220608 0.2470657
0.42846352 -0.09622894 -0.5611042 0.47055295 0.23816548 -0.32280567 0.25720146 0.2064513
-0.057904426 -0.12561904 -0.10705669 0.16658732 0.26518616 0.54040796 0.25639635 -0.25497216
-0.035757557 -0.1848159 -0.27500847 0.043209273 0.4900084 -0.19527866 -0.08962709 -0.3511172
0.14570954 -0.040110294 -0.36946028 0.6164275 -0.20348422 -0.02082641 0.047212508 0.19560768
0.12734467 0.1630821 0.5181755 0.10866691 0.117229566 -0.021459196 -0.23112264 0.22266251
-0.5403924 -0.2995841 -0.17132953 0.19182739 -0.15660459 0.32247275 -0.06671052 -0.25161928
-0.21791509 -0.027658818 -0.024748452 0.33095154 0.40562066 -0.18947864 -0.012125869 -0.47283417
0.06355449 0.10758945 0.1772412 -0.3307632 -0.0759153 -0.11773826 -0.2312611 0.18736145
00000000: bb39 46be 5e41 a13c 4388 d3be ce05 02bd
00000010: 0985 e23e 7078 9d3e 0d6d 43be 2ed5 06be
00000020: b8bf 46be 61a1 233e b49b 51bd 7bd7 383e
00000030: 95e6 d33e ad37 89be 934d 643e cfe9 583e
00000040: 5ff2 833e 7b4b d0be ef71 023e fc56 2b3e
00000050: 506b 983d ec56 9c3d 263c 8fbe e22b 7fbd
00000060: 0eba 43be 4821 273e e09d 3dbe a04d deba
00000070: d91c 42be 4309 453e fd54 4ebe 91dc 0abf
00000080: ce82 6abd 3515 143e 6b96 f5bd 9c6a 6dbe
00000090: f9b3 d7ba a31e bcbd f6c9 ea3e c8a6 0c3e
000000a0: bfbb 44be c057 403d 8ce6 85bd 5f80 4dbe
000000b0: 6752 2dbe 04d0 aebe d4a9 743e 61df 6fbe
000000c0: a1d1 573e 0fa5 29be 0c42 923d 7bbe d3bc
000000d0: a656 a4bd 2918 193e 8d79 95be ae2a c1bd
000000e0: 4cdf f0be d340 e13e 3cf0 b43e 5d83 fa3c
000000f0: dfa4 8d3d ab1f 4abd 300e 33be f8e0 a83e
00000100: 9470 b23e 0361 bcbe 483b ce3c ccde 893e
00000110: 7c90 483e 4030 f23d 6fcd a33e 0d5e c7bd
00000120: e291 6f3d 6aa1 53be b74b 54be 35ee cbbe
00000130: 58ce 41be 3cad a33d 38e3 a5be bd84 a2be
00000140: 89dc 743d 10f6 67be f6bb 083f 5b88 003e
00000150: 83f2 5b3d 8160 efbe 8f9b 9f3d 5950 563e
00000160: ff21 453e cc3b 3e3e 0f60 b2bd 4404 2bbe
00000170: 56a9 3abd 88e2 523e 0d6a 2c3e 1b42 ba3e
00000180: 705d 29be c849 35bd 9238 1d3d 1274 2dbe
00000190: e3ad 953d e7be b13d defb 3b3c 102f 9abe
000001a0: 3216 acbe 7b15 273d da42 6f3e 5745 bb3d
000001b0: 9016 8abe 6b98 0bbe 5761 513e ead8 f3be
000001c0: 3480 143e 4e1a 95be d3fa 47be 8b7d 713d
000001d0: ee05 4d3e 2e9b 72be e081 283d b1c4 843c
000001e0: 7868 933e 1f43 92be 680b 94be d640 923e
000001f0: 89f5 5bbe 99be 78bc ce31 04bf dba6 373d
00000200: f6fc 913e 4d20 4abd b3a6 bcbe 3e9c 12be
00000210: 7948 f33e b1aa 82be d508 69be 863e 48bb
00000220: be09 b8bd a958 763e 92d0 6a3e 2ead 0a3c
00000230: 6d3d f1be f1e3 6d3d d024 1f3d f66d a83e
00000240: b95e 11be 2b16 f03b b364 a7be 517f dc3c
00000250: 179e 73be 4c61 b5bb 470b cfbe 165d 683e
00000260: 9e0d bdbd 7b2c d7be c228 803e c9aa cf3c
00000270: 9ffc fb3e be6b 58be 4e4f c2bc 7440 833e
00000280: 86f3 0dbe 4052 0dbf fcfc f1bd a3d4 91be
00000290: a0c7 503d fc1b 63be 1f7e 61be 0c32 2abc
000002a0: a693 c6bd 4ac1 2f3e 95b8 e9bd 3005 5d3e
000002b0: 52c8 d63e 2400 0fbe ff22 d03e 96ff 133c
000002c0: 65d5 babe e054 63be 1b16 5d3e c6eb 1dbe
000002d0: 4ee1 2c3e a349 f9bc 63fa 173e 5b2e 8a3c
000002e0: b510 843e 9907 9cbe df57 923e ce26 d0be
000002f0: d442 88bc 452e 6cbe 0861 073e cafe 7c3e
00000300: 925f db3e ae13 c5bd 86a4 0fbf 51ec f03e
00000310: a7e1 733e c946 a5be e9af 833e f867 533e
00000320: 312d 6dbd 47a2 00be 8a40 dbbd de95 2a3e
00000330: 7bc6 873e 2d58 0a3f 6246 833e b68b 82be
00000340: 8476 12bd 6140 3dbe e9cd 8cbe 35fc 303d
00000350: 62e2 fa3e 21f7 47be 688e b7bd a2c5 b3be
00000360: e234 153e b14a 24bd e629 bdbe 31ce 1d3f
00000370: 2b5e 50be 269c aabc e761 413d 614d 483e
00000380: a466 023e fefe 263e 26a7 043f c28c de3d
00000390: 0e16 f03d 32cb afbc 6aab 6cbe a401 643e
000003a0: 2857 0abf 1663 99be 0271 2fbe 666e 443e
000003b0: f45c 20be 261b a53e 869f 88bd 3ed4 80be
000003c0: 2225 5fbe bf94 e2bc 44bd cabc 7b72 a93e
000003d0: 83ad cf3e b006 42be 95ab 46bc 5217 f2be
000003e0: db28 823d dc57 dc3d b87e 353e cb59 a9be
000003f0: 7b79 9bbd c220 f1bd b6cf 6cbe aedb 3f3e

network_body._body_endoder.seq_layers.0.bias f4 [128]
-0.049059972 -0.08501008 -0.019952724 -0.02848874 -0.029879414 0.0481223 -0.07840677 0.01562066
-0.050626125 -0.03376367 -0.0016214733 -0.0050292537 -0.10942517 -0.04941778 0.0029442585 -0.0091954935
0.020752145 -0.12954243 0.06403206 -0.06197814 -0.01791767 -0.031802684 0.023847688 -0.061977692
0.04072142 -0.0015526483 -0.09784417 0.011892523 -0.058036044 -0.014053549 -0.03497233 -0.10188015
0.001245241 -0.004433789 -0.071111955 0.039410416 0.09497311 -0.043152615 -0.06364099 -0.065292336
-0.030163627 0.04242713 -0.029840073 -0.04088319 -0.081832096 -0.015581434 -0.10384226 -0.018298637
-0.054199383 -0.059968002 -0.002872395 0.022748895 -0.102760285 0.036393754 -0.008947473 -0.02635441
-0.029834088 0.030717567 -0.05341306 -0.081753895 -0.026622748 -0.036133513 0.009255401 0.03008283
-0.029798713 0.04407767 0.005567179 -0.14881058 -0.031291693 -0.008034259 -0.03210362 0.072886355
-0.018480135 0.055878025 0.04143398 -0.08807142 -0.059530884 -0.02086154 -0.06339607 0.02840675
-0.011926042 -0.04504669 -0.09582624 -0.09120283 -0.019561093 0.0782505 -0.1059234 0.043597493
-0.059002955 -0.027506292 -0.08166561 -0.010970395 -0.029519755 -0.04182687 0.005994047 -0.07877548
0.04182224 -0.055798322 -0.018915605 -0.010426116 -0.09394745 0.0045150327 -0.03534883 -0.016050665
0.015220021 -0.024512883 0.024517732 0.05888209 -0.007075334 -0.008217703 0.00047718151 -0.040171087
0.010154653 0.12165536 -0.08078894 0.03578832 -0.06362407 0.026646916 0.021080038 0.027496539
-0.022125017 -0.05311704 -0.0046878774 -0.019710002 0.05720958 -0.09726258 0.030739503 0.015361869
00000000: 1cf3 48bd c419 aebd e573 a3bc 3861 e9bc
00000010: acc5 f4bc e41b 453d bb93 a0bd cced 7f3c
00000020: 575d 4fbd c64b 0abd 9e87 d4ba 70cc a4bb
00000030: 4e1a e0bd 4c6a 4abd 76f4 403b b2a8 16bc
00000040: 6700 aa3c c5a6 04be 3e23 833d cadc 7dbd
00000050: 14c8 92bc 8843 02bd 3a5c c33c 52dc 7dbd
00000060: 81cb 263d 3b82 cbba 8662 c8bd dbd8 423c
00000070: 34b7 6dbd db40 66bc 253f 0fbd 8aa6 d0bd
00000080: 5b37 a33a 5149 91bb 25a3 91bd d16c 213d
00000090: 4381 c23d ccc0 30bd 3556 82bd fdb7 85bd
000000a0: b619 f7bc 12c8 2d3d 2b73 f4bc 2275 27bd
000000b0: 9697 a7bd 4549 7fbc 40ab d4bd 06e7 95bc
000000c0: 2c00 5ebd 02a1 75bd cb3e 3cbb e45b ba3c
000000d0: fc73 d2bd 9e11 153d 6c98 12bc 34e5 d7bc
000000e0: 9e66 f4bc 68a3 fb3c a7c7 5abd 966e a7bd
000000f0: f317 dabc bc00 14bd f7a3 173c 4470 f63c
00000100: 6e1c f4bc c98a 343d e26c b63b cd61 18be
00000110: b82b 00bd 20a2 03bc 167f 03bd 7145 953d
00000120: a763 97bc 5be0 643d adb6 293d ca5e b4bd
00000130: a8d6 73bd d2e5 aabc ccd5 81bd 46b5 e83c
00000140: 7265 43bc e182 38bd 8c40 c4bd 8dc8 babd
00000150: 963e a0bc cc41 a03d 5eee d8bd 4993 323d
00000160: 15ad 71bd e054 e1bc 4d40 a7bd 2cbd 33bc
00000170: 6ad3 f1bc a752 2bbd b669 c43b 0a55 a1bd
00000180: cc4d 2b3d c88c 64bd e6f4 9abc 4dd2 2abc
00000190: 8567 c0bd d7f2 933b efc9 10bd af7c 83bc
000001a0: 655d 793c 3ecf c8bc 69d9 c83c 592e 713d
000001b0: 34d8 e7bb 8ba3 06bc 382e fa39 708a 24bd
000001c0: b45f 263c 7226 f93d ac74 a5bd c696 123d
000001d0: 564d 82bd a24a da3c 0bb0 ac3c 6c40 e13c
000001e0: 863f b5bc 4191 59bd c49c 99bb df76 a1bc
000001f0: 9854 6a3d 9b31 c7bd 69d1 fb3c 59b0 7b3c

network_body._body_endoder.seq_layers.2.weight f4 [128, 128]
-0.06355741 -0.04249448 -0.16796228 0.0806082 0.01220925 -0.042739753 0.09537741 0.030291643
0.06998362 0.044057894 0.0038837786 0.16353449 -0.09430576 -0.08134002 -0.012492871 -0.042775683
-0.33024737 -0.07245486 0.03750446 0.120635696 0.15791382 -0.14742039 -0.03669405 0.023597583
-0.10948425 0.04209136 -0.01948541 0.11476722 -0.046392508 -0.12310944 -0.11302766 -0.1834149
0.07105481 -0.020824412 0.026326312 0.15193494 -0.14077295 0.13639715 0.018476728 0.07251243
0.06811 0.0817477 -0.12254451 -0.2274697 -0.112149484 -0.03357608 0.023153085 0.009373461
-0.17100254 -0.20373832 0.08483318 -0.10977942 0.007128251 -0.088140406 0.14992172 0.016344868
0.01267165 0.020772856 0.07418756 0.19444107 0.020130591 0.06866569 -0.051922716 0.08459919
-0.115035295 -0.28782913 -0.03555442 -0.029102098 -0.059936997 -0.06304896 -0.12154561 -0.16207519
-0.10232825 -0.031110734 0.21220511 0.111400366 -0.1469401 -0.044514347 0.05235756 0.029308155
-0.09763979 0.032067377 -0.10113411 0.010156644 -0.087487124 -0.024972716 0.0059027574 -0.07621349
-0.11341376 0.18336968 0.057064585 -0.107032895 0.011609857 -0.03627776 0.2681669 -0.03149449
-0.23750034 -0.2871904 -0.1623387 -0.007430732 0.081604585 -0.031164786 -0.08241225 -0.07107154
0.07697985 -0.09768326 -0.1631704 -0.05677356 -0.07706246 0.06641543 -0.008486685 0.007879569
-0.10615177 0.031665765 -0.048790123 -0.06024598 -0.088170715 0.13858427 -0.058137447 -0.07968729
-0.11172946 -0.109231494 -0.034034003 0.037638273 0.061182022 -0.026278995 0.0673434 -0.23997195
0.00094170833 -0.0658093 -0.10459553 0.09864221 0.022671087 0.026195524 -0.03865866 0.028560622
0.033287894 0.1722622 0.13742785 -0.13037117 -0.04649841 0.112570845 -0.030750122 -0.03463589
0.11585534 -0.153331 -0.1097614 -0.060195863 -0.36728355 -0.079910636 -0.14055575 -0.023968557
-0.102787614 0.28360188 -0.013651104 0.09712036 0.04194658 -0.021361724 -0.13521442 0.074908316
-0.00088897155 -0.03889738 -0.13247196 0.13897818 -0.23556872 -0.012416617 -0.13680162 0.16759583
0.0514535 0.097380005 -0.08697133 0.10029979 -0.16372056 -0.102377996 0.058725 -0.06593629
-0.39657176 -0.10955539 -0.06407416 0.028009564 -0.18382023 -0.011545216 0.11492148 -0.28756198
0.13209194 -0.0050921356 0.038609654 -0.011574351 -0.033971682 -0.045126803 -0.053952944 0.21474941
0.007399364 -0.22945255 -0.12981085 -0.07757349 -0.06057948 -0.10299932 -0.112934805 0.014379085
-0.15336801 0.027367901 0.13333762 -0.0028083932 -0.14848346 -0.094975464 -0.17666094 0.12779784
0.020017115 0.007791944 -0.00031089675 -0.0007474203 -0.09178708 0.0030482318 -0.02684795 -0.09099199
-0.07109687 -0.0785862 -0.13892442 -0.045201503 0.008328222 0.11703501 -0.029972317 0.03644862
-0.016397603 0.047954682 0.08229922 -0.03553383 -0.0683673 -0.23596734 -0.24820624 0.10567859
-0.12510215 -0.17839646 -0.112700306 0.10511215 0.045343265 -0.06424929 0.02446062 0.022983447
-0.23274976 -0.122400016 -0.030325701 0.011962686 -0.12516753 -0.0020723287 0.07763378 0.04817139
-0.056230593 -0.014291953 0.01909467 -0.005755134 0.19535518 -0.103910595 0.019386346 0.07964545
00000000: 632a 82bd b10e 2ebd 4efe 2bbe e915 a53d
00000010: 4e09 483c e10f 2fbd 3b55 c33d 2e26 f83c
00000020: 9253 8f3d 0d76 343d fe86 7e3b 9675 273e
00000030: 6123 c1bd 9995 a6bd e6ae 4cbc 8e35 2fbd
00000040: 2f16 a9be 3763 94bd 479e 193d d90f f73d
00000050: 29b4 213e 5ff5 16be 804c 16bd b84f c13c
00000060: 4739 e0bd fd67 2c3d de9f 9fbc 140b eb3d
00000070: 1206 3ebd cd20 fcbd 0c7b e7bd 1ed1 3bbe
00000080: 2f85 913d f597 aabc 47aa d73c d594 1b3e
00000090: c926 10be b2ab 0b3e 825c 973c 6681 943d
000000a0: 417d 8b3d 576b a73d 9ef8 fabd d1ed 68be
000000b0: a1ae e5bd 1287 09bd 8aab bd3c 2593 193c
000000c0: 4a1b 2fbe c7a0 50be 05bd ad3d 08d4 e0bd
000000d0: 1a94 e93b f582 b4bd 1485 193e ace5 853c
000000e0: c19c 4f3c d62b aa3c a6ef 973d 8f1b 473e
000000f0: e9e8 a43c 99a0 8c3d eaac 54bd 5742 ad3d
00000100: a097 ebbd 575e 93be 83a1 11bd 8667 eebc
00000110: 7f80 75bd d01f 81bd e8ec f8bd 0af7 25be
00000120: 7991 d1bd f0db febc 4c4c 593e e025 e43d
00000130: 7777 16be ad54 36bd e174 563d a817 f03c
00000140: 5ff7 c7bd 1559 033d 661f cfbd 0d68 263c
00000150: 732c b3bd 9593 ccbc eb6b c13b d115 9cbd
00000160: 7945 e8bd 43c5 3b3e 8ebc 693d 1034 dbbd
00000170: 4537 3e3c fd97 14bd 2c4d 893e 5e00 01bd
00000180: 4a33 73be 9f0a 93be 1e3c 26be 7f7d f3bb
00000190: 4e20 a73d 4b4d ffbc c1c7 a8bd f58d 91bd
000001a0: 9da7 9d3d 290e c8bd 2416 27be 648b 68bd
000001b0: ecd2 9dbd d004 883d bd0b 0bbc 4f19 013c
000001c0: 1966 d9bd f6b3 013d 27d8 47bd 7dc4 76bd
000001d0: d992 b4bd 09e9 0d3e 8821 6ebd 1733 a3bd
000001e0: 6ad2 e4bd c3b4 dfbd 3d67 0bbd 972a 1a3d
000001f0: 009a 7a3d 0c47 d7bc 56eb 893d 35bb 75be
00000200: fadc 763a 07c7 86bd 2e36 d6bd ed04 ca3d
00000210: b7b8 b93c ff97 d63c 8b58 1ebd f7f7 e93c
00000220: e358 083d 8165 303e e3b9 0c3e 0580 05be
00000230: 1e75 3ebd 8b8b e63d aee7 fbbc 5dde 0dbd
00000240: 9145 ed3d cd02 1dbe 96ca e0bd f08f 76bd
00000250: 970c bcbe 30a8 a3bd d9ed 0fbe b559 c4bc
00000260: 5082 d2bd 4434 913e e1a8 5fbc 0ae7 c63d
00000270: 2dd0 2b3d c8fe aebc a675 0abe 8869 993d
00000280: df09 69ba dc52 1fbd bba6 07be 4c50 0e3e
00000290: ed38 71be 116f 4bbc b915 0cbe 3e9e 2b3e
000002a0: e8c0 523d 2b6f c73d 061e b2bd fa69 cd3d
000002b0: 5da6 27be 8eab d1bd a089 703d 9b09 87bd
000002c0: 740b cbbe 945e e0bd 5039 83bd 5074 e53c
000002d0: 5f3b 3cbe 2528 3dbc f45b eb3d 533b 93be
000002e0: 1c43 073e eedb a6bb 2825 1e3d 59a2 3dbc
000002f0: e425 0bbd e2d6 38bd c3fd 5cbd 45e7 5b3e
00000300: 5d76 f23b 9cf5 6abe 23ed 04be dade 9ebd
00000310: 3022 78bd 4ff1 d2bd 5d4a e7bd 4196 6b3c
00000320: 810c 1dbe a632 e03c a889 083e 050d 38bb
00000330: 0c0c 18be 7f82 c2bd 9be6 34be 70dd 023e
00000340: effa a33c 9053 ff3b dbff a2b9 87ee 43ba
00000350: ddfa bbbd d8c4 473b 3bf0 dbbc 025a babd
00000360: 3c9b 91bd cdf1 a0bd 3442 0ebe 3625 39bd
00000370: 1873 083c 0db0 ef3d 8188 f5bc 264b 153d
00000380: 4454 86bc 216c 443d 7e8c a83d ec8b 11bd
00000390: 2804 8cbd 6ca1 71be c729 7ebe 046e d83d
000003a0: c71a 00be 90ad 36be 6bcf e6bd 0a45 d73d
000003b0: dcb9 393d 2295 83bd a361 c83c c847 bc3c
000003c0: f455 6ebe dcac fabd 9b6d f8bc 24ff 433c
000003d0: eb2b 00be e8cf 07bb 76fe 9e3d 5d4f 453d
000003e0: 0d52 66bd cc28 6abc 6d6c 9c3c 9095 bcbb
000003f0: 300b 483e 14cf d4bd 1dd0 9e3c 271d a33d

network_body._body_endoder.seq_layers.2.bias f4 [128]
-0.054202262 -0.04733526 -0.027464965 -0.04555789 0.017847566 0.014321622 -0.013648193 -0.048944775
-0.059556857 -0.033912897 -0.0064112525 -0.019755278 -0.06733484 -0.04792089 -0.06144029 -0.0438319
-0.0460285 0.0015809183 -0.0059357546 0.025784543 0.009022572 0.010754144 0.036832035 -0.008354001
0.00843546 -0.051830076 -0.037731536 -0.027254013 -0.037765432 -0.028573979 -0.021465922 0.0019345479
0.020778757 -9.7877244e-05 -0.04648025 0.027279334 -0.03609002 -0.010213491 -0.032968417 -0.04700567
-0.0016918828 0.017004231 -0.025252543 -0.0039828178 0.00069806725 0.034344565 -0.03429368 -0.011084902
-0.07771807 -0.056655306 -0.005796378 -0.017638035 0.0029854602 -0.018364955 0.01687185 -0.054896664
-0.06580989 0.030480174 -0.02422292 -0.029600758 -0.01607217 -0.0393211 0.038374115 -0.031904843
0.025919424 -0.030392313 0.027807452 -0.006768287 0.016292438 -0.021839987 -0.022178782 -0.015677853
-0.039615 -0.05734038 -0.078335844 -0.064625226 -0.025590748 0.03029319 -0.01888438 -0.019617006
-0.037427627 -0.025531048 -0.04408522 -0.019290235 -0.030617813 -0.019149879 -0.05150294 -0.019377932
-0.05360834 0.056935534 -0.047002234 -0.01790809 0.0017814199 -0.026351636 -0.044750825 -0.030855317
-0.0126377605 -0.03201215 -0.049701504 0.031395406 -0.03710188 -0.01498254 -0.02148726 -0.0005083755
-0.049034413 -0.01802744 -0.07324574 -0.025549248 -0.0373299 -0.054451507 -0.025839368 -0.024596492
0.0067701894 -0.020510303 -0.011215673 -0.034319893 -0.016957555 -0.03020821 -0.034308843 0.016470512
-0.04386283 -0.03304051 -0.023531077 -0.033527676 -0.05259521 -0.008022241 0.00072102 -0.004570323
00000000: 3103 5ebd 9ee2 41bd 35fe e0bc e99a 3abd
00000010: 0f35 923c 3da5 6a3c ac9c 5fbc 517a 48bd
00000020: e4f1 73bd 40e8 0abd 7c15 d2bb d2d5 a1bc
00000030: d9e6 89bd b248 44bd d0a8 7bbd 1489 33bd
00000040: 6188 3cbd d136 cf3a b880 c2bb 1b3a d33c
00000050: 69d3 133c 2632 303c 30dd 163d 38df 08bc
00000060: e234 0a3c c64b 54bd 628c 1abd cf43 dfbc
00000070: edaf 1abd fa13 eabc 4dd9 afbc a890 fd3a
00000080: 3638 aa3c 7243 cdb8 1362 3ebd e978 df3c
00000090: 21d3 13bd 7c56 27bc e409 07bd 0489 40bd
000000a0: 2bc2 ddba 754c 8b3c 6cde cebc 4c82 82bb
000000b0: 80fe 363a e3ac 0c3d 8877 0cbd 739d 35bc
000000c0: a72a 9fbd 650f 68bd 8bef bdbb a47d 90bc
000000d0: b6a7 433b 1a72 96bc d536 8a3c 53db 60bd
000000e0: 56c7 86bd 8fb1 f93c 256f c6bc 4a7d f2bc
000000f0: c9a9 83bc 290f 21bd 2d2e 1d3d a7ae 02bd
00000100: f954 d43c 4df9 f8bc 74cc e33c 82c8 ddbb
00000110: b877 853c c6e9 b2bc 47b0 b5bc d76e 80bc
00000120: 5743 22bd bfdd 6abd 8b6e a0bd 3b5a 84bd
00000130: b0a3 d1bc 6d29 f83c 6ab3 9abc d8b3 a0bc
00000140: b64d 19bd 7d26 d1bc b492 34bd 8e06 9ebc
00000150: 35d2 fabc 35e0 9cbc bff4 52bd 78be 9ebc
00000160: 6b94 5bbd 3c35 693d 6a85 40bd fdb3 92bc
00000170: 887e e93a 63df d7bc a44c 37bd 4ac4 fcbc
00000180: 9c0e 4fbc 2c1f 03bd ce93 4bbd 7898 003d
00000190: 24f8 17bd 5479 75bc 0d06 b0bc 8144 05ba
000001a0: 4fd8 48bd 48ae 93bc dd01 96bd a84c d1bc
000001b0: 3de7 18bd 8b08 5fbd 15ad d3bc 957e c9bc
000001c0: 77d8 dd3b 3905 a8bc f1c1 37bc 0493 0cbd
000001d0: 92ea 8abc 3577 f7bc 6e87 0cbd 2bed 863c
000001e0: 83a9 33bd 7c55 07bd 3fc4 c0bc 5154 09bd
000001f0: 136e 57bd b86f 03bc d502 3d3a a6c2 95bb

action_model._continuous_distribution.log_sigma f4 [1, 2]
-0.05526096 -0.16445114
00000000: 5159 62bd e165 28be

action_model._continuous_distribution.mu.weight f4 [2, 128]
-0.066343315 -0.015224016 -0.011063467 -0.023158886 -0.007503611 0.038882405 0.046381257 0.08017723
0.027289934 0.07851077 -0.09102927 -0.0014829447 -0.0068556704 0.007881905 0.046426285 0.06985115
-0.08794833 0.036633793 -0.030784244 0.03931281 0.04911308 -0.032017753 0.058769256 0.05727958
0.15797998 0.053333413 0.03919875 0.03689205 0.01156838 -0.03644345 -0.0889681 0.10038581
-0.011880528 -0.029051358 -0.036853816 -0.017360684 -0.0038494212 -0.054843973 0.0075714467 -0.028748553
-0.08756101 -0.040638164 -0.04324757 0.009588249 0.017992543 0.054010943 -0.064144686 -0.06278604
0.00058379385 0.058884855 -0.14994302 -0.010467013 0.017230509 0.07560208 0.113274425 0.0044670072
0.0521732 0.04560786 -0.007016639 0.0035764566 0.06417644 0.048769545 0.02762057 0.009702428
-0.074554086 0.017477958 0.06370715 0.07299064 0.027127456 -0.07919679 -0.107950814 -0.06930108
0.05903307 -0.033766307 0.017218404 0.07068862 -0.019969303 -0.027536673 0.036878496 -0.0609478
0.012877133 0.042349897 -0.07358898 -0.0710173 -0.028648188 -0.120131604 0.01978932 0.06960787
-0.033960816 0.08981135 0.042571217 0.10238049 0.08859011 0.048410486 -0.08884476 -0.0013411199
0.048414443 -0.0076297866 -0.03789717 0.064856306 0.050154034 -0.04588027 0.08600498 -0.1027699
-0.10125138 -0.08593569 -0.009829093 0.01923276 -0.15563843 -0.0114627695 0.033377673 0.078534186
0.03970085 0.09590398 -0.038854778 -0.07889353 0.042663183 0.045838606 0.031480443 -0.03756639
-0.013538453 0.01956261 -0.10550306 -0.03406224 -0.06466034 -0.1019587 0.012767754 0.04851132
0.13090271 0.081199475 0.007971063 -0.04219212 0.08878156 -0.03562461 -0.048405457 -0.050843053
0.13411534 -0.03796869 0.071969666 0.034095686 -0.047379162 0.0680234 -0.019259378 0.07376445
0.004916831 0.058686532 -0.033813205 -0.023613168 -0.029067358 0.015268752 0.03482703 -0.03867117
0.0030712618 0.049972486 0.04191975 0.10531968 0.095424876 0.07381248 0.034451585 -0.023296375
0.05300125 -0.016719934 0.047267 -0.07935563 -0.104194336 0.07049302 -0.083405875 -0.043791104
0.00019740009 0.08554048 0.076468244 0.043897234 0.08976152 0.029882545 0.018815001 0.07469245
-0.008922479 0.08652276 -0.021740954 0.10542019 0.09695526 0.04044873 0.080864914 -0.042224865
-0.029081726 0.036087453 -0.086111315 0.016902594 0.05544651 -0.0035149807 -0.080788694 0.06820167
0.020598816 0.05652408 -0.017049247 -0.07672833 0.016952472 0.01462254 -0.0058882106 0.0034845048
0.035582393 0.08268554 0.017275406 0.05802716 0.043611683 -0.12966752 -0.09349668 0.025550267
0.068202436 -0.008388954 -0.045802444 0.08868682 -0.024699455 -0.05913551 -0.01747252 -0.021658434
0.055925317 -0.04153852 0.0581798 0.022831485 0.018392345 0.06310457 0.06476913 0.034011897
-0.067636564 -0.040933587 -0.015823066 -0.015289551 0.019919295 -0.16496629 0.0436179 0.1016021
0.01674364 0.029785844 -0.06147003 -0.10085851 0.0052386294 -0.015242605 0.086237796 -0.03207886
-0.06424688 0.08534663 -0.06559443 0.091332115 -0.015560612 0.03623685 0.025825687 0.05695154
0.016297506 0.032821376 0.04210845 0.014324605 0.021372542 0.101403035 0.061158985 0.041603994
00000000: 01df 87bd 276e 79bc 8b43 35bc b4b7 bdbc
00000010: dae0 f5bb 2843 1f3d 46fa 3d3d f633 a43d
00000020: 248f df3c 41ca a03d 8e6d babd 5e5f c2ba
00000030: 88a5 e0bb 1b23 013c 7d29 3e3d 1f0e 8f3d
00000040: 411e b4bd 510d 163d 3d2f fcbc 7806 213d
00000050: cc2a 493d 0c25 03bd 08b8 703d fe9d 6a3d
00000060: 81c5 213e 2374 5a3d de8e 203d 1e1c 173d
00000070: 4d89 3d3c ba45 15bd e834 b6bd 1397 cd3d
00000080: 8ca6 42bc 1dfd edbc 07f4 16bd fe37 8ebc
00000090: 9246 7cbb 13a4 60bd e619 f83b 1682 ebbc
000000a0: 3053 b3bd 3474 26bd 5d24 31bd 0818 1d3c
000000b0: 1965 933c 943a 5d3d 4a5e 83bd f895 80bd
000000c0: be09 193a 3f31 713d aa8a 19be d67d 2bbc
000000d0: ff26 8d3c 43d5 9a3d 6cfc e73d f95f 923b
000000e0: 91b3 553d 4fcf 3a3d d6eb e5bb fc62 6a3b
000000f0: f06e 833d 93c2 473d 8944 e23c eff6 1e3c
00000100: d0af 98bd ef2d 8f3c e578 823d 1e7c 953d
00000110: 663a de3c ed31 a2bd 5115 ddbd baed 8dbd
00000120: a9cc 713d 8a4e 0abd 9c0d 8d3c 32c5 903d
00000130: aa96 a3bc 9794 e1bc e80d 173d 66a4 79bd
00000140: 9cfa 523c 1677 2d3d d2b5 96bd 8571 91bd
00000150: 9baf eabc 8f07 f6bd 361d a23c 928e 8e3d
00000160: 7f1a 0bbd 03ef b73d 285f 2e3d ddac d13d
00000170: bb6e b53d 134a 463d 3ef4 b5bd 84c8 afba
00000180: 394e 463d 4a03 fabb 103a 1bbd 62d3 843d
00000190: 516e 4d3d f3ec 3bbd 6123 b03d 0679 d2bd
000001a0: e25c cfbd 0dff afbd 340a 21bc 058e 9d3c
000001b0: ae5f 1fbe 57ce 3bbc 07b7 083d 88d6 a03d
000001c0: 5c9d 223d 4e69 c43d 3026 1fbd ee92 a1bd
000001d0: 97bf 2e3d 43c1 3b3d a3f1 003d 37df 19bd
000001e0: 63d0 5dbc c441 a03c fd11 d8bd d984 0bbd
000001f0: a46c 84bd b9cf d0bd d72f 513c ceb3 463d
00000200: 5c0b 063e e94b a63d 1099 023c a5d1 2cbd
00000210: 1bd3 b53d 1ceb 11bd cd44 46bd ce40 50bd
00000220: 8855 093e 0f85 1bbd d564 933d eba7 0b3d
00000230: a710 42bd da4f 8b3d d8c5 9dbc d111 973d
00000240: 5e1d a13b 4a61 703d b77f 0abd 6770 c1bc
00000250: ab1e eebc ca29 7a3c caa6 0e3d a965 1ebd
00000260: 3947 493b f3af 4c3d 0bb4 2b3d d8b1 d73d
00000270: 1e6e c33d ff2a 973d 1b1d 0d3d 0ad8 bebc
00000280: d717 593d 3ef8 88bc 0b9b 413d 3485 a2bd
00000290: d763 d5bd a55e 903d b3d0 aabd 4d5e 33bd
000002a0: 2ffd 4e39 d92f af3d 629b 9c3d 96cd 333d
000002b0: e3d4 b73d 3dcc f43c eb21 9a3c 5bf8 983d
000002c0: 972f 12bc d832 b13d 161a b2bc 8ae6 d73d
000002d0: 7b90 c63d 91ad 253d 819c a53d fbf3 2cbd
000002e0: cd3c eebc 70d0 133d 215b b0bd 4f77 8a3c
000002f0: e11b 633d 975b 66bb 8b74 a5bd 51ad 8b3d
00000300: d9be a83c cb85 673d ddaa 8bbc be23 9dbd
00000310: e9df 8a3c 6193 6f3c e4f1 c0bb 4a5c 643b
00000320: d8be 113d 0957 a93d 2785 8d3c e3ad 6d3d
00000330: 2aa2 323d 90c7 04be 307b bfbd cb4e d13c
00000340: b8ad 8b3d d371 09bc 589b 3bbd 6fa1 b53d
00000350: 8356 cabc 1438 72bd 8822 8fbc 076d b1bc
00000360: f211 653d 4c24 2abd f14d 6e3d 1809 bb3c
00000370: 8bab 963c f83c 813d ada5 843d 0f50 0b3d
00000380: 0a85 8abd faa9 27bd 609f 81bc 0681 7abc
00000390: ca2d a33c ecec 28be afa8 323d c314 d03d
000003a0: f529 893c 7101 f43c 00c8 7bbd e88e cebd
000003b0: cfa8 ab3b 1ebc 79bc 719d b03d 1f65 03bd
000003c0: de93 83bd 37ca ae3d 5f56 86bd 550c bb3d
000003d0: f0f1 7ebc 176d 143d 6490 d33c 0546 693d
000003e0: 5982 853c b56f 063d e979 2c3d c0b1 6a3c
000003f0: 7815 af3c 65ac cf3d d881 7a3d f368 2a3d

action_model._continuous_distribution.mu.bias f4 [2]
0.05841179 0.04032553
00000000: 3341 6f3d 622c 253d

exp_avg f4 [128, 17]
0.016385397 0.016581228 0.038078554 0.02973761 0.025978316 0.0132157 0.0060119084 0.00036387146
-0.0012142132 0.010735388 -0.003831824 0.014768398 0.012947253 -0.007935323 0.0014280654 -0.028346956
0.005430117 -0.00014407237 -0.0001888086 -0.0001945811 -0.00019417086 -0.00020103902 -0.000101083715 -9.763639e-05
-0.00010374684 -0.00019994001 -0.00015918803 -0.00013216492 -0.00015253489 -0.00021718298 -0.00016225445 -7.0692535e-05
5.12473e-06 -4.441256e-05 -0.0025747933 -0.0046966164 -0.00048771244 0.0035130458 0.0037457352 0.001374787
-0.0007172617 -0.0038641314 -0.0042836186 0.0012191052 -0.0013995608 0.0017623227 0.005231045 -0.0005376673
-0.0024805714 0.006000326 0.004169129 0.00090742623 -0.0032719406 -0.011515155 -0.011674577 -0.0074507343
-0.006570174 -0.0057480275 -0.004739344 0.008941677 -0.013907851 0.0015204041 -0.011183266 -0.008082953
-0.00762587 0.016229704 0.018661618 -0.0008402902 0.009987118 0.002936529 -0.0030873145 -0.010661013
-0.010957244 -0.012181142 -0.0077652903 -0.0031116577 -0.0017526468 0.0011163598 -0.001893287 0.0021071543
-0.0038692758 -0.00095216953 -0.011874569 -0.00078230747 0.0059110858 -0.00924086 -0.0068470505 -0.01111344
-0.0020447373 -0.002434441 0.0005439136 -0.00031213555 -0.003086952 -0.011400828 0.013878506 0.0027688635
0.016095841 0.015361799 0.0017863144 -0.02254377 -0.04799776 -0.0027717222 -0.0021711027 -0.0024081892
-0.00253446 -0.0085378755 -0.0069229035 -0.0071742213 -0.0071513723 -0.006881356 -0.006002842 -0.0012996078
-0.001220621 -0.0015477617 -0.0027577414 -0.004557458 -0.009114807 0.0085076615 0.0012026572 0.00063658867
0.00097303715 0.0012648136 0.0013093487 0.0012903342 0.00012579055 -2.0692616e-05 0.00019569011 0.001033102
0.0006432627 0.0003417619 0.00069623557 0.00023350172 0.00069070194 0.0003446677 -0.00024127692 0.00031677654
0.00040455585 0.0008011634 0.0001923812 -0.00013322858 0.00018101615 0.0005543459 0.0015452111 0.0018256658
0.0008401748 0.00046679899 0.0008101963 0.00012572545 -8.883388e-06 0.0002907503 0.00035210617 0.0006240857
-0.00023612678 0.0009501464 0.0004738173 0.0021722415 0.0018170704 0.002580841 0.0010581615 0.0006271526
0.00011484533 -5.8260455e-05 0.0011525528 0.00066567084 0.0033985607 0.00047171855 0.00031571952 -6.026226e-05
-0.0030007234 -0.00083751534 -0.012696469 -0.0031684916 -0.012864461 -0.014128547 -0.015128922 -0.007863038
0.0019301577 0.0023430372 -0.014668599 -0.0050525763 -0.018377539 -0.00981798 -0.042418685 -0.003386679
-0.010473707 -0.031857297 -0.016864587 -0.0009187658 -0.0026797839 -0.008107457 -0.014978945 -0.0068080067
-0.004572268 0.00031330343 0.0018592677 0.0050702486 -0.004373278 0.006596894 0.0011194923 -0.01536287
-0.0003139358 -0.0034434213 0.010727476 -0.0037868712 -0.0025712745 -0.00449553 -0.0026094553 -0.010374721
-0.0121367825 -0.012445712 -0.006792254 0.004955872 0.008834621 -0.0042932937 0.00040104816 -0.008073625
-0.017257795 0.002740139 0.009789712 -0.0062645664 -0.005410121 -0.029950729 -0.027958475 -0.029463744
-0.023675192 -0.023732305 -0.027756337 -0.03376868 -0.023113893 -0.027978662 -0.013250703 -0.015034254
-0.015601121 -0.025674457 -0.024609365 -0.028883839 -0.00910275 0.0075202323 0.013259762 0.006776837
0.0037652627 0.0051348405 0.016955579 0.020640243 0.01782198 0.0072683664 -0.0010838569 0.008910915
0.015666293 0.0040693535 0.008250917 0.0004181725 0.0007946253 0.015400059 -0.00015129862 -0.022816528
00000000: ab3a 863c 5bd5 873c 42f8 1b3d 4a9c f33c
00000010: 7ad0 d43c aa86 583c 8bff c43b 00c6 be39
00000020: 3c26 9fba 7be3 2f3c 571f 7bbb 27f7 713c
00000030: b720 543c 2803 02bc ec2d bb3a e037 e8bc
00000040: 1fef b13b 2212 17b9 ecfa 45b9 7708 4cb9
00000050: 589a 4bb9 00ce 52b9 e8fc d3b8 23c2 ccb8
00000060: a992 d9b8 fda6 51b9 b6eb 26b9 c095 0ab9
00000070: c6f1 1fb9 9dbb 63b9 d922 2ab9 c440 94b8
00000080: 18f5 ab36 a047 3ab8 ddbd 28bb 13e6 99bb
00000090: a8b3 ffb9 213b 663b 027b 753b 3232 b43a
000000a0: 9e06 3cba 5e3d 7dbb 995d 8cbb 62ca 9f3a
000000b0: 7871 b7ba bdfd e63a 3069 ab3b 3ef2 0cba
000000c0: 1591 22bb 629e c43b 309d 883b 58e0 6d3a
000000d0: 0e6e 56bb 10aa 3cbc ba46 3fbc 4a25 f4bb
000000e0: 9d4a d7bb f359 bcbb 804c 9bbb 1d80 123c
000000f0: c1dd 63bc 4c48 c73a 043a 37bc 5d6e 04bc
00000100: 6fe2 f9bb 28f4 843c 40e0 983c ec46 5cba
00000110: 02a1 233c c872 403b 8b54 4abb 88ab 2ebc
00000120: 0386 33bc 6a93 47bc fa73 febb f4ec 4bbb
00000130: 11b9 e5ba d252 923a 2b28 f8ba 2f18 0a3b
00000140: ad93 7dbb 049b 79ba 8d8d 42bc c413 4dba
00000150: c8b1 c13b fa66 17bc 395d e0bb 2515 36bc
00000160: 0001 06bb 248b 1fbb 6c95 0e3a 20a6 a3b9
00000170: 764e 4abb 8aca 3abc ac62 633c d275 353b
00000180: 6ddb 833c 0eb0 7b3c c422 ea3a b6ad b8bc
00000190: 4d99 44bd c8a5 35bb 0f49 0ebb b6d2 1dbb
000001a0: 2f19 26bb 72e2 0bbc 86d9 e2bb bb15 ebbb
000001b0: 0f56 eabb ff7c e1bb 7db3 c4bb 9a57 aaba
000001c0: 3ffd 9fba 44de caba 39bb 34bb bb56 95bb
000001d0: 4556 15bc b863 0b3c 7ba2 9d3a bee0 263a
000001e0: 6b13 7f3a 1ac8 a53a 749e ab3a 6e20 a93a
000001f0: a5e6 0339 0e95 adb7 2a32 4d39 2769 873a
00000200: a1a0 283a 812e b339 9483 363a 24d8 7439
00000210: 3910 353a 84b4 b439 48ff 7cb9 0715 a639
00000220: 911a d439 2a05 523a efb9 4939 46b3 0bb9
00000230: 27cf 3d39 8651 113a ae88 ca3a 2e4b ef3a
00000240: 2d3f 5c3a b3bc f439 5a63 543a 2bd5 0339
00000250: dc09 15b7 d86f 9839 e49a b839 af99 233a
00000260: cd98 77b9 3f13 793a ae6a f839 2a5c 0e3b
00000270: c42a ee3a 5423 293b 02b2 8a3a 8067 243a
00000280: 1ed9 f038 b05c 74b8 4111 973a 6a80 2e3a
00000290: 63ba 5e3b fe50 f739 2887 a539 1cc2 7cb8
000002a0: c9a7 44bb b48c 5bba da04 50bc 78a6 4fbb
000002b0: 76c5 52bc 6c7b 67bc 4cdf 77bc f9d3 00bc
000002c0: 58fd fc3a a48d 193b 9054 70bc 1590 a5bb
000002d0: 7e8c 96bc 98db 20bc 37bf 2dbd 0cf3 5dbb
000002e0: e999 2bbc cc7c 02bd 9a27 8abc 54d9 70ba
000002f0: 509f 2fbb 24d5 04bc 406a 75bc b315 dfbb
00000300: f7d2 95bb e042 a439 acb2 f33a 5424 a63b
00000310: b74d 8fbb c22a d83b eebb 923a 8cb4 7bbc
00000320: c097 a4b9 06ab 61bb 4cc2 2f3c 282d 78bb
00000330: d482 28bb 3d4f 93bb 6503 2bbb bcfa 29bc
00000340: 5bd9 46bc 1ae9 4bbc 8e91 debb de64 a23b
00000350: 16bf 103c c2ae 8cbb c643 d239 3d47 04bc
00000360: 3860 8dbc e793 333b 0765 203c fe46 cdbb
00000370: 6247 b1bb 3b5b f5bc 2c09 e5bc f35d f1bc
00000380: 7af2 c1bc 406a c2bc 4261 e3bc 0751 0abd
00000390: 5959 bdbc 8233 e5bc 7a19 59bc 3b52 76bc
000003a0: d89b 7fbc 3d53 d2bc 9499 c9bc cd9d ecbc
000003b0: b323 15bc 486c f63b 793f 593c 3b10 de3b
000003c0: a0c2 763b 2a42 a83b 6de6 8a3c ba15 a93c
000003d0: 67ff 913c 7a2b ee3b 3410 8eba 16ff 113c
000003e0: 9956 803c 3658 853b db2e 073c 2a3e db39
000003f0: 674e 503a 8750 7c3c eaa5 1eb9 bae9 babc

exp_avg_sq f4 [128, 17]
0.009011621 0.01431899 0.020885043 0.029756654 0.031230148 0.028964628 0.021021614 0.014929453
0.011924308 0.006275401 0.009493782 0.0071804347 0.016849056 0.0103263175 0.020823518 0.014765049
0.007856878 9.3388614e-08 8.971518e-07 9.607105e-07 8.7025165e-07 6.5595816e-07 3.3034823e-07 2.3621033e-07
1.9577217e-07 2.289374e-07 1.2265421e-07 2.3824754e-07 2.0890423e-07 4.1422894e-07 1.7637537e-07 1.19203335e-07
8.9917286e-08 1.1313767e-07 0.00092713605 0.0014307109 0.0035534613 0.006021965 0.007133309 0.0068537556
0.005275282 0.0031428933 0.0020141513 0.00087622326 0.0006649188 0.00081107445 0.0026494104 0.0010953584
0.0035897675 0.0035777255 0.0016492289 0.0023810142 0.002462847 0.0030429927 0.0032560495 0.0038086474
0.0048346235 0.005769804 0.005960531 0.00446977 0.0014669775 0.0017651668 0.0024092707 0.003950441
0.0031358735 0.003658932 0.0022063612 0.0013603977 0.0021307794 0.0036472948 0.0050969687 0.0070830313
0.007403379 0.0067522223 0.0034464607 0.001245093 0.00077322865 0.0011961033 0.00091292756 0.000442757
0.0017869287 0.0004627561 0.006051064 0.0034377407 0.0016418222 0.008998287 0.015250356 0.024037607
0.031625528 0.03389109 0.031302016 0.024910627 0.01729128 0.013761208 0.008465803 0.0064400407
0.0073580346 0.018665569 0.009813758 0.020879759 0.0130380755 0.010165672 0.0002197698 0.00030218586
0.000519897 0.0014229581 0.0016034683 0.0015108144 0.00093315594 0.0005544835 0.0004165806 5.6227873e-05
0.00017959205 6.562013e-05 0.000193543 0.00021061969 0.0012914093 0.0011290394 3.2049884e-05 3.357176e-05
4.69114e-05 7.097704e-05 0.000111843554 0.00016389847 0.00012478307 8.902705e-05 9.79998e-06 4.8136284e-05
4.4361594e-05 1.9713825e-05 4.2153708e-05 1.3191015e-05 0.00010162684 1.8386774e-05 3.1764266e-05 1.2431391e-06
8.5263986e-05 0.0002110922 0.00034194218 0.00034483414 0.0003121562 0.00036407384 0.00036927126 0.0003324647
0.00020170659 4.9897026e-05 3.5148252e-05 3.8302507e-05 3.121998e-05 6.309428e-05 8.8180044e-05 0.00026723873
2.6714859e-05 0.00042236084 0.0009058586 0.0014133359 0.0020426784 0.0021982433 0.0020819749 0.0016726244
0.0002937509 0.00014481408 0.00024077344 0.00024318015 0.000112103895 0.00025336692 6.8752684e-05 0.0012407046
0.0011091118 0.00030076219 0.008984664 0.017172052 0.032315478 0.041982975 0.04468608 0.042093113
0.03132465 0.02134739 0.015002074 0.0101636 0.007722233 0.008636072 0.01749035 0.011382082
0.023155972 0.019955246 0.009475228 0.005900339 0.010022922 0.01902533 0.03340068 0.036847632
0.035284396 0.026893994 0.016326526 0.011148775 0.0050799064 0.0061780936 0.0053584664 0.010743786
0.007901907 0.018206136 0.016943224 0.004879349 0.0036873724 0.0054349317 0.007836247 0.011224303
0.013572042 0.013901351 0.011113161 0.006641212 0.00455163 0.0013060649 0.0018748293 0.0010884302
0.0031370043 0.0021324952 0.0071546747 0.008595806 0.0019183122 0.005384006 0.0077358885 0.011836374
0.015271102 0.016019382 0.015054052 0.0119998455 0.008349039 0.0069651 0.0041879294 0.0035677173
0.003997533 0.0094926385 0.005351122 0.011196836 0.0051893136 0.0068935775 0.0031100563 0.003167632
0.0058633736 0.011603689 0.013590616 0.013581491 0.0113108065 0.0070182 0.004692634 0.0017568095
0.002453519 0.0015312968 0.003797005 0.002245173 0.008663709 0.006592346 0.003883109 0.00921685
00000000: 7aa5 133c 329a 6a3c 1c17 ab3c 3ac4 f33c
00000010: 5ed6 ff3c 3a47 ed3c 8535 ac3c aa9a 743c
00000020: 2c5e 433c e1a1 cd3b cf8b 1b3c da49 eb3b
00000030: 0807 8a3c b72f 293c 1596 aa3c 1be9 713c
00000040: 23ba 003c ef8c c833 cdd3 7035 c3f1 8035
00000050: 3d9b 6935 1a15 3035 b75a b134 00a1 7d34
00000060: 7235 5234 d5d1 7534 efb2 0334 fcd0 7f34
00000070: 284f 6034 3163 de34 b161 3d34 bafc ff33
00000080: 8d18 c133 18f6 f233 0c0b 733a b186 bb3a
00000090: 30e1 683b e753 c53b 88be e93b 7895 e03b
000000a0: 46dc ac3b 00f9 4d3b daff 033b 59b2 653a
000000b0: f24d 2e3a 499e 543a bba1 2d3b 2192 8f3a
000000c0: 4e42 6b3b 4678 6a3b f02a d83a ca0a 1c3b
000000d0: b767 213b f26c 473b 7263 553b 809a 793b
000000e0: c36b 9e3b a010 bd3b 8f50 c33b 2677 923b
000000f0: 9947 c03a 2b5d e73a dbe4 1d3b b372 813b
00000100: 3a83 4d3b b1ca 6f3b 9998 103b 5f4f b23a
00000110: 8ca4 0b3b 7407 6f3b 7904 a73b c618 e83b
00000120: 0b98 f23b bf41 dd3b 04de 613b 6332 a33a
00000130: 7fb2 4a3a 91c6 9c3a 8851 6f3a d721 e839
00000140: 6137 ea3a 139e f239 0148 c63b b84b 613b
00000150: 6932 d73a 8d6d 133c a1dc 793c 84ea c43c
00000160: c589 013d 62d1 0a3d 8b36 003d 5f11 cc3c
00000170: 71a6 8d3c b176 613c 27b4 0a3c fa06 d33b
00000180: ab1b f13b 89e8 983c e2c9 203c 070c ab3c
00000190: a79d 553c eb8d 263c 0272 6639 b36e 9e39
000001a0: b249 083a 8d82 ba3a 782b d23a 8506 c63a
000001b0: 099f 743a c25a 113a 8068 da39 38d6 6b38
000001c0: e050 3c39 8a9d 8938 cef1 4a39 cbd9 5c39
000001d0: 8144 a93a 47fc 933a 4d6d 0638 67cf 0c38
000001e0: bbc2 4438 82d9 9438 8d8d ea38 29dc 2b39
000001f0: 33d8 0239 09b4 ba38 986a 2437 f1e5 4938
00000200: e610 3a38 1e5f a537 33ce 3038 fa4e 5d37
00000210: 7f20 d538 4c3d 9a37 9f3a 0538 efd9 a635
00000220: c1cf b238 a258 5d39 b446 b339 dbca b439
00000230: e5a8 a339 2ae1 be39 c09a c139 a84e ae39
00000240: 3381 5339 8648 5138 266c 1338 01a7 2038
00000250: 33f2 0238 7c51 8438 4ded b838 2d1c 8c39
00000260: b919 e037 5070 dd39 2477 6d3a af3f b93a
00000270: 75de 053b 6710 103b be71 083b f63b db3a
00000280: 9402 9a39 3cd9 1739 2178 7c39 2dfe 7e39
00000290: 5219 eb38 55d6 8439 512f 9038 239f a23a
000002a0: 9e5f 913a 9eaf 9d39 6a34 133c 67ac 8c3c
000002b0: 3c5d 043d 57f6 2b3d c008 373d d469 2c3d
000002c0: 474e 003d b9e0 ae3c 42cb 753c 3a85 263c
000002d0: c90a fd3b 507e 0d3c ec47 8f3c e97b 3a3c
000002e0: 98b1 bd3c 2f79 a33c fd3d 1b3c a257 c13b
000002f0: 2f37 243c 02db 9b3c 27cf 083d 8bed 163d
00000300: 5f86 103d cb50 dc3c 35bf 853c 5aa9 363c
00000310: 5875 a63b 9b71 ca3b 1396 af3b b406 303c
00000320: 0077 013c 0925 953c 84cc 8a3c f2e2 9f3b
00000330: d8a7 713b 8317 b23b 9a63 003c 24e6 373c
00000340: 455d 5e3c 7ec2 633c fa13 363c 869e d93b
00000350: d725 953b 4430 ab3a d5bc f53a a8a9 8e3a
00000360: 3396 4d3b 55c1 0b3b c371 ea3b 6cd5 0c3c
00000370: e06f fb3a 516c b03b 567d fd3b 5aed 413c
00000380: a533 7a3c 143b 833c 45a5 763c 009b 443c
00000390: 68ca 083c 7e3b e43b e63a 893b 5dd0 693b
000003a0: bdfd 823b 0387 1b3c 7758 af3b ef72 373c
000003b0: 1e0b aa3b 85e3 e13b 16d2 4b3b 0c98 4f3b
000003c0: 8b21 c03b 661d 3e3c 2dab 5e3c e784 5e3c
000003d0: f650 393c eef8 e53b abc4 993b bf44 e63a
000003e0: 38cb 203b cbb5 c83a 2cd7 783b c123 133b
000003f0: 3bf2 0d3c 9b04 d83b c27b 7e3b 4502 173c

exp_avg f4 [128]
0.0007552264 -1.2432618e-05 8.809164e-06 -0.00014557058 -0.0003282532 -0.000174265 -0.00035626345 4.484044e-05
4.6638343e-05 7.894407e-05 -0.0013685073 -0.0002948391 -0.00032264862 -0.0019714225 0.00068957236 -0.0014342882
0.0023060066 -0.0006138791 -0.0018204466 3.6935512e-06 -0.002604598 0.001232981 -0.0019194033 0.00051837676
0.0010368193 -3.882398e-05 0.00054810743 -0.0022940093 0.0016995867 -0.00019967863 -0.00077827414 -7.0566807e-06
-0.0008539525 -0.0017125781 1.1615068e-06 3.6410795e-05 -0.0015995611 0.0013010006 0.0009618866 0.00015242884
-0.00035622015 0.00047303026 0.0018767341 1.14521135e-05 1.47061785e-08 5.8735706e-05 0.0002586677 0.0016449336
-0.0019600084 0.00038348604 -0.0012206928 -0.000109398934 -0.0005878181 0.005781833 3.1833886e-05 -0.00081531506
0.0013120185 0.00023410856 -0.00054422 -0.002694996 1.984083e-17 -0.0011580045 0.004725232 -0.0029814034
-0.001964749 -0.0014926433 0.0005117288 0.00023299591 0.00013443409 0.0035455981 0.0013423106 0.00048301395
3.2817527e-05 -0.00086080877 0.0003493599 0.002252562 -8.9577574e-05 -7.5610105e-06 -0.0021609962 0.00086529215
-0.0013630175 9.970202e-05 -0.0023478377 -0.0008797937 -0.0017826823 0.0014809187 0.0003531337 -0.00042032718
-0.0022872454 0.00015667082 0.0014054026 7.2459574e-05 -0.00043522968 0.000932298 3.880316e-06 3.7814185e-05
0.0005961938 -0.0013547721 0.0016057605 6.887819e-06 -0.0020986646 -0.00015536336 1.2993143e-05 -0.00020604207
-0.00013060441 0.0006795916 -0.0010875968 0.0011072732 -0.001882365 0.0045724064 0.0016475269 -0.001189034
0.0009990872 -0.00028155372 0.00016743976 -0.0006813477 0.0011320172 5.765305e-05 -0.00048684742 -0.0018797268
-0.0005341218 0.00046720225 -0.001180808 -0.0021462475 -0.00067012187 0.0018541025 -5.7567173e-05 -0.00011083044
00000000: 63fa 453a b095 50b7 12cb 1337 4ea4 18b9
00000010: 6619 acb9 e8ba 36b9 dfc8 bab9 0e13 3c38
00000020: 8a9d 4338 c68e a538 7c5f b3ba a294 9ab9
00000030: 2a29 a9b9 fb32 01bb 6bc4 343a bafe bbba
00000040: 5f20 173b bbec 20ba 0d9c eeba bade 7736
00000050: e7b1 2abb fa9b a13a 7d94 fbba ade3 073a
00000060: e2e5 873a eed6 22b8 deae 0f3a 1757 16bb
00000070: abc4 de3a d360 51b9 1805 4cba 6dc8 ecb6
00000080: c8db 5fba 9678 e0ba 12e5 9b35 cbb7 1838
00000090: 5da8 d1ba 5686 aa3a 1e27 7c3a 4ed5 1f39
000000a0: 0fc3 bab9 0c01 f839 bffc f53a 7422 4037
000000b0: 75a6 7c32 fc5a 7638 ca9d 8739 d09a d73a
000000c0: 7c73 00bb a00e c939 a7ff 9fba 1b6d e5b8
000000d0: ce17 1aba 8875 bd3b 6085 0538 deba 55ba
000000e0: 09f8 ab3a 0a7b 7539 fca9 0eba 889e 30bb
000000f0: d6ff b623 2fc8 97ba 1ed6 9a3b a663 43bb
00000100: 05c3 00bb cca4 c3ba 8a25 063a 5d50 7439
00000110: e0f6 0c39 445d 683b 78f0 af3a 093d fd39
00000120: 8da5 0938 e6a7 61ba 4b2a b739 b89f 133b
00000130: 98db bbb8 96b4 fdb6 809f 0dbb c6d4 623a
00000140: 47a7 b2ba 1d17 d138 2ede 19bb f5a1 66ba
00000150: e4a8 e9ba 631b c23a ce24 b939 5c5f dcb9
00000160: 9ce5 15bb 0148 2439 7c35 b83a 70f5 9738
00000170: 8a2f e4b9 7665 743a a933 8236 ac9a 1e38
00000180: e349 1c3a 9c92 b1ba 6278 d23a ea1d e736
00000190: c089 09bb 09e9 22b9 20fd 5937 ff0c 58b9
000001a0: dbf2 08b9 9f26 323a b18d 8eba ec21 913a
000001b0: b0b9 f6ba 20d4 953b d4f1 d73a 5cd9 9bba
000001c0: cef3 823a 809d 93b9 c592 2f39 789c 32ba
000001d0: 3260 943a 7ed0 7138 8e3f ffb9 2a61 f6ba
000001e0: 4f04 0cba d3f2 f439 57c5 9aba 0fa8 0cbb
000001f0: 1eab 2fba 5b05 f33a 4874 71b8 a46d e8b8

exp_avg_sq f4 [128]
7.87774e-05 1.5989657e-09 1.3221818e-05 1.7662069e-05 1.3806835e-05 8.188424e-05 2.9181754e-06 2.644142e-07
8.6990923e-07 3.7626871e-06 9.69759e-05 7.470711e-05 3.0153247e-05 4.0213396e-05 2.7627888e-05 5.91789e-05
4.350911e-05 2.0899739e-05 6.7337714e-05 2.6763335e-08 2.603807e-05 3.3373668e-05 2.681348e-05 2.081512e-05
5.177743e-05 2.1216595e-08 7.954731e-06 2.1308964e-05 7.24789e-05 4.114692e-05 2.709613e-05 8.9064606e-08
8.843515e-06 4.6921603e-05 2.0026959e-10 3.0006834e-08 4.021472e-05 3.349628e-05 5.4576187e-05 3.5797816e-06
1.5836398e-05 1.7490273e-05 6.291073e-05 6.7777382e-06 5.5611564e-11 2.4762492e-05 1.1125485e-05 5.3385334e-05
3.1726802e-05 5.5229102e-05 5.4805703e-05 2.0658956e-05 1.1790466e-05 0.00010299057 7.459685e-08 1.7088429e-05
9.287222e-06 0.00016768933 5.0951305e-05 5.0606028e-05 3.125846e-27 2.5201824e-05 0.0001069889 5.4997417e-05
8.1659986e-05 4.3721342e-05 3.0409634e-05 4.3404532e-05 1.9697529e-05 4.6574896e-05 1.9410145e-05 1.6585025e-05
1.4366848e-06 3.121039e-05 1.3486451e-05 3.598137e-05 3.0160352e-05 2.0413276e-08 1.8365225e-05 8.298627e-06
2.9897094e-05 5.461086e-06 3.037632e-05 2.4501152e-05 4.3266286e-05 7.341363e-05 2.862019e-05 2.20255e-05
7.036697e-05 2.0911727e-06 2.5726893e-05 8.701979e-06 1.20867735e-05 6.1541587e-06 1.5019136e-10 2.809556e-06
3.320378e-05 2.7036833e-05 0.00010908522 1.862261e-05 8.90413e-05 1.5464092e-06 7.999295e-06 2.7884357e-06
5.6803715e-06 5.018065e-05 3.7228336e-05 7.483365e-05 3.5655296e-05 6.6470704e-05 5.3799224e-05 5.326295e-05
9.068377e-06 8.337228e-05 4.786543e-05 2.9131643e-05 4.2221354e-06 4.088986e-06 4.2217334e-06 0.00010886925
3.961881e-05 5.762919e-05 9.7501375e-05 2.8343351e-05 3.7384056e-05 9.396763e-06 2.3450891e-06 5.2530628e-05
00000000: 4b35 a538 9bc2 db30 47d3 5d37 0129 9437
00000010: e8a3 6737 44b9 ab38 dfd5 4336 d0f4 8d34
00000020: b583 6935 7982 7c36 8a5f cb38 13ac 9c38
00000030: 9bf1 fc37 ceaa 2838 70c2 e737 dc36 7838
00000040: 8d7d 3638 d951 af37 a937 8d38 32e5 e532
00000050: 546c da37 b4fa 0b38 83ed e037 219c ae37
00000060: 982b 5938 c93f b632 4f75 0537 a7c0 b237
00000070: d0ff 9738 2b95 2c38 7f4c e337 c943 bf33
00000080: 9c5e 1437 b0cd 4438 e132 5c2f dde0 0033
00000090: 3aac 2838 5b7e 0c38 bce8 6438 2e3c 7036
000000a0: 68d8 8437 13b8 9237 f1ee 8338 546c e336
000000b0: 0e95 742e 0cb9 cf37 98a7 3a37 11ea 5f38
000000c0: 6512 0538 cca5 6738 2ddf 6538 c54c ad37
000000d0: aacf 4537 a4fc d738 0d32 a033 1f59 8f37
000000e0: 51d0 1b37 c3d5 2f39 8cb4 5538 cf41 5438
000000f0: b0a7 7713 8168 d337 3a5f e038 07ad 6638
00000100: df40 ab38 6f61 3738 3118 ff37 430d 3638
00000110: 1f3c a537 6a59 4338 f8d2 a237 1220 8b37
00000120: 1dd4 c035 e7e7 0238 de43 6237 b4ea 1638
00000130: dd00 fd37 4559 af32 050f 9a37 553a 0b37
00000140: 85cb fa37 5f3e b736 a7d0 fe37 d387 cd37
00000150: d278 3538 a4f5 9938 6415 f037 67c3 b837
00000160: fb91 9338 1356 0c36 15d0 d737 b7fe 1137
00000170: 4cc8 4a37 d27f ce36 1c23 252f ce8b 3c36
00000180: 4a44 0b38 28cd e237 aec4 e438 c037 9c37
00000190: afbb ba38 378e cf35 b634 0637 f620 3b36
000001a0: 059a be36 1079 5238 9f25 1c38 03f0 9c38
000001b0: 958c 1538 3066 8b38 7aa6 6138 a866 5f38
000001c0: 6224 1837 27d8 ae38 1dc3 4838 ba5f f437
000001d0: deab 8d36 1f34 8936 6aa8 8d36 bc50 e438
000001e0: 602c 2638 dfb6 7138 a779 cc38 e2c2 ed37
000001f0: d3cc 1c38 caa6 1d37 5360 1d36 5554 5c38
