results/test-7/Drive/Drive-7055.onnx (onnx, 80694 bytes, 7 tensors)

network_body._body_endoder.seq_layers.0.weight f4 [128, 17]
000000 07 f9 18 3f 91 6b c3 3e 88 a8 5f bd da be 7b bd
       0.59754986 0.38168004 -0.054604083 -0.061461307
000010 4e 53 ad bd 8a f5 53 bd 11 e9 d0 be 1f 96 28 be
       -0.08463155 -0.051747836 -0.40802816 -0.16463517
000020 77 e5 9f 3e 95 4a 85 be d5 0a 0b 3e 59 86 c7 3d
       0.31229755 -0.26033464 0.13578351 0.09742422
000030 cf 78 84 3e a0 92 80 be 14 ec 1f 3e ee f6 5f bd
       0.2587342 -0.25111866 0.156174 -0.05467885
000040 b9 fd ef 3d 22 35 1a bd f9 13 98 3e 30 0f f8 3c
       0.11718316 -0.037648328 0.29702738 0.03028068
000050 f4 66 eb 3e e0 15 9b 3d bf 3f 8d bd 8a a2 4e bd
       0.45976985 0.07572532 -0.06896924 -0.050447978
000060 a0 0a 79 bc ac 76 f2 3d d5 73 9a be 99 cb 3e 3e
       -0.015200287 0.11839041 -0.30166498 0.18632354
000070 f9 f4 95 3d 40 81 ad 3d 95 94 c0 be 59 f1 90 be
       0.073221155 0.08471918 -0.3761336 -0.28309134
000080 de 7b 47 bd 81 bf 39 be fa d4 86 bd 12 e1 8f be
       -0.048702113 -0.18139459 -0.06583591 -0.28101403
000090 f1 64 8e 3e d3 9c 94 3e 49 81 ad be c7 53 ca bd
       0.27811387 0.29025897 -0.338877 -0.098792605
0000a0 ce 6b 89 bc 61 95 11 be 51 9a d4 bd f6 ef 0f 3e
       -0.016775038 -0.1421714 -0.10380996 0.14056382
0000b0 b8 aa 0c be 28 44 c9 3e 04 2d d6 bd 75 78 bc be
       -0.13736999 0.39309812 -0.10457805 -0.3681065
0000c0 95 cf 1a be be 60 40 3e 9b 66 f5 3d c3 08 1e bc
       -0.15118249 0.18786904 0.11982461 -0.009645644
0000d0 c3 dd 99 be ee a2 a0 bd d1 6d 90 bd 7f fd 8e bc
       -0.30052003 -0.07843576 -0.07052196 -0.01745486
0000e0 5c 01 63 be 3f c5 59 be 19 0f 48 3e 5d 1b 78 be
       -0.22168487 -0.2126665 0.1953701 -0.24229188
0000f0 c8 cf 44 bd 82 97 8c be 15 3f 1d bd e6 ad 09 be
       -0.04804972 -0.2745934 -0.038390238 -0.13445243
000100 47 3d 59 be d6 7e 9d be f6 10 9a 3e 5f e1 9b bd
       -0.21214782 -0.3076083 0.30091065 -0.076113455
000110 e5 56 3f bd e6 46 18 3e a2 af fb 3e 04 15 3b 3e
       -0.04671373 0.14870796 0.49157435 0.18269736
000120 d4 86 84 3d 4f 82 61 be ad a3 0a 3f f0 9e fa bd
       0.06471029 -0.22022365 0.54156 -0.12237346
000130 3f 58 1c bf 0a c5 51 be e3 8c 96 bc b2 11 b1 be
       -0.6107215 -0.2048532 -0.018377727 -0.34583813
000140 86 5e e1 3e 61 48 1c 3e 94 16 bc 3e 77 a1 51 be
       0.44017428 0.15261985 0.36735976 -0.2047175
000150 8d c9 08 3e aa 4c 11 3d 80 d5 37 bd 5c 25 71 3e
       0.13358136 0.035473503 -0.044881344 0.23549408
000160 26 2a d5 3e a6 b4 b5 bd a2 1c 1a 3c ec 12 94 3e
       0.4163372 -0.088723466 0.009406241 0.28920686
000170 8c 28 11 be 2a e4 b6 3d ad 4e 41 3c 30 43 14 3e
       -0.14175624 0.089302376 0.011798543 0.14478755
000180 27 e4 b5 3d 09 59 83 3c 58 d5 2d be d9 b4 54 be
       0.08881407 0.016033666 -0.16975915 -0.20772113
000190 30 0f 56 be b0 c8 6a be dd 10 28 3e 60 cd 68 be
       -0.20904231 -0.22928119 0.16412683 -0.22734594
0001a0 07 bf ba 3e 3f be 89 3e 56 a4 95 3d 02 c1 82 bc
       0.36473867 0.2690296 0.07306735 -0.015961174
0001b0 56 d6 1b be 4b 60 9a 3c 78 5d be 3e 0f 8b 4c bd
       -0.15218481 0.018844744 0.37180686 -0.049937304
0001c0 3e e5 89 3e 7f 30 de bd cd 9f 9e 3e 90 11 a2 3e
       0.2693271 -0.10849094 0.30981293 0.31654024
0001d0 af a9 a1 be 67 6f 7a bd 91 c3 59 be 28 61 88 3e
       -0.3157477 -0.061141398 -0.21266009 0.26636624
0001e0 e5 15 3c bd 81 da 85 3d 22 f7 65 be ac 1e de 3d
       -0.045919318 0.06535817 -0.22457555 0.10845694
0001f0 ec 6d 20 3e ab 16 ed 3b 4b 43 b4 be 0b 90 fd 3d
       0.15666932 0.0072353682 -0.3520759 0.1238099
000200 d5 2e 21 bf 3f ea 4f 3e 50 ef 2b bc f3 30 a0 3e
       -0.62962085 0.20304202 -0.010494068 0.31287345
000210 3a 65 05 3e 37 b6 c2 3d b2 06 98 3e 64 ae 6c 3d
       0.13026896 0.09507411 0.29692608 0.0577835
000220 8c a5 82 3c 24 40 89 3e f3 db 1c 3e 77 d4 22 be
       0.01594808 0.26806748 0.15318279 -0.15901361
000230 0d 7b c5 3d f4 3e 70 3d c1 19 ca 3e d2 58 cf be
       0.09642611 0.058653787 0.39472774 -0.40497452
000240 15 4d d1 be ba c4 2e 3e 64 2c c0 be 65 73 ad bd
       -0.4087912 0.17067233 -0.37533867 -0.084692754
000250 30 e6 cf be e9 8c e3 bd d7 1e 42 be 05 83 49 3e
       -0.40605307 -0.11110861 -0.18957077 0.19678886
000260 da 62 8d 3e 81 56 63 3e 05 f7 59 be bd 66 ab 3d
       0.2761448 0.22200967 -0.21285637 0.08369205
000270 ef 49 7b 3e 56 82 5c be a4 12 f0 bd d7 ab 6d 3e
       0.24539922 -0.21534094 -0.117223054 0.23210083
000280 6c 8a ef 3d b8 bc 81 3d 4c 0e 1a be 16 16 71 3c
       0.11696324 0.06334823 -0.15044516 0.014714738
000290 c5 0d f0 3d 0e a5 0c be ea fc 7e 3e 23 16 f5 be
       0.11721376 -0.13734838 0.24901167 -0.4786845
0002a0 38 41 1a 3e 89 a7 69 bb b4 f6 f9 3d ec 36 97 be
       0.15063941 -0.0035652837 0.12205258 -0.2953409
0002b0 be 40 c8 bc 00 9d c6 be 69 d2 c0 bd bd c7 7f be
       -0.024444934 -0.38791656 -0.094151326 -0.24978538
0002c0 14 15 53 bd 36 d3 12 3e f8 26 ed 3c de 3e 69 be
       -0.051533774 0.14338383 0.028949246 -0.22777888
0002d0 80 c2 e2 be 2e 9a e2 3d 06 f4 2c 3e 38 59 48 3e
       -0.44289017 0.11064564 0.16889963 0.19565284
0002e0 90 11 18 3f 61 db 23 3d f9 23 89 3e 70 c8 ad be
       0.594018 0.040004138 0.26785257 -0.33941984
0002f0 a0 c5 b3 3d cd 4b 7c be 6e 8a d6 be 52 0d ca 3e
       0.08777928 -0.2463829 -0.41902488 0.39463288
000300 9c d4 b1 3e d3 d9 38 be 77 3e 58 3e 44 e8 ef 3e
       0.3473252 -0.18051843 0.21117578 0.46856892
000310 25 7f 34 be 13 09 83 3e ae 6f 04 3e f2 fb 94 3e
       -0.17626627 0.2559286 0.12933227 0.2909847
000320 97 33 ac be ef 8f ad bc 0f b9 b1 3e 87 c0 e9 be
       -0.3363311 -0.021186797 0.347115 -0.456547
000330 15 24 86 3e f8 e2 9f 3e 71 57 c7 bd 55 1b f5 be
       0.26199403 0.3122785 -0.09733475 -0.47872415
000340 0c af c0 be 5a 4e a4 be 43 c9 8e 3e 59 45 4f 3e
       -0.3763355 -0.32091027 0.27887926 0.20241298
000350 fd b6 5a bf 9c 85 cf be 31 77 b9 bd e9 e7 de be
       -0.8543547 -0.40531623 -0.09055937 -0.43536308
000360 23 57 39 be 22 e7 c4 3d 8a 6a 19 be f8 1d a6 3e
       -0.18099646 0.096143976 -0.14982048 0.3244474
000370 ad 37 14 be ea 59 dd be c0 fe 08 bf cd 0a 21 be
       -0.14474364 -0.4323266 -0.5351372 -0.15726776
000380 e3 bf ca 3c 50 7b b8 bd a0 e3 4a be de 29 47 be
       0.024749702 -0.09007895 -0.19813395 -0.19449565
000390 c1 aa 39 be 29 e5 a7 bd 5a ca c0 bd 9f e9 b9 be
       -0.18131544 -0.08198006 -0.094135955 -0.3631105
0003a0 ab 54 3f 3d b1 92 d9 be 34 97 03 3e f2 ce c4 be
       0.046711605 -0.4249473 0.12850648 -0.38439137
0003b0 55 04 ec 3b 0d 97 a2 be f4 18 09 3e b0 30 3c bd
       0.007202665 -0.31755868 0.13388425 -0.04594487
0003c0 cd 08 8c 3e 8f 5e 54 be 25 a9 69 be d6 b1 46 3e
       0.27350464 -0.20739196 -0.2281843 0.19403777
0003d0 43 2e 90 3e 6a 58 9e bd 4a 60 78 be 3f 52 4c 3b
       0.28160295 -0.077317074 -0.24255481 0.0031176952
0003e0 b6 f1 14 3e b8 de 71 3e 34 b3 d9 bc 83 ac ad bc
       0.1454533 0.23620117 -0.026574709 -0.021200424
0003f0 29 b0 6d bc 5a 51 98 bc ea 72 3e be d4 0d e0 bd
       -0.014507332 -0.018593479 -0.18598524 -0.109401375

network_body._body_endoder.seq_layers.0.bias f4 [128]
000000 1d 30 04 bc 69 88 2f bc 52 28 75 3b 07 45 71 bb
       -0.008068112 -0.010713675 0.0037408066 -0.0036814825
000010 63 38 7d bb 4f 8d 96 bc 04 27 da bb 3f 71 63 3b
       -0.0038638345 -0.018377928 -0.006657483 0.003470495
000020 d1 79 61 bb 16 cf 00 bc 7b 25 f9 3a 48 52 1e 3b
       -0.0034404884 -0.007861873 0.0019008362 0.002415793
000030 22 76 63 3b 8a 01 63 bb fa c4 d7 bb 0f fb 22 39
       0.0034707864 -0.0034638369 -0.0065847607 0.0001554305
000040 c5 8a d1 3b f5 11 3e bc 79 2e 37 bc 11 8f 91 bc
       0.0063947164 -0.011600961 -0.011180514 -0.017768415
000050 c2 54 fb bb 59 d3 5f bb ab e0 f0 3b 8c 75 18 3c
       -0.007670016 -0.0034153073 0.0073510013 0.009305369
000060 13 2f 4e 3a 1d 7a 6e bb 72 b5 2a 3c bd 88 25 3c
       0.0007865291 -0.0036388703 0.0104192365 0.010103402
000070 b4 b9 5f 3b 48 e0 08 39 6a d1 b5 bc 32 8f b2 3b
       0.0034137787 0.00013053522 -0.022194583 0.005449199
000080 11 a3 81 bb 23 4e 8b 3b ae 05 99 bb 9c 90 4f 3c
       -0.0039562066 0.004251258 -0.0046698665 0.012668755
000090 e3 3d b5 3b f4 7c 7d bb 35 83 0e bc e5 f6 18 3a
       0.005531059 -0.0038679214 -0.008698274 0.000583513
0000a0 c5 3e 55 bc 27 59 6f 3b 7c 25 a8 3a 1b 27 f3 bc
       -0.013015454 0.0036521645 0.0012828554 -0.029681733
0000b0 ab ac 04 bc 5c 7f 38 39 c3 54 92 3c 14 0d c6 3a
       -0.008097808 0.00017595052 0.017862683 0.0015110099
0000c0 bc ac 25 3b 67 a2 df bc 4a 19 7e bc 4b 60 92 39
       0.002527996 -0.02729912 -0.015508959 0.00027919034
0000d0 9b 84 9c 3b 0c 67 0e bb 17 7b 5b 3b ea e6 12 bc
       0.00477655 -0.0021728901 0.0033490115 -0.008966187
0000e0 3b 92 b3 3b 2d 14 98 bb b7 76 f8 bb 1c 2b 49 ba
       0.0054800785 -0.004641077 -0.0075825113 -0.00076739653
0000f0 55 15 6c bb d6 ed b1 bc 65 84 bd ba d5 f7 3d bc
       -0.0036023457 -0.021719854 -0.0014459012 -0.011594732
000100 ee 98 a7 bb 6e 44 42 3b 0f 33 b9 bb d1 4a 62 bc
       -0.005114666 0.0029642838 -0.0056518386 -0.013811783
000110 21 6d e9 ba fb 5f 50 3b 19 89 32 3d f4 c7 02 bc
       -0.0017809012 0.003179549 0.043587778 -0.007982243
000120 62 b3 52 bb d5 bc 48 3c 27 84 22 bc d7 3b e2 b9
       -0.0032150378 0.012252052 -0.009919203 -0.00043150663
000130 c5 85 c6 bb c0 c8 03 bc 65 53 eb bb 48 f5 03 bc
       -0.006058427 -0.008043468 -0.0071815723 -0.008054085
000140 75 99 00 3c 43 9a ca bc 0d c9 68 3b 28 f1 65 ba
       0.007849087 -0.02473176 0.0035520226 -0.0008771592
000150 a6 e3 37 3d a4 87 86 bb a9 c2 45 3a c7 15 5d 3b
       0.044894837 -0.004105525 0.000754396 0.0033734904
000160 20 cc da 3c 92 23 21 bc 01 c6 12 3c 58 cf e8 3b
       0.026708663 -0.009835141 0.008958341 0.0071047954
000170 05 f2 c9 ba 74 79 00 3c 14 af 9a 3c f3 35 75 3b
       -0.001540721 0.007841457 0.018882312 0.003741619
000180 d2 8b 3c bc 30 1e aa bb d2 ab 81 3c 6e 57 ab bb
       -0.011507945 -0.005191587 0.015829 -0.0052289283
000190 ff de a1 bb a7 ab 2e 3a ad 23 3d 3d 35 d9 23 b9
       -0.0049399133 0.00066631514 0.0461766 -0.00015625807
0001a0 62 e4 71 3b c9 ee 6f 3b fc f7 d1 b8 30 d5 70 bc
       0.0036909808 0.0036610833 -0.00010012087 -0.014699265
0001b0 5e 78 6d bb 19 8a 64 bc 88 ab 83 bc 46 4f 63 3a
       -0.0036235075 -0.013948941 -0.016073003 0.00086711755
0001c0 05 bd 7b 3b 9b 41 95 bb 5a e3 57 bc b4 31 ed 3b
       0.0038412225 -0.00455494 -0.013176763 0.007238591
0001d0 8c 3e c9 bc c1 72 6a 3b 6e d8 d3 bc 9f a9 6e 3c
       -0.024565957 0.0035773965 -0.025860038 0.014566808
0001e0 52 45 ec bb 9e 0b be bb 78 14 62 bb 91 fe 86 bb
       -0.007210412 -0.0057997247 -0.0034497064 -0.004119702
0001f0 e4 cb c9 bb 7e 1e f5 3a 1b b8 84 3c b0 5b 15 3c
       -0.006158339 0.0018701104 0.01620107 0.009116098

network_body._body_endoder.seq_layers.2.weight f4 [128, 128]
000000 89 5d 98 3d 73 2c 45 3c 75 ef a7 bd ce 53 ff 3d
       0.074397154 0.012034523 -0.0819997 0.12467156
000010 ff ac cd bc 41 c7 c5 bd 27 90 2b be 84 c5 f4 bc
       -0.025106905 -0.09657145 -0.16754209 -0.029879339
000020 af d5 0c be 31 05 10 3d e2 9c a2 3b d9 45 0e bd
       -0.13753389 0.0351612 0.0049625495 -0.03473458
000030 b9 7e 28 3d e3 0e ba 3d 45 e9 f9 bb ad da ea 3d
       0.041136477 0.09084871 -0.007626685 0.1146749
000040 43 18 ec 39 8a 20 63 be a8 5b b1 3d 99 08 3c 3c
       0.00045031504 -0.22180381 0.0866006 0.011476659
000050 f5 35 42 be 75 15 1c 3e dd 83 64 bd c7 ba 6b bd
       -0.18965895 0.1524256 -0.055789817 -0.05755117
000060 25 25 87 3c 7f ec 31 3c cc 4d 40 bc b4 16 d1 bd
       0.016497204 0.010859608 -0.011737298 -0.102094084
000070 86 b7 a3 3d 03 d1 7c 3c 78 7c a8 bd c5 b1 c5 ba
       0.07993989 0.015430692 -0.082268655 -0.0015082887
000080 c1 2f a8 bc 52 ad 20 3d e0 65 ee bd ba 3e c7 3b
       -0.020530583 0.03922779 -0.11640525 0.0060804756
000090 88 a4 8e bc ce 3f 9e bd a2 1f 51 3c af a0 b7 bb
       -0.017412439 -0.077270135 0.0127638895 -0.005603872
0000a0 29 35 06 bd f7 3e be bb a4 c3 d9 3b 6a 55 05 bd
       -0.03276554 -0.005805846 0.0066456366 -0.03255216
0000b0 83 37 e7 bd 12 07 48 3d e5 b5 a1 3d 08 e8 7b 3d
       -0.11289885 0.048834868 0.07896022 0.06150058
0000c0 df ba 94 bd e3 9b 22 3e 48 43 58 3d 0c 5c a5 3d
       -0.07262205 0.15879779 0.05279854 0.08074197
0000d0 be f0 4f bd 40 99 9e 3c 59 82 0e be 1e 34 61 3d
       -0.0507667 0.019360185 -0.13916911 0.054981343
0000e0 06 78 41 3e 0e f9 da 3d 9d 8b ea bd bf 6f a1 bd
       0.18893442 0.10692035 -0.1145241 -0.07882642
0000f0 af 14 ce 3c 10 b0 8e bc 54 61 59 bd bd dd 30 3e
       0.025156347 -0.017417938 -0.053071335 0.17272086
000100 3e 26 51 bd 0a 70 61 3c 08 07 ac bc e5 ca c5 bd
       -0.05106186 0.013759622 -0.020999447 -0.0965784
000110 7c 41 4a 3d 47 97 96 3d 5f e8 2b bd 0d 46 3e bd
       0.049378857 0.073530726 -0.041969653 -0.046453524
000120 c7 10 d8 3d 7d 90 f5 3d f7 e2 87 be 56 07 1b 39
       0.10550075 0.119904496 -0.26540348 0.00014784685
000130 cc 90 c8 3c bc ee b1 bd f8 d1 0a be 25 b6 25 bd
       0.024483107 -0.08688113 -0.13556659 -0.04045691
000140 c2 77 4f 3d da 75 a5 3d 7c cb 89 3d ce d2 00 3e
       0.05065132 0.08079119 0.06728265 0.12580416
000150 46 80 c4 bd d2 c2 70 3c 36 7a da 3c 18 c2 18 3d
       -0.09594779 0.014694886 0.026669603 0.037294477
000160 5c d1 9d bd 30 d6 ee bd 1a 9b 87 3d 47 cb 8b bd
       -0.07705948 -0.11661947 0.0662138 -0.068258815
000170 f1 fc 90 bd 4a ef d6 3d aa 5b cb 3d 7b ec 31 3d
       -0.07079495 0.104948595 0.09929593 0.043438416
000180 c6 cf cc 3d 3a 6b 42 bd f0 7f 3c 3e ef a3 3d bd
       0.10000567 -0.04746554 0.1840818 -0.046298917
000190 c8 52 45 bd 64 aa af 3d f6 20 7f bd cc 96 0a 3e
       -0.04817465 0.08577421 -0.062287293 0.13534087
0001a0 d0 5c 3d be c3 53 07 bd 97 cb c8 ba c9 03 10 3d
       -0.18492436 -0.033038866 -0.0015319464 0.03515986
0001b0 26 1d f3 bd 59 61 f2 3d 6d 0e 57 bc 00 54 03 bd
       -0.11870794 0.11834974 -0.013125998 -0.03206253
0001c0 6f 5d 91 3c a5 f2 00 bd 4e d2 0a 3e 32 9a f5 3a
       0.017744748 -0.031481404 0.13556787 0.001873797
0001d0 44 55 03 be 7c ad 27 3e 64 22 a7 3d d3 31 33 bc
       -0.12825495 0.16374773 0.08160856 -0.010937172
0001e0 a9 69 99 bd a0 5c 0d 3d 4f e1 ce bd ff 7e ce 3c
       -0.07490856 0.034512162 -0.10101568 0.02520704
0001f0 ff 69 7d 3c f4 5c a3 bd 1b d4 34 3e ae eb 9c 3d
       0.015467166 -0.07976714 0.17659037 0.0766214
000200 e8 12 16 3d a2 20 20 3d 7a 0c 25 3e ea e2 d4 3c
       0.036639124 0.03909362 0.1611804 0.025987107
000210 60 18 fd bd d7 15 96 bd 4f 66 39 be c8 8f 70 bd
       -0.12358165 -0.07328384 -0.18105434 -0.05873087
000220 f0 7c cd bd 70 13 b6 bc 56 80 d3 bd 7c 20 29 3c
       -0.100335956 -0.022226065 -0.103272125 0.010322686
000230 1a bb d5 bd 91 76 ec bd db e9 44 bd de 27 0e bd
       -0.104360774 -0.11546052 -0.048074584 -0.03470599
000240 c1 38 0b 3d 46 8d 00 3c 95 a1 d8 bc e5 3e 7c 3d
       0.03398967 0.007846182 -0.026444236 0.06158342
000250 77 e8 15 bc f6 eb 9a bd cb 8c 9a 3d 15 4a aa 3c
       -0.009149662 -0.07564537 0.075463854 0.020787278
000260 57 c8 84 3c d7 7a cd 3d 0f 5f 16 be 78 8b 26 3d
       0.01620881 0.100331955 -0.146847 0.04066035
000270 4f 19 54 be 8d f1 af 3c 72 73 16 3d b0 c8 01 be
       -0.2071278 0.021477485 0.03673119 -0.12674212
000280 41 a9 43 3d eb 75 eb 3d df 14 fc bd dd 4c 26 3d
       0.047768835 0.114971004 -0.12308668 0.040600646
000290 6b e2 cd bd 5c af ef 3d d9 39 8e ba 8b bf c5 bd
       -0.100529514 0.11703369 -0.001085098 -0.096556745
0002a0 8b 98 20 3d 3f ff 2d 3d 90 17 41 3d e8 b4 fc 3d
       0.039207976 0.04247975 0.04714161 0.12339193
0002b0 8d 42 80 bd 98 74 99 bd c3 95 a8 3d da f1 9d bd
       -0.062626936 -0.074929416 0.0823169 -0.07712145
0002c0 7d 6e 49 3d d4 a2 50 be 97 77 8d bd ce 8b 5c 3d
       0.049177635 -0.20374614 -0.069075756 0.053844266
0002d0 6c e3 6f 3e cf 64 92 3d e8 d8 46 3d 0d ad 3b bd
       0.23426598 0.07148134 0.0485467 -0.04581933
0002e0 9c 2e 4c 3d 58 10 d5 bd 0e c0 66 3b 11 e0 80 bd
       0.049849138 -0.10403508 0.0035209688 -0.06292737
0002f0 37 ed bd 3d e4 6b 23 3c 90 d7 46 3d fa 65 d5 bd
       0.09273761 0.009974454 0.04854542 -0.10419841
000300 33 ad 47 be 9f 63 34 be 40 5d 9b 3b ed e4 71 3d
       -0.19499664 -0.17616127 0.004741341 0.05905621
000310 21 c3 0d be 5b 0d f0 bc 55 ac 1f 3b 7e b0 3e 3d
       -0.13843967 -0.029303243 0.0024364193 0.046555035
000320 79 c6 5a 3c ae 8e 42 3c e1 45 d1 3b f4 8b 84 be
       0.013352984 0.011874838 0.006386504 -0.25888026
000330 ad 29 7c bd dd 56 9f bd 77 26 9f 3d 3c 15 d9 3d
       -0.061563183 -0.0778024 0.077710085 0.10599753
000340 31 ed c4 bd 93 d0 67 ba 84 5c 6f 3d 72 09 37 3d
       -0.09615553 -0.00088430307 0.05843784 0.044686742
000350 68 87 61 3c b0 57 2d 3d fb dd 11 3d b3 f5 69 be
       0.0137651935 0.042319953 0.035612088 -0.22847633
000360 21 96 a5 3c fb ee 5b 3d fe 5f 18 3d 87 5d d5 bc
       0.020213189 0.053694706 0.03720092 -0.026045574
000370 86 1d 9b 3d a1 1b b0 bc 07 a4 f1 3a 66 02 01 bd
       0.075739905 -0.02149755 0.0018435725 -0.031496428
000380 8c 48 00 3d 6d 87 13 3e f5 9e b9 bc 8c 1e 81 bd
       0.031319186 0.1440713 -0.022658804 -0.063046545
000390 08 15 e4 bd 91 a2 c4 3b cb 8e 20 3d 35 e0 9d 3d
       -0.11136824 0.0060008247 0.039198678 0.0770878
0003a0 0d f9 45 3e b0 3e b9 bd 50 63 a8 bd a0 71 0e 3e
       0.19333287 -0.0904516 -0.08222067 0.13910532
0003b0 34 ac bb bd 31 f7 39 bc da 7e 96 3d fc d1 1c 3c
       -0.091637045 -0.011350439 0.07348414 0.009571549
0003c0 72 ff 05 be b9 07 45 3d da aa be 3d 87 b0 02 be
       -0.13085726 0.048103068 0.09309931 -0.12762652
0003d0 a1 b1 22 3d 18 c0 ab bd 2c b6 90 3c 28 67 35 bd
       0.03972018 -0.08386248 0.017664991 -0.04428783
0003e0 ed 6b 29 bd ad 15 24 3d 78 c5 7d bd 98 c8 ad bc
       -0.04136269 0.040059734 -0.0619559 -0.021213815
0003f0 20 d9 ca bc 73 83 3a 3e 70 0b e3 bd 49 96 b8 bd
       -0.024761736 0.18214206 -0.11086166 -0.090130396

network_body._body_endoder.seq_layers.2.bias f4 [128]
000000 1d 98 a7 bb 10 07 df bb 90 0a 4c 3a d2 19 84 bc
       -0.005114569 -0.006806262 0.00077835564 -0.016125593
000010 5a a6 e2 bb 9e ab da b8 be e2 38 bb c3 f0 9c bc
       -0.0069168033 -0.00010427016 -0.002821132 -0.019157773
000020 5b d6 28 bc 02 be 26 bb 84 3f 4d 3b 32 29 82 bc
       -0.010305013 -0.0025442843 0.0031318376 -0.015888784
000030 39 4d 8f 3b 93 07 86 bb ce 10 90 3a 9f 56 be bb
       0.0043732193 -0.0040902584 0.0010991336 -0.005808666
000040 1e 42 52 bc a5 71 20 bc 58 2f 54 bc 37 5b 9d 3a
       -0.012833146 -0.00979272 -0.012950741 0.0012005334
000050 3c ca 24 3b 78 7d 84 bb c2 de 8a ba 7c e4 68 3c
       0.0025144955 -0.0040432774 -0.0010594951 0.014214631
000060 c5 fe 86 3b 1c 62 8f ba e9 8a bb bb 92 f6 96 bc
       0.0041197264 -0.0010939273 -0.0057233465 -0.01842812
000070 03 f2 90 bb a1 e7 b5 bb c0 0e f6 bb 9b 35 a9 3b
       -0.0044233813 -0.005551294 -0.0075090826 0.005163861
000080 a9 9e 44 3b bc bf 46 bb ea dc d0 bb 8d 9c 02 bc
       0.0030001795 -0.0030326685 -0.0063739913 -0.007971895
000090 9c 06 4a bb 8b 68 c1 3a 04 85 e6 bb dc 07 02 bc
       -0.0030826693 0.0014755888 -0.0070348997 -0.007936444
0000a0 0f 2b 3a bc c6 72 49 bc 71 2f 94 ba e2 4d 75 bb
       -0.011362805 -0.0122954305 -0.0011305643 -0.0037430455
0000b0 13 db e5 bb 0f 59 2c bb 9f 65 94 bb 03 64 34 bc
       -0.007014641 -0.00262982 -0.0045287157 -0.011010173
0000c0 79 12 3f bc bc 5d b7 bb 3e f9 cc bb 99 a2 5e 3a
       -0.011662119 -0.005595891 -0.006255298 0.0008492857
0000d0 50 9c de b9 da c1 84 ba 59 9e 80 bb ed 15 52 bc
       -0.00042459602 -0.0010128573 -0.0039251265 -0.01282261
0000e0 20 f2 29 3b 56 0a 64 bb 1b 58 3e bc f4 ac c7 3b
       0.0025931671 -0.00347962 -0.011617686 0.0060936157
0000f0 6f d6 b6 3a 07 a6 11 3c 36 b0 f6 3b d8 e7 80 bb
       0.0013949404 0.008889682 0.00752833 -0.003933888
000100 1c 73 b1 bb e2 20 32 3b c8 a5 0b bb 69 cf ed bb
       -0.0054153334 0.0027180244 -0.002130853 -0.0072573912
000110 e7 e0 21 bc 27 1d bf bb 88 65 a8 ba a6 49 43 bc
       -0.009880281 -0.0058323327 -0.0012847641 -0.011919415
000120 10 5a b2 bc 50 c0 39 bc e4 da 82 b9 2e f2 1d bc
       -0.02177146 -0.011337355 -0.00024958618 -0.00964026
000130 46 25 47 39 19 83 c5 bb 17 3d 82 3b 83 43 3a b9
       0.00018992004 -0.006027591 0.0039745676 -0.00017763492
000140 6b 27 c7 bb 2a bd 22 bc 06 70 fa 3a 0c 8d 4a bc
       -0.006077697 -0.009932796 0.0019106872 -0.01236273
000150 d5 07 4b 3b 33 4a 3c bb 78 94 1e bb fa 55 cf 3a
       0.003098001 -0.002873075 -0.002419738 0.001581847
000160 c3 a9 80 bb ba f1 04 bc 3d ce 06 ba e4 86 a1 bb
       -0.003926487 -0.008114273 -0.0005142426 -0.0049294103
000170 c8 7f a1 bb d6 8b cb 3b 0d 77 3c bb bc e2 7d 3b
       -0.004928563 0.006211738 -0.0028757483 0.003873988
000180 65 55 93 bb 63 e8 04 bc 99 90 13 bc af e3 f4 bb
       -0.004496264 -0.008112046 -0.009006643 -0.007473431
000190 ee cd a4 3b d5 49 a9 3b c7 76 54 ba 78 4b 39 bc
       0.0050294315 0.005166272 -0.00081048574 -0.011309497
0001a0 95 fc 63 bc f9 54 e6 bb fa 0a 1c bb e7 45 40 bc
       -0.013915201 -0.0070291725 -0.0023810253 -0.011735416
0001b0 8e fa 41 bc 1e 92 35 3b 1e 67 76 bb b8 cb 11 bc
       -0.011839522 0.00277055 -0.0037598084 -0.008898668
0001c0 2c 28 61 bb 6a 22 29 3b 71 3b 66 bb 86 f0 8f bb
       -0.003435622 0.0025807866 -0.0035130645 -0.0043926863
0001d0 3b 19 f2 bb 02 1c 23 bc f8 c6 9a ba 94 d4 21 bc
       -0.0073882616 -0.009955408 -0.0011808565 -0.009877343
0001e0 41 ae 91 bc df 20 b9 bb 31 04 00 bc 65 e4 ab 3b
       -0.017783286 -0.0056496705 -0.007813499 0.0052457326
0001f0 b3 db 4c bc e5 9d 8a 3b 94 1a af 3b 34 b4 80 bb
       -0.012503552 0.0042302483 0.0053437445 -0.003927732

action_model._continuous_distribution.log_sigma f4 [1, 2]
000000 e4 9e f1 bb 30 ca ff bb
       -0.0073736776 -0.007806085

action_model._continuous_distribution.mu.weight f4 [2, 128]
000000 73 77 d8 bc 96 17 ed 3b e4 29 74 bc 3e 5c f0 3a
       -0.026424145 0.0072354777 -0.014902566 0.0018338037
000010 e0 ed b0 3b 66 6b af ba 4b 0a 85 3d eb 1e f0 3b
       0.0053994507 -0.0013383448 0.06496104 0.0073279045
000020 72 0d b9 3b a8 c5 b5 3b 94 93 be bc f9 ef 97 3c
       0.0056473548 0.005547244 -0.02326373 0.018547045
000030 bb 6f 89 bc 7a d0 aa ba bd e8 ea 3c 97 29 49 3c
       -0.01677691 -0.0013032102 0.028675431 0.012277982
000040 cb 08 ef 3b 63 aa 59 3c 92 b7 5b 3b 7f 99 44 bc
       0.0072947494 0.013285252 0.0033526164 -0.011999487
000050 4b f2 8a bc 1a eb 91 bc 7b 4f 9b 3c ed 71 3f bc
       -0.016961237 -0.0178123 0.018958798 -0.011684877
000060 05 e1 a6 bc c6 d7 90 bc e6 04 b0 3c 2d 40 2a 3b
       -0.02037097 -0.017681014 0.02148671 0.0025978193
000070 d7 8d 4c 3b e8 30 1e 3c a3 0d de 3c 8a ec ac bc
       0.0031212473 0.009655215 0.027106112 -0.021108884
000080 3a c7 c7 bc eb 43 07 bd c2 42 57 bb 95 df a1 3c
       -0.02438699 -0.033023756 -0.0032846187 0.019759933
000090 83 9a 85 3d 52 78 7c bb e3 95 2f 3d e1 76 5b 3c
       0.065236114 -0.0038523865 0.042867552 0.013395042
0000a0 a5 a3 11 bc 7b b9 3b 3c 5a 9b a9 bc 32 af 6d 3b
       -0.008889114 0.011457796 -0.02070396 0.0036267755
0000b0 76 b6 2a 3a d8 b0 41 3d 25 d7 d2 3c bd 9e ed 3b
       0.0006512174 0.047287792 0.025737355 0.007251589
0000c0 23 92 0d 3c a2 25 29 bc e1 be 41 3c 8c 24 ab 3a
       0.008640799 -0.010323914 0.011825294 0.0013057156
0000d0 64 d6 9b bc 65 61 4f 3b 8d 30 89 bc 04 b1 a4 3b
       -0.019023128 0.0031643745 -0.016746784 0.0050259847
0000e0 c4 06 b4 bc 23 56 ea 3c ee 99 f6 3b f1 65 15 bd
       -0.021975882 0.028605526 0.007525674 -0.036474172
0000f0 89 cf 43 bc 94 dc c1 bc d6 66 52 3a 0f e0 04 3d
       -0.011951336 -0.02366475 0.0008026188 0.03244024
000100 0e 6b a4 3c 65 ab c0 bb 56 dc 19 3d 42 d6 eb 3a
       0.020070579 -0.005879807 0.037563644 0.0017992931
000110 6b db 98 3c 4d a9 d7 bb 29 ed 12 3c 99 4f 99 3c
       0.018659314 -0.0065814615 0.008967676 0.018714713
000120 f4 86 7e bb 3b dc a5 3b eb 13 c6 bc 56 27 c3 3c
       -0.0038837763 0.005061654 -0.02417942 0.023822468
000130 bc ca 52 bc 37 8f 41 3c 8b d7 92 bc b8 53 99 3a
       -0.012865718 0.01181393 -0.017925045 0.0011697924
000140 1b 56 11 3c 71 7d b0 3c d0 41 ba 3b 6c 1b f6 3b
       0.008870627 0.02154419 0.005684115 0.007510593
000150 b9 7b 35 bc f4 39 b6 b9 42 e7 be 3b 91 dc 15 bc
       -0.011076861 -0.00034756924 0.005825908 -0.009146825
000160 9e b6 5b bc e1 c3 e8 3b 04 5f 3e 3d 6a 26 77 bb
       -0.013410239 0.0071034287 0.046477333 -0.0037712106
000170 bb b8 60 3c 62 b6 61 bd b2 f3 23 bb 81 21 ad bc
       0.013715918 -0.055105574 -0.002501708 -0.02113414
000180 bb 90 06 3d 22 cd 2c bc 71 7a 55 3c e1 3f d6 ba
       0.03285287 -0.010546954 0.013029681 -0.0016345942
000190 20 cc f1 bc dd ad 7d bc b5 69 a0 bc 67 34 98 b9
       -0.02951628 -0.015483347 -0.019581655 -0.00029030742
0001a0 38 a2 38 bb 54 d6 cb 3c ce f6 d6 bb 79 59 c4 3b
       -0.0028172862 0.024882473 -0.006560183 0.0059921113
0001b0 91 d8 82 3c d3 2d 84 3d b7 4f b1 3c 5a 2b 51 bc
       0.015972408 0.06454053 0.021644456 -0.0127666835
0001c0 4c 31 16 bc f6 12 fd bc fa 5f 4b 3d b4 ed 79 bc
       -0.009167027 -0.03089283 0.049652077 -0.015254427
0001d0 70 50 47 bd 52 50 a7 3c 63 d8 46 bc 31 51 d0 3c
       -0.048660696 0.020424042 -0.012136552 0.02542934
0001e0 dc ca 34 bb e7 e5 40 bc 03 be 1e 3c 0a b3 15 3b
       -0.0027586734 -0.011773563 0.009688857 0.0022842311
0001f0 d7 9c 77 bb c6 1f 21 3c a9 5a 52 3c 77 7b d1 ba
       -0.0037782693 0.0098342355 0.012838998 -0.001598223
000200 c1 cc a0 38 d8 02 03 bd bb 26 36 bc 35 61 dd 3b
       7.667533e-05 -0.031985134 -0.0111176325 0.0067559727
000210 41 8b e1 3c 42 ed d0 bc 9c 77 e1 3c 0a bc c2 3c
       0.027532222 -0.025503758 0.027522855 0.023771305
000220 e6 b1 31 bc 93 8f af 3b 5d 52 8c 3c f5 db 80 3c
       -0.010845637 0.0053576916 0.017129118 0.015729884
000230 cb 7e 35 bd e0 29 e1 3b 02 15 27 bc b9 02 a5 bc
       -0.044310372 0.006871447 -0.01019788 -0.0201429
000240 a5 83 fd bb 30 eb 9b 3c e1 6d ea 3a e3 2b aa bc
       -0.0077366405 0.019033045 0.001788553 -0.02077288
000250 9c 08 06 3d 3b 95 e7 3c 74 7e 95 3c 2b 62 4e bc
       0.032723054 0.0282694 0.018248774 -0.012596647
000260 df 66 07 bd 71 02 54 bb 35 f5 a5 bc 2d bd 2b 3a
       -0.03305709 -0.0032350088 -0.020258525 0.0006551322
000270 10 de b1 3c 27 ec 84 3a 5a 43 63 bc 39 60 0c bd
       0.021712333 0.001014118 -0.013871038 -0.034271453
000280 1f b0 01 bd 46 85 5d bc 55 3e a0 3c 89 1e d2 3c
       -0.031662103 -0.013520544 0.019560972 0.025649326
000290 b7 d5 3f bd d7 29 f1 bc 33 fa 89 bc 9a 42 51 bc
       -0.046834674 -0.029438896 -0.016842937 -0.012772227
0002a0 9d 46 e8 3c 33 d8 0f bc ba 9f f4 3c a6 e7 16 3c
       0.028353984 -0.008779573 0.02986132 0.009210503
0002b0 8e d7 04 bb 1d 0d 83 3c 6d 91 0f bd bf ac 49 3c
       -0.0020270082 0.015997464 -0.0350508 0.012309252
0002c0 40 88 54 3c 25 b5 82 bb e7 24 44 3d 0d 29 59 3c
       0.012971938 -0.0039888793 0.047886755 0.013254416
0002d0 fd 71 e6 3c eb 14 fa bc f0 7e 86 3c 9e 96 51 bb
       0.028130526 -0.030527553 0.01641795 -0.0031980644
0002e0 5c df 6a ba 91 32 80 bb 83 ae 81 3c cc 77 60 3c
       -0.0008959675 -0.003912278 0.015830284 0.013700437
0002f0 08 16 16 bd f9 be f6 bc 4f f1 f7 bc 6f d7 af 3b
       -0.036642104 -0.03012036 -0.030266432 0.005366258
000300 03 da 5c 3c eb 99 b1 bc ed 5d d7 3c 31 57 b7 3b
       0.013479712 -0.02167984 0.026289904 0.005595111
000310 97 c8 c4 bb 76 2e 90 3b bb bc 9e 3c f9 57 a9 3b
       -0.0060053575 0.00440007 0.019377103 0.005167958
000320 97 d8 6f bb 6e 8e 0c 3c d5 bf 04 bd eb 72 7d bb
       -0.0036597603 0.00857888 -0.032409508 -0.0038673233
000330 43 a0 e4 ba ed e3 9b ba a4 4e 8e bc 64 1a 03 bd
       -0.0017442781 -0.0011893489 -0.017371483 -0.03200759
000340 4e 46 2e bb aa d1 f8 3c fd 7f 85 bb 42 09 2b 3c
       -0.0026592198 0.030373413 -0.0040740953 0.010439219
000350 5e a5 0c bd fc 51 64 3d 00 47 92 bb 52 99 b3 bc
       -0.034337394 0.05574225 -0.0044640303 -0.021923695
000360 59 d5 2f bc df 04 11 3c 9a 0b 14 3b 63 c8 36 3c
       -0.010732018 0.008851259 0.0022589923 0.011156174
000370 63 0d d9 ba e1 40 d7 bb b2 eb d0 3b 40 84 d5 bc
       -0.0016559776 -0.0065690135 0.0063757533 -0.026064038
000380 a2 d3 b4 3c d8 86 01 3d 4e 8b 6b ba 7b 55 d1 3c
       0.02207357 0.031622738 -0.00089852966 0.025553456
000390 44 9c 90 bc 5e 25 c1 bb 71 26 cd 39 92 3a ad bb
       -0.017652638 -0.005894347 0.00039129288 -0.005286523
0003a0 44 bf 06 bc fa e7 e3 3c d7 90 71 3b c0 c4 fb 3c
       -0.008224312 0.027820576 0.0036860013 0.030733466
0003b0 6d 3f 29 3b ec 7b 10 bc 83 7c be 3c af 2a bb 3b
       0.0025825158 -0.008818608 0.023252731 0.0057118754
0003c0 72 bd b5 3c ea 11 a9 bb ef ca ab 3b bf 67 c6 bc
       0.022185061 -0.005159606 0.0052426974 -0.024219392
0003d0 ad ec 1a 3d ec e3 b7 bb c2 09 c4 bc a6 1c 99 bb
       0.037823368 -0.005611887 -0.023930434 -0.0046726046
0003e0 3f 31 eb 3c f5 5c 2a 3c 0f 60 38 bc 91 35 59 bc
       0.028710006 0.010398139 -0.011253371 -0.0132574
0003f0 89 b2 9c 3b a5 ae 4b bd 28 3c cd bc fa a0 37 bc
       0.0047820252 -0.0497271 -0.025053099 -0.011207813

action_model._continuous_distribution.mu.bias f4 [2]
000000 c8 fa f0 bb da e3 af bb
       -0.007354114 -0.005367738
