results/test-7/Drive/Drive-7055.pt (torch, 475170 bytes, 36 tensors)

network_body._body_endoder.seq_layers.0.weight f4 [128, 17]
0.59754986 0.38168004 -0.054604083 -0.061461307 -0.08463155 -0.051747836 -0.40802816 -0.16463517
0.31229755 -0.26033464 0.13578351 0.09742422 0.2587342 -0.25111866 0.156174 -0.05467885
0.11718316 -0.037648328 0.29702738 0.03028068 0.45976985 0.07572532 -0.06896924 -0.050447978
-0.015200287 0.11839041 -0.30166498 0.18632354 0.073221155 0.08471918 -0.3761336 -0.28309134
-0.048702113 -0.18139459 -0.06583591 -0.28101403 0.27811387 0.29025897 -0.338877 -0.098792605
-0.016775038 -0.1421714 -0.10380996 0.14056382 -0.13736999 0.39309812 -0.10457805 -0.3681065
-0.15118249 0.18786904 0.11982461 -0.009645644 -0.30052003 -0.07843576 -0.07052196 -0.01745486
-0.22168487 -0.2126665 0.1953701 -0.24229188 -0.04804972 -0.2745934 -0.038390238 -0.13445243
-0.21214782 -0.3076083 0.30091065 -0.076113455 -0.04671373 0.14870796 0.49157435 0.18269736
0.06471029 -0.22022365 0.54156 -0.12237346 -0.6107215 -0.2048532 -0.018377727 -0.34583813
0.44017428 0.15261985 0.36735976 -0.2047175 0.13358136 0.035473503 -0.044881344 0.23549408
0.4163372 -0.088723466 0.009406241 0.28920686 -0.14175624 0.089302376 0.011798543 0.14478755
0.08881407 0.016033666 -0.16975915 -0.20772113 -0.20904231 -0.22928119 0.16412683 -0.22734594
0.36473867 0.2690296 0.07306735 -0.015961174 -0.15218481 0.018844744 0.37180686 -0.049937304
0.2693271 -0.10849094 0.30981293 0.31654024 -0.3157477 -0.061141398 -0.21266009 0.26636624
-0.045919318 0.06535817 -0.22457555 0.10845694 0.15666932 0.0072353682 -0.3520759 0.1238099
-0.62962085 0.20304202 -0.010494068 0.31287345 0.13026896 0.09507411 0.29692608 0.0577835
0.01594808 0.26806748 0.15318279 -0.15901361 0.09642611 0.058653787 0.39472774 -0.40497452
-0.4087912 0.17067233 -0.37533867 -0.084692754 -0.40605307 -0.11110861 -0.18957077 0.19678886
0.2761448 0.22200967 -0.21285637 0.08369205 0.24539922 -0.21534094 -0.117223054 0.23210083
0.11696324 0.06334823 -0.15044516 0.014714738 0.11721376 -0.13734838 0.24901167 -0.4786845
0.15063941 -0.0035652837 0.12205258 -0.2953409 -0.024444934 -0.38791656 -0.094151326 -0.24978538
-0.051533774 0.14338383 0.028949246 -0.22777888 -0.44289017 0.11064564 0.16889963 0.19565284
0.594018 0.040004138 0.26785257 -0.33941984 0.08777928 -0.2463829 -0.41902488 0.39463288
0.3473252 -0.18051843 0.21117578 0.46856892 -0.17626627 0.2559286 0.12933227 0.2909847
-0.3363311 -0.021186797 0.347115 -0.456547 0.26199403 0.3122785 -0.09733475 -0.47872415
-0.3763355 -0.32091027 0.27887926 0.20241298 -0.8543547 -0.40531623 -0.09055937 -0.43536308
-0.18099646 0.096143976 -0.14982048 0.3244474 -0.14474364 -0.4323266 -0.5351372 -0.15726776
0.024749702 -0.09007895 -0.19813395 -0.19449565 -0.18131544 -0.08198006 -0.094135955 -0.3631105
0.046711605 -0.4249473 0.12850648 -0.38439137 0.007202665 -0.31755868 0.13388425 -0.04594487
0.27350464 -0.20739196 -0.2281843 0.19403777 0.28160295 -0.077317074 -0.24255481 0.0031176952
0.1454533 0.23620117 -0.026574709 -0.021200424 -0.014507332 -0.018593479 -0.18598524 -0.109401375
00000000: 07f9 183f 916b c33e 88a8 5fbd dabe 7bbd
00000010: 4e53 adbd 8af5 53bd 11e9 d0be 1f96 28be
00000020: 77e5 9f3e 954a 85be d50a 0b3e 5986 c73d
00000030: cf78 843e a092 80be 14ec 1f3e eef6 5fbd
00000040: b9fd ef3d 2235 1abd f913 983e 300f f83c
00000050: f466 eb3e e015 9b3d bf3f 8dbd 8aa2 4ebd
00000060: a00a 79bc ac76 f23d d573 9abe 99cb 3e3e
00000070: f9f4 953d 4081 ad3d 9594 c0be 59f1 90be
00000080: de7b 47bd 81bf 39be fad4 86bd 12e1 8fbe
00000090: f164 8e3e d39c 943e 4981 adbe c753 cabd
000000a0: ce6b 89bc 6195 11be 519a d4bd f6ef 0f3e
000000b0: b8aa 0cbe 2844 c93e 042d d6bd 7578 bcbe
000000c0: 95cf 1abe be60 403e 9b66 f53d c308 1ebc
000000d0: c3dd 99be eea2 a0bd d16d 90bd 7ffd 8ebc
000000e0: 5c01 63be 3fc5 59be 190f 483e 5d1b 78be
000000f0: c8cf 44bd 8297 8cbe 153f 1dbd e6ad 09be
00000100: 473d 59be d67e 9dbe f610 9a3e 5fe1 9bbd
00000110: e556 3fbd e646 183e a2af fb3e 0415 3b3e
00000120: d486 843d 4f82 61be ada3 0a3f f09e fabd
00000130: 3f58 1cbf 0ac5 51be e38c 96bc b211 b1be
00000140: 865e e13e 6148 1c3e 9416 bc3e 77a1 51be
00000150: 8dc9 083e aa4c 113d 80d5 37bd 5c25 713e
00000160: 262a d53e a6b4 b5bd a21c 1a3c ec12 943e
00000170: 8c28 11be 2ae4 b63d ad4e 413c 3043 143e
00000180: 27e4 b53d 0959 833c 58d5 2dbe d9b4 54be
00000190: 300f 56be b0c8 6abe dd10 283e 60cd 68be
000001a0: 07bf ba3e 3fbe 893e 56a4 953d 02c1 82bc
000001b0: 56d6 1bbe 4b60 9a3c 785d be3e 0f8b 4cbd
000001c0: 3ee5 893e 7f30 debd cd9f 9e3e 9011 a23e
000001d0: afa9 a1be 676f 7abd 91c3 59be 2861 883e
000001e0: e515 3cbd 81da 853d 22f7 65be ac1e de3d
000001f0: ec6d 203e ab16 ed3b 4b43 b4be 0b90 fd3d
00000200: d52e 21bf 3fea 4f3e 50ef 2bbc f330 a03e
00000210: 3a65 053e 37b6 c23d b206 983e 64ae 6c3d
00000220: 8ca5 823c 2440 893e f3db 1c3e 77d4 22be
00000230: 0d7b c53d f43e 703d c119 ca3e d258 cfbe
00000240: 154d d1be bac4 2e3e 642c c0be 6573 adbd
00000250: 30e6 cfbe e98c e3bd d71e 42be 0583 493e
00000260: da62 8d3e 8156 633e 05f7 59be bd66 ab3d
00000270: ef49 7b3e 5682 5cbe a412 f0bd d7ab 6d3e
00000280: 6c8a ef3d b8bc 813d 4c0e 1abe 1616 713c
00000290: c50d f03d 0ea5 0cbe eafc 7e3e 2316 f5be
000002a0: 3841 1a3e 89a7 69bb b4f6 f93d ec36 97be
000002b0: be40 c8bc 009d c6be 69d2 c0bd bdc7 7fbe
000002c0: 1415 53bd 36d3 123e f826 ed3c de3e 69be
000002d0: 80c2 e2be 2e9a e23d 06f4 2c3e 3859 483e
000002e0: 9011 183f 61db 233d f923 893e 70c8 adbe
000002f0: a0c5 b33d cd4b 7cbe 6e8a d6be 520d ca3e
00000300: 9cd4 b13e d3d9 38be 773e 583e 44e8 ef3e
00000310: 257f 34be 1309 833e ae6f 043e f2fb 943e
00000320: 9733 acbe ef8f adbc 0fb9 b13e 87c0 e9be
00000330: 1524 863e f8e2 9f3e 7157 c7bd 551b f5be
00000340: 0caf c0be 5a4e a4be 43c9 8e3e 5945 4f3e
00000350: fdb6 5abf 9c85 cfbe 3177 b9bd e9e7 debe
00000360: 2357 39be 22e7 c43d 8a6a 19be f81d a63e
00000370: ad37 14be ea59 ddbe c0fe 08bf cd0a 21be
00000380: e3bf ca3c 507b b8bd a0e3 4abe de29 47be
00000390: c1aa 39be 29e5 a7bd 5aca c0bd 9fe9 b9be
000003a0: ab54 3f3d b192 d9be 3497 033e f2ce c4be
000003b0: 5504 ec3b 0d97 a2be f418 093e b030 3cbd
000003c0: cd08 8c3e 8f5e 54be 25a9 69be d6b1 463e
000003d0: 432e 903e 6a58 9ebd 4a60 78be 3f52 4c3b
000003e0: b6f1 143e b8de 713e 34b3 d9bc 83ac adbc
000003f0: 29b0 6dbc 5a51 98bc ea72 3ebe d40d e0bd

network_body._body_endoder.seq_layers.0.bias f4 [128]
-0.008068112 -0.010713675 0.0037408066 -0.0036814825 -0.0038638345 -0.018377928 -0.006657483 0.003470495
-0.0034404884 -0.007861873 0.0019008362 0.002415793 0.0034707864 -0.0034638369 -0.0065847607 0.0001554305
0.0063947164 -0.011600961 -0.011180514 -0.017768415 -0.007670016 -0.0034153073 0.0073510013 0.009305369
0.0007865291 -0.0036388703 0.0104192365 0.010103402 0.0034137787 0.00013053522 -0.022194583 0.005449199
-0.0039562066 0.004251258 -0.0046698665 0.012668755 0.005531059 -0.0038679214 -0.008698274 0.000583513
-0.013015454 0.0036521645 0.0012828554 -0.029681733 -0.008097808 0.00017595052 0.017862683 0.0015110099
0.002527996 -0.02729912 -0.015508959 0.00027919034 0.00477655 -0.0021728901 0.0033490115 -0.008966187
0.0054800785 -0.004641077 -0.0075825113 -0.00076739653 -0.0036023457 -0.021719854 -0.0014459012 -0.011594732
-0.005114666 0.0029642838 -0.0056518386 -0.013811783 -0.0017809012 0.003179549 0.043587778 -0.007982243
-0.0032150378 0.012252052 -0.009919203 -0.00043150663 -0.006058427 -0.008043468 -0.0071815723 -0.008054085
0.007849087 -0.02473176 0.0035520226 -0.0008771592 0.044894837 -0.004105525 0.000754396 0.0033734904
0.026708663 -0.009835141 0.008958341 0.0071047954 -0.001540721 0.007841457 0.018882312 0.003741619
-0.011507945 -0.005191587 0.015829 -0.0052289283 -0.0049399133 0.00066631514 0.0461766 -0.00015625807
0.0036909808 0.0036610833 -0.00010012087 -0.014699265 -0.0036235075 -0.013948941 -0.016073003 0.00086711755
0.0038412225 -0.00455494 -0.013176763 0.007238591 -0.024565957 0.0035773965 -0.025860038 0.014566808
-0.007210412 -0.0057997247 -0.0034497064 -0.004119702 -0.006158339 0.0018701104 0.01620107 0.009116098
00000000: 1d30 04bc 6988 2fbc 5228 753b 0745 71bb
00000010: 6338 7dbb 4f8d 96bc 0427 dabb 3f71 633b
00000020: d179 61bb 16cf 00bc 7b25 f93a 4852 1e3b
00000030: 2276 633b 8a01 63bb fac4 d7bb 0ffb 2239
00000040: c58a d13b f511 3ebc 792e 37bc 118f 91bc
00000050: c254 fbbb 59d3 5fbb abe0 f03b 8c75 183c
00000060: 132f 4e3a 1d7a 6ebb 72b5 2a3c bd88 253c
00000070: b4b9 5f3b 48e0 0839 6ad1 b5bc 328f b23b
00000080: 11a3 81bb 234e 8b3b ae05 99bb 9c90 4f3c
00000090: e33d b53b f47c 7dbb 3583 0ebc e5f6 183a
000000a0: c53e 55bc 2759 6f3b 7c25 a83a 1b27 f3bc
000000b0: abac 04bc 5c7f 3839 c354 923c 140d c63a
000000c0: bcac 253b 67a2 dfbc 4a19 7ebc 4b60 9239
000000d0: 9b84 9c3b 0c67 0ebb 177b 5b3b eae6 12bc
000000e0: 3b92 b33b 2d14 98bb b776 f8bb 1c2b 49ba
000000f0: 5515 6cbb d6ed b1bc 6584 bdba d5f7 3dbc
00000100: ee98 a7bb 6e44 423b 0f33 b9bb d14a 62bc
00000110: 216d e9ba fb5f 503b 1989 323d f4c7 02bc
00000120: 62b3 52bb d5bc 483c 2784 22bc d73b e2b9
00000130: c585 c6bb c0c8 03bc 6553 ebbb 48f5 03bc
00000140: 7599 003c 439a cabc 0dc9 683b 28f1 65ba
00000150: a6e3 373d a487 86bb a9c2 453a c715 5d3b
00000160: 20cc da3c 9223 21bc 01c6 123c 58cf e83b
00000170: 05f2 c9ba 7479 003c 14af 9a3c f335 753b
00000180: d28b 3cbc 301e aabb d2ab 813c 6e57 abbb
00000190: ffde a1bb a7ab 2e3a ad23 3d3d 35d9 23b9
000001a0: 62e4 713b c9ee 6f3b fcf7 d1b8 30d5 70bc
000001b0: 5e78 6dbb 198a 64bc 88ab 83bc 464f 633a
000001c0: 05bd 7b3b 9b41 95bb 5ae3 57bc b431 ed3b
000001d0: 8c3e c9bc c172 6a3b 6ed8 d3bc 9fa9 6e3c
000001e0: 5245 ecbb 9e0b bebb 7814 62bb 91fe 86bb
000001f0: e4cb c9bb 7e1e f53a 1bb8 843c b05b 153c

network_body._body_endoder.seq_layers.2.weight f4 [128, 128]
0.074397154 0.012034523 -0.0819997 0.12467156 -0.025106905 -0.09657145 -0.16754209 -0.029879339
-0.13753389 0.0351612 0.0049625495 -0.03473458 0.041136477 0.09084871 -0.007626685 0.1146749
0.00045031504 -0.22180381 0.0866006 0.011476659 -0.18965895 0.1524256 -0.055789817 -0.05755117
0.016497204 0.010859608 -0.011737298 -0.102094084 0.07993989 0.015430692 -0.082268655 -0.0015082887
-0.020530583 0.03922779 -0.11640525 0.0060804756 -0.017412439 -0.077270135 0.0127638895 -0.005603872
-0.03276554 -0.005805846 0.0066456366 -0.03255216 -0.11289885 0.048834868 0.07896022 0.06150058
-0.07262205 0.15879779 0.05279854 0.08074197 -0.0507667 0.019360185 -0.13916911 0.054981343
0.18893442 0.10692035 -0.1145241 -0.07882642 0.025156347 -0.017417938 -0.053071335 0.17272086
-0.05106186 0.013759622 -0.020999447 -0.0965784 0.049378857 0.073530726 -0.041969653 -0.046453524
0.10550075 0.119904496 -0.26540348 0.00014784685 0.024483107 -0.08688113 -0.13556659 -0.04045691
0.05065132 0.08079119 0.06728265 0.12580416 -0.09594779 0.014694886 0.026669603 0.037294477
-0.07705948 -0.11661947 0.0662138 -0.068258815 -0.07079495 0.104948595 0.09929593 0.043438416
0.10000567 -0.04746554 0.1840818 -0.046298917 -0.04817465 0.08577421 -0.062287293 0.13534087
-0.18492436 -0.033038866 -0.0015319464 0.03515986 -0.11870794 0.11834974 -0.013125998 -0.03206253
0.017744748 -0.031481404 0.13556787 0.001873797 -0.12825495 0.16374773 0.08160856 -0.010937172
-0.07490856 0.034512162 -0.10101568 0.02520704 0.015467166 -0.07976714 0.17659037 0.0766214
0.036639124 0.03909362 0.1611804 0.025987107 -0.12358165 -0.07328384 -0.18105434 -0.05873087
-0.100335956 -0.022226065 -0.103272125 0.010322686 -0.104360774 -0.11546052 -0.048074584 -0.03470599
0.03398967 0.007846182 -0.026444236 0.06158342 -0.009149662 -0.07564537 0.075463854 0.020787278
0.01620881 0.100331955 -0.146847 0.04066035 -0.2071278 0.021477485 0.03673119 -0.12674212
0.047768835 0.114971004 -0.12308668 0.040600646 -0.100529514 0.11703369 -0.001085098 -0.096556745
0.039207976 0.04247975 0.04714161 0.12339193 -0.062626936 -0.074929416 0.0823169 -0.07712145
0.049177635 -0.20374614 -0.069075756 0.053844266 0.23426598 0.07148134 0.0485467 -0.04581933
0.049849138 -0.10403508 0.0035209688 -0.06292737 0.09273761 0.009974454 0.04854542 -0.10419841
-0.19499664 -0.17616127 0.004741341 0.05905621 -0.13843967 -0.029303243 0.0024364193 0.046555035
0.013352984 0.011874838 0.006386504 -0.25888026 -0.061563183 -0.0778024 0.077710085 0.10599753
-0.09615553 -0.00088430307 0.05843784 0.044686742 0.0137651935 0.042319953 0.035612088 -0.22847633
0.020213189 0.053694706 0.03720092 -0.026045574 0.075739905 -0.02149755 0.0018435725 -0.031496428
0.031319186 0.1440713 -0.022658804 -0.063046545 -0.11136824 0.0060008247 0.039198678 0.0770878
0.19333287 -0.0904516 -0.08222067 0.13910532 -0.091637045 -0.011350439 0.07348414 0.009571549
-0.13085726 0.048103068 0.09309931 -0.12762652 0.03972018 -0.08386248 0.017664991 -0.04428783
-0.04136269 0.040059734 -0.0619559 -0.021213815 -0.024761736 0.18214206 -0.11086166 -0.090130396
00000000: 895d 983d 732c 453c 75ef a7bd ce53 ff3d
00000010: ffac cdbc 41c7 c5bd 2790 2bbe 84c5 f4bc
00000020: afd5 0cbe 3105 103d e29c a23b d945 0ebd
00000030: b97e 283d e30e ba3d 45e9 f9bb adda ea3d
00000040: 4318 ec39 8a20 63be a85b b13d 9908 3c3c
00000050: f535 42be 7515 1c3e dd83 64bd c7ba 6bbd
00000060: 2525 873c 7fec 313c cc4d 40bc b416 d1bd
00000070: 86b7 a33d 03d1 7c3c 787c a8bd c5b1 c5ba
00000080: c12f a8bc 52ad 203d e065 eebd ba3e c73b
00000090: 88a4 8ebc ce3f 9ebd a21f 513c afa0 b7bb
000000a0: 2935 06bd f73e bebb a4c3 d93b 6a55 05bd
000000b0: 8337 e7bd 1207 483d e5b5 a13d 08e8 7b3d
000000c0: dfba 94bd e39b 223e 4843 583d 0c5c a53d
000000d0: bef0 4fbd 4099 9e3c 5982 0ebe 1e34 613d
000000e0: 0678 413e 0ef9 da3d 9d8b eabd bf6f a1bd
000000f0: af14 ce3c 10b0 8ebc 5461 59bd bddd 303e
00000100: 3e26 51bd 0a70 613c 0807 acbc e5ca c5bd
00000110: 7c41 4a3d 4797 963d 5fe8 2bbd 0d46 3ebd
00000120: c710 d83d 7d90 f53d f7e2 87be 5607 1b39
00000130: cc90 c83c bcee b1bd f8d1 0abe 25b6 25bd
00000140: c277 4f3d da75 a53d 7ccb 893d ced2 003e
00000150: 4680 c4bd d2c2 703c 367a da3c 18c2 183d
00000160: 5cd1 9dbd 30d6 eebd 1a9b 873d 47cb 8bbd
00000170: f1fc 90bd 4aef d63d aa5b cb3d 7bec 313d
00000180: c6cf cc3d 3a6b 42bd f07f 3c3e efa3 3dbd
00000190: c852 45bd 64aa af3d f620 7fbd cc96 0a3e
000001a0: d05c 3dbe c353 07bd 97cb c8ba c903 103d
000001b0: 261d f3bd 5961 f23d 6d0e 57bc 0054 03bd
000001c0: 6f5d 913c a5f2 00bd 4ed2 0a3e 329a f53a
000001d0: 4455 03be 7cad 273e 6422 a73d d331 33bc
000001e0: a969 99bd a05c 0d3d 4fe1 cebd ff7e ce3c
000001f0: ff69 7d3c f45c a3bd 1bd4 343e aeeb 9c3d
00000200: e812 163d a220 203d 7a0c 253e eae2 d43c
00000210: 6018 fdbd d715 96bd 4f66 39be c88f 70bd
00000220: f07c cdbd 7013 b6bc 5680 d3bd 7c20 293c
00000230: 1abb d5bd 9176 ecbd dbe9 44bd de27 0ebd
00000240: c138 0b3d 468d 003c 95a1 d8bc e53e 7c3d
00000250: 77e8 15bc f6eb 9abd cb8c 9a3d 154a aa3c
00000260: 57c8 843c d77a cd3d 0f5f 16be 788b 263d
00000270: 4f19 54be 8df1 af3c 7273 163d b0c8 01be
00000280: 41a9 433d eb75 eb3d df14 fcbd dd4c 263d
00000290: 6be2 cdbd 5caf ef3d d939 8eba 8bbf c5bd
000002a0: 8b98 203d 3fff 2d3d 9017 413d e8b4 fc3d
000002b0: 8d42 80bd 9874 99bd c395 a83d daf1 9dbd
000002c0: 7d6e 493d d4a2 50be 9777 8dbd ce8b 5c3d
000002d0: 6ce3 6f3e cf64 923d e8d8 463d 0dad 3bbd
000002e0: 9c2e 4c3d 5810 d5bd 0ec0 663b 11e0 80bd
000002f0: 37ed bd3d e46b 233c 90d7 463d fa65 d5bd
00000300: 33ad 47be 9f63 34be 405d 9b3b ede4 713d
00000310: 21c3 0dbe 5b0d f0bc 55ac 1f3b 7eb0 3e3d
00000320: 79c6 5a3c ae8e 423c e145 d13b f48b 84be
00000330: ad29 7cbd dd56 9fbd 7726 9f3d 3c15 d93d
00000340: 31ed c4bd 93d0 67ba 845c 6f3d 7209 373d
00000350: 6887 613c b057 2d3d fbdd 113d b3f5 69be
00000360: 2196 a53c fbee 5b3d fe5f 183d 875d d5bc
00000370: 861d 9b3d a11b b0bc 07a4 f13a 6602 01bd
00000380: 8c48 003d 6d87 133e f59e b9bc 8c1e 81bd
00000390: 0815 e4bd 91a2 c43b cb8e 203d 35e0 9d3d
000003a0: 0df9 453e b03e b9bd 5063 a8bd a071 0e3e
000003b0: 34ac bbbd 31f7 39bc da7e 963d fcd1 1c3c
000003c0: 72ff 05be b907 453d daaa be3d 87b0 02be
000003d0: a1b1 223d 18c0 abbd 2cb6 903c 2867 35bd
000003e0: ed6b 29bd ad15 243d 78c5 7dbd 98c8 adbc
000003f0: 20d9 cabc 7383 3a3e 700b e3bd 4996 b8bd

network_body._body_endoder.seq_layers.2.bias f4 [128]
-0.005114569 -0.006806262 0.00077835564 -0.016125593 -0.0069168033 -0.00010427016 -0.002821132 -0.019157773
-0.010305013 -0.0025442843 0.0031318376 -0.015888784 0.0043732193 -0.0040902584 0.0010991336 -0.005808666
-0.012833146 -0.00979272 -0.012950741 0.0012005334 0.0025144955 -0.0040432774 -0.0010594951 0.014214631
0.0041197264 -0.0010939273 -0.0057233465 -0.01842812 -0.0044233813 -0.005551294 -0.0075090826 0.005163861
0.0030001795 -0.0030326685 -0.0063739913 -0.007971895 -0.0030826693 0.0014755888 -0.0070348997 -0.007936444
-0.011362805 -0.0122954305 -0.0011305643 -0.0037430455 -0.007014641 -0.00262982 -0.0045287157 -0.011010173
-0.011662119 -0.005595891 -0.006255298 0.0008492857 -0.00042459602 -0.0010128573 -0.0039251265 -0.01282261
0.0025931671 -0.00347962 -0.011617686 0.0060936157 0.0013949404 0.008889682 0.00752833 -0.003933888
-0.0054153334 0.0027180244 -0.002130853 -0.0072573912 -0.009880281 -0.0058323327 -0.0012847641 -0.011919415
-0.02177146 -0.011337355 -0.00024958618 -0.00964026 0.00018992004 -0.006027591 0.0039745676 -0.00017763492
-0.006077697 -0.009932796 0.0019106872 -0.01236273 0.003098001 -0.002873075 -0.002419738 0.001581847
-0.003926487 -0.008114273 -0.0005142426 -0.0049294103 -0.004928563 0.006211738 -0.0028757483 0.003873988
-0.004496264 -0.008112046 -0.009006643 -0.007473431 0.0050294315 0.005166272 -0.00081048574 -0.011309497
-0.013915201 -0.0070291725 -0.0023810253 -0.011735416 -0.011839522 0.00277055 -0.0037598084 -0.008898668
-0.003435622 0.0025807866 -0.0035130645 -0.0043926863 -0.0073882616 -0.009955408 -0.0011808565 -0.009877343
-0.017783286 -0.0056496705 -0.007813499 0.0052457326 -0.012503552 0.0042302483 0.0053437445 -0.003927732
00000000: 1d98 a7bb 1007 dfbb 900a 4c3a d219 84bc
00000010: 5aa6 e2bb 9eab dab8 bee2 38bb c3f0 9cbc
00000020: 5bd6 28bc 02be 26bb 843f 4d3b 3229 82bc
00000030: 394d 8f3b 9307 86bb ce10 903a 9f56 bebb
00000040: 1e42 52bc a571 20bc 582f 54bc 375b 9d3a
00000050: 3cca 243b 787d 84bb c2de 8aba 7ce4 683c
00000060: c5fe 863b 1c62 8fba e98a bbbb 92f6 96bc
00000070: 03f2 90bb a1e7 b5bb c00e f6bb 9b35 a93b
00000080: a99e 443b bcbf 46bb eadc d0bb 8d9c 02bc
00000090: 9c06 4abb 8b68 c13a 0485 e6bb dc07 02bc
000000a0: 0f2b 3abc c672 49bc 712f 94ba e24d 75bb
000000b0: 13db e5bb 0f59 2cbb 9f65 94bb 0364 34bc
000000c0: 7912 3fbc bc5d b7bb 3ef9 ccbb 99a2 5e3a
000000d0: 509c deb9 dac1 84ba 599e 80bb ed15 52bc
000000e0: 20f2 293b 560a 64bb 1b58 3ebc f4ac c73b
000000f0: 6fd6 b63a 07a6 113c 36b0 f63b d8e7 80bb
00000100: 1c73 b1bb e220 323b c8a5 0bbb 69cf edbb
00000110: e7e0 21bc 271d bfbb 8865 a8ba a649 43bc
00000120: 105a b2bc 50c0 39bc e4da 82b9 2ef2 1dbc
00000130: 4625 4739 1983 c5bb 173d 823b 8343 3ab9
00000140: 6b27 c7bb 2abd 22bc 0670 fa3a 0c8d 4abc
00000150: d507 4b3b 334a 3cbb 7894 1ebb fa55 cf3a
00000160: c3a9 80bb baf1 04bc 3dce 06ba e486 a1bb
00000170: c87f a1bb d68b cb3b 0d77 3cbb bce2 7d3b
00000180: 6555 93bb 63e8 04bc 9990 13bc afe3 f4bb
00000190: eecd a43b d549 a93b c776 54ba 784b 39bc
000001a0: 95fc 63bc f954 e6bb fa0a 1cbb e745 40bc
000001b0: 8efa 41bc 1e92 353b 1e67 76bb b8cb 11bc
000001c0: 2c28 61bb 6a22 293b 713b 66bb 86f0 8fbb
000001d0: 3b19 f2bb 021c 23bc f8c6 9aba 94d4 21bc
000001e0: 41ae 91bc df20 b9bb 3104 00bc 65e4 ab3b
000001f0: b3db 4cbc e59d 8a3b 941a af3b 34b4 80bb

action_model._continuous_distribution.log_sigma f4 [1, 2]
-0.0073736776 -0.007806085
00000000: e49e f1bb 30ca ffbb

action_model._continuous_distribution.mu.weight f4 [2, 128]
-0.026424145 0.0072354777 -0.014902566 0.0018338037 0.0053994507 -0.0013383448 0.06496104 0.0073279045
0.0056473548 0.005547244 -0.02326373 0.018547045 -0.01677691 -0.0013032102 0.028675431 0.012277982
0.0072947494 0.013285252 0.0033526164 -0.011999487 -0.016961237 -0.0178123 0.018958798 -0.011684877
-0.02037097 -0.017681014 0.02148671 0.0025978193 0.0031212473 0.009655215 0.027106112 -0.021108884
-0.02438699 -0.033023756 -0.0032846187 0.019759933 0.065236114 -0.0038523865 0.042867552 0.013395042
-0.008889114 0.011457796 -0.02070396 0.0036267755 0.0006512174 0.047287792 0.025737355 0.007251589
0.008640799 -0.010323914 0.011825294 0.0013057156 -0.019023128 0.0031643745 -0.016746784 0.0050259847
-0.021975882 0.028605526 0.007525674 -0.036474172 -0.011951336 -0.02366475 0.0008026188 0.03244024
0.020070579 -0.005879807 0.037563644 0.0017992931 0.018659314 -0.0065814615 0.008967676 0.018714713
-0.0038837763 0.005061654 -0.02417942 0.023822468 -0.012865718 0.01181393 -0.017925045 0.0011697924
0.008870627 0.02154419 0.005684115 0.007510593 -0.011076861 -0.00034756924 0.005825908 -0.009146825
-0.013410239 0.0071034287 0.046477333 -0.0037712106 0.013715918 -0.055105574 -0.002501708 -0.02113414
0.03285287 -0.010546954 0.013029681 -0.0016345942 -0.02951628 -0.015483347 -0.019581655 -0.00029030742
-0.0028172862 0.024882473 -0.006560183 0.0059921113 0.015972408 0.06454053 0.021644456 -0.0127666835
-0.009167027 -0.03089283 0.049652077 -0.015254427 -0.048660696 0.020424042 -0.012136552 0.02542934
-0.0027586734 -0.011773563 0.009688857 0.0022842311 -0.0037782693 0.0098342355 0.012838998 -0.001598223
7.667533e-05 -0.031985134 -0.0111176325 0.0067559727 0.027532222 -0.025503758 0.027522855 0.023771305
-0.010845637 0.0053576916 0.017129118 0.015729884 -0.044310372 0.006871447 -0.01019788 -0.0201429
-0.0077366405 0.019033045 0.001788553 -0.02077288 0.032723054 0.0282694 0.018248774 -0.012596647
-0.03305709 -0.0032350088 -0.020258525 0.0006551322 0.021712333 0.001014118 -0.013871038 -0.034271453
-0.031662103 -0.013520544 0.019560972 0.025649326 -0.046834674 -0.029438896 -0.016842937 -0.012772227
0.028353984 -0.008779573 0.02986132 0.009210503 -0.0020270082 0.015997464 -0.0350508 0.012309252
0.012971938 -0.0039888793 0.047886755 0.013254416 0.028130526 -0.030527553 0.01641795 -0.0031980644
-0.0008959675 -0.003912278 0.015830284 0.013700437 -0.036642104 -0.03012036 -0.030266432 0.005366258
0.013479712 -0.02167984 0.026289904 0.005595111 -0.0060053575 0.00440007 0.019377103 0.005167958
-0.0036597603 0.00857888 -0.032409508 -0.0038673233 -0.0017442781 -0.0011893489 -0.017371483 -0.03200759
-0.0026592198 0.030373413 -0.0040740953 0.010439219 -0.034337394 0.05574225 -0.0044640303 -0.021923695
-0.010732018 0.008851259 0.0022589923 0.011156174 -0.0016559776 -0.0065690135 0.0063757533 -0.026064038
0.02207357 0.031622738 -0.00089852966 0.025553456 -0.017652638 -0.005894347 0.00039129288 -0.005286523
-0.008224312 0.027820576 0.0036860013 0.030733466 0.0025825158 -0.008818608 0.023252731 0.0057118754
0.022185061 -0.005159606 0.0052426974 -0.024219392 0.037823368 -0.005611887 -0.023930434 -0.0046726046
0.028710006 0.010398139 -0.011253371 -0.0132574 0.0047820252 -0.0497271 -0.025053099 -0.011207813
00000000: 7377 d8bc 9617 ed3b e429 74bc 3e5c f03a
00000010: e0ed b03b 666b afba 4b0a 853d eb1e f03b
00000020: 720d b93b a8c5 b53b 9493 bebc f9ef 973c
00000030: bb6f 89bc 7ad0 aaba bde8 ea3c 9729 493c
00000040: cb08 ef3b 63aa 593c 92b7 5b3b 7f99 44bc
00000050: 4bf2 8abc 1aeb 91bc 7b4f 9b3c ed71 3fbc
00000060: 05e1 a6bc c6d7 90bc e604 b03c 2d40 2a3b
00000070: d78d 4c3b e830 1e3c a30d de3c 8aec acbc
00000080: 3ac7 c7bc eb43 07bd c242 57bb 95df a13c
00000090: 839a 853d 5278 7cbb e395 2f3d e176 5b3c
000000a0: a5a3 11bc 7bb9 3b3c 5a9b a9bc 32af 6d3b
000000b0: 76b6 2a3a d8b0 413d 25d7 d23c bd9e ed3b
000000c0: 2392 0d3c a225 29bc e1be 413c 8c24 ab3a
000000d0: 64d6 9bbc 6561 4f3b 8d30 89bc 04b1 a43b
000000e0: c406 b4bc 2356 ea3c ee99 f63b f165 15bd
000000f0: 89cf 43bc 94dc c1bc d666 523a 0fe0 043d
00000100: 0e6b a43c 65ab c0bb 56dc 193d 42d6 eb3a
00000110: 6bdb 983c 4da9 d7bb 29ed 123c 994f 993c
00000120: f486 7ebb 3bdc a53b eb13 c6bc 5627 c33c
00000130: bcca 52bc 378f 413c 8bd7 92bc b853 993a
00000140: 1b56 113c 717d b03c d041 ba3b 6c1b f63b
00000150: b97b 35bc f439 b6b9 42e7 be3b 91dc 15bc
00000160: 9eb6 5bbc e1c3 e83b 045f 3e3d 6a26 77bb
00000170: bbb8 603c 62b6 61bd b2f3 23bb 8121 adbc
00000180: bb90 063d 22cd 2cbc 717a 553c e13f d6ba
00000190: 20cc f1bc ddad 7dbc b569 a0bc 6734 98b9
000001a0: 38a2 38bb 54d6 cb3c cef6 d6bb 7959 c43b
000001b0: 91d8 823c d32d 843d b74f b13c 5a2b 51bc
000001c0: 4c31 16bc f612 fdbc fa5f 4b3d b4ed 79bc
000001d0: 7050 47bd 5250 a73c 63d8 46bc 3151 d03c
000001e0: dcca 34bb e7e5 40bc 03be 1e3c 0ab3 153b
000001f0: d79c 77bb c61f 213c a95a 523c 777b d1ba
00000200: c1cc a038 d802 03bd bb26 36bc 3561 dd3b
00000210: 418b e13c 42ed d0bc 9c77 e13c 0abc c23c
00000220: e6b1 31bc 938f af3b 5d52 8c3c f5db 803c
00000230: cb7e 35bd e029 e13b 0215 27bc b902 a5bc
00000240: a583 fdbb 30eb 9b3c e16d ea3a e32b aabc
00000250: 9c08 063d 3b95 e73c 747e 953c 2b62 4ebc
00000260: df66 07bd 7102 54bb 35f5 a5bc 2dbd 2b3a
00000270: 10de b13c 27ec 843a 5a43 63bc 3960 0cbd
00000280: 1fb0 01bd 4685 5dbc 553e a03c 891e d23c
00000290: b7d5 3fbd d729 f1bc 33fa 89bc 9a42 51bc
000002a0: 9d46 e83c 33d8 0fbc ba9f f43c a6e7 163c
000002b0: 8ed7 04bb 1d0d 833c 6d91 0fbd bfac 493c
000002c0: 4088 543c 25b5 82bb e724 443d 0d29 593c
000002d0: fd71 e63c eb14 fabc f07e 863c 9e96 51bb
000002e0: 5cdf 6aba 9132 80bb 83ae 813c cc77 603c
000002f0: 0816 16bd f9be f6bc 4ff1 f7bc 6fd7 af3b
00000300: 03da 5c3c eb99 b1bc ed5d d73c 3157 b73b
00000310: 97c8 c4bb 762e 903b bbbc 9e3c f957 a93b
00000320: 97d8 6fbb 6e8e 0c3c d5bf 04bd eb72 7dbb
00000330: 43a0 e4ba ede3 9bba a44e 8ebc 641a 03bd
00000340: 4e46 2ebb aad1 f83c fd7f 85bb 4209 2b3c
00000350: 5ea5 0cbd fc51 643d 0047 92bb 5299 b3bc
00000360: 59d5 2fbc df04 113c 9a0b 143b 63c8 363c
00000370: 630d d9ba e140 d7bb b2eb d03b 4084 d5bc
00000380: a2d3 b43c d886 013d 4e8b 6bba 7b55 d13c
00000390: 449c 90bc 5e25 c1bb 7126 cd39 923a adbb
000003a0: 44bf 06bc fae7 e33c d790 713b c0c4 fb3c
000003b0: 6d3f 293b ec7b 10bc 837c be3c af2a bb3b
000003c0: 72bd b53c ea11 a9bb efca ab3b bf67 c6bc
000003d0: adec 1a3d ece3 b7bb c209 c4bc a61c 99bb
000003e0: 3f31 eb3c f55c 2a3c 0f60 38bc 9135 59bc
000003f0: 89b2 9c3b a5ae 4bbd 283c cdbc faa0 37bc

action_model._continuous_distribution.mu.bias f4 [2]
-0.007354114 -0.005367738
00000000: c8fa f0bb dae3 afbb

exp_avg f4 [128, 17]
0.0026190546 0.0056625973 0.0038175967 0.0065275645 0.005614119 0.0049513523 0.002663769 0.0014665943
0.0008787283 0.0035473057 0.0013846083 0.0020530885 0.0034991235 0.0007207136 0.0014423557 -0.0030515622
0.0002591554 -0.0010463352 -0.0043341997 -0.0042618066 -0.003514357 -0.0028624632 -0.002168206 -0.002654648
-0.002465579 -0.0023151655 -0.0012727673 -0.0010909752 -0.0023488891 -0.0025919522 -0.0021542038 -0.002825404
0.0010896018 0.0014680881 -3.4905617e-05 -4.8512135e-05 -2.2642482e-05 -8.535964e-06 1.3532561e-05 2.9950352e-06
-6.6056236e-07 -1.8921091e-06 -2.490673e-06 -3.4306013e-05 -1.1363465e-05 -5.4398224e-06 -2.797051e-06 -3.141202e-06
-5.293554e-06 1.312478e-05 2.5995723e-06 -9.223087e-13 -1.2457105e-12 -1.9701938e-12 -2.2292658e-12 -2.2481932e-12
-1.3397242e-12 -8.360973e-13 -6.005632e-13 -4.771708e-13 -4.9146906e-13 -6.4790485e-13 -3.0083534e-13 -5.4020926e-13
-3.2346651e-13 -7.1549716e-13 9.621266e-13 1.2635281e-13 0.0006851861 -0.00034048315 -0.0014875075 -0.0011943565
-0.0025658733 -0.0014485421 -0.0026420993 -0.002352534 -0.0021493481 0.00031508296 -0.0021320852 -0.0019282101
-0.002776857 -0.0019701626 -0.0029060077 -0.00020951824 0.0014780958 0.0012336194 0.0037181657 0.0037994003
0.0040621576 0.0036152522 0.0031803632 0.0019613125 0.0015971431 0.0014103225 0.0013725082 -0.00035718022
0.0016343463 0.00076683075 0.001278576 0.0026387083 -0.0016785705 -0.00062180334 0.0025810082 0.003402671
0.0032374118 0.006732609 0.0062880693 0.0065508555 0.0028651939 0.0016163457 0.001012789 0.002710761
0.0011358936 0.0009994481 0.0011304611 0.0004511788 0.0028982935 -0.003131832 0.00025103128 -0.00052040233
0.00032316303 -0.00089638564 -0.0010697062 -0.0015641584 -0.00042137405 -0.00067108806 -0.00044016913 -0.00031127996
-0.0001716647 -0.0016192449 8.647335e-05 -0.0007100013 -0.00024204633 0.00010100167 0.00034629097 0.000142912
7.780167e-06 0.00012987308 0.0002031603 0.0002725495 0.00025199313 0.00017218747 0.00012009204 9.515659e-05
8.0369e-05 1.6097132e-05 2.8391889e-05 6.348634e-05 4.3572778e-05 6.150068e-05 9.551422e-05 -6.679035e-05
-2.7170434e-05 0.0005786926 0.0006633083 0.001621728 0.0015009728 0.0012441785 0.0009578228 0.00081030757
0.000748332 0.0006977405 0.00019737582 0.00060956116 0.00020294041 0.0010379498 0.0005159177 0.00053398736
-0.00047974128 -0.0003493541 -3.8740277e-06 -6.44777e-06 -7.75471e-06 -7.1634277e-06 -6.371114e-06 -3.8555827e-06
-2.8280197e-06 -2.3047053e-06 -1.987054e-06 -2.6920347e-06 -1.8346655e-06 -1.8342052e-06 -1.8742006e-06 -1.5906496e-06
-7.3186325e-06 3.0059864e-06 9.2216897e-07 -0.00091645756 -0.0015242705 -0.0010804096 -0.0025607182 -0.0026480656
-0.0019883593 -0.0015078596 -0.000853237 -0.00051451987 -0.0013251513 -0.0014048136 -0.0009235839 -0.0033406941
-0.0004623116 -0.0021652048 0.0010910326 -2.9210496e-06 4.895716e-11 7.676018e-11 7.641349e-11 7.676602e-11
3.7214426e-11 2.1499469e-11 1.5023748e-11 1.179774e-11 9.9040645e-12 1.6885082e-11 2.8871487e-11 7.925596e-12
2.0388968e-11 7.443895e-12 2.4912674e-11 -2.6929623e-11 -2.4044469e-12 -6.056997e-15 -8.720473e-15 -1.3899909e-14
-1.740964e-14 -1.6972684e-14 -1.4035609e-14 -8.688124e-15 -6.4117387e-15 -5.1651705e-15 -6.5411573e-15 -4.014224e-15
-3.588057e-15 -3.1783499e-15 -3.6125777e-15 -4.438091e-15 6.965344e-15 1.788064e-15 0.0008233938 0.00052878505
-0.00054580835 9.615393e-05 -0.00046429026 -0.0006326186 -0.00065167557 -0.00080901815 -0.0008719916 0.00053799996
0.0011966913 -0.00050332106 0.0011585325 -0.00079187774 -0.0012910562 -0.00027173985 0.0006754146 1.2670861e-08
00000000: 72a4 2b3b 4f8d b93b a530 7a3b 2ee5 d53b
00000010: a5f6 b73b f43e a23b a192 2e3b bd3a c03a
00000020: 755a 663a ea79 683b bf7b b53a 1c8d 063b
00000030: 8d51 653b 45ee 3c3a 6d0d bd3a b8fc 47bb
00000040: 40df 8739 2f25 89ba e705 8ebb a0a6 8bbb
00000050: 2051 66bb 2a98 3bbb 7618 0ebb 9af9 2dbb
00000060: 8d95 21bb 08ba 17bb fcd2 a6ba 0eff 8eba
00000070: d2ef 19bb bedd 29bb 8b2d 0dbb 6a2a 39bb
00000080: f8d0 8e3a dd6c c03a 9f67 12b8 8279 4bb8
00000090: 5cf0 bdb7 b035 0fb7 e809 6337 50fe 4836
000000a0: 8051 31b5 60f4 fdb5 7025 27b6 cde3 0fb8
000000b0: b6a5 3eb7 b887 b6b6 f8b4 3bb6 70cd 52b6
000000c0: 489f b1b6 8032 5c37 5074 2e36 accd 81ab
000000d0: 7351 afab dba3 0aac e2de 1cac d933 1eac
000000e0: a78c bcab 2957 6bab 240b 29ab c84f 06ab
000000f0: 1456 0aab 775e 36ab f15a a9aa 2e0e 18ab
00000100: 7018 b6aa 0165 49ab 4468 872b b842 0e2a
00000110: 109e 333a e082 b2b9 78f8 c2ba f48b 9cba
00000120: 3628 28bb 02dd bdba 1227 2dbb f92c 1abb
00000130: 14dc 0cbb b831 a539 74ba 0bbb ffbb fcba
00000140: eefb 35bb d81d 01bb b872 3ebb 20b2 5bb9
00000150: aabc c13a 66b1 a13a 78ac 733b 5cff 783b
00000160: d91b 853b deed 6c3b a46d 503b 5d89 003b
00000170: 3b57 d13a 92da b83a bce5 b33a eb43 bbb9
00000180: 9037 d63a 2405 493a e495 a73a 2eee 2c3b
00000190: 7b03 dcba 8400 23ba 2226 293b 59ff 5e3b
000001a0: c22a 543b 389d dc3b 260c ce3b 8fa8 d63b
000001b0: fac5 3b3b 90db d33a 8fbf 843a 06a7 313b
000001c0: 44e2 943a eaff 823a fb2b 943a 328c ec39
000001d0: 4cf1 3d3b 6c3f 4dbb d99c 8339 9c6b 08ba
000001e0: 356e a939 6cfb 6aba 6235 8cba 7204 cdba
000001f0: deeb dcb9 f5eb 2fba 80c6 e6b9 4a33 a3b9
00000200: e400 34b9 d83c d4ba 0759 b538 611f 3aba
00000210: d1cd 7db9 dcd0 d338 638e b539 a6da 1539
00000220: 9087 0237 8a2e 0839 6e07 5539 fae4 8e39
00000230: f21d 8439 398d 3439 ecd9 fb38 ce8e c738
00000240: c78b a838 5408 8737 1e2b ee37 f823 8538
00000250: eac1 3638 edf9 8038 ce4e c838 cc11 8cb8
00000260: 10ec e3b7 67b3 173a dee1 2d3a 2990 d43a
00000270: 4abc c43a b413 a33a 6616 7b3a d26a 543a
00000280: b62b 443a 93e8 363a abf6 4e39 f5ca 1f3a
00000290: 67cc 5439 d10b 883a a73e 073a 49fb 0b3a
000002a0: c985 fbb9 8329 b7b9 a5fd 81b6 ec59 d8b6
000002b0: 3a1a 02b7 605d f0b6 74c7 d5b6 345f 81b6
000002c0: 02c9 3db6 89aa 1ab6 5459 05b6 cea8 34b6
000002d0: a03e f6b5 d02e f6b5 0b8d fbb5 4e7e d5b5
000002e0: 9392 f5b6 74ba 4936 f88a 7735 6d3e 70ba
000002f0: 08ca c7ba 889c 8dba b9d1 27bb 2b8b 2dbb
00000300: 224f 02bb 5fa3 c5ba c4ab 5fba d8e0 06ba
00000310: b3b0 adba b921 b8ba ab1c 72ba 8cef 5abb
00000320: 6a62 f2b9 1ce6 0dbb fb00 8f3a 4007 44b6
00000330: dd50 572e 24cc a82e f808 a82e 6dcf a82e
00000340: b8ab 232e 801c bd2d 7926 842d 4c8c 4f2d
00000350: f13b 2e2d d385 942d cff4 fd2d b66d 0b2d
00000360: e057 b32d 53f4 022d 5b22 db2d 1fe0 ecad
00000370: aa32 29ac f039 daa7 1518 1da8 0466 7aa8
00000380: e6cf 9ca8 58e0 98a8 d2d7 7ca8 e682 1ca8
00000390: da01 e7a7 4a18 baa7 87ab eba7 aea0 90a7
000003a0: fc45 81a7 3506 65a7 2628 82a7 2ae6 9fa7
000003b0: f6f3 fa27 f6d7 0027 06d9 573a 2a9e 0a3a
000003c0: 9414 0fba 40a6 c938 fc6b f3b9 51d6 25ba
000003d0: 35d5 2aba 4a14 54ba 5e96 64ba 9108 0d3a
000003e0: 4cda 9c3a 4ef1 03ba e6d9 973a 0496 4fba
000003f0: a838 a9ba 4e78 8eb9 4e0e 313a 09af 5932

exp_avg_sq f4 [128, 17]
0.0010192398 0.0021799742 0.0035884636 0.004098321 0.0035298148 0.0021357103 0.0011280181 0.0007933461
0.00073001423 0.0002894482 0.00065739965 0.00012910464 0.001585633 0.0002102379 0.0015027974 0.00065412343
4.6922825e-05 0.00024303046 0.0004366682 0.00081726984 0.0011705405 0.0012501164 0.000968131 0.00053846295
0.00025370665 0.00017877911 5.3083542e-05 0.00027535076 3.2015047e-05 0.0004898007 4.809441e-05 0.00049671857
0.00018267543 9.710235e-06 1.4649522e-08 3.645345e-08 5.0302685e-08 4.9126438e-08 2.9333423e-08 1.0735679e-08
5.2374154e-09 3.2922471e-09 2.373908e-09 8.349801e-09 4.7562683e-09 1.7452734e-09 2.4730509e-09 1.4149278e-09
4.529317e-09 6.9788415e-09 3.5683212e-10 1.7593241e-21 2.1906317e-21 3.6118425e-21 4.308568e-21 4.5470583e-21
3.4670245e-21 3.358517e-21 5.0335128e-21 1.0289882e-20 1.2059459e-22 1.7197889e-21 1.0749121e-22 7.14364e-21
3.149556e-21 1.3821808e-21 7.234533e-23 1.0592933e-24 0.00078321365 0.0014644007 0.002763522 0.0036944626
0.0037980122 0.002697084 0.001506314 0.000696174 0.00046029926 0.00023148602 0.0006878104 0.0001108457
0.0014095514 0.00016357232 0.001681833 0.0006420842 3.231607e-05 0.00016746738 0.00030068186 0.00049426954
0.00070105284 0.0007521084 0.00061828404 0.00037212067 0.00022801767 0.00016500014 2.7707712e-05 0.00018508025
1.541439e-05 0.00027734603 3.876544e-05 0.00035077325 0.000120668214 6.22668e-06 0.0003000277 0.00048888597
0.00089953066 0.0014693375 0.0016843054 0.0014671311 0.0008736475 0.00040486734 0.00026978913 7.217913e-05
0.00037216838 3.8573744e-05 0.0005472145 8.776152e-05 0.0006474854 0.00025966042 1.2007044e-05 0.0005533425
0.00092448323 0.0017600294 0.0024082887 0.0025299892 0.0019303499 0.0011599864 0.0007751978 0.00077249476
8.4252446e-05 0.00069483084 6.565365e-05 0.0015679424 0.00019377845 0.0009968717 0.0004073354 3.3213753e-05
2.9107134e-06 7.277427e-06 7.861391e-06 7.1176364e-06 3.979286e-06 2.2860318e-06 1.4459553e-06 6.931304e-07
5.062824e-07 2.0394227e-06 6.8449793e-07 4.9574044e-07 3.3567804e-07 3.4033033e-07 8.3544194e-07 1.1983628e-06
8.6858535e-08 7.228169e-05 9.874716e-05 0.00017358433 0.0002807034 0.00028848814 0.00024138113 0.00014093696
9.984007e-05 0.00014332728 1.0765289e-05 0.00020735041 6.9772386e-06 0.00019517953 5.297657e-05 3.1783526e-05
4.8751015e-05 5.9759427e-06 1.3304073e-05 1.4497762e-05 1.6858568e-05 2.1212925e-05 2.9846778e-05 5.1122006e-05
8.3623934e-05 0.000115645744 0.00012765265 9.380647e-07 1.3512006e-05 1.1829833e-06 4.463786e-05 2.1566808e-05
0.000102348255 2.3900473e-05 3.6713705e-06 0.00032369414 0.0006258468 0.0011485396 0.001503326 0.0014816613
0.001119199 0.00058086345 0.00039346796 0.00037502465 5.6948655e-05 0.00030686992 3.9513783e-05 0.0008992381
0.00010719021 0.00062977296 0.00024073603 1.9713769e-05 5.231634e-20 6.349053e-20 7.8779796e-20 1.07991156e-19
1.7623951e-19 2.997279e-19 3.0403396e-19 2.7986576e-19 6.626893e-20 1.453755e-21 4.8218665e-20 1.88765e-21
1.7666368e-19 1.3555738e-19 2.8487232e-19 3.6554388e-22 1.4659947e-23 6.1512e-28 7.734561e-28 1.4916296e-27
2.4085514e-27 2.4752055e-27 2.051442e-27 1.3960668e-27 1.4548528e-27 2.1712364e-27 2.7845781e-28 6.4302395e-28
1.2293597e-28 3.9632603e-27 3.82221e-27 2.856199e-28 3.7001676e-28 2.6890502e-29 0.00027807298 0.0005666344
0.00092006556 0.001028658 0.00089562783 0.0005419624 0.00027963088 0.00014702247 9.7913224e-05 7.498936e-05
0.00019328053 3.2467855e-05 0.00041154362 4.1291987e-05 0.0003109137 0.00014837725 9.605178e-06 6.6628054e-09
00000000: 0398 853a e6dd 0e3b 6e2c 6b3b 354b 863b
00000010: 7754 673b 46f7 0b3b 02da 933a 8ef8 4f3a
00000020: 6d5e 3f3a 14c1 9739 5855 2c3a 4360 0739
00000030: 04d5 cf3a 4e73 5c39 83f9 c43a 7b79 2b3a
00000040: 00cf 4438 fed5 7e39 9df0 e439 0d3e 563a
00000050: d26c 993a f2da a33a 2cca 7d3a a327 0d3a
00000060: ee03 8539 a776 3b39 05a6 5e38 f45c 9039
00000070: e547 0638 f865 003a fbb8 4938 3836 023a
00000080: 908c 3f39 24e9 2237 47ad 7b32 fe90 1c33
00000090: 630c 5833 17ff 5233 e1f8 fb32 0470 3832
000000a0: cbf4 b331 d33d 6231 3b22 2331 d072 0f32
000000b0: 946c a331 59de ef30 5ff2 2931 5977 c230
000000c0: 4ba0 9b31 8aca ef31 a82b c42f 47ee 041d
000000d0: fb84 251d 9973 881d eac5 a21d 73c8 ab1d
000000e0: 01fb 821d 2bc3 7d1d 2629 be1d d15e 421e
000000f0: 38ca 111b 8ef1 011d ebf2 011b 86f0 061e
00000100: 46f9 6d1d 88de d01c 97eb ae1a eeea a317
00000110: 9450 4d3a 22f1 bf3a 351c 353b cc1e 723b
00000120: 12e8 783b 90c1 303b 836f c53a 727f 363a
00000130: 5254 f139 0ebb 7239 2d4e 343a d575 e838
00000140: b2c0 b83a 9c84 2b39 f370 dc3a 8b51 283a
00000150: 1e8b 0738 2f9a 2f39 d6a4 9d39 de91 013a
00000160: dcc6 373a 2429 453a 5714 223a 3119 c339
00000170: 0718 6f39 e303 2d39 dc6d e837 1a12 4239
00000180: 274e 8137 c168 9139 1398 2238 fde7 b739
00000190: 410f fd38 c6ee d036 094d 9d39 9528 003a
000001a0: 7bce 6b3a c996 c03a e9c3 dc3a c04c c03a
000001b0: 7e05 653a 6044 d439 7c72 8d39 e05e 9738
000001c0: 981f c339 3eca 2138 f272 0f3a 9b0c b838
000001d0: 02bc 293a 0823 8839 dc71 4937 300e 113a
000001e0: 0559 723a c9b0 e63a 61d4 1d3b 2dce 253b
000001f0: cb03 fd3a af0a 983a a536 4b3a 3f81 4a3a
00000200: b0b0 b038 4f25 363a 89af 8938 6b83 cd3a
00000210: 0231 4b39 77a9 823a a28f d539 ff4e 0b38
00000220: ad55 4336 9f30 f436 6be4 0337 08d4 ee36
00000230: ce85 8536 ba69 1936 a512 c235 8f0f 3a35
00000240: 76e7 0735 04dd 0836 57be 3735 0613 0535
00000250: 3d37 b434 a5b6 b634 2243 6035 6fd7 a035
00000260: fc86 ba33 f095 9738 7a16 cf38 3004 3639
00000270: 5f2b 9339 3940 9739 411b 7d39 7ac8 1339
00000280: 3b61 d138 204a 1639 909c 3437 346c 5939
00000290: 061e ea36 1ba9 4c39 2933 5e38 4d4f 0538
000002a0: 017a 4c38 f584 c836 8f34 5f37 6a3b 7337
000002b0: 806b 8d37 69f2 b137 785f fa37 d66b 5638
000002c0: 425f af38 d686 f238 7fda 0539 51cf 7b35
000002d0: a0b1 6237 ffc6 9e35 8a39 3b38 5eea b437
000002e0: cda3 d638 e07d c837 aa61 7636 7eb5 a939
000002f0: de0f 243a 988a 963a 400b c53a 4e34 c23a
00000300: 16b2 923a 1645 183a 604a ce39 f59e c439
00000310: 27dc 6e38 62e3 a039 9abb 2538 d9ba 6b3a
00000320: 4ecb e038 5917 253a 166e 7c39 ff5e a537
00000330: 930e 771f ace9 951f 7703 ba1f a6fc fe1f
00000340: 2011 5020 9aed b020 5078 b320 1e34 a520
00000350: 1c79 9c1f 6caf db1c cab4 631f 76a0 0e1d
00000360: 5291 5020 b409 2020 b028 a820 2df5 dc1b
00000370: 45c8 8d19 77f0 4212 371e 7512 af5b ec12
00000380: 3ad3 3e13 221b 4413 3088 2213 3337 dd12
00000390: d787 e612 e805 2c13 5d7e b011 4dc8 4b12
000003a0: 01d7 1b11 3c00 9d13 d069 9713 7a08 b511
000003b0: a786 ea11 de59 0810 53ca 9139 318a 143a
000003c0: 8e30 713a 09d4 863a 91c8 6a3a 7b12 0e3a
000003d0: 6c9b 9239 0b2a 1a39 c356 cd38 9b43 9d38
000003e0: 59ab 4a39 182e 0838 73c4 d739 ef30 2d38
000003f0: 2102 a339 b795 1b39 ed25 2137 a8ee e431

exp_avg f4 [128]
0.00025917325 -0.00016519288 -8.623151e-07 -8.873877e-14 -6.565444e-05 0.00017112424 0.00025915354 -4.3956315e-05
8.998483e-06 5.9997266e-05 -3.0445386e-07 -9.982244e-05 3.0565413e-12 -6.966158e-16 -2.605062e-06 1.4491428e-09
0.00039092285 3.1495629e-06 0.00011013823 0.00064244063 -8.500677e-05 -1.1488328e-09 1.0591219e-05 -6.7211266e-05
-0.00064933865 9.9767676e-05 3.675895e-08 -0.00025498972 -3.677169e-14 2.6520374e-06 -3.1230725e-06 -0.0001622207
-6.037855e-15 -3.3926157e-05 1.2594221e-07 -0.00023886922 9.261334e-06 -6.2771223e-06 -4.282139e-05 8.2174825e-05
0.00019195213 -1.7315064e-05 -2.9080436e-05 3.2085268e-08 0.00013837965 -0.00031401153 9.421734e-11 -0.00025807283
-0.00028073665 2.690066e-05 -3.0990584e-05 -0.0008441888 -0.00066396047 -3.6278911e-06 3.6313292e-08 0.00042056842
-0.00031077297 -0.00016434873 -0.00030430962 1.2325073e-05 2.0265867e-05 0.00014296916 3.6911497e-06 -1.5229009e-05
0.00018969027 9.848169e-05 -0.00016776654 0.00035287353 8.491459e-05 -0.00055000343 -0.00019622699 0.00013903176
6.7579664e-11 0.00048966723 -0.00016027997 -0.00029784636 9.634513e-05 -5.6303412e-05 8.321388e-05 -0.00034207967
0.00059603003 0.00031493025 -1.2122525e-09 -0.0008712401 0.00029881566 -5.4707017e-10 7.76322e-06 2.9103445e-10
-0.00039398327 9.197312e-07 -2.5454827e-05 -0.0009507308 1.6646976e-05 9.760014e-05 -0.00019240077 1.0805304e-05
-0.000100997626 -7.718612e-05 0.0005256335 -4.7750166e-07 -7.398253e-05 6.259035e-05 -9.3265e-05 -7.313887e-08
5.1725387e-05 3.5567073e-13 -0.00031284313 -0.00024213968 0.0006441731 2.253837e-05 0.00016073672 5.2581276e-05
0.00016348658 -0.00026733152 0.00031435108 -0.0001035093 -0.00029094596 1.11607975e-14 -1.6255324e-05 9.2749935e-05
-1.8486488e-05 -6.839389e-12 -1.9243584e-05 -5.0761915e-09 -5.195611e-07 -1.02213505e-07 -5.5018536e-06 -0.00049612444
00000000: a5e1 8739 a037 2db9 d879 67b5 6bd2 c7a9
00000010: f6af 89b8 d06f 3339 00df 8739 bc5d 38b8
00000020: 31f8 1637 93a5 7b38 d273 a3b4 c457 d1b8
00000030: c115 572c 2cc9 48a6 a0d2 2eb6 2e2b c730
00000040: c7f4 cc39 145d 5336 03fa e638 7669 283a
00000050: aa45 b2b8 f6e4 9db0 f0b0 3137 c6f3 8cb8
00000060: 6138 2aba 5d3a d138 e5e0 1d33 24b0 85b9
00000070: df9a 25a9 a8f9 3136 fa95 51b6 ca19 2ab9
00000080: 6289 d9a7 ef4b 0eb8 bb3a 0734 f878 7ab9
00000090: 2061 1b37 12a0 d2b6 1e9b 33b8 4655 ac38
000000a0: c246 4939 d13f 91b7 c3f1 f3b7 20ce 0933
000000b0: 011a 1139 eaa1 a4b9 a62f cf2e f34d 87b9
000000c0: d62f 93b9 baa8 e137 e3fb 01b8 8d4c 5dba
000000d0: a20d 2eba b276 73b6 e3f6 1b33 bd7f dc39
000000e0: 3eef a2b9 0755 2cb9 bf8b 9fb9 c9c7 4e37
000000f0: 9e00 aa37 fee9 1539 78b5 7736 1880 7fb7
00000100: 98e7 4639 f487 ce38 7dea 2fb9 e201 b939
00000110: 2c14 b238 1b2e 10ba 48c2 4db9 0ec9 1139
00000120: f89b 942e 035d 003a d410 28b9 4328 9cb9
00000130: e60c ca38 5427 6cb8 1d83 ae38 2859 b3b9
00000140: e63e 1c3a 391d a539 589c a6b0 ef63 64ba
00000150: 5caa 9c39 a460 16b0 c73e 0237 75ff 9f2f
00000160: 8a8f ceb9 72e3 7635 d387 d5b7 773a 79ba
00000170: 1ca5 8b37 adae cc38 30bf 49b9 6d48 3537
00000180: b0ce d3b8 fcde a1b8 abca 093a aa2d 00b5
00000190: 1127 9bb8 f042 8338 4497 c3b8 8510 9db3
000001a0: b6f3 5838 8e39 c82a 1805 a4b9 e0e6 7db9
000001b0: badd 283a c810 bd37 6f8b 2839 b78a 5c38
000001c0: 986d 2b39 a128 8cb9 7dcf a439 2213 d9b8
000001d0: 1b8a 98b9 180e 4928 0b5c 88b7 be82 c238
000001e0: 6e13 9bb7 bda3 f0ac 486d a1b7 a76a aeb1
000001f0: f877 0bb5 7880 dbb3 909c b8b6 590e 02ba

exp_avg_sq f4 [128]
7.710742e-06 2.3153177e-06 8.17458e-10 2.3026955e-10 7.0524625e-06 1.5348322e-06 3.14623e-06 5.2986156e-06
1.3538525e-08 7.0313894e-07 2.4361108e-07 3.0702033e-06 4.7269495e-09 6.614566e-09 1.8426421e-06 1.197726e-10
3.449335e-06 4.945356e-07 1.4883702e-06 5.819622e-06 3.1883412e-06 1.6330328e-09 1.1507977e-06 1.5774214e-07
1.3860645e-05 5.2950045e-06 2.2971927e-10 1.7803935e-05 5.6705995e-10 7.3649558e-09 1.1834667e-07 5.4389307e-06
8.776028e-11 3.019268e-08 4.116951e-10 8.821165e-07 9.205514e-06 2.0506436e-08 4.6484356e-06 2.7084184e-07
4.064853e-06 5.2687847e-06 6.2230015e-07 7.075942e-09 7.483011e-06 3.956307e-06 1.3131512e-07 1.3453988e-05
4.096386e-06 2.9650716e-06 2.1591957e-07 1.8182069e-05 1.4923611e-05 1.20534684e-08 4.374203e-09 6.222954e-06
4.310549e-06 6.3614925e-07 7.0976544e-06 7.781624e-08 5.653801e-09 2.0052007e-06 4.623149e-09 1.2627688e-06
4.4213916e-06 7.000464e-06 2.0152597e-06 6.1298238e-06 3.932422e-06 2.6842645e-07 4.5242123e-06 8.304209e-07
6.3135726e-11 1.447609e-05 2.6077248e-06 4.3933915e-06 6.8112865e-07 1.177483e-06 2.530465e-06 2.506091e-06
3.2481428e-06 4.438663e-06 1.1803535e-09 1.7227028e-05 1.905329e-06 3.600143e-09 2.1483617e-08 4.2298525e-09
5.4287257e-06 3.2091813e-07 2.2900298e-07 3.121164e-05 7.525206e-08 1.026046e-06 1.5140967e-06 1.0959438e-06
1.3243825e-05 5.6497265e-06 1.4310168e-05 1.3356547e-09 4.5321153e-06 2.113446e-06 1.1855835e-05 8.99697e-09
4.4240255e-06 2.1236582e-10 4.910581e-06 5.102346e-06 3.0742535e-06 1.5849841e-07 1.3783737e-06 6.8027873e-07
8.3894935e-07 1.3936979e-06 1.8250652e-06 8.116496e-06 2.115378e-06 4.5364626e-10 2.4197064e-07 7.992092e-06
3.6498423e-07 1.815269e-10 3.728664e-07 6.511715e-11 8.518651e-10 4.79032e-10 1.9209194e-06 6.000773e-06
00000000: 625d 0137 db60 1b36 7eb3 6030 1e2f 7d2f
00000010: 31a4 ec36 6f00 ce35 d223 5336 c3ca b136
00000020: 1097 6832 57bf 3c35 a7c9 8234 b109 4e36
00000030: b06a a231 5646 e331 b350 f735 fdb0 032f
00000040: 207b 6736 3ac0 0435 03c4 c735 2c46 c336
00000050: 49f7 5536 3c71 e030 1c75 9a35 d45f 2934
00000060: 048b 6837 beab b136 3a94 7c2f a959 9537
00000070: 4cdf 1b30 d60e fd31 c525 fe33 0f80 b636
00000080: a5fc c02e 34ad 0133 ef54 e22f 96ca 6c35
00000090: 6271 1a37 2126 b032 c2f9 9b36 3868 9134
000000a0: d264 8836 84ca b036 240c 2735 a520 f331
000000b0: 9316 fb36 6bc0 8436 a0ff 0c34 70b8 6137
000000c0: b073 8936 8bfb 4636 85d7 6734 b285 9837
000000d0: 6c60 7a37 b713 4f32 e64b 9631 c5ce d036
000000e0: 55a3 9036 d8c3 2a35 6328 ee36 ee1b a733
000000f0: 5c43 c231 1691 0636 a6d9 9e31 687c a935
00000100: 775b 9436 87e5 ea36 e63d 0736 c9ae cd36
00000110: 3ff3 8336 401c 9034 b0ce 9736 17ea 5e35
00000120: 41d6 8a2e 55de 7237 5f00 2f36 f26a 9336
00000130: ced6 3635 020a 9e35 0fd1 2936 512e 2836
00000140: abfa 5936 d3ef 9436 ff39 a230 c382 9037
00000150: 9bba ff35 6366 7731 f98a b832 2d56 9131
00000160: 6628 b636 a74a ac34 dce3 7534 3ee9 0238
00000170: 429a a133 acb6 8935 f737 cb35 5818 9335
00000180: cc31 5e37 c892 bd36 b415 7037 2c92 b730
00000190: 9312 9836 bad4 0d36 6ce8 4637 1891 1a32
000001a0: 1772 9436 aa7f 692f 92c5 a436 d234 ab36
000001b0: 464f 4e36 b62f 2a34 8f00 b935 669c 3635
000001c0: 2934 6135 180f bb35 c3f4 f435 162c 0837
000001d0: ebf5 0d36 0965 f92f 31e8 8134 c615 0637
000001e0: 0df3 c334 4897 472f 5e2e c834 b231 8f2e
000001f0: ad28 6a30 e1ac 0330 25e9 0036 3f5a c936
