results/test-15/Drive/Drive-11365.pt (torch, 475233 bytes, 36 tensors)

network_body._body_endoder.seq_layers.0.weight f4 [128, 17]
0	0xbe828361	-0.2549086
1	0xbcd84ee0	-0.026404798
2	0x3e3c842b	0.18409793
3	0x3d99e364	0.075140744
4	0xbeab1f0f	-0.33422133
5	0x3eda13c2	0.425932
6	0xbd856828	-0.06514007
7	0x3e4c052e	0.19923851
8	0xbe449608	-0.19197857
9	0xbe66a2ca	-0.22523037
10	0x3d541107	0.05177405
11	0x3e0d46a7	0.13796483
12	0xbed4f289	-0.4159129
13	0x3ce4bcdd	0.027922088
14	0x3f126ce0	0.5719738
15	0xbe0d852f	-0.13820337
16	0xbd9c2eb6	-0.07626097
17	0x3e2361e4	0.15955311
18	0x3e282dd3	0.1642373
19	0xbd70c846	-0.058784746
20	0x3d477edf	0.048704978
21	0xbe6412d1	-0.22272803
22	0xbc969d7e	-0.018385645
23	0x3f03567d	0.51303846
24	0xbe81d842	-0.25360304
25	0xbdeb8277	-0.114994936
26	0x3ea667bb	0.32501015
27	0x3de99002	0.114044204
28	0xbe2a111a	-0.16608086
29	0x3e7db721	0.2477689
30	0x3e6a4e5a	0.22881451
31	0x3ce29bc9	0.027662175
32	0xbec58e91	-0.38585332
33	0x3e62c8d5	0.22146924
34	0x3b35c839	0.002773775
35	0xbc3cd82d	-0.01152615
36	0x3c0f1a5f	0.008734315
37	0xbded46c6	-0.115857646
38	0x3e5057f6	0.20346054
39	0xbd9b02b3	-0.07568874
40	0xbf460b62	-0.7736112
41	0x3db825c7	0.089915805
42	0x3e9d6a3e	0.3074512
43	0x3e8aea96	0.271321
44	0x3c884ae5	0.016637275
45	0x3e0708d8	0.13186967
46	0x3d66a579	0.05631015
47	0xbe7f9481	-0.24958993
48	0xbd4067c0	-0.046973944
49	0x3eae9c09	0.3410342
50	0xbecaad43	-0.39585313
51	0x3db3e9c1	0.087848194
52	0x3e77b87d	0.2419147
53	0x3ecb62c4	0.3972379
54	0x3eb80599	0.3594177
55	0x3e00544a	0.12532154
56	0xbe81d50c	-0.25357854
57	0xbe87dc54	-0.26535285
58	0x3dc383dd	0.09546635
59	0x3e92c8f2	0.28668934
60	0x3e63eb3d	0.22257705
61	0xbe1efe40	-0.15526676
62	0x3eb49392	0.35268837
63	0x3e6f047d	0.23341556
64	0xbd23b6fb	-0.039969426
65	0x3e8aa2d5	0.27077356
66	0x3e3d373a	0.18478099
67	0xbeb14a5f	-0.34627053
68	0x3e51efa0	0.20501566
69	0xbe0ff981	-0.14060022
70	0xbe6125d5	-0.21987088
71	0x3e5a461a	0.21315804
72	0xbdedf862	-0.11619641
73	0xbe78917c	-0.24274248
74	0xbe0a8240	-0.13526249
75	0xbe735b7a	-0.23765364
76	0x3c5da62f	0.013528391
77	0x3e93f600	0.2889862
78	0x3e782dd2	0.24236229
79	0x3de9e07c	0.1141977
80	0x3e8078fb	0.250923
81	0xbe59ec74	-0.21281606
82	0x3ead3816	0.33831853
83	0x3d739d60	0.059476256
84	0x3ec35959	0.38154104
85	0xbc814484	-0.015779741
86	0xbdb3814c	-0.08764896
87	0x3ec86c44	0.391451
88	0x3e673603	0.22579198
89	0x3eec0c83	0.46103296
90	0xbca3ca5f	-0.019993959
91	0x3ea6b1b8	0.32557464
92	0xbe17b48b	-0.14814965
93	0x3ed633d1	0.41836408
94	0xbe0e9a59	-0.13926066
95	0xbe65fa64	-0.22458798
96	0xbe4bc8cf	-0.19900821
97	0xbe145acf	-0.14487766
98	0xbd564700	-0.052313805
99	0xbd65fdca	-0.056150235
100	0xbf38b68b	-0.7215354
101	0xbd54738f	-0.051868018
102	0xbe968135	-0.29395452
103	0x3dc00a23	0.093769334
104	0xbe3fc65a	-0.18728009
105	0x3dde123a	0.1084332
106	0x3dcba885	0.09944252
107	0xbe46827f	-0.19385718
108	0xbe21c055	-0.15796025
109	0xbe0e76e6	-0.13912544
110	0x3c955ebf	0.018233655
111	0xbe1997a7	-0.14999257
112	0x3d85ffcd	0.06542931
113	0x3b917059	0.0044384417
114	0x3c771999	0.015081787
115	0xbe83404c	-0.25634992
116	0x3e2e3566	0.17012557
117	0xbe8e8a80	-0.27840042
118	0xbe62a949	-0.2213489
119	0xbd2f6373	-0.04281945
120	0xbea09ff8	-0.31372046
121	0x3e76a22e	0.24085304
122	0x3ed4f1cd	0.4159073
123	0x3e36dfc2	0.17858794
124	0xbd21b459	-0.039478634
125	0xbe58ff09	-0.21191038
126	0x3e80452f	0.25052783
127	0xbe0a1845	-0.1348582
128	0x3e8bae15	0.27281252
129	0x3d7d53f4	0.061847642
130	0xbebe7fbb	-0.37206826
131	0x3e0a4343	0.13502221
132	0xbcd73c52	-0.02627388
133	0x3e13f4bb	0.14448826
134	0xbe28af1c	-0.16473049
135	0x3de692da	0.112584785
136	0x3e5b5eac	0.21422833
137	0x3e4b39cc	0.19846267
138	0xbeb27b81	-0.3485985
139	0x3e607495	0.21919473
140	0x3f2a538e	0.66533744
141	0x3db02286	0.08600335
142	0xbda65de3	-0.08123376
143	0x3e4989ad	0.19681425
144	0xbca05532	-0.019571874
145	0x3f126ab3	0.5719406
146	0x3ea2372c	0.31682718
147	0xbd6f64fe	-0.058445923
148	0xbc9fed13	-0.019522225
149	0x3e4a862f	0.1977775
150	0x3e07450c	0.13209933
151	0xbe57af43	-0.21062951
152	0x3b922056	0.004459421
153	0xbeb5a913	-0.35480556
154	0xbddd5e45	-0.10808996
155	0xbe5c5125	-0.21515329
156	0x3dfd0347	0.12354141
157	0xba98421e	-0.0011616384
158	0xbe39a1dc	-0.1812815
159	0x3dcd1c8d	0.10015211
160	0x3de58f22	0.11208941
161	0x3e5fce8a	0.21856132
162	0xbd6c28e4	-0.057656184
163	0x3f04bfef	0.5185537
164	0xbd8b1434	-0.06790963
165	0xbcfd97ab	-0.03095611
166	0xbd5a69cd	-0.053323556
167	0xb9cbd737	-0.00038879525
168	0x3e4eada9	0.20183434
169	0x3df851c9	0.12124974
170	0xbe7ed030	-0.24884105
171	0xbd62817b	-0.055299263
172	0x3ef04ac8	0.46932054
173	0x3da93c60	0.08263469
174	0xbeec33a8	-0.4613316
175	0xbf095fb5	-0.5366166
176	0x3f35e3b5	0.7105058
177	0x3d4568ec	0.048195764
178	0x3f16ac4b	0.5885665
179	0xbe55f67b	-0.20894806
180	0xbe61b325	-0.22040994
181	0x3de2b91c	0.11070463
182	0x3dc443dc	0.09583256
183	0xba704ac8	-0.0009166417
184	0xbdfaf103	-0.122530006
185	0x3f302e64	0.68820786
186	0x3ca01235	0.019539932
187	0xbc7caefe	-0.015422581
188	0x3e5b7268	0.21430361
189	0x3dfdb61c	0.1238825
190	0x3e45c74c	0.19314307
191	0xbe80bfa4	-0.2514621
192	0xbe174f15	-0.14776261
193	0x3e2ae4d2	0.1668885
194	0x3e17664b	0.14785115
195	0x3c8b08af	0.016971914
196	0x3e0eb7ba	0.13937274
197	0x3d04d562	0.03243006
198	0x3ca87abf	0.020566342
199	0xbcb25043	-0.021766787
200	0x3d9c440f	0.07630169
201	0x3e0d4ec6	0.13799581
202	0xbd858830	-0.06520116
203	0x3d4b6f8a	0.04966692
204	0xbeabeb15	-0.3357779
205	0x3cc488e9	0.023991065
206	0xbf1621a6	-0.58645093
207	0xbd279ace	-0.040919118
208	0x3defdbaf	0.11711823
209	0x3db984c5	0.09058527
210	0x3e230589	0.1592008
211	0xbebd5c78	-0.3698461
212	0xbeea4f7c	-0.45763767
213	0xbe88e11a	-0.2673424
214	0xbe0a240d	-0.13490315
215	0x3ed8585e	0.4225492
216	0x3dcf23a0	0.10114217
217	0xbe66c131	-0.22534634
218	0xbedebdcd	-0.43504182
219	0xbe90b064	-0.28259575
220	0xbe41c3c5	-0.18922336
221	0x3d8c8fcd	0.06863365
222	0xbe90ae92	-0.28258187
223	0x3ed40475	0.4140965
224	0x3d6dafe6	0.058029078
225	0xbebd6b8a	-0.36996108
226	0xbdf5f54a	-0.12009676
227	0xbe2114ac	-0.15730542
228	0x3ec50c9b	0.3848618
229	0xbe797bbc	-0.24363607
230	0xbdfb69a4	-0.12276009
231	0xbe155e97	-0.14586864
232	0xbe857ef4	-0.2607342
233	0x3ecfc026	0.40576285
234	0x3d84fc1a	0.06493397
235	0x3e603356	0.21894583
236	0x3ec5c3ea	0.38626033
237	0xbe13704a	-0.14398304
238	0xbef41742	-0.47673994
239	0x3ebee10a	0.37281066
240	0x3e6e4f52	0.23272446
241	0xbdfb4f34	-0.12270966
242	0x3ea61c37	0.324434
243	0xbe760b53	-0.24027757
244	0x3d97a757	0.074049644
245	0x3ed2455f	0.4106855
246	0xbee5dc93	-0.44894847
247	0xbcd1a2fa	-0.025590409
248	0x3ebc0695	0.36723772
249	0x3d30d5e1	0.04317272
250	0xbea37c8e	-0.31930965
251	0xbe961c4f	-0.29318473
252	0x3ddaae43	0.10677769
253	0xbe0b0bf2	-0.13578776
254	0x3e3ae7e2	0.18252519
255	0x3c96b77f	0.018398045

network_body._body_endoder.seq_layers.0.bias f4 [128]
0	0x39155da6	0.00014244634
1	0x39b8cbe2	0.0003524712
2	0xb85b3dba	-5.2271156e-05
3	0xba2caad0	-0.00065867323
4	0xb99cd41e	-0.00029912678
5	0xb89fdbbe	-7.622641e-05
6	0xbad67868	-0.0016362788
7	0xb99a7b66	-0.00029465108
8	0xba2903a4	-0.0006447381
9	0x398aaf1e	0.00026451884
10	0xb891c76c	-6.951284e-05
11	0xba54919f	-0.00081088574
12	0xbb13d568	-0.002255762
13	0xbab5092b	-0.0013811936
14	0xb77412b2	-1.4547886e-05
15	0x3b2d11f2	0.0026408401
16	0xb8e1e2ce	-0.00010771082
17	0xb960bdb0	-0.00021432969
18	0xba1ca1ac	-0.0005975019
19	0xb93e3fcb	-0.00018143577
20	0x3803ab28	3.1392236e-05
21	0x3b13e430	0.002256643
22	0xb91823ae	-0.00014509141
23	0x3b716d6a	0.0036838898
24	0x3b028dcf	0.001992095
25	0x3ac06686	0.0014678992
26	0x37eea5f8	2.8449096e-05
27	0x3b2dd4f1	0.0026524628
28	0x3a0ca739	0.0005365494
29	0xba8f4a09	-0.0010932098
30	0xba64505e	-0.00087094854
31	0xba05dd98	-0.00051065674
32	0xbaa8e1f7	-0.0012884726
33	0xb96c4245	-0.00022531401
34	0xb9eb57f0	-0.0004488821
35	0x3b0ccabd	0.0021483146
36	0x3abf746d	0.0014606841
37	0xbac0c581	-0.0014707298
38	0xba4ab1e9	-0.0007732199
39	0xb91b20a2	-0.00014794109
40	0x39648dc1	0.00021796582
41	0x3a36e8ad	0.00069774204
42	0x38f97583	0.000118951335
43	0x39fb18a5	0.00047892812
44	0xb9d70e2a	-0.0004101855
45	0xbb852e02	-0.0040643224
46	0x3b108113	0.002204959
47	0xb83e7194	-4.5405308e-05
48	0x3af6056e	0.0018769929
49	0xb8b1f7f5	-8.486203e-05
50	0xb935442e	-0.00017286904
51	0x39ab63e2	0.0003269008
52	0xbad5512e	-0.0016274804
53	0xb96ece0e	-0.0002277421
54	0xbb00dd36	-0.0019663102
55	0xb7401b34	-1.14504255e-05
56	0x39af1fc2	0.00033402262
57	0xb9c3eaa3	-0.00037368116
58	0x3af197c1	0.0018432067
59	0xb7a84804	-2.0060696e-05
60	0xb91e0952	-0.00015071526
61	0x3a134171	0.00056173565
62	0x39381ddb	0.0001755873
63	0x39baaaa6	0.00035603828
64	0x3aecd53c	0.001806892
65	0x399ad615	0.00029532672
66	0xb8fe4fa5	-0.00012126499
67	0xb913894b	-0.00014070158
68	0xbac6968c	-0.0015151068
69	0x39199440	0.00014646444
70	0x3a9c4072	0.0011921062
71	0xb8db5f0a	-0.00010460436
72	0x3b00c681	0.0019649568
73	0xb9bb0d11	-0.00035677155
74	0x38c7f232	9.534172e-05
75	0xbb346edf	-0.0027531905
76	0xbaeb19b7	-0.0017936741
77	0xb98b5901	-0.0002657846
78	0xb96529d5	-0.00021854725
79	0x39c5f173	0.00037754662
80	0xbb144888	-0.002262624
81	0x39fb92f7	0.00047983948
82	0xba844b0b	-0.0010093165
83	0x390afeda	0.00013255645
84	0xbac5a0df	-0.001507785
85	0xbaba3c3b	-0.0014208624
86	0x3a35472f	0.0006915209
87	0xbb2dc697	-0.0026516074
88	0x38c26a9e	9.2705e-05
89	0x39feb4c7	0.00048581345
90	0x3b1b74a3	0.0023720644
91	0x3a921acf	0.0011146906
92	0x3b128583	0.0022357411
93	0xba80eb39	-0.0009835727
94	0x3a101835	0.0005496771
95	0xb9f36d6e	-0.00046430103
96	0x3aadeacc	0.0013268827
97	0xbb4d4331	-0.0031320567
98	0x3b43f184	0.0029898593
99	0xb9f6b738	-0.00047057285
100	0xb839b500	-4.4276007e-05
101	0x387931c6	5.941258e-05
102	0x3b0d52ed	0.002156432
103	0xb89a3c87	-7.354566e-05
104	0xb9628c73	-0.00021605361
105	0x3894278b	7.0645554e-05
106	0x387dfa73	6.055315e-05
107	0xba03d7b0	-0.00050293934
108	0x3b0939d4	0.002093901
109	0x39e8bcfb	0.0004439129
110	0xb9c97f0b	-0.00038432362
111	0xb8a92fd2	-8.067455e-05
112	0xb986b454	-0.00025692827
113	0x39993144	0.0002921914
114	0xba8556b9	-0.001017294
115	0x3979cee3	0.00023823562
116	0xb9f2a4ad	-0.0004628053
117	0x3a6d492d	0.00090517366
118	0x3b0488d4	0.0020223157
119	0xbb3c16e5	-0.002870017
120	0xb9e0dbf5	-0.0004288849
121	0xb85b3166	-5.2259675e-05
122	0xbb39be6e	-0.0028342265
123	0xb94cc79e	-0.00019529319
124	0x38449fa1	4.6878708e-05
125	0x3b0616d5	0.0020460386
126	0xb9478826	-0.00019028838
127	0xbad78888	-0.0016443888

network_body._body_endoder.seq_layers.2.weight f4 [128, 128]
0	0xbd521147	-0.05128601
1	0x3dafa1c5	0.08575777
2	0xbe47bb75	-0.19505103
3	0xbe005c83	-0.1253529
4	0xbda4ebf3	-0.08052816
5	0xbddf7954	-0.109118134
6	0xbd003587	-0.031301048
7	0x3d2ec7e4	0.0426711
8	0xbc0638f7	-0.008192292
9	0x3db7ab2a	0.08968194
10	0x3d594f7c	0.053054318
11	0x3bce9d18	0.006305348
12	0xbbba7bab	-0.005691012
13	0xbd811aea	-0.063039616
14	0x3d738773	0.059455346
15	0xbe060f87	-0.1309186
16	0x3d6f88ac	0.05847995
17	0xbd6be009	-0.057586703
18	0xbda222b3	-0.079167746
19	0x3da73b6b	0.0816563
20	0xbd837afb	-0.06419941
21	0xbd6463f9	-0.055759404
22	0xbdb05827	-0.08610564
23	0xbbbb7ae0	-0.005721435
24	0xbda39ef9	-0.07989306
25	0x3c1af90f	0.009458794
26	0x3c9f8d82	0.019476656
27	0x3da28771	0.0793599
28	0x3da4fa06	0.08055501
29	0x3d97814e	0.0739771
30	0x3e2305a1	0.15920116
31	0xbd7bbc1f	-0.061458703
32	0xbe2a8759	-0.16653194
33	0xbcf01e37	-0.029311283
34	0x3cb94f0d	0.022620702
35	0x3d2fcedd	0.04292189
36	0xbdcb7c55	-0.09935824
37	0xbe09ac1e	-0.13444564
38	0x3d372b1c	0.044718847
39	0x3c0141eb	0.007889251
40	0x3d9051cb	0.07046851
41	0xbc4d9ece	-0.012550069
42	0xbddeef4b	-0.10885485
43	0xbe21acd1	-0.1578858
44	0x3e328bc6	0.17436132
45	0x3c714612	0.014726179
46	0x3dd12ede	0.10214017
47	0x3d82b13c	0.06381461
48	0xbd879fee	-0.06622301
49	0x3d8f3b91	0.06993783
50	0x3c41eb97	0.011835954
51	0x3d1fa78d	0.03897815
52	0x3cce6945	0.02519668
53	0xbd74437b	-0.059634667
54	0x3d3e7925	0.04650225
55	0xbc51691c	-0.012781408
56	0x3a9c1a67	0.0011909724
57	0xbd7c185c	-0.06154667
58	0x3e06a2bd	0.13148017
59	0x3e1c04d1	0.15236212
60	0xbe242c4c	-0.16032523
61	0xbe48ecfd	-0.19621654
62	0xbda6d6f6	-0.08146469
63	0xbcdd5d0c	-0.027021907
64	0x3e0f79a3	0.14011244
65	0xbcb49729	-0.022044735
66	0xbd2b0c2b	-0.04175965
67	0xbd406f26	-0.046981
68	0xbd84558b	-0.064616285
69	0x3c7187bc	0.014741834
70	0xbddb6356	-0.10712306
71	0xbd3521b5	-0.0442216
72	0x3da1f08a	0.07907207
73	0x3d9a9bad	0.07549224
74	0x3def10d7	0.11673134
75	0x3d6a7fda	0.057250835
76	0xbdac0c85	-0.084008254
77	0xbd803343	-0.062597774
78	0xbc811085	-0.015754947
79	0xbba84974	-0.0051357094
80	0x3e4941bb	0.1965398
81	0xbd59bb9c	-0.053157434
82	0x3ca4071b	0.02002292
83	0xbb411b47	-0.0029465721
84	0x3e1721a2	0.14758924
85	0x3bc1d4ea	0.005915274
86	0x3d066736	0.032813273
87	0x3e10053f	0.14064501
88	0xbdb5971b	-0.08866712
89	0xbd6d7fa9	-0.057983074
90	0x3dcfb398	0.10141677
91	0x3db21d72	0.086970225
92	0x3d416931	0.04721946
93	0xbdad023c	-0.08447692
94	0x3cc200ef	0.023682086
95	0x3e58c483	0.21168713
96	0x3d9ee55b	0.0775859
97	0x3cb5418d	0.022125984
98	0xbd479659	-0.048727367
99	0xbdfbd4f9	-0.12296481
100	0x3e083263	0.13300471
101	0xbe0f6f8e	-0.14007398
102	0x3c9095c5	0.01764954
103	0x3db4d06c	0.08828816
104	0xbdc9c22f	-0.09851491
105	0x3d459e90	0.04824692
106	0xbe110caa	-0.14164987
107	0x3c021ee0	0.0079419315
108	0xbd4602c2	-0.048342474
109	0x3e0cd1fc	0.13751978
110	0x3d3ce8e3	0.046120536
111	0xbad1eec0	-0.0016016588
112	0x3da060f8	0.07830995
113	0xbcc0bf41	-0.023528697
114	0x3cbc745e	0.023004707
115	0x3e01aa97	0.12662731
116	0xbe67f886	-0.22653398
117	0xbd74486c	-0.05963938
118	0x3de2ac0e	0.11067973
119	0xbdbfdfa3	-0.09368827
120	0x3d03c3c2	0.03216911
121	0xbc9da390	-0.019243032
122	0x3c972b2b	0.018453201
123	0x3cc33de2	0.023833219
124	0x3d62a9b6	0.05533763
125	0xbe07acd7	-0.13249527
126	0xbdaff85d	-0.085922934
127	0x3d498ddc	0.049207553
128	0xbd2fc203	-0.042909633
129	0xbd27719c	-0.04087983
130	0xbdcbf0dd	-0.099580504
131	0xbc9b7fcd	-0.018981839
132	0xbcced4c5	-0.02524794
133	0x3e2253f1	0.15852334
134	0xbd1a6162	-0.037690528
135	0x3c5ecc9e	0.013598589
136	0xbe0a56c8	-0.13509667
137	0x3af5f0ce	0.0018763782
138	0x3b8693d8	0.00410698
139	0xbc6af4a1	-0.014340551
140	0x3ad64a04	0.0016348963
141	0xbe016058	-0.12634408
142	0x3cb6fed7	0.022338314
143	0xbe2a9ca0	-0.1666131
144	0xbe1f6bf2	-0.15568522
145	0xbc80f54b	-0.015741965
146	0xbe32a1a1	-0.17444469
147	0x3e0ec9b3	0.1394413
148	0xbd0a6eaf	-0.033796962
149	0x3c7ebdb5	0.015548159
150	0xbd425765	-0.047446627
151	0x3e2cd330	0.16877437
152	0xbc9b572b	-0.018962463
153	0xbcae41c7	-0.0212716
154	0xbd1c2834	-0.03812428
155	0x3dbca582	0.092112556
156	0x3dd12f8b	0.10214146
157	0xbde309ae	-0.11085831
158	0x39ea0b0a	0.00044640183
159	0x3ce5efc4	0.02806843
160	0x3af24614	0.001848402
161	0xbd00ab32	-0.031413265
162	0xbb21bd35	-0.0024679427
163	0x3db09208	0.08621603
164	0x3d812355	0.06305567
165	0x3e219d1c	0.15782589
166	0xbd10736d	-0.03526633
167	0xbdb2f5c7	-0.087382846
168	0xbc89df86	-0.016830217
169	0x3dc384bd	0.09546802
170	0xbd9651cd	-0.07339821
171	0xbd37c275	-0.044863183
172	0x3d88d93f	0.066820614
173	0x3c961ace	0.018323328
174	0xbdb029cc	-0.08601722
175	0xbd801296	-0.06253545
176	0xbd318abb	-0.043345194
177	0xbe17f203	-0.14838414
178	0x3aa91a63	0.0012901541
179	0x3bd154f8	0.006388303
180	0xb950cdfd	-0.00019913162
181	0xbc1fed1a	-0.009761119
182	0x3ca61b9c	0.020276837
183	0x3dbf02e5	0.09326724
184	0xbcb5ca5a	-0.022191215
185	0x3d8e8161	0.06958271
186	0x3cd30ff0	0.025764436
187	0xbd85b44b	-0.06528529
188	0xbc7d7c0a	-0.015471468
189	0x3ce418ea	0.027843911
190	0xbd5504c2	-0.05200649
191	0xbdc0e7bd	-0.094192006
192	0xbd5bed48	-0.053693086
193	0xbbffc112	-0.007804998
194	0x3cfe2e91	0.031028064
195	0xbd546ac7	-0.051859643
196	0x3c7bf1ae	0.015377445
197	0x3c1360b6	0.008995226
198	0xbddd6aab	-0.10811361
199	0xbb6f2601	-0.0036491158
200	0xbdf492ec	-0.119420856
201	0x3e268c9a	0.16264573
202	0x3cd703db	0.026246956
203	0x3d87892f	0.066179626
204	0xbdd8feab	-0.10595449
205	0x3d99c149	0.07507569
206	0x3d3265fd	0.043554295
207	0x3de98856	0.11402957
208	0xbd82e7df	-0.06391882
209	0xbd9d5b73	-0.07683458
210	0xbda6c51f	-0.081430666
211	0x3d813dbf	0.06310605
212	0xbda43f63	-0.080199026
213	0x3d080398	0.033206552
214	0xbe157eda	-0.14599171
215	0xbc68cbf5	-0.014208783
216	0x3db004b6	0.085946485
217	0x3e03eaf0	0.1288259
218	0x3ca55b7b	0.020185223
219	0xbd7580b3	-0.05993719
220	0xbd715be2	-0.058925517
221	0x3e00ed06	0.12590417
222	0xbd52a0f1	-0.051423017
223	0x3e0455e9	0.12923397
224	0x3d8ef870	0.069809794
225	0xbd0b94dd	-0.034077514
226	0xbdf05ce1	-0.11736465
227	0xbc6941d7	-0.014236889
228	0x3d8f81d4	0.070071846
229	0xbc32e075	-0.010917773
230	0xbcf1e23b	-0.02952682
231	0xbd33e2cb	-0.04391746
232	0x3bc3f6e6	0.0059803603
233	0xbcc92b0a	-0.024556655
234	0x3d8109e6	0.06300716
235	0xbd64bda1	-0.055844907
236	0xbd1b54c9	-0.037922654
237	0x3e0f161d	0.1397328
238	0x3e0cd835	0.13754351
239	0xba59b946	-0.0008305501
240	0xbd2ab402	-0.041675575
241	0xbd5a8a96	-0.053354822
242	0xbd1e2dbe	-0.038617842
243	0xbc4d133b	-0.012516792
244	0x3c8a8457	0.016908808
245	0x3de3b5f0	0.11118686
246	0x3c52e5f1	0.012872205
247	0x3d796e5d	0.060896266
248	0x3e23fae1	0.16013671
249	0x3e113564	0.14180523
250	0xbd02e7a9	-0.03195921
251	0xbe0f13d7	-0.13972412
252	0xbdb49421	-0.08817316
253	0x3cc64aa0	0.024205506
254	0x3e2ae1e4	0.16687733
255	0x3dea2e00	0.11434555

network_body._body_endoder.seq_layers.2.bias f4 [128]
0	0x396d5b4b	0.0002263609
1	0xb9cda74e	-0.000392253
2	0x39e3e5f9	0.00043468157
3	0xba688155	-0.00088693696
4	0xba008f0f	-0.000490413
5	0x3a862cee	0.0010236779
6	0xbb67ea45	-0.0035387438
7	0x39176b09	0.00014440356
8	0xbb7620ee	-0.0037556249
9	0xb9ef65f0	-0.00045661582
10	0xb8376a9f	-4.37299e-05
11	0xb995ff43	-0.0002860968
12	0x3af4c5ee	0.001867471
13	0x38a5bffd	7.903574e-05
14	0xb9030802	-0.00012496117
15	0x3a83cbf6	0.0010055292
16	0xbb0f7db1	-0.0021894986
17	0xb92ae07f	-0.00016296095
18	0xba3a36aa	-0.00071034825
19	0xb8935e5c	-7.027082e-05
20	0x3a8df323	0.0010829907
21	0xb96c73aa	-0.00022549802
22	0x3b326db7	0.002722604
23	0xb93150c7	-0.00016910127
24	0xba4492b8	-0.00074986694
25	0xb945f2a4	-0.00018877775
26	0x3aa94985	0.0012915587
27	0xb931a382	-0.00016940947
28	0x3ac835b4	0.0015274794
29	0x3a738ff9	0.0009291168
30	0xb8c288ae	-9.2760994e-05
31	0xba732a0c	-0.000927598
32	0xb8cf0992	-9.872312e-05
33	0x3adb2bff	0.0016721486
34	0x3b0672a9	0.002051512
35	0x3aa90975	0.0012896495
36	0x3b0941a6	0.002094367
37	0x3b1375ff	0.002250075
38	0xb86ff4c7	-5.7210007e-05
39	0xb9746113	-0.00023305816
40	0x3782fa96	1.5613896e-05
41	0xb88f36f9	-6.829011e-05
42	0x39a35404	0.0003115238
43	0xba1655fd	-0.0005734859
44	0x3709c2c8	8.211187e-06
45	0x3934dcce	0.00017248394
46	0xba03099c	-0.00049986853
47	0xb63f5848	-2.8512604e-06
48	0xb6d6158c	-6.3802054e-06
49	0xb8f65aa7	-0.000117470794
50	0xba5d2154	-0.0008435447
51	0xbb5e76bf	-0.003394529
52	0x396cbb90	0.00022576586
53	0xb9289d8e	-0.00016080422
54	0xb8f3d2e0	-0.000116264215
55	0xb9177792	-0.00014445026
56	0xba524eb5	-0.00080225925
57	0x3adf5f05	0.0017041868
58	0xbb47e485	-0.0030501198
59	0xb909aa9f	-0.000131289
60	0x38f601dc	0.000117305404
61	0xba3fd01b	-0.0007317082
62	0x3b306f44	0.0026921788
63	0xb94747ce	-0.00019004868
64	0xba41cdb5	-0.00073930185
65	0xbaac987d	-0.0013168004
66	0x3995d310	0.00028576748
67	0xb9db217e	-0.0004179589
68	0xbb9ff766	-0.004881787
69	0x38561c62	5.104801e-05
70	0x39b812b5	0.00035109153
71	0x373c09da	1.1207967e-05
72	0xbae748ad	-0.001764556
73	0xbae25c92	-0.001727002
74	0xb8cf2515	-9.877436e-05
75	0x39bc4208	0.0003590735
76	0xb9012fac	-0.00012320158
77	0xb78826db	-1.6230557e-05
78	0x3aa884e8	0.0012856992
79	0xb9d41289	-0.000404496
80	0x3a211be9	0.00061458215
81	0x391c6beb	0.00014917522
82	0xb90b75f4	-0.00013300014
83	0xb934d61b	-0.00017245898
84	0xb96d09de	-0.00022605757
85	0xb9a6ef40	-0.00031840242
86	0xba40d79c	-0.0007356347
87	0x3b26d316	0.0025455407
88	0xb989860b	-0.00026230546
89	0x383fb891	4.570984e-05
90	0xb8cb4654	-9.692894e-05
91	0xb79ada28	-1.8459818e-05
92	0xb800505c	-3.059242e-05
93	0xba1e74c8	-0.00060446234
94	0x3a98e9b8	0.0011666333
95	0xb98deb86	-0.00027069094
96	0x3890da42	6.907109e-05
97	0xba57c77d	-0.0008231325
98	0xb9c91123	-0.00038350475
99	0xb851fec0	-5.0066737e-05
100	0xba153358	-0.000569155
101	0xb93c6eee	-0.00017970402
102	0xb7a509a3	-1.967402e-05
103	0xbb85409c	-0.00406654
104	0xb91d7ddc	-0.00015019573
105	0xb91b52d4	-0.00014812808
106	0xb909b92a	-0.00013134317
107	0xb9dd52e9	-0.00042214178
108	0xb821b31e	-3.8552207e-05
109	0xb9aad590	-0.00032584043
110	0xb957512a	-0.00020534234
111	0x39be79a7	0.00036330262
112	0xb64bc8dc	-3.0366273e-06
113	0x3af29f50	0.0018510614
114	0xb8e0ec46	-0.00010725162
115	0xba173eb3	-0.0005769536
116	0xbaa10eb7	-0.001228771
117	0xb972202d	-0.00023090905
118	0x3b2aeb3f	0.002608016
119	0x3ab07535	0.0013462665
120	0xb884279e	-6.30163e-05
121	0x3a8b8b9b	0.0010646464
122	0xb7851a7e	-1.5867172e-05
123	0x3b0afff7	0.0021209696
124	0xb94819d4	-0.00019083108
125	0xbadac3a6	-0.0016690388
126	0x3ae60cc3	0.0017551411
127	0xb7e4ff80	-2.7298694e-05

action_model._continuous_distribution.log_sigma f4 [1, 2]
0	0xbaae62f5	-0.0013304638
1	0x3b135a4e	0.0022484246

action_model._continuous_distribution.mu.weight f4 [2, 128]
0	0x3d164685	0.036688346
1	0x3cb4fd53	0.02209345
2	0x3d0d972e	0.034568004
3	0x3bb99e9c	0.0056646597
4	0x3d231288	0.039812595
5	0xbb0da0be	-0.0021610702
6	0x3b3013fb	0.0026867378
7	0x3bfeeb15	0.007779489
8	0xbd0391db	-0.03212152
9	0xbaf10150	-0.0018387232
10	0x3cbcb071	0.023033353
11	0xbbe69031	-0.007036232
12	0x3c2aa377	0.01041495
13	0x3d06b28f	0.03288513
14	0x3bb45e02	0.0055043707
15	0xbc8e1a8c	-0.017346643
16	0xbca77fdf	-0.020446716
17	0xbd018482	-0.03162051
18	0xba8eaf2f	-0.0010885949
19	0xbc0d01e2	-0.008606406
20	0x3ca5bc8e	0.020231511
21	0xbc053b81	-0.008131863
22	0x3c4bfb4a	0.012450049
23	0x3c1975a7	0.009366429
24	0x3cd3df1b	0.02586322
25	0xbb2a33b4	-0.002597076
26	0x3cbaec1c	0.022817664
27	0xbc950ab1	-0.018193575
28	0x3c9c0e6e	0.01904985
29	0xbc224e7f	-0.00990641
30	0xbc41b7c1	-0.0118235955
31	0xbc24d511	-0.010060565
32	0xbcf6e97c	-0.03014063
33	0xbc6efb1d	-0.014586237
34	0xbd14e6b5	-0.036352832
35	0xb9703a0e	-0.0002290981
36	0x3b2b3aca	0.002612757
37	0x3c32ac8d	0.010905397
38	0x3ca8e4fd	0.020617003
39	0xbbd6a1ad	-0.006550035
40	0x3d1f92c7	0.038958337
41	0x3c39949f	0.011326938
42	0xbcb0a3f5	-0.021562556
43	0xbab950cb	-0.0014138458
44	0xbc872d98	-0.016501233
45	0x3ca1dc71	0.019758435
46	0x3cafad40	0.021444917
47	0x3cacb639	0.021082984
48	0x3d249430	0.040180385
49	0xbd0d1c1d	-0.03445064
50	0x3d1ab65b	0.037771564
51	0xbd36bbf1	-0.04461283
52	0x3c0fa3ac	0.00876705
53	0xbbf90fd4	-0.007600764
54	0xbc4228fc	-0.011850592
55	0xbcf167f5	-0.029468516
56	0x3bc0b731	0.005881213
57	0x3c77fd22	0.015136035
58	0xbc5e5585	-0.013570194
59	0xbca75430	-0.020425886
60	0x3bb7d8db	0.005610568
61	0xbceb793b	-0.02874433
62	0x3d18fa7a	0.037348248
63	0x3b94ae1b	0.0045373566
64	0xbc3796cc	-0.011205386
65	0xbc95884c	-0.018253468
66	0xbc0ec62c	-0.00871424
67	0x3baf4d71	0.005349808
68	0xbba2b83a	-0.004965809
69	0xbc72dc56	-0.01482304
70	0xbacf1da7	-0.0015801684
71	0x3cd8edc4	0.026480563
72	0x3bbfd2bc	0.005853979
73	0xbc69dbfb	-0.014273639
74	0xbcb61a7a	-0.022229422
75	0x3b6c319a	0.0036040307
76	0xbc0a8997	-0.008455656
77	0x3c8a1d1e	0.016859587
78	0x3b37ca8c	0.0028044311
79	0xb9dca673	-0.00042085684
80	0xbbb03603	-0.0053775324
81	0x3ca18737	0.019717796
82	0xbbc537a3	-0.0060185953
83	0x3c149e37	0.0090709245
84	0x3d1f381d	0.038871873
85	0xbc8085b4	-0.015688755
86	0xbc2e7807	-0.010648734
87	0x3a05fe83	0.00051114726
88	0x3c83aab4	0.016072609
89	0x3d14a957	0.036294308
90	0xbc8449a4	-0.016148396
91	0x3c05721a	0.00814488
92	0x3bcf5649	0.0063274247
93	0xbb32021b	-0.00271619
94	0xbb8bda58	-0.004267972
95	0x3b96a22d	0.0045969696
96	0x3c9b5467	0.018961145
97	0xbcb805f3	-0.022463774
98	0xbd1a84f2	-0.037724443
99	0xbc08e446	-0.008355206
100	0xbb92a483	-0.0044751777
101	0xbc485238	-0.012226634
102	0x3c7c3bb8	0.015395097
103	0x3c2fea4c	0.010737013
104	0x3bab79b1	0.0052330126
105	0xbd1df5d1	-0.038564507
106	0xbc6568fb	-0.01400208
107	0x3c065b74	0.008200515
108	0xbbb0ee87	-0.0053995284
109	0xbc5fa6dc	-0.013650622
110	0xbc4b5230	-0.012409732
111	0x3c45c67d	0.012071249
112	0x3cb1cd4d	0.02170434
113	0x3c11a761	0.008890004
114	0xbcaf979f	-0.021434603
115	0x3c9b1d9f	0.018935023
116	0x3b76dd3d	0.003766849
117	0x3b924d66	0.004464793
118	0x3bc337b6	0.005957569
119	0x3c880156	0.0166022
120	0x3b8c21da	0.0042764964
121	0x3ccef710	0.025264293
122	0x3c33e17b	0.010979052
123	0x3ca69482	0.020334486
124	0xbb071692	-0.0020612818
125	0xbcaebef4	-0.021331288
126	0x3b9d9091	0.0048084934
127	0x3b78383a	0.003787531
128	0xbb330d0c	-0.002732101
129	0x3cec669b	0.02885752
130	0x3c0265a6	0.007958805
131	0xb9adb940	-0.00033135153
132	0xbc42b4f1	-0.01188396
133	0xbb8b7971	-0.0042564203
134	0xbc02907d	-0.007969019
135	0x3cd60f94	0.026130475
136	0xbbc1c1bc	-0.0059129875
137	0x3aab3711	0.0013062676
138	0xb9e0e669	-0.00042896278
139	0xbab34680	-0.0013677627
140	0x3c86cdd1	0.016455563
141	0xbc01b5f2	-0.007916914
142	0x3bb5b5cd	0.005545354
143	0x3c6ee84d	0.014581752
144	0xbd0b83d5	-0.03406127
145	0x3a92a150	0.0011186991
146	0x3caf942c	0.021432959
147	0x3c7e08e7	0.015505052
148	0x3d01299f	0.031533834
149	0x3b4dff12	0.0031432551
150	0x3c942542	0.018084172
151	0x3be2fab4	0.006926859
152	0xbc6550a4	-0.013996277
153	0xbc1c3a6e	-0.009535415
154	0x3d0de8d7	0.03464588
155	0xbbae56c6	-0.005320403
156	0xbcbb9d6f	-0.022902219
157	0xbd0b50d0	-0.034012616
158	0x3c3a3a40	0.011366427
159	0xbc998fbf	-0.018745301
160	0x3b50fd4d	0.003188926
161	0xba7c9407	-0.0009635095
162	0xbb2ebb63	-0.0026661984
163	0x3c7daa20	0.0154824555
164	0x3b508926	0.0031820028
165	0x3d2c6808	0.0420914
166	0xbc52de29	-0.01287035
167	0xbc492136	-0.0122759845
168	0x3be1b194	0.006887624
169	0x3caf2bd0	0.021383196
170	0x3ccd4df2	0.025061581
171	0x3d0b14d4	0.03395541
172	0xbca89cd8	-0.020582601
173	0xbb34dddd	-0.002759806
174	0xbc4f5c6e	-0.012656314
175	0xbc8bcccf	-0.017065434
176	0x3bbe674c	0.005810654
177	0xbc12883a	-0.008943612
178	0x3c805b0c	0.015668415
179	0x3d013286	0.031542324
180	0x3c34d036	0.0110359695
181	0xbcb1d919	-0.021709966
182	0x3bac7b1f	0.0052637006
183	0xbc378f5e	-0.011203615
184	0x3a39cfbe	0.0007088146
185	0xbbf11972	-0.0073577696
186	0xbc6f8f7a	-0.01462161
187	0xbbf89960	-0.007586643
188	0x3cb79859	0.022411512
189	0x3c88fddd	0.016722614
190	0xbac1a52e	-0.0014773959
191	0xbaa38c34	-0.0012477697
192	0xbcc8ab8c	-0.024495862
193	0xbcad4cd3	-0.021154797
194	0x3c9301f1	0.017945262
195	0xbb7349e2	-0.0037122895
196	0xbb9c3798	-0.0047673695
197	0xbc67fd8f	-0.014159574
198	0xbbbdd2cf	-0.0057929526
199	0xbbd6dc29	-0.006557007
200	0xbcdae840	-0.026722074
201	0xbc4b7cd6	-0.0124199
202	0x3cbc00b2	0.02294955
203	0xbcb0b883	-0.021572357
204	0x3c1aaee4	0.009441111
205	0xbbbde264	-0.00579481
206	0xbc1482bc	-0.009064373
207	0x3b772cd3	0.0037715926
208	0xbc272514	-0.010201711
209	0xbc6aa075	-0.0143204825
210	0x3be2c928	0.0069209523
211	0xbcb459aa	-0.022015411
212	0xbab7e1ab	-0.0014029046
213	0xbc3659e8	-0.011129834
214	0xbbcb9c50	-0.0062137023
215	0x3c1db17a	0.009624833
216	0xbbfcb783	-0.007712306
217	0xbc50d9cf	-0.012747242
218	0x3bdc5977	0.006724532
219	0xbc963a6e	-0.018338408
220	0xbca8f582	-0.02062488
221	0xbaeda5a7	-0.0018131033
222	0x3c100fe2	0.008792849
223	0xbc20728b	-0.009792934
224	0xbcd3d5ea	-0.025858838
225	0xbd0c4e5f	-0.034254428
226	0x3d201d5f	0.03909051
227	0x3d024eee	0.031813554
228	0xbc7be16b	-0.015373568
229	0xbaa03384	-0.0012222384
230	0xbbdc3b8d	-0.006720966
231	0xbd3cc8ca	-0.046089925
232	0xbcfeae64	-0.031089015
233	0xbc8754ea	-0.016519982
234	0x39c82c63	0.00038180043
235	0xba22bb58	-0.0006207726
236	0x3c434060	0.011917204
237	0xbb014a64	-0.0019728178
238	0xbbbf55a4	-0.0058390666
239	0x3aaf22d5	0.0013361821
240	0x3c66ca33	0.014086294
241	0x3cd72ed6	0.02626745
242	0x3c376d0d	0.011195433
243	0x3ccd8e98	0.025092408
244	0xbcec9944	-0.028881676
245	0xbbfe2b11	-0.0077565988
246	0x3bc85dac	0.006114682
247	0x3b9dcbf7	0.0048155743
248	0x3cc8742f	0.024469463
249	0x3cac6fd2	0.021049414
250	0xbd257ff4	-0.04040523
251	0xbc7bb119	-0.015362048
252	0x3d10e307	0.03537276
253	0xbce512dc	-0.027963094
254	0xbc398f73	-0.011325705
255	0xbcdc81ad	-0.026917303

action_model._continuous_distribution.mu.bias f4 [2]
0	0x3873283c	5.7973186e-05
1	0xb6a2bbd0	-4.8498405e-06

exp_avg f4 [128, 17]
0	0xba1acc67	-0.0005905092
1	0xba2a6b6c	-0.00065009925
2	0xba5b8022	-0.000837328
3	0xba4b91f8	-0.00077655865
4	0xba3e465c	-0.0007258409
5	0xba25aa08	-0.0006319587
6	0xba04e5a7	-0.0005069621
7	0xb9d0dee6	-0.00039838924
8	0xb9a4fb84	-0.0003146791
9	0xb984cc59	-0.00025329253
10	0xb9fd0a4f	-0.000482636
11	0xb9952eb5	-0.00028454294
12	0xb94fa9cf	-0.00019804317
13	0xb9611197	-0.00021464225
14	0xb9a10890	-0.00030714693
15	0x378456e0	1.577608e-05
16	0xb7cc5248	-2.435701e-05
17	0xb982150c	-0.00024811213
18	0xb9bd35bc	-0.00036088924
19	0xba48807f	-0.0007648542
20	0xba58b839	-0.00082671974
21	0xba489186	-0.0007651079
22	0xba27ac24	-0.00063961954
23	0xba0284cc	-0.0004978895
24	0xb9c42512	-0.00037411653
25	0xb98f552c	-0.00027338543
26	0xba10e5ad	-0.00055273884
27	0xb8dc6998	-0.00010510086
28	0xb7920800	-1.7408282e-05
29	0xb91c0985	-0.00014880866
30	0xb9019712	-0.00012358677
31	0xb98e4d13	-0.00027141775
32	0xb9034f79	-0.0001252274
33	0xb855ec4a	-5.100322e-05
34	0x3a4ac437	0.0007734927
35	0x3a297b84	0.00064652436
36	0x39fde472	0.00048426125
37	0x39bddc1e	0.0003621289
38	0x39a0c63d	0.00030665277
39	0x399a16b7	0.00029390093
40	0x39929a7d	0.00027962393
41	0x398dcd9e	0.00027046812
42	0x398c6359	0.000267769
43	0x3a073670	0.0005157953
44	0x3a62b35c	0.00086479424
45	0x3a28bee2	0.0006437135
46	0x392c9592	0.00016458918
47	0x399e46d1	0.0003018887
48	0x38dbff96	0.0001049034
49	0x38b313ea	8.5390944e-05
50	0x38d0da76	9.9589044e-05
51	0x3a85766f	0.0010182391
52	0x3a610c52	0.0008584905
53	0x39fc0884	0.0004807153
54	0x3985cf1a	0.0002552204
55	0x392bb007	0.00016373406
56	0x391a8666	0.00014736652
57	0x39302670	0.00016798987
58	0x395037cb	0.0001985721
59	0x3970febc	0.0002298308
60	0x3a147ca1	0.0005664323
61	0x3a563520	0.00081713684
62	0x3a3a41fa	0.0007105168
63	0x396fd3ce	0.0002287172
64	0x39a6e5e6	0.00031833275
65	0x38ba4b33	8.883178e-05
66	0x38b156c3	8.456178e-05
67	0x390078ad	0.00012251986
68	0x3a74c48a	0.0009337148
69	0x3a69e3f8	0.00089222146
70	0x3a4c592b	0.00077952695
71	0x3a1a6e1c	0.00058910414
72	0x39ee784c	0.00045484526
73	0x39be9498	0.00036350335
74	0x399df7a0	0.00030129869
75	0x39890996	0.00026137818
76	0x3975089a	0.00023368225
77	0x3a6491d4	0.000871924
78	0x3a385ca0	0.0007032845
79	0x39d4f17a	0.00040615705
80	0x39684b50	0.000221533
81	0x393a2f66	0.00017756
82	0x396fd94b	0.00022873764
83	0x38ce945e	9.850481e-05
84	0x38b3be07	8.5707805e-05
85	0x389d8718	7.5115066e-05
86	0x39157949	0.0001425493
87	0x39bb9405	0.00035777703
88	0x39dd987c	0.00042266014
89	0x39cab48c	0.0003866296
90	0x39a1c9db	0.00030858707
91	0x396c0afa	0.00022510803
92	0x3923678a	0.00015583463
93	0x38d22d6e	0.00010022042
94	0x397fc8e8	0.00024393538
95	0xb8b0a8a6	-8.423747e-05
96	0xb916c0a4	-0.00014376879
97	0x38a4ba06	7.854779e-05
98	0x373ecf38	1.1373129e-05
99	0x391a2abb	0.00014702503
100	0x38fdbafc	0.00012098809
101	0x38699622	5.569135e-05
102	0xb6582e6c	-3.221353e-06
103	0xb6290168	-2.518378e-06
104	0xb5dfd062	-1.6675442e-06
105	0xb5a1f351	-1.2066249e-06
106	0xb57082f4	-8.959753e-07
107	0xb537a2c8	-6.840969e-07
108	0xb52950c6	-6.3074947e-07
109	0xb52435ec	-6.117323e-07
110	0xb5241668	-6.1127366e-07
111	0xb671820c	-3.5987496e-06
112	0xb6a7a9f8	-4.996775e-06
113	0xb5a3b61c	-1.2197447e-06
114	0xb66179fc	-3.3598617e-06
115	0xb5341cb3	-6.709699e-07
116	0xb60633b9	-1.9997663e-06
117	0x350e398e	5.2982875e-07
118	0x34d322ba	3.932708e-07
119	0x3a40514c	0.0007336333
120	0x3a36e37c	0.0006976647
121	0x3a342608	0.0006872122
122	0x3a18fc7e	0.0005835964
123	0x39ff240f	0.00048664256
124	0x39d8b9ef	0.00041337262
125	0x39bb0440	0.00035670586
126	0x39a6b91a	0.000317999
127	0x3998c0c0	0.0002913531
128	0x3a3d04a9	0.0007210472
129	0x3a09a47a	0.0005250644
130	0x39d67195	0.00040901886
131	0x396861d8	0.00022161694
132	0x399667b2	0.00028687489
133	0x3932923f	0.00017029884
134	0x37887922	1.626887e-05
135	0x385791a4	5.1395633e-05
136	0x39d54ace	0.0004068226
137	0x398d63fe	0.00026968116
138	0xb91e61ce	-0.0001510449
139	0xb9b1c11a	-0.00033903943
140	0xb9c2002c	-0.00037002692
141	0xb9a2e738	-0.0003107132
142	0xb96c0192	-0.00022507299
143	0xb914c61f	-0.00014188186
144	0xb8913ba0	-6.925245e-05
145	0x37a0f870	1.9189174e-05
146	0x39d5bada	0.0004076574
147	0x397d75e8	0.00024171884
148	0x38bdf168	9.057188e-05
149	0x38610098	5.3644733e-05
150	0xb85b8002	-5.2332885e-05
151	0xb904b63f	-0.00012656393
152	0x3850dfbc	4.9799433e-05
153	0x38dabc91	0.00010430173
154	0x38b765c0	8.7450724e-05
155	0x38836061	6.264519e-05
156	0x384d5d88	4.8962916e-05
157	0x3825fa9b	3.957246e-05
158	0x380ab5fe	3.3071257e-05
159	0x37ef87d0	2.8554263e-05
160	0x37d0c398	2.4886613e-05
161	0x37b617e4	2.1707216e-05
162	0x389147a7	6.927485e-05
163	0x38c142e2	9.215415e-05
164	0x38cb1a36	9.6846765e-05
165	0xb695e01c	-4.466636e-06
166	0x36b75ff8	5.4649972e-06
167	0x3724aec0	9.815849e-06
168	0x382c5ef0	4.1096413e-05
169	0x38500fe0	4.960585e-05
170	0xb73cab80	-1.1245604e-05
171	0x389bb9bc	7.425572e-05
172	0x39a3fdfd	0.0003127902
173	0x39e128f8	0.00042945868
174	0x39f41034	0.0004655138
175	0x39d8642d	0.00041273367
176	0x39a7652f	0.0003192811
177	0x39826576	0.00024871127
178	0x3955b504	0.00020380697
179	0xba059e89	-0.0005097171
180	0x3a20c946	0.00061335077
181	0x39b4102c	0.00034344324
182	0x38e07b08	0.00010704069
183	0x39450ed4	0.00018792908
184	0x394a1b1c	0.0001927432
185	0xb9b3b330	-0.00034275046
186	0xb9a68bd9	-0.00031766182
187	0x3a80a713	0.0009815417
188	0x3a5a66a9	0.00083313376
189	0x3998b52a	0.00029126677
190	0x37afb540	2.0946027e-05
191	0xb8da04e4	-0.00010395961
192	0xb8f56280	-0.000117008574
193	0xb87b3a30	-5.9897255e-05
194	0x377d87c0	1.5111582e-05
195	0x38b7d90c	8.766548e-05
196	0x39db5b8c	0.00041839143
197	0x3a4341da	0.00074484723
198	0x3a14f5d2	0.0005682382
199	0x396cd1f6	0.0002258493
200	0x396622b8	0.00021947443
201	0x3805e320	3.1921198e-05
202	0xb900d9c4	-0.00012288155
203	0x382ed950	4.168722e-05
204	0x304f33a8	7.537957e-10
205	0x3024e71b	5.9991273e-10
206	0x300b0c6b	5.058555e-10
207	0x2ff4b919	4.451486e-10
208	0x2fe04477	4.079401e-10
209	0x2fd45a11	3.862657e-10
210	0x2fceda45	3.7626272e-10
211	0x2fcee422	3.763328e-10
212	0x2fd46cfb	3.864001e-10
213	0x304dc939	7.486452e-10
214	0x30ab9e77	1.2486926e-09
215	0x3087545d	9.84652e-10
216	0x305ab30f	7.9562396e-10
217	0x300d9bd9	5.1516974e-10
218	0x2fba6d14	3.3910708e-10
219	0xae18c4fa	-3.473575e-11
220	0x2d2b9285	9.7527585e-12
221	0xb7ac9960	-2.0575419e-05
222	0xb761d516	-1.3460658e-05
223	0xb7a06071	-1.9118395e-05
224	0xb7e72d5b	-2.7558466e-05
225	0xb7d9a30f	-2.5944346e-05
226	0xb786b7ff	-1.6059725e-05
227	0xb72e4f1a	-1.03896255e-05
228	0xb6e0012e	-6.6758575e-06
229	0xb6bd25e8	-5.637052e-06
230	0x38cd702f	9.7960576e-05
231	0xb7925c1d	-1.744745e-05
232	0x37829b9f	1.5569674e-05
233	0xb74a8f48	-1.20734985e-05
234	0xb7544966	-1.2653274e-05
235	0xb7be9a09	-2.2721493e-05
236	0x37b66497	2.1742931e-05
237	0x371d0bee	9.360707e-06
238	0xba569698	-0.00081858924
239	0xba48d350	-0.00076608825
240	0xba395fdc	-0.0007071474
241	0xba16d134	-0.00057532196
242	0xb9dddc68	-0.0004231662
243	0xb9b48e4c	-0.00034438295
244	0xb99e4726	-0.00030189118
245	0xb98f79c3	-0.00027365805
246	0xb9849293	-0.00025286208
247	0xbaa6f4df	-0.0012737772
248	0xba2ddaba	-0.0006632019
249	0xb989d4fd	-0.00026289365
250	0xb956a719	-0.00020470879
251	0xb96cb70c	-0.00022574904
252	0xb92dcea4	-0.00016575545
253	0xb9af1a25	-0.0003339808
254	0xb956e394	-0.0002049341
255	0xb1d68d92	-6.2443144e-09

exp_avg_sq f4 [128, 17]
0	0x341ff172	1.4895866e-07
1	0x34727323	2.2579893e-07
2	0x34c189b2	3.6049238e-07
3	0x34bcfcf2	3.520177e-07
4	0x34b2282d	3.3184315e-07
5	0x3486436e	2.5008507e-07
6	0x342b1f2c	1.5936956e-07
7	0x33d1543f	9.747645e-08
8	0x3385ede6	6.2365686e-08
9	0x334d302e	4.77741e-08
10	0x3414d0ea	1.3859577e-07
11	0x33ffd5f9	1.1913284e-07
12	0x32df3f29	2.5989339e-08
13	0x333c6bac	4.3870088e-08
14	0x3359a111	5.067074e-08
15	0x31451253	2.867769e-09
16	0x31abfe6f	5.0056808e-09
17	0x3503b2bb	4.906139e-07
18	0x351b92a6	5.79554e-07
19	0x355cc324	8.2240354e-07
20	0x3549d9f5	7.5195504e-07
21	0x35320002	6.631018e-07
22	0x350479ca	4.935106e-07
23	0x34ac46ba	3.2088957e-07
24	0x345d487b	2.0608597e-07
25	0x3412df10	1.3678459e-07
26	0x349034c9	2.6860496e-07
27	0x3493126f	2.7394296e-07
28	0x34523546	1.9577155e-07
29	0x3374619e	5.689946e-08
30	0x33c1450e	8.999824e-08
31	0x33c3661c	9.098969e-08
32	0x328831f0	1.5855193e-08
33	0x326b53bf	1.3697842e-08
34	0x35e227e7	1.6849925e-06
35	0x35c5233e	1.4687901e-06
36	0x35916cd7	1.0835018e-06
37	0x353bdfd2	6.998863e-07
38	0x34ebb5f8	4.390456e-07
39	0x34995fce	2.8568178e-07
40	0x34602345	2.0874457e-07
41	0x34347fbf	1.681028e-07
42	0x341c634d	1.4564758e-07
43	0x35b37dba	1.337313e-06
44	0x358cc0b9	1.0486903e-06
45	0x34ced233	3.852343e-07
46	0x33d3ff8b	9.871936e-08
47	0x341191ee	1.3557266e-07
48	0x33b19051	8.268456e-08
49	0x32e8d9c8	2.710739e-08
50	0x32948385	1.7289276e-08
51	0x356c7cb2	8.8098307e-07
52	0x353fec29	7.1496703e-07
53	0x350c0ea9	5.21754e-07
54	0x34d29a3e	3.9227774e-07
55	0x34a266af	3.0249564e-07
56	0x346e9717	2.2220443e-07
57	0x342e4016	1.6228327e-07
58	0x3409f2d2	1.2847457e-07
59	0x33f44829	1.1375261e-07
60	0x34aedeea	3.2572217e-07
61	0x35526916	7.8384016e-07
62	0x350c9512	5.237099e-07
63	0x3362900e	5.2750742e-08
64	0x3419c838	1.4322075e-07
65	0x333ee7c9	4.444863e-08
66	0x32edf0a0	2.7699855e-08
67	0x330dc10e	3.3004703e-08
68	0x36ae5e53	5.196585e-06
69	0x3695124a	4.442675e-06
70	0x365f5927	3.3281483e-06
71	0x36199bc2	2.288944e-06
72	0x35c94f93	1.4998826e-06
73	0x35875d12	1.0085371e-06
74	0x3544ad47	7.326784e-07
75	0x351e21ca	5.8908756e-07
76	0x350a4bb6	5.151918e-07
77	0x36430cee	2.906479e-06
78	0x3665ff0e	3.427212e-06
79	0x35cb3d50	1.5142523e-06
80	0x34a76a4a	3.118351e-07
81	0x350bfa69	5.214593e-07
82	0x3489d74e	2.5674893e-07
83	0x339faa28	7.434966e-08
84	0x3395ff7e	6.984827e-08
85	0x352c20e3	6.412285e-07
86	0x35260a71	6.1855013e-07
87	0x35157b87	5.568658e-07
88	0x34e6081a	4.2846733e-07
89	0x349f1545	2.9631533e-07
90	0x344db49a	1.9157815e-07
91	0x34007fe3	1.1967454e-07
92	0x33ab289a	7.9701934e-08
93	0x337753c7	5.7585364e-08
94	0x35008fb1	4.7892814e-07
95	0x347c6bcb	2.3508544e-07
96	0x33917a9f	6.774393e-08
97	0x3349ba7f	4.6968577e-08
98	0x3326c13f	3.8825643e-08
99	0x3373be50	5.6750935e-08
100	0x31e41943	6.6385453e-09
101	0x3149856f	2.9325198e-09
102	0x2d503ce5	1.1836952e-11
103	0x2d020a05	7.391869e-12
104	0x2c99836f	4.3631136e-12
105	0x2c30d93d	2.5131696e-12
106	0x2bd4b59d	1.5113914e-12
107	0x2b87cdc0	9.649434e-13
108	0x2b3ccd89	6.7076254e-13
109	0x2b115a2d	5.163949e-13
110	0x2af45b76	4.340657e-13
111	0x2daec5a2	1.9869276e-11
112	0x2dcb8cd8	2.3140975e-11
113	0x2b8e5396	1.0112907e-12
114	0x2d97b407	1.724666e-11
115	0x2ada141b	3.873853e-13
116	0x2c9df53d	4.4894353e-12
117	0x2bab0bcd	1.2153556e-12
118	0x2b29b21c	6.028804e-13
119	0x34e66afa	4.2918674e-07
120	0x34de64d4	4.1424084e-07
121	0x34c716a1	3.7083103e-07
122	0x3490f16b	2.6997745e-07
123	0x343f2f03	1.7805364e-07
124	0x33f70b72	1.1503916e-07
125	0x33a415b8	7.640796e-08
126	0x336e5685	5.5492382e-08
127	0x333b51f6	4.3613873e-08
128	0x3497f23b	2.8302188e-07
129	0x34161b72	1.3979823e-07
130	0x33a2b6c6	7.576959e-08
131	0x32b4e75c	2.1059968e-08
132	0x330e500c	3.3134754e-08
133	0x32d0636f	2.4259604e-08
134	0x31efa01e	6.9740187e-09
135	0x3167bfb4	3.3723895e-09
136	0x3639220d	2.7586968e-06
137	0x3617ec9f	2.2638485e-06
138	0x35ec38ee	1.7599939e-06
139	0x35afc9f2	1.309729e-06
140	0x3580a822	9.585676e-07
141	0x35374b2b	6.8282196e-07
142	0x3503a8a7	4.9046724e-07
143	0x34cf9968	3.8668372e-07
144	0x34b5c1f8	3.3855008e-07
145	0x3585f40c	9.980299e-07
146	0x360190fd	1.9306892e-06
147	0x35c9e574	1.5042447e-06
148	0x341354a0	1.3721228e-07
149	0x34d3a8af	3.9424546e-07
150	0x340e8d50	1.327619e-07
151	0x338afe84	6.472422e-08
152	0x33a4466a	7.649653e-08
153	0x331d068d	3.656037e-08
154	0x32e15c83	2.6235517e-08
155	0x32920ccd	1.7002458e-08
156	0x32441bbb	1.1415007e-08
157	0x32108b75	8.413612e-09
158	0x31e7eba6	6.749775e-09
159	0x31c6ea6a	5.7892082e-09
160	0x31b545e3	5.2757385e-09
161	0x31aef93f	5.0924025e-09
162	0x32895bef	1.5990706e-08
163	0x333815fb	4.286083e-08
164	0x32e0454f	2.610855e-08
165	0x310d7a58	2.0587745e-09
166	0x31ea2f60	6.8156822e-09
167	0x30891d28	9.976349e-10
168	0x30f73064	1.7985369e-09
169	0x3111f07a	2.1236972e-09
170	0x36aafb6c	5.095664e-06
171	0x368ff393	4.290088e-06
172	0x36815284	3.8541057e-06
173	0x364c27de	3.0421575e-06
174	0x362a4230	2.53705e-06
175	0x3607877a	2.0195425e-06
176	0x35ce640a	1.5377311e-06
177	0x35a64da6	1.2390562e-06
178	0x358fd0c9	1.0715095e-06
179	0x359ffd3d	1.1920125e-06
180	0x36a13260	4.8040383e-06
181	0x36a20396	4.8283937e-06
182	0x3481e391	2.41937e-07
183	0x35ab6746	1.2770549e-06
184	0x34816155	2.409894e-07
185	0x34710fd3	2.2450631e-07
186	0x34a9d6cd	3.163499e-07
187	0x3678edd6	3.7093318e-06
188	0x3649c9bf	3.0068766e-06
189	0x36178991	2.2580828e-06
190	0x35e1e195	1.6829459e-06
191	0x35a5f2b7	1.2364097e-06
192	0x356b2f13	8.7612824e-07
193	0x3528a339	6.28224e-07
194	0x35056d96	4.970583e-07
195	0x34ecfa97	4.4140754e-07
196	0x35a5ca18	1.2352275e-06
197	0x36411807	2.8773227e-06
198	0x360b21e6	2.0732346e-06
199	0x34668264	2.1467855e-07
200	0x35108ce7	5.384922e-07
201	0x34560baa	1.9934546e-07
202	0x33a478d6	7.658825e-08
203	0x33d4c436	9.90771e-08
204	0x201c5e02	1.3244819e-19
205	0x1fd663bd	9.079753e-20
206	0x1fa31ddf	6.90826e-20
207	0x1f864f06	5.688194e-20
208	0x1f6cf9c4	5.0181545e-20
209	0x1f5d8d7f	4.6915613e-20
210	0x1f5a6c37	4.625281e-20
211	0x1f62c841	4.8023008e-20
212	0x1f786ebc	5.260764e-20
213	0x1ff7f9e7	1.05022e-19
214	0x20d34dab	3.5796187e-19
215	0x20ca18ac	3.4236458e-19
216	0x201c2acf	1.3227878e-19
217	0x2002381e	1.1029996e-19
218	0x1ec94f30	2.1314454e-20
219	0x1de2baf9	6.0015027e-21
220	0x1e3e7254	1.0082159e-20
221	0x3297cc55	1.7671633e-08
222	0x3293bbb1	1.7198404e-08
223	0x327bbc57	1.4652946e-08
224	0x3236f4a4	1.0649419e-08
225	0x31ea740c	6.8234893e-09
226	0x318f0a9e	4.163055e-09
227	0x3135232b	2.6358957e-09
228	0x30ff092f	1.8556302e-09
229	0x30c81d50	1.4560246e-09
230	0x32645f3a	1.3292999e-08
231	0x31ec652f	6.8800072e-09
232	0x30f9afc0	1.8167086e-09
233	0x310505ff	1.9357456e-09
234	0x309ee1d7	1.1560201e-09
235	0x30d5b289	1.5548532e-09
236	0x2ffc56db	4.5900247e-10
237	0x2eff138a	1.1599528e-10
238	0x37113c06	8.656649e-06
239	0x36f61d89	7.3348097e-06
240	0x36af9de9	5.2337896e-06
241	0x3664cb0b	3.4092834e-06
242	0x3612c61b	2.1871008e-06
243	0x35c70cc5	1.4830372e-06
244	0x3593919d	1.0994733e-06
245	0x357055c3	8.9531767e-07
246	0x35534099	7.869763e-07
247	0x36c8d7c4	5.985583e-06
248	0x36c445b9	5.849372e-06
249	0x3619110f	2.2808706e-06
250	0x3502c3c3	4.8713645e-07
251	0x354eaf9a	7.6996514e-07
252	0x34d095f7	3.8852133e-07
253	0x3428d321	1.5723028e-07
254	0x340371eb	1.2241769e-07
255	0x2616cbe6	5.231804e-16

exp_avg f4 [128]
0	0xb8151c86	-3.5550933e-05
1	0xb7e841b3	-2.7687149e-05
2	0x38080b84	3.243565e-05
3	0x380ea8cb	3.401264e-05
4	0x381ae5f8	3.6930636e-05
5	0x372a89e8	1.0164898e-05
6	0x34d97f70	4.0512123e-07
7	0x3812125d	3.4826215e-05
8	0x36734990	3.625264e-06
9	0x36490482	2.9953958e-06
10	0x37a43fd9	1.9580055e-05
11	0x37d09236	2.4863617e-05
12	0x33ec29e2	1.0997225e-07
13	0xb54dd245	-7.6674434e-07
14	0xb813f449	-3.527504e-05
15	0xb481dea2	-2.419011e-07
16	0x37968305	1.7942404e-05
17	0x37ec64fc	2.8180417e-05
18	0x35fb6534	1.8730411e-06
19	0xb8261fd8	-3.960714e-05
20	0xb8675b2c	-5.5159602e-05
21	0xb49c60b7	-2.9127634e-07
22	0xb6e7ee58	-6.9120833e-06
23	0xb622dbf6	-2.4267915e-06
24	0xb8b3e2f1	-8.577656e-05
25	0xb7875aec	-1.6135593e-05
26	0xb844eeb0	-4.6952337e-05
27	0xb4ddf683	-4.134382e-07
28	0xb59e2b70	-1.1784559e-06
29	0x38358ee4	4.328684e-05
30	0xb8333397	-4.2724972e-05
31	0x37b4d68b	2.1557576e-05
32	0x36555324	3.1787868e-06
33	0x389c0ac7	7.440667e-05
34	0x349dff50	2.9429293e-07
35	0xb5958d04	-1.1142406e-06
36	0xb4595622	-2.0241035e-07
37	0x3822464d	3.8689283e-05
38	0x36f8d9be	7.4163245e-06
39	0x3772c88b	1.4471017e-05
40	0xb66f3667	-3.5645442e-06
41	0xb4256d2f	-1.5406543e-07
42	0x37c64be3	2.3638777e-05
43	0x3724a5be	9.813752e-06
44	0x380e92c9	3.3992143e-05
45	0x3540d1b6	7.1830743e-07
46	0xb41f7fca	-1.4854518e-07
47	0x38182e5a	3.6282792e-05
48	0xb7eb8535	-2.8076212e-05
49	0x38b6111f	8.681625e-05
50	0x37053be4	7.941362e-06
51	0xb743abed	-1.1662935e-05
52	0x377883de	1.4812655e-05
53	0xb719857c	-9.15059e-06
54	0xb5c79f00	-1.487293e-06
55	0x384c6560	4.8731803e-05
56	0xb80f8983	-3.4221925e-05
57	0x381394b6	3.518603e-05
58	0x35b3bdec	1.3391814e-06
59	0xb879f646	-5.9595586e-05
60	0xb7eab90e	-2.7981147e-05
61	0xb6b635f4	-5.4303036e-06
62	0x3800ebed	3.07373e-05
63	0xb4a057af	-2.986612e-07
64	0xb6ddfaa4	-6.6154917e-06
65	0xb6c5035a	-5.8714477e-06
66	0x380d9ba2	3.3761964e-05
67	0x385bb8ce	5.238578e-05
68	0x360ea4b9	2.125553e-06
69	0xb79dec00	-1.8825755e-05
70	0xb7c5198c	-2.3496126e-05
71	0x389e1f65	7.539875e-05
72	0xb4858bb1	-2.487482e-07
73	0xb6df4edc	-6.6550983e-06
74	0x3704d976	7.918445e-06
75	0x3445007f	1.8347235e-07
76	0x3681358c	3.8507333e-06
77	0x37dc7fb8	2.6285517e-05
78	0xb4fe6080	-4.73814e-07
79	0xb8266c2f	-3.9678238e-05
80	0x34c321e4	3.634624e-07
81	0xb7568c28	-1.2788027e-05
82	0x3844172f	4.6751633e-05
83	0xb8425284	-4.6330053e-05
84	0x37abe83b	2.049293e-05
85	0x36e38072	6.78008e-06
86	0x386f0776	5.698899e-05
87	0xb60afe10	-2.0711486e-06
88	0x3394735e	6.912772e-08
89	0x37fa6d7e	2.9853309e-05
90	0xb41f3ee4	-1.4830908e-07
91	0xb70e164d	-8.469052e-06
92	0xb4ce8dcc	-3.847366e-07
93	0xb6b3262c	-5.3390595e-06
94	0x37c90d36	2.3967219e-05
95	0x374712b0	1.1865675e-05
96	0xb7cccaa9	-2.4413066e-05
97	0x35dd1779	1.6472615e-06
98	0xb40a074a	-1.2854903e-07
99	0x38596ac2	5.1836258e-05
100	0xb85cfb74	-5.268627e-05
101	0xb86e4747	-5.6810004e-05
102	0xb469e6ee	-2.1783828e-07
103	0xb662e0a0	-3.3807373e-06
104	0xb81130dc	-3.4616198e-05
105	0xb4339c8c	-1.6727626e-07
106	0xb4a5da10	-3.0892306e-07
107	0x37935c9a	1.7566887e-05
108	0xb4c03590	-3.580176e-07
109	0x3825f532	3.956742e-05
110	0x387d9e9e	6.0467624e-05
111	0x389f2a3e	7.589579e-05
112	0x35a0254c	1.1931784e-06
113	0xb8726c8c	-5.779839e-05
114	0xb6de2480	-6.6203647e-06
115	0xb6c64c18	-5.9097183e-06
116	0x380a1b1e	3.292702e-05
117	0x36260901	2.4741169e-06
118	0xb7ee10c1	-2.8379613e-05
119	0x36c583c2	5.886396e-06
120	0x38266a12	3.967627e-05
121	0xb7fd1a6e	-3.0172258e-05
122	0x3702529d	7.767839e-06
123	0x379e12b3	1.8843775e-05
124	0x378996cb	1.6401891e-05
125	0xb55ff09a	-8.3424095e-07
126	0xb70468b6	-7.892193e-06
127	0x364091f6	2.869519e-06

exp_avg_sq f4 [128]
0	0x303d2f9c	6.8825456e-10
1	0x30d891f3	1.575755e-09
2	0x314022cd	2.795946e-09
3	0x30d62f38	1.558397e-09
4	0x321aa9d3	9.002593e-09
5	0x30955ad1	1.0866988e-09
6	0x29cd2942	9.110986e-14
7	0x3041c69c	7.049523e-10
8	0x31a2eb6c	4.741585e-09
9	0x2e99f1f6	7.0006154e-11
10	0x32439e39	1.13864695e-08
11	0x31dee9e8	6.4876424e-09
12	0x278f1451	3.97125e-15
13	0x2e00af7d	2.9259695e-11
14	0x32786050	1.4457399e-08
15	0x28a5fadc	1.8427473e-14
16	0x3257ea4e	1.2567922e-08
17	0x330d26a6	3.286427e-08
18	0x2c505337	2.9604771e-12
19	0x32a1da7d	1.8842224e-08
20	0x322e4a17	1.0144979e-08
21	0x28fe9817	2.8265623e-14
22	0x30f1a4fd	1.758195e-09
23	0x2b988d4f	1.0839471e-12
24	0x3116489b	2.1869144e-09
25	0x303d2658	6.881229e-10
26	0x33198e52	3.5752528e-08
27	0x2985615f	5.923278e-14
28	0x3109a9ea	2.0032709e-09
29	0x3037b40a	6.6830863e-10
30	0x304b330f	7.392353e-10
31	0x30ff7693	1.8587393e-09
32	0x2c446f41	2.7915034e-12
33	0x334e80f5	4.80804e-08
34	0x28eea09f	2.6492966e-14
35	0x2ae8a42f	4.1325404e-13
36	0x28468ef1	1.1022203e-14
37	0x3104660c	1.9266535e-09
38	0x308c2647	1.019722e-09
39	0x31879232	3.9456376e-09
40	0x2cb7f9ac	5.228892e-12
41	0x28cf158c	2.2990961e-14
42	0x318d4715	4.111721e-09
43	0x2f9dd7e1	2.8711525e-10
44	0x321fe4ba	9.3070245e-09
45	0x2a0aec0e	1.233876e-13
46	0x2ab36e4f	3.187333e-13
47	0x317b7ad1	3.659512e-09
48	0x2ff7ed38	4.5097592e-10
49	0x3387a3f4	6.31625e-08
50	0x3211a7e9	8.478289e-09
51	0x31e0680d	6.5310872e-09
52	0x31146bfa	2.1598212e-09
53	0x33152f19	3.47346e-08
54	0x30a34086	1.187815e-09
55	0x310c56c8	2.042201e-09
56	0x31ef980f	6.9731025e-09
57	0x3147dc1a	2.9083425e-09
58	0x2cc6dc31	5.6519446e-12
59	0x322ddb06	1.01197255e-08
60	0x325fd57d	1.302885e-08
61	0x31c20804	5.6470544e-09
62	0x3028db60	6.1429795e-10
63	0x2b5fedbd	7.9555443e-13
64	0x30051726	4.8418014e-10
65	0x30f1e391	1.7599736e-09
66	0x32b20bfd	2.0727379e-08
67	0x324fb5be	1.2090309e-08
68	0x2cb97006	5.2704533e-12
69	0x30f4b1e9	1.7803902e-09
70	0x30c671e8	1.443877e-09
71	0x336556c7	5.339714e-08
72	0x2ad89409	3.8472028e-13
73	0x2d4b237f	1.1547096e-11
74	0x2e5e7e2e	5.0589026e-11
75	0x28a13884	1.78991e-14
76	0x2f0813f9	1.2376224e-10
77	0x30b57807	1.3203597e-09
78	0x30bde526	1.3816688e-09
79	0x316938ea	3.3938314e-09
80	0x29452a1c	4.377931e-14
81	0x31624c0f	3.2930563e-09
82	0x32174473	8.80492e-09
83	0x3216afbb	8.771106e-09
84	0x30a23973	1.1803379e-09
85	0x301700a7	5.4934407e-10
86	0x3184351a	3.8477426e-09
87	0x3062a652	8.2454676e-10
88	0x28de8424	2.4704258e-14
89	0x32b1cc81	2.069851e-08
90	0x27bd1c99	5.2489044e-15
91	0x2e0e9b8d	3.242522e-11
92	0x29605f93	4.982089e-14
93	0x2f840c74	2.4019509e-10
94	0x315e59b8	3.235625e-09
95	0x3058044e	7.858646e-10
96	0x2fc045dc	3.4974235e-10
97	0x2bb2d218	1.2705973e-12
98	0x27ad62f8	4.812445e-15
99	0x32a27c06	1.8915681e-08
100	0x336e7608	5.5521042e-08
101	0x321a7c88	8.992295e-09
102	0x288dd74d	1.5747516e-14
103	0x32be37bb	2.2144254e-08
104	0x30555e07	7.762257e-10
105	0x2a2cdd43	1.5353434e-13
106	0x30d1e233	1.5271041e-09
107	0x30947f43	1.0804587e-09
108	0x2951e459	4.6605382e-14
109	0x30d80b6d	1.5719316e-09
110	0x333cab2b	4.3927837e-08
111	0x31200d65	2.3290678e-09
112	0x2bb11b8e	1.2584254e-12
113	0x321c2880	9.089604e-09
114	0x307752b7	8.997562e-10
115	0x319cc5dd	4.562692e-09
116	0x31ef00aa	6.955891e-09
117	0x2caa90cf	4.8477676e-12
118	0x30a60965	1.208076e-09
119	0x2e60b649	5.1093605e-11
120	0x3206ce24	7.8466975e-09
121	0x31f57147	7.1433166e-09
122	0x2f1b9b05	1.4152242e-10
123	0x31aa9d17	4.9655102e-09
124	0x320e224e	8.273288e-09
125	0x2b5996c0	7.7303094e-13
126	0x2faa91d8	3.1026448e-10
127	0x2f6b551d	2.1403364e-10
