results/test-15/Drive/Drive-11365.onnx (onnx, 80694 bytes, 7 tensors)

network_body._body_endoder.seq_layers.0.weight f4 [128, 17]
-0.2549086 -0.026404798 0.18409793 0.075140744 -0.33422133 0.425932 -0.06514007 0.19923851
-0.19197857 -0.22523037 0.05177405 0.13796483 -0.4159129 0.027922088 0.5719738 -0.13820337
-0.07626097 0.15955311 0.1642373 -0.058784746 0.048704978 -0.22272803 -0.018385645 0.51303846
-0.25360304 -0.114994936 0.32501015 0.114044204 -0.16608086 0.2477689 0.22881451 0.027662175
-0.38585332 0.22146924 0.002773775 -0.01152615 0.008734315 -0.115857646 0.20346054 -0.07568874
-0.7736112 0.089915805 0.3074512 0.271321 0.016637275 0.13186967 0.05631015 -0.24958993
-0.046973944 0.3410342 -0.39585313 0.087848194 0.2419147 0.3972379 0.3594177 0.12532154
-0.25357854 -0.26535285 0.09546635 0.28668934 0.22257705 -0.15526676 0.35268837 0.23341556
-0.039969426 0.27077356 0.18478099 -0.34627053 0.20501566 -0.14060022 -0.21987088 0.21315804
-0.11619641 -0.24274248 -0.13526249 -0.23765364 0.013528391 0.2889862 0.24236229 0.1141977
0.250923 -0.21281606 0.33831853 0.059476256 0.38154104 -0.015779741 -0.08764896 0.391451
0.22579198 0.46103296 -0.019993959 0.32557464 -0.14814965 0.41836408 -0.13926066 -0.22458798
-0.19900821 -0.14487766 -0.052313805 -0.056150235 -0.7215354 -0.051868018 -0.29395452 0.093769334
-0.18728009 0.1084332 0.09944252 -0.19385718 -0.15796025 -0.13912544 0.018233655 -0.14999257
0.06542931 0.0044384417 0.015081787 -0.25634992 0.17012557 -0.27840042 -0.2213489 -0.04281945
-0.31372046 0.24085304 0.4159073 0.17858794 -0.039478634 -0.21191038 0.25052783 -0.1348582
0.27281252 0.061847642 -0.37206826 0.13502221 -0.02627388 0.14448826 -0.16473049 0.112584785
0.21422833 0.19846267 -0.3485985 0.21919473 0.66533744 0.08600335 -0.08123376 0.19681425
-0.019571874 0.5719406 0.31682718 -0.058445923 -0.019522225 0.1977775 0.13209933 -0.21062951
0.004459421 -0.35480556 -0.10808996 -0.21515329 0.12354141 -0.0011616384 -0.1812815 0.10015211
0.11208941 0.21856132 -0.057656184 0.5185537 -0.06790963 -0.03095611 -0.053323556 -0.00038879525
0.20183434 0.12124974 -0.24884105 -0.055299263 0.46932054 0.08263469 -0.4613316 -0.5366166
0.7105058 0.048195764 0.5885665 -0.20894806 -0.22040994 0.11070463 0.09583256 -0.0009166417
-0.122530006 0.68820786 0.019539932 -0.015422581 0.21430361 0.1238825 0.19314307 -0.2514621
-0.14776261 0.1668885 0.14785115 0.016971914 0.13937274 0.03243006 0.020566342 -0.021766787
0.07630169 0.13799581 -0.06520116 0.04966692 -0.3357779 0.023991065 -0.58645093 -0.040919118
0.11711823 0.09058527 0.1592008 -0.3698461 -0.45763767 -0.2673424 -0.13490315 0.4225492
0.10114217 -0.22534634 -0.43504182 -0.28259575 -0.18922336 0.06863365 -0.28258187 0.4140965
0.058029078 -0.36996108 -0.12009676 -0.15730542 0.3848618 -0.24363607 -0.12276009 -0.14586864
-0.2607342 0.40576285 0.06493397 0.21894583 0.38626033 -0.14398304 -0.47673994 0.37281066
0.23272446 -0.12270966 0.324434 -0.24027757 0.074049644 0.4106855 -0.44894847 -0.025590409
0.36723772 0.04317272 -0.31930965 -0.29318473 0.10677769 -0.13578776 0.18252519 0.018398045
00000000: 6183 82be e04e d8bc 2b84 3c3e 64e3 993d
00000010: 0f1f abbe c213 da3e 2868 85bd 2e05 4c3e
00000020: 0896 44be caa2 66be 0711 543d a746 0d3e
00000030: 89f2 d4be ddbc e43c e06c 123f 2f85 0dbe
00000040: b62e 9cbd e461 233e d32d 283e 46c8 70bd
00000050: df7e 473d d112 64be 7e9d 96bc 7d56 033f
00000060: 42d8 81be 7782 ebbd bb67 a63e 0290 e93d
00000070: 1a11 2abe 21b7 7d3e 5a4e 6a3e c99b e23c
00000080: 918e c5be d5c8 623e 39c8 353b 2dd8 3cbc
00000090: 5f1a 0f3c c646 edbd f657 503e b302 9bbd
000000a0: 620b 46bf c725 b83d 3e6a 9d3e 96ea 8a3e
000000b0: e54a 883c d808 073e 79a5 663d 8194 7fbe
000000c0: c067 40bd 099c ae3e 43ad cabe c1e9 b33d
000000d0: 7db8 773e c462 cb3e 9905 b83e 4a54 003e
000000e0: 0cd5 81be 54dc 87be dd83 c33d f2c8 923e
000000f0: 3deb 633e 40fe 1ebe 9293 b43e 7d04 6f3e
00000100: fbb6 23bd d5a2 8a3e 3a37 3d3e 5f4a b1be
00000110: a0ef 513e 81f9 0fbe d525 61be 1a46 5a3e
00000120: 62f8 edbd 7c91 78be 4082 0abe 7a5b 73be
00000130: 2fa6 5d3c 00f6 933e d22d 783e 7ce0 e93d
00000140: fb78 803e 74ec 59be 1638 ad3e 609d 733d
00000150: 5959 c33e 8444 81bc 4c81 b3bd 446c c83e
00000160: 0336 673e 830c ec3e 5fca a3bc b8b1 a63e
00000170: 8bb4 17be d133 d63e 599a 0ebe 64fa 65be
00000180: cfc8 4bbe cf5a 14be 0047 56bd cafd 65bd
00000190: 8bb6 38bf 8f73 54bd 3581 96be 230a c03d
000001a0: 5ac6 3fbe 3a12 de3d 85a8 cb3d 7f82 46be
000001b0: 55c0 21be e676 0ebe bf5e 953c a797 19be
000001c0: cdff 853d 5970 913b 9919 773c 4c40 83be
000001d0: 6635 2e3e 808a 8ebe 49a9 62be 7363 2fbd
000001e0: f89f a0be 2ea2 763e cdf1 d43e c2df 363e
000001f0: 59b4 21bd 09ff 58be 2f45 803e 4518 0abe
00000200: 15ae 8b3e f453 7d3d bb7f bebe 4343 0a3e
00000210: 523c d7bc bbf4 133e 1caf 28be da92 e63d
00000220: ac5e 5b3e cc39 4b3e 817b b2be 9574 603e
00000230: 8e53 2a3f 8622 b03d e35d a6bd ad89 493e
00000240: 3255 a0bc b36a 123f 2c37 a23e fe64 6fbd
00000250: 13ed 9fbc 2f86 4a3e 0c45 073e 43af 57be
00000260: 5620 923b 13a9 b5be 455e ddbd 2551 5cbe
00000270: 4703 fd3d 1e42 98ba dca1 39be 8d1c cd3d
00000280: 228f e53d 8ace 5f3e e428 6cbd efbf 043f
00000290: 3414 8bbd ab97 fdbc cd69 5abd 37d7 cbb9
000002a0: a9ad 4e3e c951 f83d 30d0 7ebe 7b81 62bd
000002b0: c84a f03e 603c a93d a833 ecbe b55f 09bf
000002c0: b5e3 353f ec68 453d 4bac 163f 7bf6 55be
000002d0: 25b3 61be 1cb9 e23d dc43 c43d c84a 70ba
000002e0: 03f1 fabd 642e 303f 3512 a03c feae 7cbc
000002f0: 6872 5b3e 1cb6 fd3d 4cc7 453e a4bf 80be
00000300: 154f 17be d2e4 2a3e 4b66 173e af08 8b3c
00000310: bab7 0e3e 62d5 043d bf7a a83c 4350 b2bc
00000320: 0f44 9c3d c64e 0d3e 3088 85bd 8a6f 4b3d
00000330: 15eb abbe e988 c43c a621 16bf ce9a 27bd
00000340: afdb ef3d c584 b93d 8905 233e 785c bdbe
00000350: 7c4f eabe 1ae1 88be 0d24 0abe 5e58 d83e
00000360: a023 cf3d 31c1 66be cdbd debe 64b0 90be
00000370: c5c3 41be cd8f 8c3d 92ae 90be 7504 d43e
00000380: e6af 6d3d 8a6b bdbe 4af5 f5bd ac14 21be
00000390: 9b0c c53e bc7b 79be a469 fbbd 975e 15be
000003a0: f47e 85be 26c0 cf3e 1afc 843d 5633 603e
000003b0: eac3 c53e 4a70 13be 4217 f4be 0ae1 be3e
000003c0: 524f 6e3e 344f fbbd 371c a63e 530b 76be
000003d0: 57a7 973d 5f45 d23e 93dc e5be faa2 d1bc
000003e0: 9506 bc3e e1d5 303d 8e7c a3be 4f1c 96be
000003f0: 43ae da3d f20b 0bbe e2e7 3a3e 7fb7 963c

network_body._body_endoder.seq_layers.0.bias f4 [128]
0.00014244634 0.0003524712 -5.2271156e-05 -0.00065867323 -0.00029912678 -7.622641e-05 -0.0016362788 -0.00029465108
-0.0006447381 0.00026451884 -6.951284e-05 -0.00081088574 -0.002255762 -0.0013811936 -1.4547886e-05 0.0026408401
-0.00010771082 -0.00021432969 -0.0005975019 -0.00018143577 3.1392236e-05 0.002256643 -0.00014509141 0.0036838898
0.001992095 0.0014678992 2.8449096e-05 0.0026524628 0.0005365494 -0.0010932098 -0.00087094854 -0.00051065674
-0.0012884726 -0.00022531401 -0.0004488821 0.0021483146 0.0014606841 -0.0014707298 -0.0007732199 -0.00014794109
0.00021796582 0.00069774204 0.000118951335 0.00047892812 -0.0004101855 -0.0040643224 0.002204959 -4.5405308e-05
0.0018769929 -8.486203e-05 -0.00017286904 0.0003269008 -0.0016274804 -0.0002277421 -0.0019663102 -1.14504255e-05
0.00033402262 -0.00037368116 0.0018432067 -2.0060696e-05 -0.00015071526 0.00056173565 0.0001755873 0.00035603828
0.001806892 0.00029532672 -0.00012126499 -0.00014070158 -0.0015151068 0.00014646444 0.0011921062 -0.00010460436
0.0019649568 -0.00035677155 9.534172e-05 -0.0027531905 -0.0017936741 -0.0002657846 -0.00021854725 0.00037754662
-0.002262624 0.00047983948 -0.0010093165 0.00013255645 -0.001507785 -0.0014208624 0.0006915209 -0.0026516074
9.2705e-05 0.00048581345 0.0023720644 0.0011146906 0.0022357411 -0.0009835727 0.0005496771 -0.00046430103
0.0013268827 -0.0031320567 0.0029898593 -0.00047057285 -4.4276007e-05 5.941258e-05 0.002156432 -7.354566e-05
-0.00021605361 7.0645554e-05 6.055315e-05 -0.00050293934 0.002093901 0.0004439129 -0.00038432362 -8.067455e-05
-0.00025692827 0.0002921914 -0.001017294 0.00023823562 -0.0004628053 0.00090517366 0.0020223157 -0.002870017
-0.0004288849 -5.2259675e-05 -0.0028342265 -0.00019529319 4.6878708e-05 0.0020460386 -0.00019028838 -0.0016443888
00000000: a65d 1539 e2cb b839 ba3d 5bb8 d0aa 2cba
00000010: 1ed4 9cb9 bedb 9fb8 6878 d6ba 667b 9ab9
00000020: a403 29ba 1eaf 8a39 6cc7 91b8 9f91 54ba
00000030: 68d5 13bb 2b09 b5ba b212 74b7 f211 2d3b
00000040: cee2 e1b8 b0bd 60b9 aca1 1cba cb3f 3eb9
00000050: 28ab 0338 30e4 133b ae23 18b9 6a6d 713b
00000060: cf8d 023b 8666 c03a f8a5 ee37 f1d4 2d3b
00000070: 39a7 0c3a 094a 8fba 5e50 64ba 98dd 05ba
00000080: f7e1 a8ba 4542 6cb9 f057 ebb9 bdca 0c3b
00000090: 6d74 bf3a 81c5 c0ba e9b1 4aba a220 1bb9
000000a0: c18d 6439 ade8 363a 8375 f938 a518 fb39
000000b0: 2a0e d7b9 022e 85bb 1381 103b 9471 3eb8
000000c0: 6e05 f63a f5f7 b1b8 2e44 35b9 e263 ab39
000000d0: 2e51 d5ba 0ece 6eb9 36dd 00bb 341b 40b7
000000e0: c21f af39 a3ea c3b9 c197 f13a 0448 a8b7
000000f0: 5209 1eb9 7141 133a db1d 3839 a6aa ba39
00000100: 3cd5 ec3a 15d6 9a39 a54f feb8 4b89 13b9
00000110: 8c96 c6ba 4094 1939 7240 9c3a 0a5f dbb8
00000120: 81c6 003b 110d bbb9 32f2 c738 df6e 34bb
00000130: b719 ebba 0159 8bb9 d529 65b9 73f1 c539
00000140: 8848 14bb f792 fb39 0b4b 84ba dafe 0a39
00000150: dfa0 c5ba 3b3c baba 2f47 353a 97c6 2dbb
00000160: 9e6a c238 c7b4 fe39 a374 1b3b cf1a 923a
00000170: 8385 123b 39eb 80ba 3518 103a 6e6d f3b9
00000180: ccea ad3a 3143 4dbb 84f1 433b 38b7 f6b9
00000190: 00b5 39b8 c631 7938 ed52 0d3b 873c 9ab8
000001a0: 738c 62b9 8b27 9438 73fa 7d38 b0d7 03ba
000001b0: d439 093b fbbc e839 0b7f c9b9 d22f a9b8
000001c0: 54b4 86b9 4431 9939 b956 85ba e3ce 7939
000001d0: ada4 f2b9 2d49 6d3a d488 043b e516 3cbb
000001e0: f5db e0b9 6631 5bb8 6ebe 39bb 9ec7 4cb9
000001f0: a19f 4438 d516 063b 2688 47b9 8888 d7ba

network_body._body_endoder.seq_layers.2.weight f4 [128, 128]
-0.05128601 0.08575777 -0.19505103 -0.1253529 -0.08052816 -0.109118134 -0.031301048 0.0426711
-0.008192292 0.08968194 0.053054318 0.006305348 -0.005691012 -0.063039616 0.059455346 -0.1309186
0.05847995 -0.057586703 -0.079167746 0.0816563 -0.06419941 -0.055759404 -0.08610564 -0.005721435
-0.07989306 0.009458794 0.019476656 0.0793599 0.08055501 0.0739771 0.15920116 -0.061458703
-0.16653194 -0.029311283 0.022620702 0.04292189 -0.09935824 -0.13444564 0.044718847 0.007889251
0.07046851 -0.012550069 -0.10885485 -0.1578858 0.17436132 0.014726179 0.10214017 0.06381461
-0.06622301 0.06993783 0.011835954 0.03897815 0.02519668 -0.059634667 0.04650225 -0.012781408
0.0011909724 -0.06154667 0.13148017 0.15236212 -0.16032523 -0.19621654 -0.08146469 -0.027021907
0.14011244 -0.022044735 -0.04175965 -0.046981 -0.064616285 0.014741834 -0.10712306 -0.0442216
0.07907207 0.07549224 0.11673134 0.057250835 -0.084008254 -0.062597774 -0.015754947 -0.0051357094
0.1965398 -0.053157434 0.02002292 -0.0029465721 0.14758924 0.005915274 0.032813273 0.14064501
-0.08866712 -0.057983074 0.10141677 0.086970225 0.04721946 -0.08447692 0.023682086 0.21168713
0.0775859 0.022125984 -0.048727367 -0.12296481 0.13300471 -0.14007398 0.01764954 0.08828816
-0.09851491 0.04824692 -0.14164987 0.0079419315 -0.048342474 0.13751978 0.046120536 -0.0016016588
0.07830995 -0.023528697 0.023004707 0.12662731 -0.22653398 -0.05963938 0.11067973 -0.09368827
0.03216911 -0.019243032 0.018453201 0.023833219 0.05533763 -0.13249527 -0.085922934 0.049207553
-0.042909633 -0.04087983 -0.099580504 -0.018981839 -0.02524794 0.15852334 -0.037690528 0.013598589
-0.13509667 0.0018763782 0.00410698 -0.014340551 0.0016348963 -0.12634408 0.022338314 -0.1666131
-0.15568522 -0.015741965 -0.17444469 0.1394413 -0.033796962 0.015548159 -0.047446627 0.16877437
-0.018962463 -0.0212716 -0.03812428 0.092112556 0.10214146 -0.11085831 0.00044640183 0.02806843
0.001848402 -0.031413265 -0.0024679427 0.08621603 0.06305567 0.15782589 -0.03526633 -0.087382846
-0.016830217 0.09546802 -0.07339821 -0.044863183 0.066820614 0.018323328 -0.08601722 -0.06253545
-0.043345194 -0.14838414 0.0012901541 0.006388303 -0.00019913162 -0.009761119 0.020276837 0.09326724
-0.022191215 0.06958271 0.025764436 -0.06528529 -0.015471468 0.027843911 -0.05200649 -0.094192006
-0.053693086 -0.007804998 0.031028064 -0.051859643 0.015377445 0.008995226 -0.10811361 -0.0036491158
-0.119420856 0.16264573 0.026246956 0.066179626 -0.10595449 0.07507569 0.043554295 0.11402957
-0.06391882 -0.07683458 -0.081430666 0.06310605 -0.080199026 0.033206552 -0.14599171 -0.014208783
0.085946485 0.1288259 0.020185223 -0.05993719 -0.058925517 0.12590417 -0.051423017 0.12923397
0.069809794 -0.034077514 -0.11736465 -0.014236889 0.070071846 -0.010917773 -0.02952682 -0.04391746
0.0059803603 -0.024556655 0.06300716 -0.055844907 -0.037922654 0.1397328 0.13754351 -0.0008305501
-0.041675575 -0.053354822 -0.038617842 -0.012516792 0.016908808 0.11118686 0.012872205 0.060896266
0.16013671 0.14180523 -0.03195921 -0.13972412 -0.08817316 0.024205506 0.16687733 0.11434555
00000000: 4711 52bd c5a1 af3d 75bb 47be 835c 00be
00000010: f3eb a4bd 5479 dfbd 8735 00bd e4c7 2e3d
00000020: f738 06bc 2aab b73d 7c4f 593d 189d ce3b
00000030: ab7b babb ea1a 81bd 7387 733d 870f 06be
00000040: ac88 6f3d 09e0 6bbd b322 a2bd 6b3b a73d
00000050: fb7a 83bd f963 64bd 2758 b0bd e07a bbbb
00000060: f99e a3bd 0ff9 1a3c 828d 9f3c 7187 a23d
00000070: 06fa a43d 4e81 973d a105 233e 1fbc 7bbd
00000080: 5987 2abe 371e f0bc 0d4f b93c ddce 2f3d
00000090: 557c cbbd 1eac 09be 1c2b 373d eb41 013c
000000a0: cb51 903d ce9e 4dbc 4bef debd d1ac 21be
000000b0: c68b 323e 1246 713c de2e d13d 3cb1 823d
000000c0: ee9f 87bd 913b 8f3d 97eb 413c 8da7 1f3d
000000d0: 4569 ce3c 7b43 74bd 2579 3e3d 1c69 51bc
000000e0: 671a 9c3a 5c18 7cbd bda2 063e d104 1c3e
000000f0: 4c2c 24be fdec 48be f6d6 a6bd 0c5d ddbc
00000100: a379 0f3e 2997 b4bc 2b0c 2bbd 266f 40bd
00000110: 8b55 84bd bc87 713c 5663 dbbd b521 35bd
00000120: 8af0 a13d ad9b 9a3d d710 ef3d da7f 6a3d
00000130: 850c acbd 4333 80bd 8510 81bc 7449 a8bb
00000140: bb41 493e 9cbb 59bd 1b07 a43c 471b 41bb
00000150: a221 173e ead4 c13b 3667 063d 3f05 103e
00000160: 1b97 b5bd a97f 6dbd 98b3 cf3d 721d b23d
00000170: 3169 413d 3c02 adbd ef00 c23c 83c4 583e
00000180: 5be5 9e3d 8d41 b53c 5996 47bd f9d4 fbbd
00000190: 6332 083e 8e6f 0fbe c595 903c 6cd0 b43d
000001a0: 2fc2 c9bd 909e 453d aa0c 11be e01e 023c
000001b0: c202 46bd fcd1 0c3e e3e8 3c3d c0ee d1ba
000001c0: f860 a03d 41bf c0bc 5e74 bc3c 97aa 013e
000001d0: 86f8 67be 6c48 74bd 0eac e23d a3df bfbd
000001e0: c2c3 033d 90a3 9dbc 2b2b 973c e23d c33c
000001f0: b6a9 623d d7ac 07be 5df8 afbd dc8d 493d
00000200: 03c2 2fbd 9c71 27bd ddf0 cbbd cd7f 9bbc
00000210: c5d4 cebc f153 223e 6261 1abd 9ecc 5e3c
00000220: c856 0abe cef0 f53a d893 863b a1f4 6abc
00000230: 044a d63a 5860 01be d7fe b63c a09c 2abe
00000240: f26b 1fbe 4bf5 80bc a1a1 32be b3c9 0e3e
00000250: af6e 0abd b5bd 7e3c 6557 42bd 30d3 2c3e
00000260: 2b57 9bbc c741 aebc 3428 1cbd 82a5 bc3d
00000270: 8b2f d13d ae09 e3bd 0a0b ea39 c4ef e53c
00000280: 1446 f23a 32ab 00bd 35bd 21bb 0892 b03d
00000290: 5523 813d 1c9d 213e 6d73 10bd c7f5 b2bd
000002a0: 86df 89bc bd84 c33d cd51 96bd 75c2 37bd
000002b0: 3fd9 883d ce1a 963c cc29 b0bd 9612 80bd
000002c0: bb8a 31bd 03f2 17be 631a a93a f854 d13b
000002d0: fdcd 50b9 1aed 1fbc 9c1b a63c e502 bf3d
000002e0: 5aca b5bc 6181 8e3d f00f d33c 4bb4 85bd
000002f0: 0a7c 7dbc ea18 e43c c204 55bd bde7 c0bd
00000300: 48ed 5bbd 12c1 ffbb 912e fe3c c76a 54bd
00000310: aef1 7b3c b660 133c ab6a ddbd 0126 6fbb
00000320: ec92 f4bd 9a8c 263e db03 d73c 2f89 873d
00000330: abfe d8bd 49c1 993d fd65 323d 5688 e93d
00000340: dfe7 82bd 735b 9dbd 1fc5 a6bd bf3d 813d
00000350: 633f a4bd 9803 083d da7e 15be f5cb 68bc
00000360: b604 b03d f0ea 033e 7b5b a53c b380 75bd
00000370: e25b 71bd 06ed 003e f1a0 52bd e955 043e
00000380: 70f8 8e3d dd94 0bbd e15c f0bd d741 69bc
00000390: d481 8f3d 75e0 32bc 3be2 f1bc cbe2 33bd
000003a0: e6f6 c33b 0a2b c9bc e609 813d a1bd 64bd
000003b0: c954 1bbd 1d16 0f3e 35d8 0c3e 46b9 59ba
000003c0: 02b4 2abd 968a 5abd be2d 1ebd 3b13 4dbc
000003d0: 5784 8a3c f0b5 e33d f1e5 523c 5d6e 793d
000003e0: e1fa 233e 6435 113e a9e7 02bd d713 0fbe
000003f0: 2194 b4bd a04a c63c e4e1 2a3e 002e ea3d

network_body._body_endoder.seq_layers.2.bias f4 [128]
0.0002263609 -0.000392253 0.00043468157 -0.00088693696 -0.000490413 0.0010236779 -0.0035387438 0.00014440356
-0.0037556249 -0.00045661582 -4.37299e-05 -0.0002860968 0.001867471 7.903574e-05 -0.00012496117 0.0010055292
-0.0021894986 -0.00016296095 -0.00071034825 -7.027082e-05 0.0010829907 -0.00022549802 0.002722604 -0.00016910127
-0.00074986694 -0.00018877775 0.0012915587 -0.00016940947 0.0015274794 0.0009291168 -9.2760994e-05 -0.000927598
-9.872312e-05 0.0016721486 0.002051512 0.0012896495 0.002094367 0.002250075 -5.7210007e-05 -0.00023305816
1.5613896e-05 -6.829011e-05 0.0003115238 -0.0005734859 8.211187e-06 0.00017248394 -0.00049986853 -2.8512604e-06
-6.3802054e-06 -0.000117470794 -0.0008435447 -0.003394529 0.00022576586 -0.00016080422 -0.000116264215 -0.00014445026
-0.00080225925 0.0017041868 -0.0030501198 -0.000131289 0.000117305404 -0.0007317082 0.0026921788 -0.00019004868
-0.00073930185 -0.0013168004 0.00028576748 -0.0004179589 -0.004881787 5.104801e-05 0.00035109153 1.1207967e-05
-0.001764556 -0.001727002 -9.877436e-05 0.0003590735 -0.00012320158 -1.6230557e-05 0.0012856992 -0.000404496
0.00061458215 0.00014917522 -0.00013300014 -0.00017245898 -0.00022605757 -0.00031840242 -0.0007356347 0.0025455407
-0.00026230546 4.570984e-05 -9.692894e-05 -1.8459818e-05 -3.059242e-05 -0.00060446234 0.0011666333 -0.00027069094
6.907109e-05 -0.0008231325 -0.00038350475 -5.0066737e-05 -0.000569155 -0.00017970402 -1.967402e-05 -0.00406654
-0.00015019573 -0.00014812808 -0.00013134317 -0.00042214178 -3.8552207e-05 -0.00032584043 -0.00020534234 0.00036330262
-3.0366273e-06 0.0018510614 -0.00010725162 -0.0005769536 -0.001228771 -0.00023090905 0.002608016 0.0013462665
-6.30163e-05 0.0010646464 -1.5867172e-05 0.0021209696 -0.00019083108 -0.0016690388 0.0017551411 -2.7298694e-05
00000000: 4b5b 6d39 4ea7 cdb9 f9e5 e339 5581 68ba
00000010: 0f8f 00ba ee2c 863a 45ea 67bb 096b 1739
00000020: ee20 76bb f065 efb9 9f6a 37b8 43ff 95b9
00000030: eec5 f43a fdbf a538 0208 03b9 f6cb 833a
00000040: b17d 0fbb 7fe0 2ab9 aa36 3aba 5c5e 93b8
00000050: 23f3 8d3a aa73 6cb9 b76d 323b c750 31b9
00000060: b892 44ba a4f2 45b9 8549 a93a 82a3 31b9
00000070: b435 c83a f98f 733a ae88 c2b8 0c2a 73ba
00000080: 9209 cfb8 ff2b db3a a972 063b 7509 a93a
00000090: a641 093b ff75 133b c7f4 6fb8 1361 74b9
000000a0: 96fa 8237 f936 8fb8 0454 a339 fd55 16ba
000000b0: c8c2 0937 cedc 3439 9c09 03ba 4858 3fb6
000000c0: 8c15 d6b6 a75a f6b8 5421 5dba bf76 5ebb
000000d0: 90bb 6c39 8e9d 28b9 e0d2 f3b8 9277 17b9
000000e0: b54e 52ba 055f df3a 85e4 47bb 9faa 09b9
000000f0: dc01 f638 1bd0 3fba 446f 303b ce47 47b9
00000100: b5cd 41ba 7d98 acba 10d3 9539 7e21 dbb9
00000110: 66f7 9fbb 621c 5638 b512 b839 da09 3c37
00000120: ad48 e7ba 925c e2ba 1525 cfb8 0842 bc39
00000130: ac2f 01b9 db26 88b7 e884 a83a 8912 d4b9
00000140: e91b 213a eb6b 1c39 f475 0bb9 1bd6 34b9
00000150: de09 6db9 40ef a6b9 9cd7 40ba 16d3 263b
00000160: 0b86 89b9 91b8 3f38 5446 cbb8 28da 9ab7
00000170: 5c50 00b8 c874 1eba b8e9 983a 86eb 8db9
00000180: 42da 9038 7dc7 57ba 2311 c9b9 c0fe 51b8
00000190: 5833 15ba ee6e 3cb9 a309 a5b7 9c40 85bb
000001a0: dc7d 1db9 d452 1bb9 2ab9 09b9 e952 ddb9
000001b0: 1eb3 21b8 90d5 aab9 2a51 57b9 a779 be39
000001c0: dcc8 4bb6 509f f23a 46ec e0b8 b33e 17ba
000001d0: b70e a1ba 2d20 72b9 3feb 2a3b 3575 b03a
000001e0: 9e27 84b8 9b8b 8b3a 7e1a 85b7 f7ff 0a3b
000001f0: d419 48b9 a6c3 daba c30c e63a 80ff e4b7

action_model._continuous_distribution.log_sigma f4 [1, 2]
-0.0013304638 0.0022484246
00000000: f562 aeba 4e5a 133b

action_model._continuous_distribution.mu.weight f4 [2, 128]
0.036688346 0.02209345 0.034568004 0.0056646597 0.039812595 -0.0021610702 0.0026867378 0.007779489
-0.03212152 -0.0018387232 0.023033353 -0.007036232 0.01041495 0.03288513 0.0055043707 -0.017346643
-0.020446716 -0.03162051 -0.0010885949 -0.008606406 0.020231511 -0.008131863 0.012450049 0.009366429
0.02586322 -0.002597076 0.022817664 -0.018193575 0.01904985 -0.00990641 -0.0118235955 -0.010060565
-0.03014063 -0.014586237 -0.036352832 -0.0002290981 0.002612757 0.010905397 0.020617003 -0.006550035
0.038958337 0.011326938 -0.021562556 -0.0014138458 -0.016501233 0.019758435 0.021444917 0.021082984
0.040180385 -0.03445064 0.037771564 -0.04461283 0.00876705 -0.007600764 -0.011850592 -0.029468516
0.005881213 0.015136035 -0.013570194 -0.020425886 0.005610568 -0.02874433 0.037348248 0.0045373566
-0.011205386 -0.018253468 -0.00871424 0.005349808 -0.004965809 -0.01482304 -0.0015801684 0.026480563
0.005853979 -0.014273639 -0.022229422 0.0036040307 -0.008455656 0.016859587 0.0028044311 -0.00042085684
-0.0053775324 0.019717796 -0.0060185953 0.0090709245 0.038871873 -0.015688755 -0.010648734 0.00051114726
0.016072609 0.036294308 -0.016148396 0.00814488 0.0063274247 -0.00271619 -0.004267972 0.0045969696
0.018961145 -0.022463774 -0.037724443 -0.008355206 -0.0044751777 -0.012226634 0.015395097 0.010737013
0.0052330126 -0.038564507 -0.01400208 0.008200515 -0.0053995284 -0.013650622 -0.012409732 0.012071249
0.02170434 0.008890004 -0.021434603 0.018935023 0.003766849 0.004464793 0.005957569 0.0166022
0.0042764964 0.025264293 0.010979052 0.020334486 -0.0020612818 -0.021331288 0.0048084934 0.003787531
-0.002732101 0.02885752 0.007958805 -0.00033135153 -0.01188396 -0.0042564203 -0.007969019 0.026130475
-0.0059129875 0.0013062676 -0.00042896278 -0.0013677627 0.016455563 -0.007916914 0.005545354 0.014581752
-0.03406127 0.0011186991 0.021432959 0.015505052 0.031533834 0.0031432551 0.018084172 0.006926859
-0.013996277 -0.009535415 0.03464588 -0.005320403 -0.022902219 -0.034012616 0.011366427 -0.018745301
0.003188926 -0.0009635095 -0.0026661984 0.0154824555 0.0031820028 0.0420914 -0.01287035 -0.0122759845
0.006887624 0.021383196 0.025061581 0.03395541 -0.020582601 -0.002759806 -0.012656314 -0.017065434
0.005810654 -0.008943612 0.015668415 0.031542324 0.0110359695 -0.021709966 0.0052637006 -0.011203615
0.0007088146 -0.0073577696 -0.01462161 -0.007586643 0.022411512 0.016722614 -0.0014773959 -0.0012477697
-0.024495862 -0.021154797 0.017945262 -0.0037122895 -0.0047673695 -0.014159574 -0.0057929526 -0.006557007
-0.026722074 -0.0124199 0.02294955 -0.021572357 0.009441111 -0.00579481 -0.009064373 0.0037715926
-0.010201711 -0.0143204825 0.0069209523 -0.022015411 -0.0014029046 -0.011129834 -0.0062137023 0.009624833
-0.007712306 -0.012747242 0.006724532 -0.018338408 -0.02062488 -0.0018131033 0.008792849 -0.009792934
-0.025858838 -0.034254428 0.03909051 0.031813554 -0.015373568 -0.0012222384 -0.006720966 -0.046089925
-0.031089015 -0.016519982 0.00038180043 -0.0006207726 0.011917204 -0.0019728178 -0.0058390666 0.0013361821
0.014086294 0.02626745 0.011195433 0.025092408 -0.028881676 -0.0077565988 0.006114682 0.0048155743
0.024469463 0.021049414 -0.04040523 -0.015362048 0.03537276 -0.027963094 -0.011325705 -0.026917303
00000000: 8546 163d 53fd b43c 2e97 0d3d 9c9e b93b
00000010: 8812 233d bea0 0dbb fb13 303b 15eb fe3b
00000020: db91 03bd 5001 f1ba 71b0 bc3c 3190 e6bb
00000030: 77a3 2a3c 8fb2 063d 025e b43b 8c1a 8ebc
00000040: df7f a7bc 8284 01bd 2faf 8eba e201 0dbc
00000050: 8ebc a53c 813b 05bc 4afb 4b3c a775 193c
00000060: 1bdf d33c b433 2abb 1cec ba3c b10a 95bc
00000070: 6e0e 9c3c 7f4e 22bc c1b7 41bc 11d5 24bc
00000080: 7ce9 f6bc 1dfb 6ebc b5e6 14bd 0e3a 70b9
00000090: ca3a 2b3b 8dac 323c fde4 a83c ada1 d6bb
000000a0: c792 1f3d 9f94 393c f5a3 b0bc cb50 b9ba
000000b0: 982d 87bc 71dc a13c 40ad af3c 39b6 ac3c
000000c0: 3094 243d 1d1c 0dbd 5bb6 1a3d f1bb 36bd
000000d0: aca3 0f3c d40f f9bb fc28 42bc f567 f1bc
000000e0: 31b7 c03b 22fd 773c 8555 5ebc 3054 a7bc
000000f0: dbd8 b73b 3b79 ebbc 7afa 183d 1bae 943b
00000100: cc96 37bc 4c88 95bc 2cc6 0ebc 714d af3b
00000110: 3ab8 a2bb 56dc 72bc a71d cfba c4ed d83c
00000120: bcd2 bf3b fbdb 69bc 7a1a b6bc 9a31 6c3b
00000130: 9789 0abc 1e1d 8a3c 8cca 373b 73a6 dcb9
00000140: 0336 b0bb 3787 a13c a337 c5bb 379e 143c
00000150: 1d38 1f3d b485 80bc 0778 2ebc 83fe 053a
00000160: b4aa 833c 57a9 143d a449 84bc 1a72 053c
00000170: 4956 cf3b 1b02 32bb 58da 8bbb 2da2 963b
00000180: 6754 9b3c f305 b8bc f284 1abd 46e4 08bc
00000190: 83a4 92bb 3852 48bc b83b 7c3c 4cea 2f3c
000001a0: b179 ab3b d1f5 1dbd fb68 65bc 745b 063c
000001b0: 87ee b0bb dca6 5fbc 3052 4bbc 7dc6 453c
000001c0: 4dcd b13c 61a7 113c 9f97 afbc 9f1d 9b3c
000001d0: 3ddd 763b 664d 923b b637 c33b 5601 883c
000001e0: da21 8c3b 10f7 ce3c 7be1 333c 8294 a63c
000001f0: 9216 07bb f4be aebc 9190 9d3b 3a38 783b
00000200: 0c0d 33bb 9b66 ec3c a665 023c 40b9 adb9
00000210: f1b4 42bc 7179 8bbb 7d90 02bc 940f d63c
00000220: bcc1 c1bb 1137 ab3a 69e6 e0b9 8046 b3ba
00000230: d1cd 863c f2b5 01bc cdb5 b53b 4de8 6e3c
00000240: d583 0bbd 50a1 923a 2c94 af3c e708 7e3c
00000250: 9f29 013d 12ff 4d3b 4225 943c b4fa e23b
00000260: a450 65bc 6e3a 1cbc d7e8 0d3d c656 aebb
00000270: 6f9d bbbc d050 0bbd 403a 3a3c bf8f 99bc
00000280: 4dfd 503b 0794 7cba 63bb 2ebb 20aa 7d3c
00000290: 2689 503b 0868 2c3d 29de 52bc 3621 49bc
000002a0: 94b1 e13b d02b af3c f24d cd3c d414 0b3d
000002b0: d89c a8bc dddd 34bb 6e5c 4fbc cfcc 8bbc
000002c0: 4c67 be3b 3a88 12bc 0c5b 803c 8632 013d
000002d0: 36d0 343c 19d9 b1bc 1f7b ac3b 5e8f 37bc
000002e0: becf 393a 7219 f1bb 7a8f 6fbc 6099 f8bb
000002f0: 5998 b73c ddfd 883c 2ea5 c1ba 348c a3ba
00000300: 8cab c8bc d34c adbc f101 933c e249 73bb
00000310: 9837 9cbb 8ffd 67bc cfd2 bdbb 29dc d6bb
00000320: 40e8 dabc d67c 4bbc b200 bc3c 83b8 b0bc
00000330: e4ae 1a3c 64e2 bdbb bc82 14bc d32c 773b
00000340: 1425 27bc 75a0 6abc 28c9 e23b aa59 b4bc
00000350: abe1 b7ba e859 36bc 509c cbbb 7ab1 1d3c
00000360: 83b7 fcbb cfd9 50bc 7759 dc3b 6e3a 96bc
00000370: 82f5 a8bc a7a5 edba e20f 103c 8b72 20bc
00000380: ead5 d3bc 5f4e 0cbd 5f1d 203d ee4e 023d
00000390: 6be1 7bbc 8433 a0ba 8d3b dcbb cac8 3cbd
000003a0: 64ae febc ea54 87bc 632c c839 58bb 22ba
000003b0: 6040 433c 644a 01bb a455 bfbb d522 af3a
000003c0: 33ca 663c d62e d73c 0d6d 373c 988e cd3c
000003d0: 4499 ecbc 112b febb ac5d c83b f7cb 9d3b
000003e0: 2f74 c83c d26f ac3c f47f 25bd 19b1 7bbc
000003f0: 07e3 103d dc12 e5bc 738f 39bc ad81 dcbc

action_model._continuous_distribution.mu.bias f4 [2]
5.7973186e-05 -4.8498405e-06
00000000: 3c28 7338 d0bb a2b6
