results/test-3/Drive/checkpoint.pt (torch, 472098 bytes, 36 tensors)

network_body._body_endoder.seq_layers.0.weight f4 [128, 16]
0.29607308 0.060775552 -0.35097432 0.051226996 -0.43597355 0.13700335 0.4770877 0.25661573
0.29831356 -0.18023807 0.33571056 -0.2945231 -0.3656209 0.42037696 0.27974814 0.044287838
-0.09831276 -0.19417176 -0.24143222 -0.19363655 -0.05136478 -0.16592933 0.36622766 0.02002322
0.13327785 0.10789507 0.23321928 -0.41739413 0.12530172 -0.09891315 0.37665287 -0.13892893
-0.09129096 -0.34079522 0.1181133 -0.01971577 -0.09025972 0.07442957 -0.10189693 -0.106250726
-0.31180614 0.1579194 -0.008665749 0.020024704 -0.25403073 -0.2800184 0.12152652 -0.0042831306
0.24937819 -0.58992916 0.100975454 -0.15006603 -0.12625703 -0.061913338 0.046085004 -0.15018137
-0.3778659 0.13892847 -0.2543729 -0.42645246 0.63324773 -0.18444115 0.35894352 -0.14004944
-1.0581148 -0.046899848 0.66577554 -0.19088326 0.09436729 0.03194772 0.5837442 -0.1537003
0.24185555 -0.20302211 -0.009088781 -0.06608422 -0.11086372 0.15389004 0.13637148 -0.042538747
-0.04471151 0.12261648 -0.06470585 -0.54091436 0.21179843 0.22038648 -0.22081085 -0.054781895
0.20266238 -0.3291896 0.31423044 -0.09611552 0.2652274 0.025384653 -0.018040577 -0.2842427
0.21009219 -0.28971067 0.0858717 -0.20427358 0.3807318 0.16676244 -0.12908892 -0.12713365
0.08120004 -0.14068684 0.29344228 0.12584797 -0.10720931 -0.19143221 0.042657018 0.37850487
-0.097700804 -0.39038038 -0.15763928 -0.20023319 -0.2627085 -0.27873275 -0.18450716 -0.16950722
0.211689 0.3296316 0.13632163 -0.22257271 -0.16774707 -0.19306834 0.041156806 -0.22726859
-0.42458025 0.054782502 -0.17833947 -0.3238247 0.118450984 -0.23803203 0.063186854 0.004198427
0.16774902 -0.1151906 0.4221994 0.26662564 -0.4207143 -0.37497047 0.04057002 0.055458955
-0.040758684 0.09881212 0.038796153 0.021407695 0.045964282 0.091375224 -0.07695175 0.14628579
0.3859755 -0.34719607 0.78057253 -0.05619062 -0.017861988 -0.12674406 -0.09234509 -0.42624032
0.13083857 -0.13522369 -0.5369353 0.2520552 -0.28391388 -0.08273428 0.298349 0.08488066
-0.12499457 0.0646415 0.33797935 0.20053333 -0.29016697 0.025398932 0.30706224 0.50153863
-0.09066428 -0.21268845 0.035975005 0.007302269 0.088900305 0.05912214 0.063473 0.17926522
0.3754769 -0.2735352 0.28914735 0.0725159 0.096579544 0.004255139 -0.081929296 0.21738584
0.24484845 0.3180319 -0.16704601 -0.15393883 -0.053467184 -0.053195693 0.17713945 0.35304508
-0.09861721 -0.2288252 0.646783 0.08098774 0.33091208 0.16757049 0.009723118 0.049852632
0.46638232 -0.18433301 -0.13447592 0.085050635 0.20841523 -0.048169497 -0.029208003 0.1410708
-0.07913737 -0.65224326 0.08097871 -0.14701523 0.30914158 -0.25105345 -0.29949987 0.39621565
0.17182511 -0.00042583008 -0.09358772 0.073322795 0.025974197 -0.4655511 -0.08734296 0.16472504
0.0034586866 -0.15327205 -0.3009582 -0.2126243 0.22531593 -0.36325336 -0.23322256 0.208521
0.10941277 0.044301778 0.19212826 0.1310092 -0.2485945 0.41188738 0.09586401 -0.17154832
-0.0741115 0.15689386 0.25075388 -0.19263078 -0.65115404 0.18467793 -0.63561904 0.54006356
00000000: e496 973e c9ef 783d e8b2 b3be 66d3 513d
00000010: ed37 dfbe 9b4a 0c3e d744 f43e 2363 833e
00000020: 8ebc 983e 5490 38be 41e2 ab3e bbcb 96be
00000030: aa32 bbbe a63b d73e 263b 8f3e 2a67 353d
00000040: 3358 c9bd f6d4 46be 023a 77be a948 46be
00000050: e063 52bd 61e9 29be 3182 bb3e bc07 a43c
00000060: fd79 083e 17f8 dc3d 09d1 6e3e afb4 d5be
00000070: 184f 003e fa92 cabd a5d8 c03e 6343 0ebe
00000080: c1f6 babd b67c aebe 63e5 f13d f782 a1bc
00000090: 17da b8bd 886e 983d 56af d0bd fb99 d9bd
000000a0: 0ea5 9fbe a0b5 213e c9fa 0dbc d90a a43c
000000b0: 5110 82be 925e 8fbe e5e2 f83d 8159 8cbb
000000c0: ff5c 7f3e 9905 17bf 38cc ce3d e9aa 19be
000000d0: 8649 01be d798 7dbd a1c3 3c3d 25c9 19be
000000e0: a477 c1be 4443 0e3e 2a3d 82be fa57 dabe
000000f0: 861c 223f 24de 3cbe 72c7 b73e 1f69 0fbe
00000100: 4e70 87bf 0e1a 40bd 4470 2a3f e776 43be
00000110: a343 c13d 9ddb 023d 4370 153f 9d63 1dbe
00000120: fba8 773e 07e5 4fbe 1ce9 14bc 2a57 87bd
00000130: 850c e3bd 5a95 1d3e f7a4 0b3e 1c3d 2ebd
00000140: 6b23 37bd 591e fb3d 8084 84bd 5d79 0abf
00000150: b0e1 583e feac 613e 3d1c 62be fb62 60bd
00000160: ba86 4f3e 8a8b a8be d0e2 a03e 37d8 c4bd
00000170: e3cb 873e 7af3 cf3c d5c9 93bc 4288 91be
00000180: 6822 573e f554 94be 80dd af3d 182d 51be
00000190: 47ef c23e c6c3 2a3e e32f 04be 532f 02be
000001a0: 354c a63d 3610 10be 113e 963e 4ade 003e
000001b0: 8e90 dbbd ce06 44be 20b9 2e3d 64cb c13e
000001c0: 5c17 c8bd f0df c7be 316c 21be ee09 4dbe
000001d0: ba81 86be 0fb6 8ebe 72ef 3cbe 4d93 2dbe
000001e0: 00c5 583e 79c5 a83e e697 0b3e 1aea 63be
000001f0: e3c5 2bbe b5b3 45be 0a94 283d 19b9 68be
00000200: 9562 d9be 9e63 603d 9f9e 36be 5acc a5be
00000210: 6e96 f23d abbe 73be 1c68 813d f592 893b
00000220: 66c6 2b3e 0de9 ebbd 852a d83e 2883 883e
00000230: dd67 d7be 21fc bfbe c02c 263d ee28 633d
00000240: 94f2 26bd 025e ca3d b7e8 1e3d 315f af3c
00000250: 0b45 3c3d ef22 bb3d e198 9dbd f1cb 153e
00000260: 959e c53e afc3 b1be 9ad3 473f 2328 66bd
00000270: 4e53 92bc 32c9 01be 6c1f bdbd 2c3c dabe
00000280: 8cfa 053e 1478 0abe 9874 09bf 610d 813e
00000290: 295d 91be 9770 a9bd 33c1 983e e9d5 ad3d
000002a0: 27fd ffbd c362 843d a10b ad3e 9c58 4d3e
000002b0: c490 94be 6c11 d03c 4337 9d3e d664 003f
000002c0: 32ae b9bd 00cb 59be 875a 133d df47 ef3b
000002d0: 5d11 b63d 0f2a 723d 22fe 813d 4d91 373e
000002e0: 823e c03e ce0c 8cbe 1f0b 943e 3783 943d
000002f0: 7fcb c53d b16e 8b3b 8cca a7bd 659a 5e3e
00000300: 8db9 7a3e 14d5 a23e 1c0e 2bbe 24a2 1dbe
00000310: 6800 5bbd bae3 59bd 0b64 353e 53c2 b43e
00000320: d2f7 c9bd 2751 6abe 9293 253f e6dc a53d
00000330: 4f6d a93e 9997 2b3e b64d 1f3c 4632 4c3d
00000340: aac9 ee3e cbc1 3cbe 0eb4 09be 072f ae3d
00000350: cd6a 553e 614d 45bd 9f45 efbc dd74 103e
00000360: c612 a2bd 6af9 26bf 2ad8 a53d 298b 16be
00000370: ce47 9e3e 148a 80be 0c58 99be c7dc ca3e
00000380: ecf2 2f3e f241 dfb9 ebaa bfbd 432a 963d
00000390: d7c7 d43c b75c eebe dee0 b2bd aead 283e
000003a0: 22ab 623b 59f3 1cbe 3117 9abe 2fba 59be
000003b0: 38b9 663e 58fc b9be e5d1 6ebe 8786 553e
000003c0: cd13 e03d c875 353d 45bd 443e 4727 063e
000003d0: 8e8f 7ebe e7e2 d23e 5a54 c43d 5daa 2fbe
000003e0: c5c7 97bd c9a8 203e d062 803e 0141 45be
000003f0: 08b2 26bf 361c 3d3e eeb7 22bf 9b41 0a3f

network_body._body_endoder.seq_layers.0.bias f4 [128]
-0.0031022555 -0.012327926 0.0041983025 0.0019606694 -0.0043375464 -0.0030755727 0.007852494 -0.006797763
-0.004827931 0.0053368667 0.008158696 -0.0071630827 -0.0025813952 0.0051722433 0.0037509582 -0.004178689
-0.0070577753 -0.0075938706 0.006505656 -0.010895244 -0.0039946744 -0.006345165 -0.002745034 -0.0021423034
-0.011328811 -0.0012521425 -0.0008426628 0.0042268005 -0.004880024 0.0069974745 -0.010864324 0.00066103274
3.8454273e-05 -0.0044592274 0.004041217 -0.0016695316 0.0007425175 -0.005034998 0.00078240485 0.003205968
-0.0062133144 0.011351593 -0.012862374 -0.003587525 0.0016827295 -0.007216712 0.0017452784 -0.002197523
-0.002756803 0.0053271637 -0.00030173056 -0.004009611 -0.0013149676 0.0009852751 0.00201312 0.0006092912
-0.00840548 0.0019429248 -0.0030348538 -0.0006969335 -0.00045200324 -0.009151481 0.0057881703 0.0015062996
0.0038896045 -0.0043586143 0.0014804044 -0.00924872 -0.007043117 0.0045150733 -0.0030225632 -0.00632228
-0.005989348 -0.003907465 -0.0014273773 -0.002228422 0.005715515 0.005335051 0.000761247 -6.303053e-05
-0.008951407 -0.003495541 0.0023284014 -0.0032052526 -0.00396917 -0.0032290139 0.0019205401 -0.01001083
-0.005189253 0.0028520697 0.0037195303 -0.005363827 -0.0022014722 0.0006911015 -0.001967324 0.005893957
0.0005132662 -0.0062856753 -0.0034967142 -0.0021711013 -0.0064839325 -0.0063628154 -0.005672898 -0.0046509705
0.00031094535 0.0002027451 0.0011379967 -0.00039494858 -0.001499779 0.0019658313 -0.0075333817 0.00240657
0.0041602035 0.004549942 0.0060086777 -0.010810346 0.001995395 0.007012074 0.0026094278 0.0023743901
0.006825775 0.014730875 -0.002465582 -0.0026523557 -0.0031685964 0.0074261846 -0.0008760919 -0.003256353
00000000: 364f 4bbb 12fb 49bc ea91 893b 937e 003b
00000010: fa21 8ebb 8c8f 49bb bfa7 003c c5bf debb
00000020: 9f33 9ebb e2e0 ae3b 0dac 053c 4bb8 eabb
00000030: a02c 29bb ec7b a93b a3d2 753b 62ed 88bb
00000040: e944 e7bb 01d6 f8bb 662d d53b f781 32bc
00000050: c2e5 82bb 1aeb cfbb 07e6 33bb e365 0cbb
00000060: 7a9c 39bc ee1e a4ba 25e6 5cba f980 8a3b
00000070: 9ce8 9fbb 124b e53b 4700 32bc 2849 2d3a
00000080: f649 2138 b61e 92bb 2f6c 843b 2fd4 daba
00000090: 82a5 423a a0fc a4bb 4d1a 4d3a 381b 523b
000000a0: 0f99 cbbb 08fc 393c b5bc 52bc af1c 6bbb
000000b0: 088f dc3a 2b7a ecbb d3c1 e43a 5104 10bb
000000c0: 7bab 34bb 7d8f ae3b 9731 9eb9 0e63 83bb
000000d0: fe5a acba 5924 813a 8dee 033b d7b8 1f3a
000000e0: 23b7 09bc bda9 fe3a 66e4 46bb 6ab2 36ba
000000f0: d9fa ecb9 18f0 15bc b1aa bd3b 076f c53a
00000100: bce8 7e3b b5d2 8ebb 210a c23a f187 17bc
00000110: f3c9 e6bb 2ef3 933b 3216 46bb 212b cfbb
00000120: 4b42 c4bb 310a 80bb d616 bbba b80a 12bb
00000130: 3749 bb3b a7d1 ae3b 6c8e 473a 422f 84b8
00000140: eca8 12bc 7215 65bb 1898 183b 370f 52bb
00000150: d00f 82bb dd9d 53bb a2ba fb3a 7704 24bc
00000160: 9c0a aabb cae9 3a3b 5dc3 733b 0bc3 afbb
00000170: 9346 10bb 092b 353a 38ee 00bb 1822 c13b
00000180: b68c 063a 11f8 cdbb 2129 65bb 0949 0ebb
00000190: 2b77 d4bb 2a7f d0bb b8e3 b9bb 2b67 98bb
000001a0: 6106 a339 f997 5439 d528 953a 1a11 cfb9
000001b0: 3c94 c4ba 2dd5 003b 96da f6bb 8bb7 1d3b
000001c0: 5152 883b ae17 953b 71e4 c43b e11d 31bc
000001d0: 2cc5 023b 8ac5 e53b ef02 2b3b a89b 1b3b
000001e0: c0aa df3b c559 713c 9a95 21bb 25d3 2dbb
000001f0: 3aa8 4fbb 5a57 f33b 88a9 65ba 8a68 55bb

network_body._body_endoder.seq_layers.2.weight f4 [128, 128]
-0.024021203 -0.0075572333 0.09344457 -0.038449224 0.16199292 0.068572916 -0.0005205442 -0.007962979
-0.12440211 -0.21215528 -0.001993744 0.060463525 0.003079104 0.04966467 0.1935859 0.08320508
0.10593197 -0.07571241 0.029235559 -0.07939099 0.025605725 -0.03557507 -0.13037491 -0.10878562
0.0389358 0.1716647 0.038939953 -0.026482405 -0.06990342 -0.17541203 0.19977348 0.16189112
0.15676299 0.067941554 0.010019585 0.0109671885 0.047749154 0.042853534 -0.05451729 -0.26825467
0.02896197 -0.023150094 -0.00012390624 -0.022623014 0.024611514 0.103683345 0.026195642 0.06923429
0.07174587 -0.143478 0.06688969 -0.052115828 0.12508811 0.1213744 -0.14722283 -0.024791041
-0.18233348 0.013554962 -0.033303905 0.1613676 0.08439033 0.12131744 0.05756517 -0.032130193
-0.027989235 -0.0012728093 0.026905537 0.07165452 -0.0909474 -0.052314408 0.098741874 -0.054009896
0.11766262 -0.02086293 0.055095106 -0.0258494 -0.0025463193 0.04237121 0.031868283 -0.04677167
-0.14442523 -0.11771326 0.113310464 -0.09098105 0.03629107 -0.0017132034 -0.060821533 -0.07032711
-0.07231218 -0.029195463 -0.0020472712 0.03287763 0.053963684 -0.020395087 0.0930361 0.056282498
-0.01636694 -0.042381305 0.058603514 0.108334124 0.06291081 0.014315314 -0.052427478 0.08812766
0.0727314 0.040529493 -0.07737015 0.021248966 -0.085306935 -0.02689393 0.09813941 0.056466576
0.015967643 -0.00011167054 -0.050364286 0.014912275 0.03970395 0.1233606 0.008993948 -0.10549312
-0.062706865 0.095824026 -0.04452447 0.034606528 -0.118569516 -0.0050346972 0.09389342 0.14846933
-0.07380396 -0.13195632 0.0565483 -0.050892558 -0.11429316 -0.053464893 0.0867436 0.07193943
-0.07313785 0.06467234 -0.027278641 0.061398 0.033484545 -0.13186044 -0.0711518 0.09831695
0.081311435 0.111282215 0.006851364 -0.06604395 0.04827267 0.12998301 -0.13850145 0.030752096
0.0018670155 -0.092055224 0.002209195 -0.062191397 -0.13057281 0.014995985 0.031567987 0.062721185
-0.020346614 0.013064498 0.004284498 0.029349279 -0.16572714 0.16373555 0.13397495 -0.06357759
0.010349766 -0.02015712 0.15613748 -0.12820922 -0.05168497 0.1536013 -0.13662916 0.07345984
0.015188479 -0.17668405 -0.116619155 -0.093341574 0.048642717 -0.07853183 -0.046083283 0.004646938
-0.010722729 0.036038514 0.21361318 0.07865346 -0.15847504 0.090262115 -0.059945807 0.020870058
0.099149205 0.008535564 0.007853891 -0.025377916 0.102201335 -0.14703518 0.00033789178 -0.094192185
-0.02284972 0.03830988 -0.022976857 0.022831893 0.04361934 -0.060951963 -0.065609224 0.002592215
0.05835509 -0.10422108 -0.034735017 -0.037370775 0.15966134 0.056830384 0.1410833 0.16135624
-0.17014235 -0.0017873566 -0.005702461 0.016930284 -0.031904534 -0.022879636 -0.25337523 0.013179577
0.005533391 0.07163432 -0.102865405 -0.020478614 -0.040044617 -0.017995825 -0.047254927 -0.045641173
0.077544585 0.06038785 0.13192888 0.04152842 0.078773245 -0.041441645 -0.15293366 -0.17747556
-0.11748926 0.18109599 0.1829352 0.1542567 0.15441047 -0.03459358 -0.025450729 0.15751962
0.12203916 -0.06533554 0.094568655 -0.0032996284 0.027902735 0.032097638 0.10829219 0.06708273
00000000: 1dc8 c4bc aba2 f7bb de5f bf3d ef7c 1dbd
00000010: 79e1 253e f56f 8c3d 2175 08ba 2877 02bc
00000020: 89c6 febd 3c3f 59be 79a9 02bb 9aa8 773d
00000030: cbca 493b 2e6d 4b3d 623b 463e 6d67 aa3d
00000040: dcf2 d83d 1c0f 9bbd 697f ef3c be97 a2bd
00000050: 19c3 d13c 2ab7 11bd 0081 05be ffca debd
00000060: 257b 1f3d dfc8 2f3e 807f 1f3d a1f1 d8bc
00000070: 8629 8fbd 369f 33be 6b91 4c3e c9c6 253e
00000080: 7a86 203e f124 8b3d 2f29 243c b9af 333c
00000090: 9e94 433d 3087 2f3d 864d 5fbd ad58 89be
000000a0: a741 ed3c 44a5 bdbc d4ec 01b9 e653 b9bc
000000b0: 169e c93c ef57 d43d 3e98 d63c b5ca 8d3d
000000c0: 80ef 923d e6eb 12be 76fd 883d 6877 55bd
000000d0: 1917 003e 2493 f83d 95c1 16be 9516 cbbc
000000e0: a1b5 3abe a215 5e3c ad69 08bd 8c3d 253e
000000f0: d6d4 ac3d 4775 f83d 75c9 6b3d f39a 03bd
00000100: ae49 e5bc 65d4 a6ba 0069 dc3c 9bbf 923d
00000110: a142 babd a247 56bd 2e39 ca3d 7b39 5dbd
00000120: 1af9 f03d bce8 aabc 68ab 613d 1fc2 d3bc
00000130: 26e0 26bb 6f8d 2d3d 5188 023d a793 3fbd
00000140: 35e4 13be a613 f1bd 510f e83d 4654 babd
00000150: f2a5 143d 918d e0ba 0020 79bd a907 90bd
00000160: 6918 94bd 532b efbc 832b 06bb b2aa 063d
00000170: 0609 5d3d 9913 a7bc b689 be3d 7a88 663d
00000180: f613 86bc 0598 2dbd 3d0a 703d 48de dd3d
00000190: 62d7 803d c78a 6a3c 32be 56bd 467c b43d
000001a0: 33f4 943d 4102 263d 3e74 9ebd 5012 ae3c
000001b0: 67b5 aebd a950 dcbc 51fd c83d 7f49 673d
000001c0: 93ce 823c aa30 eab8 c84a 4ebd 9d52 743c
000001d0: 9ca0 223d 7ba4 fc3d 5a5b 133c c70c d8bd
000001e0: 756c 80bd 633f c43d 4a5f 36bd 93bf 0d3d
000001f0: 93d4 f2bd 1afa a4bb 324b c03d 5808 183e
00000200: 8826 97bd 8f1f 07be 319f 673d b774 50bd
00000210: 8812 eabd 01fe 5abd a1a6 b13d fb54 933d
00000220: 4cc9 95bd ef72 843d 7577 dfbc 787c 7b3d
00000230: 1727 093d 6c06 07be 09b8 91bd 665a c93d
00000240: 9c86 a63d eee7 e33d 6881 e03b 0d42 87bd
00000250: 90b9 453d 441a 053e 53d3 0dbe d2eb fb3c
00000260: a5b6 f43a 7387 bcbd 24c8 103b 68bc 7ebd
00000270: e1b4 05be b8b1 753c 6f4d 013d f773 803d
00000280: f1ad a6bc 7a0c 563c f964 8c3b e66d f03c
00000290: 60b4 29be 4baa 273e bb30 093e f834 82bd
000002a0: 1192 293c 8b20 a5bc 81e2 1f3e 4749 03be
000002b0: 9eb3 53bd a949 1d3e 84e8 0bbe 1d72 963d
000002c0: 19d9 783c aaec 34be 06d6 eebd de29 bfbd
000002d0: 963d 473d 4cd5 a0bd d3c1 3cbd 5745 983b
000002e0: 63ae 2fbc 1f9d 133d 6abd 5a3e 1115 a13d
000002f0: 4847 22be 58db b83d bc89 75bd aff7 aa3c
00000300: bd0e cb3d c0d8 0b3c 9bad 003c 59e5 cfbc
00000310: ef4e d13d 6490 16be 1127 b139 d5e7 c0bd
00000320: 562f bbbc d2ea 1c3d f639 bcbc f309 bb3c
00000330: 31aa 323d c4a8 79bd 215e 86bd 27e2 293b
00000340: bf05 6f3d dd71 d5bd 4e46 0ebd 1912 19bd
00000350: 437e 233e fac6 683d 2478 103e 923a 253e
00000360: cc39 2ebe bc45 eaba b6db babb 61b1 8a3c
00000370: 54ae 02bd 136e bbbc 66ba 81be 27ef 573c
00000380: 7351 b53b 04b5 923d 19ab d2bd c4c2 a7bc
00000390: d305 24bd fb6b 93bc 628e 41bd 3df2 3abd
000003a0: b2cf 9e3d 4059 773d 5d18 073e b419 2a3d
000003b0: de53 a13d b7be 29bd a49a 1cbe 27bc 35be
000003c0: 369e f0bd 3a71 393e 5d53 3b3e 78f5 1d3e
000003d0: c71d 1e3e ffb1 0dbd 0c7e d0bc d34c 213e
000003e0: abef f93d a4ce 85bd 36ad c13d 943e 58bb
000003f0: 4794 e43c d078 033d 4cc8 dd3d ac62 893d

network_body._body_endoder.seq_layers.2.bias f4 [128]
0.0016105517 -0.0035170806 0.0052835695 -0.008060579 0.0009362111 -0.0015846842 -0.0005968087 -0.006110456
-0.0062942225 0.004573286 0.0021481223 -0.00032292938 -0.005107483 0.004348718 -0.012584778 -0.008573446
-0.0006119716 -0.00972742 0.0037162388 -0.006977265 0.0044718804 -0.0013673704 0.004113846 -0.00084771897
0.0024575468 0.0026377502 -0.0013617313 -0.00104204 0.0055187675 0.0040436015 -0.0039168587 0.0042259432
0.002301736 -0.009456346 -0.007267474 0.0030347842 -0.0026508947 0.005474825 -0.00051757775 -0.004237439
-0.008353444 -0.009333679 -0.004410144 0.0008604408 0.0074343816 -0.0051863757 -0.0024991047 -0.0053523956
-0.0025633252 0.0042994865 -0.0009574178 -0.0026301653 0.006616295 0.0045469925 0.003099024 0.0071737557
0.008130129 0.00976106 -0.0058490774 0.0013849374 -0.012910246 0.0007123262 0.0004797831 0.00028763217
-0.006535809 0.0018081391 -0.005631801 -0.003200103 0.004202375 0.0028876448 -0.009729203 0.00026671344
-0.0049004 0.0007578309 0.0052086962 0.0013483823 0.0055812513 0.0024062404 -0.0010517597 0.006511959
0.0018564423 -0.00802148 0.0067635993 -0.0043685026 0.0009805621 0.0020471208 -0.0012386937 0.00061568647
-0.004036099 0.00686829 -0.0050767255 -0.009759922 -0.004585606 -0.0036566716 -0.0051244185 -0.0008007575
-0.0022649192 -0.003754369 0.0013187367 0.006146654 -0.004656952 -0.0048330645 0.0027871234 0.0032447071
0.0027356774 -0.009101888 0.003918937 -0.0039130123 0.0009982272 -0.000715243 -0.0065760533 0.0036342735
0.004385441 0.0032390046 0.0102651 -0.001940132 -0.0069250735 -0.007887757 0.00018059008 0.004158207
-0.0038122616 0.002418334 0.0024287838 -0.0066123786 -0.0018741034 0.00050637283 -0.004985305 0.0036052244
00000000: 2619 d33a d27e 66bb cb21 ad3b 8510 04bc
00000010: 106c 753a 2eb5 cfba 2773 1cba 383a c8bb
00000020: c43f cebb 81db 953b 83c7 0c3b d94e a9b9
00000030: ac5c a7bb b17f 8e3b 6230 4ebc a477 0cbc
00000040: b86c 20ba c25f 1fbc 248c 733b 8aa1 e4bb
00000050: da88 923b 5639 b3ba 71cd 863b 7539 5eba
00000060: cb0e 213b 1bde 2c3b 1f7c b2ba 0f95 88ba
00000070: c7d6 b43b 3080 843b fe58 80bb c879 8a3b
00000080: b9d8 163b caee 1abc fe23 eebb 3be3 463b
00000090: a2ba 2dbb 2966 b33b 0eae 07ba 37da 8abb
000000a0: e2dc 08bc 4aec 18bc f882 90bb 348f 613a
000000b0: 1d9c f33b 79f2 a9bb 05c8 23bb 2663 afbb
000000c0: 76fd 27bb b5e2 8c3b 39fb 7aba da5e 2cbb
000000d0: 81cd d83b f0fe 943b ff18 4b3b d311 eb3b
000000e0: 3c34 053c daec 1f3c 9ea9 bfbb ca86 b53a
000000f0: 7f85 53bc 67bb 3a3a 668b fb39 56cd 9639
00000100: 572a d6bb 15ff ec3a f98a b8bb d2b8 51bb
00000110: 14b4 893b a43e 3d3b 3c67 1fbc acd5 8b39
00000120: 8993 a0bb 2ca9 463a b6ad aa3b 34bc b03a
00000130: eee2 b63b 04b2 1d3b 33db 89ba 4562 d53b
00000140: de53 f33a 876c 03bc 2fa1 dd3b a825 8fbb
00000150: 3486 803a fd28 063b aa5b a2ba 0566 213a
00000160: 4141 84bb 640f e13b a95a a6bb 14e8 1fbc
00000170: da42 96bb c5a4 6fbb bdea a7bb ede9 51ba
00000180: 0a6f 14bb dc0b 76bb 76d9 ac3a df69 c93b
00000190: 5899 98bb af5e 9ebb 2ca8 363b 27a5 543b
000001a0: 0d49 333b 1620 15bc 6d6a 803b ba38 80bb
000001b0: f2d6 823a 257f 3bba ef7b d7bb fe2c 6e3b
000001c0: bfb3 8f3b 7b45 543b f32e 283c 074c feba
000001d0: baeb e2bb a73b 01bc c85c 3d39 9241 883b
000001e0: 23d7 79bb e97c 1e3b 3b2c 1f3b a7ac d8bb
000001f0: 7aa4 f5ba 1bbe 043a c55b a3bb a145 6c3b

action_model._continuous_distribution.log_sigma f4 [1, 2]
0.002969228 0.0017504847
00000000: 6197 423b 8570 e53a

action_model._continuous_distribution.mu.weight f4 [2, 128]
0.01576447 -0.012504789 -0.0046602543 0.0006606061 0.016565297 0.030397354 -0.0027274906 -0.0025826115
-0.027782893 0.012687244 -0.055104088 0.032029 -0.02110071 0.020790473 0.0010651833 -0.032593165
-0.018919233 -0.0039024362 0.009607692 -0.0006957176 -0.0062442985 0.023328124 -0.010446899 -0.02114959
0.00851103 -0.016527338 -0.010102148 -0.0034306638 0.01779791 -0.0044454657 -0.0154634705 0.022361103
0.00412518 0.0028262679 0.0014720545 0.0025379944 0.0011591533 0.005681712 0.0026543348 -0.018600099
0.002498164 -0.0017705683 -0.014717427 -6.166435e-05 0.028407024 -0.015210665 0.007922427 0.0004790972
-0.028547592 0.01789175 0.029385613 -0.007030941 -0.0011057281 0.012590043 0.0014701887 0.022616126
-0.0004648414 -0.0004844119 -0.023319213 -0.027385531 -0.00093160354 0.0052863103 -0.03994249 0.02061738
-0.037949104 0.0031544666 -0.02663589 -0.037377223 0.02705371 0.0019841518 0.00029414866 0.030537736
-0.008612395 0.023447622 0.028764714 0.015606908 0.022860788 -0.0095663965 -0.024328977 -0.0044769007
0.022364242 -0.006939691 0.0130895935 -0.0028869924 0.024245046 0.010602085 0.02336159 0.015122459
0.008123967 0.015710348 -0.024408221 -0.01719597 -0.0022441011 -0.010563665 -0.019097844 0.011228889
-0.002120408 -0.00034469392 -0.019171305 -0.0010092654 0.0054354635 -0.0029409772 0.0067398846 0.016006703
0.015372958 -0.013025982 -0.013629762 -0.020364676 0.0015411826 -0.008884609 0.0024853018 0.01943225
-0.016834756 0.010564786 -0.013026733 0.004435787 -0.001360431 0.00090322667 -0.017726611 -0.025922196
-0.013836342 0.014300536 0.016446192 0.010201545 0.0053462717 0.00047920886 -0.029432118 0.0125223715
0.0010618167 -0.024757136 0.020610603 -0.0006943776 -0.019926982 0.0021558332 0.0062664705 0.0005352474
-0.03257236 0.016005337 0.0039978395 0.0016788978 -0.011070058 0.012307975 -0.015162935 -0.021829706
0.0105194105 0.0019173493 0.012073759 -0.007981331 0.037710585 -0.015110114 0.017452016 0.0151216155
0.0072672204 0.008142862 0.022715995 -0.039170757 -0.014950004 0.016827118 0.0060868682 0.03134926
0.006173007 -0.00026817116 -0.015843447 0.022404494 -0.020058436 0.014430712 -0.0027305856 -0.016377231
0.0045415047 -0.0010774108 -0.0025651725 -0.025668273 -0.021734176 -0.005926506 -0.0065370384 -0.019848712
0.028024953 -0.02836036 -0.004254814 0.0135263065 0.014519527 0.014473705 -0.00010527426 0.004711455
0.035047308 0.0054184305 -0.020071983 0.014557793 -0.007554379 -0.012282457 -0.004359727 -0.029944427
0.0045496244 -0.006572684 0.001306522 -0.044066507 0.017590033 0.0036194983 -0.012806047 0.0057136193
0.006568206 -0.0018720233 -0.011064893 0.01822963 0.031619117 -0.03522792 0.0004109214 0.018416848
0.017986977 0.0028375217 -0.0293779 0.0093441345 -0.03356774 0.0177431 0.019532118 0.0025835747
-0.042400558 0.011556836 0.0053667915 0.028297931 -0.0050686756 -0.00083265506 -0.000744661 -0.019610727
-0.017809696 -0.00945189 0.010911611 0.005975409 -0.02989954 0.007637997 0.018360637 0.044685133
0.013868185 -0.0026930757 0.014816264 -0.0044251997 -0.025085153 0.01005858 -0.0027420577 0.00848747
0.028072601 0.0011923062 0.012400497 -0.012399338 0.0037240628 -0.0018106712 0.018991064 0.021842152
-0.0021193759 -0.060117327 0.012689373 -0.021316515 0.0001880982 0.019853499 -0.013639514 0.010860458
00000000: 7d24 813c e3e0 4cbc 0cb5 98bb 862c 2d3a
00000010: f2b3 873c df03 f93c b3bf 32bb 0841 29bb
00000020: f398 e3bc 29de 4f3c d3b4 61bd d730 033d
00000030: 65db acbc c850 aa3c 9f9d 8b3a 6980 05bd
00000040: 82fc 9abc 04c0 7fbb 9569 1d3c d160 36ba
00000050: f99c ccbb 9f1a bf3c 7829 2bbc e841 adbc
00000060: d971 0b3c 5764 87bc 7b83 25bc fdd4 60bb
00000070: eccc 913c 45ab 91bb 7f5a 7dbc a22e b73c
00000080: 852c 873b e838 393b f4f1 c03a 7b54 263b
00000090: bbee 973a a82d ba3b 59f4 2d3b 3c5f 98bc
000000a0: 3db8 233b 6a12 e8ba 5d21 71bc cc51 81b8
000000b0: d9b5 e83c 2736 79bc 11cd 013c 562f fb39
000000c0: a4dc e9bc b891 923c 19ba f03c cf63 e6bb
000000d0: 14ee 90ba 7846 4e3c 59b3 c03a 7445 b93c
000000e0: f5b5 f3b9 aaf8 fdb9 ef07 bfbc 9f57 e0bc
000000f0: db36 74ba c938 ad3b bd9a 23bd c8e5 a83c
00000100: 8570 1bbd 2bbb 4e3b 8333 dabc dc18 19bd
00000110: be9f dd3c 8b08 023b f737 9a39 462a fa3c
00000120: 011b 0dbc 3a15 c03c faa3 eb3c 1eb4 7f3c
00000130: 8c46 bb3c 60bc 1cbc 904d c7bc f7b2 92bb
00000140: 3735 b73c 5966 e3bb bc75 563c b233 3dbb
00000150: 8c9d c63c 5eb4 2d3c ce60 bf3c 31c4 773c
00000160: 631a 053c fdb2 803c c0f3 c7bc 90de 8cbc
00000170: c511 13bb 3913 2dbc 1573 9cbc 60f9 373c
00000180: 8bf6 0abb 09b8 b4b9 240d 9dbc 5449 84ba
00000190: f91b b23b 69bd 40bb 40da dc3b 7d20 833c
000001a0: dcde 7b3c ee6a 55bc 5e4f 5fbc d2d3 a6bc
000001b0: 8201 ca3a c090 11bc 72e0 223b 6230 9f3c
000001c0: 0be9 89bc ed17 2d3c 146e 55bc 145a 913b
000001d0: 7d50 b2ba 84c6 6c3a 6637 91bc c95a d4bc
000001e0: d3b1 62bc cc4c 6a3c 2aba 863c 6224 273c
000001f0: c72f af3b 533e fb39 a01b f1bc a22a 4d3c
00000200: a82c 8b3a 7acf cabc 91d7 a83c e406 36ba
00000210: e93d a3bc e148 0d3b f756 cd3b d84f 0c3a
00000220: 986a 05bd a01d 833c 4f00 833b 760e dc3a
00000230: 305f 35bc 64a7 493c f56d 78bc 36d4 b2bc
00000240: 9b59 2c3c 914f fb3a 04d1 453c 21c4 02bc
00000250: 6a76 1a3d 6990 77bc 88f7 8e3c a7c0 773c
00000260: dd21 ee3b a369 053c e516 ba3c 8471 20bd
00000270: ddf0 74bc 06d9 893c 5a74 c73b 1568 003d
00000280: f046 ca3b 5399 8cb9 1eca 81bc a189 b73c
00000290: 9751 a4bc cb6e 6c3c a0f3 32bb 8b29 86bc
000002a0: e7d0 943b e837 8dba 741c 28bb 4546 d2bc
000002b0: df0b b2bc 2333 c2bb a734 d6bb c499 a2bc
000002c0: 9694 e53c fc53 e8bc f76b 8bbb 719d 5d3c
000002d0: 4fe3 6d3c 1e23 6d3c b0c6 dcb8 8d62 9a3b
000002e0: c48d 0f3d 178d b13b 006e a4bc cf83 6e3c
000002f0: b98a f7bb 5c3c 49bc 0adc 8ebb 044e f5bc
00000300: 0415 953b ab5f d7bb 9b3f ab3a 157f 34bd
00000310: f918 903c 1b35 6d3b 74d0 51bc 5039 bb3b
00000320: 1b3a d73b ae5e f5ba 8649 35bc 4e56 953c
00000330: 0c83 013d 274b 10bd f070 d739 eede 963c
00000340: 6d59 933c b7f5 393b eca9 f0bc 2418 193c
00000350: 547e 09bd fa59 913c d201 a03c 3151 293b
00000360: 35ac 2dbd e258 3d3c e9db af3b 10d1 e73c
00000370: 2217 a6bb 8946 5aba 5b35 43ba ada6 a0bc
00000380: a4e5 91bc 1adc 1abc 9dc6 323c 5dcd c33b
00000390: e1ef f4bc 2a48 fa3b 0c69 963c c207 373d
000003a0: 6237 633c 507e 30bb eabf 723c 4401 91bb
000003b0: 617f cdbc becc 243c 18b4 33bb 080f 0b3c
000003c0: 83f8 e53c 2847 9c3a 742b 4b3c 9826 4bbc
000003d0: 680f 743b 0b54 edba 2693 9b3c 50ee b23c
000003e0: 3ae5 0abb 963d 76bd 17e7 4f3c f99f aebc
000003f0: 3a3c 4539 cea3 a23c 4578 5fbc 10f0 313c

action_model._continuous_distribution.mu.bias f4 [2]
0.0034791704 0.004827549
00000000: cb02 643b 6b30 9e3b

exp_avg f4 [128, 16]
0.00090040086 0.00090040086 0.00090040086 0.00090040086 0.00090040086 0.00090040086 0.00090040086 0.00090040086
0.00090040086 0.00090040086 0.00090040086 0.00090040086 0.00090040086 0.00090040086 0.00090040086 -0.001694555
-0.0010995681 -0.0010995681 -0.0010995681 -0.0010995681 -0.0010995681 -0.0010995681 -0.0010995681 -0.0010995681
-0.0010995681 -0.0010995681 -0.0010995681 -0.0010995681 -0.0010995681 -0.0010995681 -0.0010995681 0.0011149227
-9.646736e-14 -9.9155764e-14 -1.0041093e-13 -1.0176202e-13 -1.0365865e-13 -1.0641778e-13 -1.1054494e-13 -1.1689892e-13
-1.2729711e-13 -5.871509e-13 -9.4077524e-14 -5.7265195e-13 -3.2199066e-14 -3.644126e-13 -5.964231e-13 1.9076244e-13
9.407632e-10 9.406282e-10 9.405821e-10 9.405519e-10 9.405327e-10 9.405207e-10 9.405141e-10 9.405117e-10
9.405129e-10 9.414667e-10 9.412727e-10 9.407436e-10 9.410017e-10 9.405365e-10 9.409731e-10 -5.9797484e-10
0.00662711 0.00662711 0.00662711 0.00662711 0.00662711 0.00662711 0.00662711 0.00662711
0.00662711 0.00662711 0.00662711 0.00662711 0.00662711 0.00662711 0.00662711 -0.016294582
3.0712166e-05 3.0712166e-05 3.0712166e-05 3.0712166e-05 3.0712166e-05 3.0712166e-05 3.0712166e-05 3.0712166e-05
3.0712166e-05 3.0712166e-05 3.0712166e-05 3.0712166e-05 3.0712166e-05 3.0712166e-05 3.071205e-05 -0.00078119955
-0.0015582894 -0.0015582894 -0.0015582894 -0.0015582894 -0.0015582894 -0.0015582894 -0.0015582894 -0.0015582894
-0.0015582894 -0.0015582894 -0.0015582894 -0.0015582894 -0.0015582894 -0.0015582894 -0.0015582894 -0.0062928223
5.527877e-14 2.9983462e-14 1.8632165e-14 1.33738405e-14 1.018393e-14 7.771604e-15 4.9641264e-15 -3.6754393e-16
-9.161508e-15 1.3994593e-14 8.2773144e-14 -5.5167185e-14 2.2717278e-14 -3.52529e-14 -3.216165e-14 -1.3232412e-14
1.739607e-11 1.741244e-11 1.7438762e-11 1.7495642e-11 1.7709252e-11 1.777911e-11 1.7950962e-11 1.8287757e-11
1.8258688e-11 1.8263944e-11 1.7411291e-11 1.8266064e-11 1.7406184e-11 1.8251359e-11 1.7491545e-11 -5.3440603e-12
0.0076010157 0.0076010157 0.0076010157 0.0076010157 0.0076010157 0.0076010157 0.0076010157 0.0076010157
0.0076010157 0.0076010157 0.0076010157 0.0076010157 0.0076010157 0.0076010157 0.0076010157 0.0025915855
-0.008018726 -0.008018726 -0.008018726 -0.008018726 -0.008018726 -0.008018726 -0.008018726 -0.008018726
-0.008018726 -0.008018726 -0.008018726 -0.008018726 -0.008018726 -0.008018726 -0.008018726 -0.004385693
0.0028461777 0.0028461777 0.0028461777 0.0028461777 0.0028461777 0.0028461781 0.0028461781 0.0028461781
0.0028461781 0.0028461781 0.0028461777 0.0028461781 0.0028461777 0.0028461781 0.0028461777 0.0048953933
0.016760442 0.016760442 0.016760442 0.016760442 0.016760442 0.016760442 0.016760442 0.016760442
0.016760442 0.016760442 0.016760442 0.016760442 0.016760442 0.016760442 0.016760442 0.011828836
0.000101836864 0.000101836864 0.000101836864 0.000101836864 0.000101836864 0.000101836864 0.000101836864 0.000101836864
0.000101836864 0.000101836864 0.000101836864 0.000101836864 0.000101836864 0.000101836864 0.000101836864 7.412423e-05
1.1735719e-13 1.1735133e-13 1.17357e-13 1.1735964e-13 1.1735887e-13 1.1735906e-13 1.1735968e-13 1.1736011e-13
1.1736026e-13 1.1732243e-13 1.1736436e-13 1.1734613e-13 1.1733213e-13 1.1736148e-13 1.1731389e-13 7.907814e-14
0.0074144495 0.0074144495 0.0074144495 0.0074144495 0.0074144495 0.0074144495 0.0074144495 0.0074144495
0.0074144495 0.0074144495 0.0074144495 0.0074144495 0.0074144495 0.0074144495 0.0074144495 0.0051051322
00000000: e108 6c3a e108 6c3a e108 6c3a e108 6c3a
00000010: e108 6c3a e108 6c3a e108 6c3a e108 6c3a
00000020: e108 6c3a e108 6c3a e108 6c3a e108 6c3a
00000030: e108 6c3a e108 6c3a e108 6c3a d51b deba
00000040: 621f 90ba 621f 90ba 621f 90ba 621f 90ba
00000050: 621f 90ba 621f 90ba 621f 90ba 621f 90ba
00000060: 621f 90ba 621f 90ba 621f 90ba 621f 90ba
00000070: 621f 90ba 621f 90ba 621f 90ba 9922 923a
00000080: a639 d9a9 6847 dfa9 f61a e2a9 d025 e5a9
00000090: 256b e9a9 aca1 efa9 d2ec f8a9 d29d 03aa
000000a0: e552 0faa ae44 25ab 00d8 d3a9 ec2f 21ab
000000b0: ff02 11a9 6425 cdaa d0e0 27ab 88c7 562a
000000c0: 2a4c 8130 6a47 8130 ca45 8130 ba44 8130
000000d0: 0d44 8130 a143 8130 6643 8130 5043 8130
000000e0: 5b43 8130 ea64 8130 175e 8130 794b 8130
000000f0: 8e54 8130 3044 8130 8c53 8130 bd5e 24b0
00000100: 3a28 d93b 3a28 d93b 3a28 d93b 3a28 d93b
00000110: 3a28 d93b 3a28 d93b 3a28 d93b 3a28 d93b
00000120: 3a28 d93b 3a28 d93b 3a28 d93b 3a28 d93b
00000130: 3a28 d93b 3a28 d93b 3a28 d93b 377c 85bc
00000140: f0d0 0038 f0d0 0038 f0d0 0038 f0d0 0038
00000150: f0d0 0038 f0d0 0038 f0d0 0038 f0d0 0038
00000160: f0d0 0038 f0d0 0038 f0d0 0038 f0d0 0038
00000170: f0d0 0038 f0d0 0038 d0d0 0038 6ac9 4cba
00000180: 843f ccba 843f ccba 843f ccba 843f ccba
00000190: 843f ccba 843f ccba 843f ccba 843f ccba
000001a0: 843f ccba 843f ccba 843f ccba 843f ccba
000001b0: 843f ccba 843f ccba 843f ccba 0534 cebb
000001c0: 15f4 7829 9408 0729 d9d2 a728 f4eb 7028
000001d0: 1675 3728 3300 0c28 fcd9 b227 e9df d3a5
000001e0: 000a 25a8 ab1a 7c28 7863 ba29 6f73 78a9
000001f0: 7a9e cc28 d4c3 1ea9 dcd7 10a9 bb5f 6ea8
00000200: 7804 992d 5429 992d 9a64 992d afe4 992d
00000210: b1c5 9b2d ff62 9c2d f9e5 9d2d 5edc a02d
00000220: e99a a02d bfa6 a02d be26 992d 85ab a02d
00000230: 3e1b 992d 688a a02d 75db 992d 0407 bcac
00000240: f111 f93b f111 f93b f111 f93b f111 f93b
00000250: f111 f93b f111 f93b f111 f93b f111 f93b
00000260: f111 f93b f111 f93b f111 f93b f111 f93b
00000270: f111 f93b f111 f93b f111 f93b 97d7 293b
00000280: f960 03bc f960 03bc f960 03bc f960 03bc
00000290: f960 03bc f960 03bc f960 03bc f960 03bc
000002a0: f960 03bc f960 03bc f960 03bc f960 03bc
000002b0: f960 03bc f960 03bc f960 03bc dcb5 8fbb
000002c0: f086 3a3b f086 3a3b f086 3a3b f086 3a3b
000002d0: f086 3a3b f286 3a3b f286 3a3b f286 3a3b
000002e0: f286 3a3b f286 3a3b f086 3a3b f286 3a3b
000002f0: f086 3a3b f286 3a3b f086 3a3b 8969 a03b
00000300: 324d 893c 324d 893c 324d 893c 324d 893c
00000310: 324d 893c 324d 893c 324d 893c 324d 893c
00000320: 324d 893c 324d 893c 324d 893c 324d 893c
00000330: 324d 893c 324d 893c 324d 893c bccd 413c
00000340: 4091 d538 4091 d538 4091 d538 4091 d538
00000350: 4091 d538 4091 d538 4091 d538 4091 d538
00000360: 4091 d538 4091 d538 4091 d538 4091 d538
00000370: 4091 d538 4091 d538 4091 d538 2573 9b38
00000380: e821 042a 3820 042a da21 042a 9d22 042a
00000390: 6422 042a 7222 042a a022 042a c022 042a
000003a0: cb22 042a e317 042a f923 042a b81e 042a
000003b0: af1a 042a 2523 042a 6d15 042a 7211 b229
000003c0: e9f4 f23b e9f4 f23b e9f4 f23b e9f4 f23b
000003d0: e9f4 f23b e9f4 f23b e9f4 f23b e9f4 f23b
000003e0: e9f4 f23b e9f4 f23b e9f4 f23b e9f4 f23b
000003f0: e9f4 f23b e9f4 f23b e9f4 f23b f448 a73b

exp_avg_sq f4 [128, 16]
9.613208e-05 9.411665e-05 9.020515e-05 8.6808075e-05 8.3699466e-05 8.525001e-05 8.706331e-05 8.66305e-05
8.523245e-05 9.630945e-05 8.729699e-05 8.742603e-05 7.610767e-05 8.534438e-05 8.48387e-05 1.9325937e-05
6.142975e-05 6.0002425e-05 5.925001e-05 5.9619662e-05 6.045449e-05 6.408476e-05 6.89127e-05 6.98209e-05
6.943273e-05 9.566945e-05 6.3850326e-05 9.114459e-05 7.809608e-05 7.1571325e-05 8.8809626e-05 2.1508946e-05
2.0366814e-08 1.7121208e-08 1.5818756e-08 1.5580593e-08 1.6257863e-08 1.7988086e-08 2.1233527e-08 2.7109301e-08
3.8602348e-08 1.6623057e-05 3.9871797e-08 1.4293682e-05 1.2181725e-05 9.3249275e-07 1.7165134e-05 8.6171585e-06
9.389809e-06 5.7709844e-06 4.6418477e-06 2.0590564e-06 8.6690613e-07 8.386162e-07 7.960947e-07 7.863941e-07
8.284703e-07 4.032015e-05 1.9023122e-05 3.1458836e-05 3.5114077e-05 2.0456182e-06 3.7848797e-05 4.7795984e-05
0.0032001976 0.0032553277 0.0033670145 0.003529369 0.0035884983 0.0036716997 0.0037769629 0.0038104015
0.0037744374 0.0037072396 0.0031713112 0.0037258433 0.0031553435 0.003697953 0.0032568092 0.0007351536
0.00024018533 0.0002299223 0.00021409789 0.00020118366 0.00019236203 0.00018804072 0.00018374674 0.00018071795
0.0001768286 0.00017206607 0.00024398386 0.00016444546 0.00018524042 0.00017027401 0.00020306103 2.9441759e-05
0.0014620392 0.0014285126 0.0013877966 0.001366859 0.0013267236 0.0013032393 0.0012782547 0.0012532453
0.0012322303 0.0013363879 0.0014261772 0.0012169088 0.0012042085 0.0011951952 0.0012670922 0.00023645052
5.6894127e-08 2.0590612e-08 1.0505255e-08 6.963278e-09 5.309353e-09 4.4781685e-09 4.173424e-09 4.2728225e-09
5.2809837e-09 4.5753984e-07 1.8632498e-07 1.821513e-07 1.6834547e-07 3.1212284e-08 3.3321035e-07 5.5728124e-05
3.8058154e-08 2.5925042e-08 2.2785766e-08 2.6553485e-08 7.245638e-08 1.8700331e-07 1.5904811e-06 2.6708437e-06
2.6781252e-06 1.1456071e-06 3.1465615e-07 2.1640838e-06 1.1728429e-07 1.389076e-06 5.43876e-07 5.3265976e-06
0.00093668036 0.0009303489 0.0009131719 0.00090673787 0.0008956627 0.0008927781 0.0008883624 0.00088309776
0.0008755554 0.0008991226 0.0009278708 0.00088007713 0.0008596959 0.0008628561 0.00087234133 0.00010965302
0.00026057404 0.0002587659 0.0002592746 0.00026779095 0.0002716204 0.00027263377 0.0002755319 0.0002744512
0.0002723414 0.00030566845 0.00026110583 0.00029449715 0.00026648724 0.00027336876 0.00028034 7.060892e-05
0.00052326435 0.00051374565 0.0004997894 0.0004939284 0.0004978999 0.00052410143 0.0005385697 0.0005412762
0.00053939654 0.00054709014 0.000521911 0.00053964707 0.00046573867 0.00053400546 0.00050062774 7.528344e-05
0.0025663709 0.0025401253 0.002494298 0.0024635112 0.0024401804 0.0024279451 0.0024115033 0.0023953177
0.0023817287 0.0025548532 0.0025291191 0.0024127949 0.0023518577 0.0023813092 0.002421822 0.00034330782
2.0234886e-05 1.99806e-05 1.8463448e-05 1.26272735e-05 8.65559e-06 7.765365e-06 5.5626174e-06 3.845092e-06
2.6404323e-06 1.3347527e-06 1.1425182e-05 4.441457e-06 7.754961e-06 2.304941e-06 1.37605375e-05 4.695854e-06
3.3902411e-10 3.1470934e-10 3.0959846e-10 1.2745766e-10 9.844284e-12 8.792616e-12 9.8524374e-12 1.223074e-11
6.8274817e-12 4.602687e-11 4.82912e-10 1.7564139e-12 1.3710479e-09 1.2599532e-12 1.1920883e-09 1.779747e-05
0.00044257884 0.00042617202 0.00039013472 0.0003614115 0.00032369938 0.0003090094 0.0002932799 0.0002776496
0.00026961192 0.00040141508 0.00033556897 0.00028456163 0.0001925749 0.00026370212 0.00019899997 0.00012034321
00000000: 849a c938 7e60 c538 852c bd38 bb0c b638
00000010: cf87 af38 40c8 b238 c295 b638 65ad b538
00000020: d3be b238 bef9 c938 3713 b738 7e58 b738
00000030: ff9b 9f38 eafa b238 6eeb b138 221e a237
00000040: d9d3 8038 1dab 7b38 3783 7838 2010 7a38
00000050: 8490 7d38 3e65 8638 3985 9038 cf6c 9238
00000060: 6a9c 9138 25a2 c838 62e7 8538 e124 bf38
00000070: 84c7 a338 9018 9638 4e3f ba38 1c6e b437
00000080: 19f3 ae32 ef11 9332 d0e1 8732 16d6 8532
00000090: 6ba7 8b32 3884 9a32 0565 b632 fcdd e832
000000a0: bbcb 2533 be71 8b37 813f 2b33 e6ce 6f37
000000b0: 1c60 4c37 6a50 7a35 d8fd 8f37 6a92 1037
000000c0: ec88 1d37 61a4 c136 2bc1 9b36 522e 0a36
000000d0: 56b5 6835 441d 6135 36b3 5535 9718 5335
000000e0: 0c64 5e35 6e1d 2938 d893 9f37 abf2 0338
000000f0: 7447 1338 7447 0936 d6bf 1e38 8c78 4838
00000100: 68ba 513b 5657 553b 21a9 5c3b fc4c 673b
00000110: 032d 6b3b e6a0 703b ec86 773b eeb7 793b
00000120: 8d5c 773b 29f5 723b c6d5 4f3b 472d 743b
00000130: e1c9 4e3b 5b59 723b 3170 553b 53b7 403a
00000140: 42da 7b39 4c17 7139 777f 6039 d4f4 5239
00000150: cab4 4939 cc2c 4539 24ac 4039 1b7f 3d39
00000160: 116b 3939 a26c 3439 ebd5 7f39 fe6e 2c39
00000170: 193d 4239 958b 3239 c8ec 5439 b2f9 f637
00000180: e5a1 bf3a ee3c bb3a bae6 b53a 2d28 b33a
00000190: 75e5 ad3a 74d1 aa3a 1c8b a73a ef43 a43a
000001a0: ca82 a13a bd29 af3a 91ee ba3a af80 9f3a
000001b0: 88d6 9d3a 19a8 9c3a 8f14 a63a b4ef 7739
000001c0: c15b 7433 3cdf b032 9a7a 3432 a441 ef31
000001d0: 906d b631 63de 9931 d365 8f31 25d0 9231
000001e0: 0674 b531 cca3 f534 9f10 4834 5e95 4334
000001f0: 73c2 3434 450e 0633 15e4 b234 9ebd 6938
00000200: 6275 2333 c5b1 de32 6eba c332 bb17 e432
00000210: 5199 9b33 14cb 4834 8478 d535 bf3c 3336
00000220: d7b9 3336 c3c2 9935 03ee a834 ad3a 1136
00000230: b8dd fb33 4a70 ba35 e0fe 1135 20bb b236
00000240: 8e8b 753a a8e2 733a ee61 6f3a 26b2 6d3a
00000250: e8ca 6a3a 5309 6a3a fee0 683a b07f 673a
00000260: 8785 653a 19b3 6b3a 5b3c 733a fab4 663a
00000270: 375d 613a 4b31 623a d6ad 643a 84f5 e538
00000280: a89d 8839 f9aa 8739 3fef 8739 4b66 8c39
00000290: 4668 8e39 49f0 8e39 4475 9039 37e4 8f39
000002a0: 0bc9 8e39 2042 a039 08e5 8839 bd66 9a39
000002b0: 50b7 8b39 ef52 8f39 99fa 9239 e013 9438
000002c0: ad2b 093a e3ac 063a 4d04 033a f97a 013a
000002d0: 7f85 023a da63 093a cd2e 0d3a 6ee4 0d3a
000002e0: 4a66 0d3a 996a 0f3a dbd0 083a 1a77 0d3a
000002f0: 632e f439 80fc 0b3a 8f3c 033a 7de1 9d38
00000300: 8f30 283b 3b78 263b 6077 233b dc72 213b
00000310: 6feb 1f3b 291e 1f3b 500a 1e3b c3fa 1c3b
00000320: c716 1c3b 536f 273b 94bf 253b fb1f 1e3b
00000330: a021 1a3b bd0f 1c3b 6eb7 1e3b fffd b339
00000340: 16be a937 039c a737 f4e1 9a37 bad9 5337
00000350: 7a37 1137 fd47 0237 85a6 ba36 1705 8136
00000360: 4832 3136 c125 b335 c8ae 3f37 d307 9536
00000370: 4e1b 0237 96ae 1a36 0fdd 6637 1491 9d36
00000380: 6761 ba2f 6703 ad2f 1c34 aa2f 2424 0c2f
00000390: b72e 2d2d 6cae 1a2d 6f53 2d2d 5b2a 572d
000003a0: 7d38 f02c a66d 4a2e e9bd 0430 7b31 f72b
000003b0: 766f bc30 9952 b12b e1d6 a330 c74b 9537
000003c0: ed09 e839 d76f df39 ff8a cc39 d57b bd39
000003d0: 32b6 a939 8a02 a239 5dc3 9939 8091 9139
000003e0: b35a 8d39 0575 d239 4eef af39 3731 9539
000003f0: eeed 4939 8041 8a39 a6aa 5039 c560 fc38

exp_avg f4 [128]
3.6016056e-05 -4.398272e-05 -4.6768674e-15 3.7615897e-11 0.00026508438 1.2284981e-06 -6.2331594e-05 5.8792498e-15
7.3391597e-13 0.00030404067 -0.00032074892 0.000113847105 0.0006704176 4.0734744e-06 3.5680894e-15 0.00029657804
3.79747e-06 -3.371335e-08 1.2002185e-07 4.5448363e-07 -2.1597377e-12 8.128013e-09 -6.169094e-05 -0.00080106885
5.9999038e-05 -0.00024405909 1.1019888e-05 0.00051634834 -3.4825823e-15 -1.6054788e-14 0.00024503568 -0.00026875112
0.0003761902 2.5449032e-07 6.8290497e-06 -1.01581705e-14 -9.0925874e-05 -0.00012930471 0.0008458637 0.00021182437
-0.0004930097 -2.9171023e-12 -0.00014745482 4.254244e-13 -0.0003303706 5.502512e-05 5.9054026e-14 7.399254e-06
0.00012235277 -0.0002797799 1.3155764e-14 -4.2960566e-11 3.9413927e-14 -4.9164752e-09 -7.1795585e-05 4.141551e-06
1.5746167e-05 -0.000366157 -0.00015407742 0.0002021111 0.00030341122 -2.7746626e-06 -0.0003123946 2.2063372e-05
1.16964e-05 0.000115550596 0.00069345324 -3.0254741e-05 0.00051994296 -0.00020647078 -0.0007925791 -0.0002223947
3.44947e-05 -1.0335777e-06 0.00022204472 -0.00030888838 0.00017904147 0.00029235208 -4.429312e-05 0.00047909273
-9.1254056e-05 -4.7826262e-08 0.00018602013 5.341669e-05 -1.4254545e-07 4.0977116e-06 1.4492968e-12 -3.3321122e-08
-2.3462144e-05 -6.5389e-05 -4.3369517e-05 0.00032071618 -0.00010893749 0.00023375987 -0.000311318 -6.73379e-06
-0.00016350993 -1.4658973e-10 4.42736e-11 -4.3271735e-05 -0.00030522962 0.000118501295 5.779167e-10 -0.00024060396
-7.3006696e-08 -2.5024975e-14 5.3228673e-06 -2.038712e-05 2.6710627e-13 0.001148459 8.515229e-11 -0.00031468022
0.00096275733 0.00019568922 0.00010278194 1.2672823e-15 3.2617265e-08 -3.1502689e-12 -7.243898e-09 0.0011574873
7.350504e-15 -0.000465777 -0.0001498559 0.00049190747 5.126049e-05 -2.7481216e-05 -2.7157733e-14 -0.00032620944
00000000: f20f 1738 167a 38b8 7d80 a8a7 bc6f 252e
00000010: 06fb 8a39 e0e2 a435 05b8 82b8 82d2 d327
00000020: 3894 4e2b a667 9f39 312a a8b9 33c1 ee38
00000030: f7be 2f3a e1ae 8836 d18d 8027 087e 9b39
00000040: 0ad8 7e36 38cc 10b3 5bdf 0034 c1ff f334
00000050: 60fa 17ac 61a3 0b32 1260 81b8 d2fe 51ba
00000060: 7aa7 7b38 1dea 7fb9 0fe2 3837 8d5b 073a
00000070: 4ef2 7aa7 d29b 90a8 2278 8039 2ae7 8cb9
00000080: 653b c539 e2a0 8834 1725 e536 4bfe 36a8
00000090: 75af beb8 f895 07b9 f4bc 5d3a 2c1d 5e39
000000a0: 523d 01ba d845 4dac 1a9e 1ab9 1e7e ef2a
000000b0: 9735 adb9 c6ca 6638 54fa 8429 1c47 f836
000000c0: d24b 0039 6caf 92b9 41fe 6c28 4cf1 3cae
000000d0: 2a81 3129 c6ed a8b1 f690 96b8 a7f7 8a36
000000e0: a316 8437 c3f8 bfb9 d88f 21b9 c9ed 5339
000000f0: 2a13 9f39 5734 3ab6 e5c8 a3b9 bb14 b937
00000100: a83b 4437 c153 f238 dcc8 353a 90cb fdb7
00000110: c84c 083a 1480 58b9 15c5 4fba 9f32 69b9
00000120: 67ae 1038 76b9 8ab5 add4 6839 4cf2 a1b9
00000130: 14bd 3b39 d546 9939 60c7 39b8 bd2e fb39
00000140: a65f bfb8 8869 4db3 660e 4339 bc0b 6038
00000150: 980e 19b4 137f 8936 6cf8 cb2b f61c 0fb3
00000160: 92d0 c4b7 7421 89b8 aae7 35b8 cc25 a839
00000170: 5f75 e4b8 701d 7539 6538 a3b9 d1f2 e1b6
00000180: dd73 2bb9 572d 21af a4b7 422e ac7e 35b8
00000190: 3a07 a0b9 e683 f838 46db 1e30 a24a 7cb9
000001a0: dbc7 9cb3 aa67 e1a8 159b b236 0205 abb7
000001b0: 125e 962a e487 963a 7a40 bb2e aafb a4b9
000001c0: 8d61 7c3a ed31 4d39 a28c d738 77a2 b626
000001d0: 1017 0c33 33ae 5dac 00e6 f8b1 d4b6 973a
000001e0: 376a 0428 8833 f4b9 a322 1db9 5af3 003a
000001f0: 8800 5738 7687 e6b7 789d f4a8 1707 abb9

exp_avg_sq f4 [128]
2.0370331e-07 2.1100368e-07 8.518909e-08 3.396664e-07 6.580494e-06 4.1578218e-07 2.6238001e-06 3.5217533e-07
4.533399e-08 1.6814603e-06 5.258509e-07 1.0328426e-06 4.3569135e-06 5.2714913e-08 8.930668e-08 8.663661e-07
1.9966305e-07 1.10990136e-07 5.105067e-08 2.9727664e-07 7.512063e-08 1.0221131e-07 1.1490006e-06 8.492776e-06
2.0169016e-06 9.179145e-07 1.2146664e-07 4.4946178e-06 1.02346505e-07 6.358513e-08 4.6321182e-07 1.5788021e-06
8.4712013e-07 2.932257e-07 1.0174864e-07 1.4439001e-08 5.074688e-07 1.9302638e-06 5.2493815e-06 9.187147e-07
3.071812e-06 3.2551404e-07 1.2924628e-06 7.050205e-08 1.1505496e-06 1.1318284e-07 9.620172e-07 2.6506942e-07
5.3759522e-06 3.591577e-07 1.8746526e-07 3.8391736e-08 7.663051e-08 5.07913e-07 6.5548193e-06 2.831018e-07
4.5240863e-08 3.449356e-07 5.340523e-06 4.909009e-07 1.8118105e-06 8.294254e-08 3.6966965e-06 3.3339063e-07
1.5180261e-07 4.2696715e-07 3.6735933e-06 8.3058706e-07 1.8910698e-06 3.9404163e-06 6.4393817e-06 1.7329371e-06
2.2509468e-07 2.406861e-07 5.402564e-07 1.9810188e-06 1.9154961e-06 2.3011023e-06 6.0302546e-07 1.7928772e-06
1.2555912e-06 1.9768295e-07 3.2950177e-07 4.154232e-07 1.5897845e-07 7.2267625e-07 7.898848e-08 6.8950115e-08
1.7986505e-07 4.715026e-07 8.412864e-07 8.2325323e-07 7.5795776e-07 1.1763335e-06 2.3007408e-06 2.413762e-07
8.2312505e-07 2.1818549e-07 1.2393825e-07 1.3072821e-06 3.762176e-06 8.9052674e-07 7.877932e-09 2.4965427e-06
2.6809676e-07 7.0213787e-07 1.5904114e-07 2.1032392e-07 1.0880146e-07 1.2740767e-05 6.181883e-08 5.902656e-07
1.1840207e-05 1.5740434e-06 1.3929296e-06 7.613611e-09 3.3433045e-07 3.2626565e-07 7.137149e-07 9.159348e-06
1.5363074e-08 7.615859e-07 6.49648e-07 1.8492027e-06 4.2159062e-08 1.5495809e-06 4.4285358e-08 1.7601719e-06
00000000: 8ab9 5a34 4090 6234 33f1 b633 655b b634
00000010: 03ce dc36 ab38 df34 8b14 3036 9c12 bd34
00000020: 40b5 4233 89ae e135 3328 0d35 34a0 8a35
00000030: 9a31 9236 a968 6233 dec8 bf33 3a90 6835
00000040: f662 5634 7959 ee33 ce42 5b33 6499 9f34
00000050: 0152 a133 437f db33 5c37 9a35 327c 0e37
00000060: 1b5a 0736 9b66 7635 7f6c 0234 79d0 9636
00000070: 96c9 db33 4b8c 8833 59af f834 3ae7 d335
00000080: a765 6335 a26c 9d34 e880 da33 660f 7832
00000090: fe38 0835 ae89 0136 d823 b036 989d 7635
000000a0: 5425 4e36 4fc2 ae34 af78 ad35 e966 9733
000000b0: 956c 9a35 ed0e f333 a91e 8135 dd4e 8e34
000000c0: 1463 b436 42d2 c034 0f4a 4934 29e4 2433
000000d0: 1290 a433 8457 0835 78f1 db36 37fd 9734
000000e0: db4e 4233 962f b934 be32 b336 74c6 0335
000000f0: 562d f335 251e b233 c314 7836 dcfc b234
00000100: 2fff 2234 eb39 e534 da87 7636 82f5 5e35
00000110: aad0 fd35 eb37 8436 de11 d836 4497 e835
00000120: 8eb1 7134 a537 8134 2306 1135 a5f1 0436
00000130: f98b 0036 a36c 1a36 98df 2135 cba2 f035
00000140: c985 a835 ad42 5434 61e6 b034 5407 df34
00000150: aab3 2a34 effd 4135 60a0 a933 ba11 9433
00000160: ee20 4134 d322 fd34 c3d4 6135 88fd 5c35
00000170: 7676 4b35 83e2 9d35 6d66 1a36 7e96 8134
00000180: b9f4 5c35 5f46 6a34 e313 0534 df75 af35
00000190: b179 7c36 880c 6f35 8357 0732 478a 2736
000001a0: f0ee 8f34 8c7a 3c35 e5c4 2a34 66d5 6134
000001b0: 3ca6 e933 2dc1 5537 43c1 8433 be72 1e35
000001c0: 4da5 4637 b843 d335 b2f4 ba35 04cd 0232
000001d0: 077e b334 9c29 af34 1d96 3f35 1aab 1937
000001e0: c2f7 8332 c96f 4c35 7863 2e35 1f32 f835
000001f0: 6112 3533 32fb cf35 4434 3e33 0c3f ec35
