results/test-5/Drive/Drive-500046.onnx (onnx, 80694 bytes, 7 tensors)

network_body._body_endoder.seq_layers.0.weight f4 [128, 17]
00000000: e0dc ee3e f40a 80bd 63dc 2c3e 4d31 023e
00000010: 916a b3be 3dd2 d7bd d02d 53bd 9d10 6bbd
00000020: f15d 4e3e e2d2 8a3c 5e3f 1ebe f197 87bd
00000030: ac50 943c 6f41 553e 7afa f6bd 1f18 48be
00000040: 91ce dbbd 96ee e8bd 867f 7cbe cc0a 6d3e
00000050: 5eba 8a3e 5761 6cbe a009 79be 378a 163e
00000060: 7476 32be c910 213c 5c06 1cbe 1e32 5dbd
00000070: e318 5ebd 2ccd 6a3e b75f ffbd ae51 e73b
00000080: 2209 b73d 5b17 da3d 0a37 093e 6aea d3be
00000090: a492 383e 90a8 ffbe 0511 28be d3e1 8e3e
000000a0: 50cb a4be 7bc1 f53e 122c 86be 5a85 c0be
000000b0: 057c 56be b1e0 09bf 1692 1f3e 502a f63e
000000c0: e251 1b3e 4899 e93d 2b70 853d f622 13bf
000000d0: 879d 89bd 95ad 86be 2387 293c e7d1 c8be
000000e0: 9949 a13e fe22 9fbe 3195 b2bd df31 443c
000000f0: b1bb 113d 8835 5a3d 601b 143e b3da fabb
00000100: dfda 18be 1ee8 c93e a527 bbbe e78f c33e
00000110: 4bb8 41bc 4a5c 1fbe 45f7 ebbd 1899 41be
00000120: 71d0 bf3e 43ad 833c f817 133e df29 f4bd
00000130: e048 28be 84cd 87be fcd3 b3be a3b5 e13d
00000140: 8e45 b63e fb18 c2bd 276f a8be 04b9 22be
00000150: f675 043f e2e7 a5be 1773 22be 8603 cb3d
00000160: e74f 1f3c 60c0 d7bd 718c a2bd e4b8 8b3e
00000170: 85e4 c8be 1fd9 f13b 6e9e 683d 9fcb 9b3e
00000180: 595e 443e f716 0ebf 2733 213f cff2 923c
00000190: ef9f 95bd 4e29 ce3d 5a1c 09bf 51bb 0f3f
000001a0: 1ec9 e6bc e2b5 0e3e 58c0 163c e81f 8a3e
000001b0: 325e f3bc 4114 0ebe adec 24bd b8fe c23c
000001c0: c08f cb3d 9f29 91bd e33c d3bd 29bf 453d
000001d0: a530 313e 53cc d8be 7c7a 933d 6bc5 353e
000001e0: 274e 0abf e024 ac3e 403c eabe f68e dcbc
000001f0: ce53 7fbe d77a 57bd 5205 34be c100 93bd
00000200: 480c ce3e f83f 1e3e 7d65 be3c e2b8 f23d
00000210: 8101 8bbd 64bd 94be 603e 2f3e 8382 acbe
00000220: ad3e 703e 59cd 563e af22 703e 5456 4cbd
00000230: 7e39 cd3e 38c1 a33e 2941 96be 03de bfbe
00000240: 4776 363d b278 a6be 820a 17be 7ebe bcbd
00000250: 4cf9 4bbe ec2c aebd f2d7 a13e 9ffe 0abd
00000260: 26ef 2f3e 4e6a 95bd 3b09 00bd e703 3fbe
00000270: b74e 8d3e 30d0 a3bd 25ff a5be f6b2 4fbe
00000280: 5d68 9c3d 4813 f43d 63d7 c43c 0e8c 483e
00000290: fa44 96be 3c8a 9a3e 0625 26be 5735 623d
000002a0: ae56 a73e 4c2e 08bf 6c1a fc3e c93e a4bd
000002b0: 5051 e83e 8ded 2ebe a615 a13d 9246 e8bc
000002c0: 44d6 f1be f2db 903d 0bd0 b3bd 527e 6d3d
000002d0: 6211 243e 1013 46be e854 47be 5dc0 b1bd
000002e0: 824e 97bc b23d e6be 1e18 663e 5816 93bc
000002f0: 63cb 773e 108e d3bd 6ff1 71be 8a28 51be
00000300: c0f5 64be 5cb7 2f3d 3538 743c b5e6 383c
00000310: 2bcb 1ebe f63c 2e3e bb68 9dbe d31c 1fbd
00000320: 1fdb b23e c9eb 973e a5dc 9d3e 1580 90be
00000330: f36e 873e 5214 ccbd 739f e33d 16ef 06bf
00000340: 9bed 073e 7913 84be c9d7 25be d3e8 143e
00000350: aaae 463e 5cfc 9d3e 0e65 91be e327 83bd
00000360: f01e 11bf 91c2 28be 92b0 f53e 3679 3d3d
00000370: a58a 6fbe 8455 36bf 25c2 a1bd f5ce 38ba
00000380: 6fa2 debd d5cc 2bbe c775 43be c322 123e
00000390: 737e b43e 8ce1 d23d e012 1f3b 95aa 34be
000003a0: 0283 693e b4fd fe3d e1d3 4d3d 1d71 21be
000003b0: 7e19 353e e5c8 ff3e 39f2 9ebe b0b7 2b3e
000003c0: d6b0 7abe 7ec5 0dbd d8dc 23be 7907 233e
000003d0: da0f a3bd 8bbd 8a3e 4782 913e 2ae3 99be
000003e0: 78e4 6f3e 7ae5 143e 681a 95be f3be ff3d
000003f0: 261a 8bbd 4946 ff3b dbf6 4c3e 58a5 643e
0.4665289 -0.06252089 0.16880946 0.1271412 -0.3504224 -0.10538147 -0.051557362 -0.05738889
0.20153023 0.01694626 -0.1545386 -0.066207774 0.018104874 0.20825742 -0.12059493 -0.19540451
-0.10732759 -0.11373632 -0.24658021 0.2314865 0.27095312 -0.23084007 -0.24320078 0.14701162
-0.17427999 0.009830662 -0.15236801 -0.054002874 -0.054222953 0.2292983 -0.12469428 0.0070592975
0.08937289 0.10648986 0.13399902 -0.4138978 0.18024689 -0.4993329 -0.16412742 0.27906665
-0.32186365 0.47999176 -0.26205498 -0.3760174 -0.20945747 -0.53858477 0.15583071 0.48079157
0.15167955 0.11406189 0.06515535 -0.5747522 -0.06719499 -0.26304308 0.0103471605 -0.39222643
0.31501463 -0.31081384 -0.08719862 0.011974781 0.035579387 0.053273708 0.14463568 -0.0076554655
-0.14927243 0.39434904 -0.36553684 0.38195726 -0.011823724 -0.15562549 -0.11521772 -0.18906057
0.37463716 0.016073829 0.14364612 -0.11922049 -0.1643405 -0.26523983 -0.3512267 0.110209726
0.3559994 -0.09477421 -0.32897303 -0.1589089 0.51742494 -0.32403475 -0.15864216 0.099127814
0.00972364 -0.105347395 -0.07936943 0.27289498 -0.39236847 0.007380619 0.056791715 0.30428788
0.19176616 -0.5550379 0.6296868 0.017938046 -0.073058955 0.10066472 -0.53558886 0.561452
-0.028172072 0.1393657 0.009201132 0.26977468 -0.029708002 -0.13874914 -0.040264774 0.0238031
0.099395275 -0.07088017 -0.103143476 0.048278008 0.17303713 -0.42343387 0.072010964 0.1775109
-0.540255 0.33621883 -0.45749092 -0.026923638 -0.24934313 -0.052607384 -0.17580155 -0.07177878
0.40243745 0.1545409 0.023241753 0.1185167 -0.06787396 -0.29050744 0.17113638 -0.33693323
0.23461409 0.20976771 0.2345073 -0.049887016 0.40082926 0.31983352 -0.29346588 -0.3747407
0.04454639 -0.32513958 -0.14750102 -0.09216021 -0.19919318 -0.08504662 0.31610066 -0.03393423
0.17181072 -0.07295667 -0.031258803 -0.18653832 0.27599117 -0.07998693 -0.32421222 -0.20283112
0.07637093 0.1191774 0.024028486 0.19584677 -0.293495 0.3018359 -0.16225061 0.05522665
0.3268332 -0.53195643 0.49238908 -0.08019788 0.45374537 -0.17082806 0.07865457 -0.028353963
-0.47233784 0.07073201 -0.087799154 0.057981797 0.16022256 -0.1934321 -0.19465983 -0.086792685
-0.018470053 -0.44968945 0.22470137 -0.01795499 0.2419868 -0.10329831 -0.23627256 -0.2042562
-0.22359371 0.042899475 0.014905979 0.011285474 -0.1550719 0.17015442 -0.30743966 -0.03884585
0.349328 0.29672077 0.308324 -0.2822272 0.26451835 -0.09964813 0.11114397 -0.52708566
0.13274233 -0.25796106 -0.16195597 0.1454194 0.19402567 0.30856597 -0.2839741 -0.06404092
-0.5668783 -0.16480471 0.47986275 0.046258174 -0.23392732 -0.71224236 -0.07898358 -0.0007049882
-0.108708255 -0.16777356 -0.19087897 0.14271073 0.35252723 0.10296926 0.0024272725 -0.17643197
0.22803882 0.12450734 0.05025089 -0.15765806 0.17685506 0.49957958 -0.31044176 0.1676929
-0.2448152 -0.03461217 -0.16002214 0.1592082 -0.07962008 0.27097735 0.28419706 -0.30056125
0.23426998 0.14540663 -0.2912171 0.124875925 -0.06792097 0.007790361 0.20016043 0.22328699

network_body._body_endoder.seq_layers.0.bias f4 [128]
00000000: ca68 04bd 049e 93ba 3d36 95bb a8de cf3d
00000010: 2ecb 94bb cc4d 0ebd 9577 5d3d bcac ba3c
00000020: 4dc8 38bd 2226 a5bd 94ca 8bbd dc57 6bbb
00000030: 43d5 b8bc 0e63 cb3c 6270 5dbd 59a7 4abd
00000040: 9afa 8cbc e320 303a 1de4 04bd 5cc1 e1ba
00000050: 34c1 9c3d 8a7d 0e3e fe77 503d d6d4 abbc
00000060: 8361 8e3d 83d0 a23c d958 01bd 43c6 b13c
00000070: 1589 3d3d 3374 47bd e656 98bc acea 883d
00000080: 742f 84bc 3193 5cbd 5fb2 0bbd b13a 09bc
00000090: 4535 283d ce37 b33c d025 8dbd 9ec0 55bd
000000a0: f58c c63c 140e 84bc 2a49 fe3c e337 03bd
000000b0: 754b 98bd 7dfb 03bd 660d e43b 175c 75bd
000000c0: 2572 163d 41f8 0abe f486 813c 1447 47bd
000000d0: dda7 79bd 69c7 bf3c 179f ec3c 0af3 d2bc
000000e0: 9c6f 3dbd 0e35 abbd 0e13 d5bc 82af 553d
000000f0: b304 c4bc 9739 4dbc d65b 08bd c0f5 4f3b
00000100: beaa abbc 8f1c 3f3d 90f4 51bc ee06 29bd
00000110: 7d18 8cbc e5b5 10bd 4799 96bc 8a09 3e3d
00000120: 631f 86bc ace7 03bc 8290 743c 74ff d73c
00000130: 0680 643d 9039 adbd 3614 9abd acfe a3bd
00000140: 45da 33bd 952a 7abc f0e7 cc3c 1f27 be3c
00000150: 078a 27bd 3806 8cbd 1a4f afbd 2d54 94bd
00000160: 762b 51bd cfbb 9b3c f285 1abd bdd0 aebc
00000170: 4f6c 27bc 8424 963d bb6c 903b 6c7c 8abd
00000180: 2145 503d 23ac 74bc c659 cfbc 1174 67bd
00000190: 10b0 49bc 9300 613d 6e7a 6e3d dbde 20bd
000001a0: fd87 8d3c 7320 82bd f9fc 72bb 2145 e1bc
000001b0: a37d e5bb 6c36 bcbd 5839 96bc e25f 30bd
000001c0: df85 8e3d 5f73 0cbb 3b8d b5bd bded 89bd
000001d0: 1f68 e4bc e8c0 983d 0efb d4bc fc46 923d
000001e0: 9aae 8cbd bb96 173d 4a45 0b3d fd93 b0bd
000001f0: f241 2ebd 5649 6fbd c091 78bd 385c 983d
-0.032326497 -0.0011262302 -0.004553585 0.1014989 -0.0045408225 -0.03474216 0.05406912 0.022787444
-0.045112897 -0.08063914 -0.06825748 -0.0035910523 -0.022562629 0.024827506 -0.054062255 -0.049476
-0.01720934 0.00067187677 -0.03244411 -0.0017223763 0.07654038 0.13915077 0.050895683 -0.020975512
0.06952193 0.019874817 -0.031578872 0.021700984 0.04627331 -0.0486948 -0.018596124 0.06685385
-0.016135909 -0.05385131 -0.034105655 -0.0083758095 0.041066427 0.021877196 -0.06891978 -0.052185647
0.024237135 -0.016119994 0.031040747 -0.03203572 -0.07436267 -0.03222226 0.006959605 -0.059902277
0.03672995 -0.13571264 0.015811421 -0.04865177 -0.060951103 0.023410516 0.028884454 -0.025750656
-0.046249017 -0.08359729 -0.026010063 0.05216933 -0.023928022 -0.0125259375 -0.033290707 0.0031732172
-0.02095544 0.046658095 -0.012814656 -0.041266374 -0.01710152 -0.03532972 -0.018383635 0.046395816
-0.016372388 -0.00805084 0.0149270315 0.026366927 0.055786155 -0.08458245 -0.07523386 -0.08007559
-0.04390933 -0.015268941 0.02501294 0.023212014 -0.040903118 -0.06837124 -0.08560009 -0.07242618
-0.05106684 0.019010453 -0.037725396 -0.021339769 -0.010218694 0.073311836 0.004407493 -0.06762013
0.050847176 -0.014933619 -0.025311362 -0.056507174 -0.012310043 0.05493219 0.058222227 -0.03927503
0.017276758 -0.063538454 -0.0037077053 -0.027498784 -0.0070035025 -0.09190068 -0.01833789 -0.04306019
0.06959128 -0.0021431071 -0.08864828 -0.06734798 -0.02788168 0.07458669 -0.025998618 0.071424454
-0.0686924 0.037008982 0.034001626 -0.086219765 -0.04254336 -0.058419548 -0.060685873 0.07439464

network_body._body_endoder.seq_layers.2.weight f4 [128, 128]
00000000: 67b9 0e3e df9f a8bc 2e48 87bd 9124 8f3d
00000010: 834c 42bd f549 06be 88e8 c33c 02bf 93be
00000020: d651 b03c 5c7d e53c 7bd7 1a3e 427b f8bd
00000030: 95aa 0bbc 2d28 41bd 276b 13bd 1110 233d
00000040: da2c 4cbd ffe4 103e 8063 493d e2d7 413d
00000050: 69b6 da3d 238d b23c 280f 37be 5c8a babd
00000060: 00dc 653d 74c4 d3bd 00eb 9ebc ed72 8abc
00000070: 5a45 e5bb c1d4 f93d 0dce 67be 02cd afbc
00000080: 932b d4bb 4112 f53d 3114 15bc a056 313e
00000090: eabd 733d e948 003c 1ab4 2d3e 78b3 90bd
000000a0: 765c 663e 5938 a0bd 3e03 6dbc 81a6 45bd
000000b0: 7561 3b3e 62f3 803e 371c d93d 246b a1bc
000000c0: 4f35 a33d ee11 593a a022 403d 2781 88bc
000000d0: 0fd9 b83d 0ba7 1b3e ac85 273e 4ce1 e0bc
000000e0: 6751 2d3c 8425 58be 4d82 32be bb93 09bd
000000f0: 6958 1d3c b22d c7bd 412b 30bd c83e 1a3e
00000100: 5595 043d 2fc4 ab3d 28f8 7fbe 6525 db3d
00000110: 8962 01be cae5 4b3e 5300 4e3d fbad 2d3e
00000120: 6195 2ebd 4315 d33d 6e2f 4d3d 0ccd 163e
00000130: 121c c7bd 63d5 f03d 7877 1b3e 002c cbbd
00000140: d2a0 d2bd 97db 053e 7caa 0bbe d8b2 1cbe
00000150: 857b 3c3d 1947 ebbd 412b 4e3e aa9a e13d
00000160: 7f42 0b3d d221 25be 6ce2 0bbd 2e16 9dbd
00000170: e275 0ebe 7d9e e03d e78b bbbd f8b1 733e
00000180: d9b3 32bd 1d91 733d e526 853d a85e 293e
00000190: d87b b1bd 1455 963d c586 a5bd db3a 0dbe
000001a0: 24db ee3d b5c6 3f3d 6f66 e7bc 154b 443d
000001b0: 28d2 113c 87e2 20be 047f 873d 39ba c3bd
000001c0: 5e88 acbd f4f7 adbc d454 8f3d 787d e83c
000001d0: 8597 083e b22e 83bd 12eb e53d 60bf 0abe
000001e0: 85a2 cf3d 5cdf d0bd 5249 51bd 00ff aabc
000001f0: 2044 1ebe f5ea fc3d a34b d9bd e426 b5be
00000200: 7af8 cfbd afe1 98bc 1979 5a3e 9015 f43d
00000210: dd3a 12be da50 cebc 4fab c0bc a66c 243b
00000220: 96a4 673c 181e 35bd de03 03be 1490 68be
00000230: c17b 35be fc7d 12bd a245 7d3d 447e 4fbe
00000240: 9646 c8bd f2a7 9dbc 0a0d 04be b77c 89bd
00000250: 03de 2bbd eb21 c63d da2e 04be ee25 33be
00000260: 3dc4 5bbb 294a 88bd bd6e 393d a3f9 64bc
00000270: ff91 a4bd a98a 4a3d 65a7 ce3c dc15 723d
00000280: 536c 563b 6cbb 8abd b3eb 82bc 60cf 213e
00000290: 0772 a23d 8b19 98bd 2d1d 21be d715 b13c
000002a0: 4ef7 2c3e 8a6e a4be 5c87 e3bc 5f73 d1bd
000002b0: dcd0 653c 47d3 913d 664f 08be 8806 803d
000002c0: d63e d5bc 0dbf f9bd 4f1f ebbd 1bb5 073d
000002d0: eaa8 1abc c867 8fbd b894 893c b6df fe3d
000002e0: 3f52 b4bd ab7f d73c 5d16 67bd eae9 c1bc
000002f0: 1e5c 58be b1c0 89bd 0b9e bf3a d150 1cbc
00000300: d2a6 d03c c991 ff3d b235 8abe 7dbe 4e3e
00000310: b5d2 893b e98b 7abb dc3d 8dbd c30f 1bbd
00000320: 2e99 2abc 7685 04be a6eb e73d 1017 afbd
00000330: e97f e73c c869 fe3c 7e12 bbbd 8fd1 633d
00000340: d6f1 013e 0da9 063d 4bb9 a3bb 4a00 8fbd
00000350: 4696 0ebe b806 4ebd eb8a fd3d f855 793c
00000360: 217d 40bc a3aa 803b 6c22 84be f427 043e
00000370: cc08 3d3d af16 21be b27a 52bc ff8e 5abc
00000380: e083 e9bd 3244 433d a6f9 83bc 655d d6bd
00000390: 372a 1fbd 3eec 00be 715c 843d 304e 153e
000003a0: a910 01bd 329a a839 50e0 afbd edcf d6bc
000003b0: 9821 58be a685 26be 8882 dfbd 64cb 25be
000003c0: 2a5e 81bd 1abe 1ebe c2a7 e0bd 10fc 023e
000003d0: 5a97 6cbd 7ccb b53d 2009 11bd 9159 abbd
000003e0: 657d 953d a868 073e f1e6 873a 49a4 da3d
000003f0: 7161 6c3d d1fc f1bd 3324 5bbd 3469 723d
0.13937913 -0.020584045 -0.06605564 0.06989396 -0.04743625 -0.1311415 0.02391459 -0.28856665
0.021523397 0.028013878 0.15121262 -0.121328846 -0.008524557 -0.047157455 -0.03599086 0.039810244
-0.04984746 0.14149855 0.049167156 0.047325023 0.10679323 0.021795815 -0.17876875 -0.09108421
0.05611801 -0.10340205 -0.019399166 -0.016900504 -0.0069967927 0.12198783 -0.22637196 -0.02146006
-0.006474921 0.11966372 -0.009099052 0.17318201 0.059507288 0.007829883 0.16963235 -0.07065481
0.22496209 -0.078232475 -0.014466105 -0.048254494 0.18298896 0.25185686 0.10601085 -0.019704409
0.07969152 0.0008280565 0.04690802 -0.016663147 0.09025776 0.1520044 0.16359586 -0.02745118
0.01057849 -0.21108061 -0.17432518 -0.033588152 0.009603598 -0.097255126 -0.04301 0.15063012
0.032368977 0.083870284 -0.24997008 0.10700492 -0.12635244 0.19911876 0.050293278 0.169609
-0.042622928 0.1030679 0.05009406 0.14726657 -0.09722151 0.1175945 0.15182292 -0.09920502
-0.1028458 0.13072048 -0.13639253 -0.15302598 0.046016235 -0.1148817 0.20133688 0.11015828
0.033998962 -0.16126183 -0.03415148 -0.07670246 -0.13912156 0.10967729 -0.09157544 0.23798358
-0.043628547 0.059464563 0.06501559 0.16540015 -0.086661994 0.07340446 -0.08082346 -0.13791983
0.116628915 0.04682036 -0.028247086 0.047923166 0.008900203 -0.15711413 0.06616023 -0.095570035
-0.084244475 -0.021236397 0.069986016 0.02838014 0.1333905 -0.06405391 0.11226477 -0.13549566
0.1013842 -0.101988524 -0.051095314 -0.020873547 -0.15455675 0.12349502 -0.1061013 -0.35381234
-0.10154815 -0.018662302 0.21335258 0.11918175 -0.14280267 -0.025185037 -0.023519186 0.0025089174
0.014138361 -0.044218153 -0.12794444 -0.22711211 -0.1772299 -0.03576468 0.061833985 -0.2026301
-0.09779088 -0.019245122 -0.12895599 -0.067132406 -0.041959774 0.09674438 -0.12908497 -0.17494938
-0.0033533715 -0.0665477 0.045271624 -0.013975534 -0.08035659 0.049448643 0.025226304 0.059102878
0.0032718375 -0.06774029 -0.01598153 0.15801764 0.07931905 -0.07426747 -0.15733786 0.02161686
0.16891214 -0.32115585 -0.027774505 -0.102270834 0.014026847 0.07120376 -0.13311538 0.06251246
-0.02603094 -0.12194643 -0.11480581 0.0331317 -0.009439686 -0.070022166 0.016794547 0.12445013
-0.0880475 0.026305994 -0.05641781 -0.02367111 -0.2112889 -0.06726206 0.0014619244 -0.0095407525
0.025470171 0.12478978 -0.2699409 0.20189853 0.0042060264 -0.0038230366 -0.06896564 -0.03785683
-0.010412497 -0.12941536 0.11324243 -0.08549321 0.028259235 0.0310563 -0.091343865 0.055619773
0.1268991 0.032876063 -0.004996454 -0.06982477 -0.13924512 -0.050299376 0.12380012 0.01521825
-0.011748583 0.0039265915 -0.25807512 0.12905866 0.046150967 -0.1573131 -0.012846636 -0.013339757
-0.11402106 0.047672458 -0.016110253 -0.10467032 -0.03885862 -0.12590119 0.06462944 0.14580607
-0.03151003 0.00032158341 -0.08587706 -0.026222194 -0.21106565 -0.1626192 -0.10913569 -0.16190869
-0.063167885 -0.15502205 -0.10969497 0.12791467 -0.057761528 0.08876702 -0.035409093 -0.08366693
0.07299308 0.13223517 0.0010368509 0.10675866 0.057710115 -0.11815799 -0.05350132 0.05918236

network_body._body_endoder.seq_layers.2.bias f4 [128]
00000000: 65cd 1d3d 6485 18bd c097 27bd 6b73 adbc
00000010: e86d 25bd b0ab 53bd 9aee 68bd cebe 5abc
00000020: f1b1 51bd e751 35bd ebb9 593b ffe1 893c
00000030: db8d 83bd 9049 16bb 8ea4 97bd 73ac 16bd
00000040: 8f76 09bd b6c7 07bd 6dfc 28bd 8b72 29bd
00000050: fab0 9d3a fa5d 19bc e16d 80bc 93f9 52bd
00000060: 5d76 80bc f411 ad3c de71 1abd dcc4 22bd
00000070: b0da b43b b25b 6dbb 98a7 83bc 0e0f 453c
00000080: f5b4 483b 243f 03bd 77ad 86bc 052b ac3c
00000090: 9d56 65bd f637 a13c 8664 49bc 2976 6fbd
000000a0: 87f3 ffbc db4a 8bbb de22 17bc a111 e4bc
000000b0: 6795 0a3d 87f3 ee3c 196f 64bd 5395 40bd
000000c0: b3ce 883c 0457 6d3d 52bb 7abb 9247 e93c
000000d0: 1cca 64bd e7b7 b3bc 8007 103c 31f3 74bd
000000e0: e806 16bc a6c5 36bd 8ee3 b6bb 7ca4 03bc
000000f0: b6d0 3ebd a054 2cbc 440b 053d 22dd fabb
00000100: 6c34 41bd 5829 983c 8ba9 623a d3df 3ebd
00000110: 1a95 083d aad5 e6bc 1686 803c 03ff 17bd
00000120: 1599 60bd 9411 5d3c 1ae8 ba3c 5c40 5dbc
00000130: 3634 8aba c7ec bcbc eda6 0bbc 607e 90bb
00000140: 6c40 da3c f895 9d3d a9a4 87bc 3193 3ebd
00000150: 7427 58bd 528b 0abd 6963 9b3c bcca 153c
00000160: c0b7 8abd 7c93 813d 6d5b c73c 6661 36bd
00000170: e13f 3cbd b5f1 043c ff6b 1cbc 9886 8b3c
00000180: 04ac f5bb 4418 f13c 31da 073c 17d9 85bd
00000190: 6bf7 093d 926e a73c 39bf b93c b079 e1bc
000001a0: df22 d5bc df34 0cbd 7321 a2bc 56a6 51bd
000001b0: 07f3 1b3d 7025 e93c 777e 44bd bc85 68bd
000001c0: 7aff 43bd 614c 4a3c e0dd 9eb9 c3a9 62ba
000001d0: 5593 77bd a6b7 b63b 4b42 82bc 8077 9dbc
000001e0: ce54 cebc 4d9d a93c 7ea6 6dbd 7c3d 94bd
000001f0: 8974 06bd 336d c9bc f303 37bd 98d6 9dbc
0.038525958 -0.037236586 -0.040916204 -0.0211732 -0.040388018 -0.051677406 -0.056868173 -0.013351155
-0.05119509 -0.04426756 0.0033222388 0.016831396 -0.06423541 -0.002293203 -0.07404433 -0.036785554
-0.033560332 -0.033149444 -0.041256357 -0.041369002 0.0012030893 -0.009360785 -0.015677394 -0.051507544
-0.01568144 0.021126725 -0.03770625 -0.03973852 0.0055192336 -0.0036217985 -0.016071126 0.012027515
0.0030625437 -0.032042637 -0.016440136 0.021016607 -0.055990804 0.019680005 -0.012292033 -0.058462296
-0.031244053 -0.004250867 -0.009224622 -0.027840437 0.033833887 0.029168857 -0.055770013 -0.047017407
0.016700124 0.057944313 -0.0038258624 0.02847651 -0.05585681 -0.021938277 0.008790851 -0.059802238
-0.00915692 -0.044622086 -0.005581326 -0.008034822 -0.04658576 -0.010518223 0.032481447 -0.0076557556
-0.047169134 0.018574402 0.00086464797 -0.046600174 0.03334532 -0.028178055 0.015688937 -0.037108433
-0.05483349 0.0134929605 0.022815753 -0.013504114 -0.0010544125 -0.023062123 -0.008523685 -0.0044095963
0.026642047 0.0769462 -0.016558008 -0.04652709 -0.052772 -0.033824272 0.0189683 0.009142574
-0.06773329 0.063269585 0.024335587 -0.04452648 -0.045959357 0.008114268 -0.009547233 0.017031953
-0.0074973125 0.029430516 0.008291767 -0.06535547 0.03368322 0.020438466 0.02267419 -0.027523845
-0.026017604 -0.03423011 -0.01979134 -0.05118402 0.038073566 0.028460234 -0.04797217 -0.056768164
-0.047851063 0.012347312 -0.00030301418 -0.0008646512 -0.06044324 0.005576092 -0.015900752 -0.019222021
-0.025186922 0.02070489 -0.058020107 -0.0723829 -0.03282598 -0.024588203 -0.0446815 -0.019267365

action_model._continuous_distribution.log_sigma f4 [1, 2]
00000000: 2133 0fbf 3ab7 15bf
-0.5593739 -0.58482707

action_model._continuous_distribution.mu.weight f4 [2, 128]
00000000: 79d7 fc3c 40df cdbc 05dd 1bbd 1d60 1ebd
00000010: c738 bf3c c738 683a e9ce 843d cf7d 433c
00000020: 70d3 cdbc b28e bebd af92 01bd c5c6 353d
00000030: b98e 5c3c bbf3 c0bd a7f6 f93c f07d 833d
00000040: a936 4c3d 4f82 293c 49a0 803d 12ac 933c
00000050: afb7 f63c fd22 c13c 50d0 04bd 3e87 8b3d
00000060: acd5 4d3d ab43 2e3c 9a62 a03b 1a74 753b
00000070: a94a e83c e60e acbd 402a e93d da2f 853d
00000080: e12a 1c3c d275 6fbc a161 c63d ebf5 9d3c
00000090: 0dba 7abc 04c8 6f3d d928 603d 7f05 69bd
000000a0: 6933 873d f79f 873d e2c6 90bd 983b 14bd
000000b0: c845 f7bd dedf a4bd b39f c23c 916c 8ebd
000000c0: ec85 80bd f503 993d bfec 383d 749c 07be
000000d0: 4c86 1c3c 4369 2fbc 5347 d0bc d68e 4b3d
000000e0: 3b3f 3bbd fcfb 30bc 2046 ccbc c7e9 3cbd
000000f0: 7134 123d 3633 9a3d 2932 d13c 5861 8cbd
00000100: 40b3 3a3c e38e 02bd 0d89 193d 6c5e 533d
00000110: ec6b 853d 790f 01be 4d21 833d e4c1 963c
00000120: 8d3c fb3c 6bed 8fbd b18a c8bd 2df9 27bd
00000130: 1b52 3dbd e85f 3c3d c1bb 01bd 913d c0bd
00000140: 1253 583d 5097 1fbe 3cec 5dbd 2f1e 35bc
00000150: 122e 313d 0fd4 533d a12d 0bbd 5a8e a8bd
00000160: 5346 e2bc 8472 a53d 8182 a33d cddf 1e3d
00000170: efe6 65bd fff4 cb3b 8b73 36bd ff5f 103d
00000180: 8c1b 5bbd 35a6 10bd fba4 86bd 81a6 3b3c
00000190: dfdb b5bd 0423 9ebd 53b5 abba 64dc 573c
000001a0: 5a44 2d3d 0df1 643d 65cf 503d 2a5b 153d
000001b0: a2b2 1bbd 74a7 de3d 4d5e d63a b693 153d
000001c0: 8274 ed3c 30a0 97bd 4a51 18bd ae11 af3d
000001d0: 2307 8b3d 7543 8d3d d470 463d 3d30 2fbd
000001e0: f3dd 40bd 8053 943d e923 c3bc 3043 633c
000001f0: b349 0a3e 216b 883c 6ea6 de3c add2 2bbd
00000200: 66b7 96bd 0359 6c3d bfa1 7b3d 66ca 343d
00000210: 6848 5b3d 7dba 9fbd 3f27 4c3d a441 85bd
00000220: 019e 93bc c0cf cbbc 45ba 9d3c ca31 b2bd
00000230: 184b 0f3d 1057 d3bc 16c6 4a3d 1b09 5fbd
00000240: fe3e ba3c 3d0f 5fbd 8359 23bd 95eb e33d
00000250: 89f7 d0bb 1e31 7bbd 920d 793d 8622 873c
00000260: 617f 50bc f934 85bd 4439 9a3d 4ddc cdbc
00000270: a2da debd c667 d73c 660d bbbd c8a2 693c
00000280: 900f ec3d aa71 a23d ac67 453d b9dd 563d
00000290: 7e58 0bbd 732c 48bd 4d7d 0dbc d788 da3b
000002a0: 3f81 673d ba68 e63c a866 4bbc 2bab fe3c
000002b0: 104e 843d c4a9 663d 6f7a ff3c 0aa2 21bc
000002c0: 0e50 063d 2149 cabd 8a04 30bd 9162 b03d
000002d0: e588 ac3d 8fef 55bc c7c0 393d 8e77 9abd
000002e0: f0ee 61bd 6e02 9c3d 3db2 553d 11cf 013e
000002f0: f19b be3c 07bb 733d 1e78 423d 4c17 bebd
00000300: caeb b0bc 29e5 d03c fced 71bd f8e5 423d
00000310: afde 463d 55b8 8dbd a7ed ffbd edcf c8bd
00000320: 747c 80bd 3aa9 913d 1cc2 62bd e399 593d
00000330: 35cc c33d c57c d7bd 0413 cbbd c09b 8d3b
00000340: 4196 843d e873 9f3c 91fe f93c 1e64 ca3c
00000350: 276a ef3d 38cd 91bd a3fb 713d 9355 8e39
00000360: 8936 703c d3a6 46be 9b56 173d 2521 233d
00000370: 999a 273d a2be 3bbd 9b8e 34bd 8fbe 2f3b
00000380: 3c5c 273c 5396 93bd 1dd9 eebd 37b7 3b3d
00000390: c1e4 943d b262 193d 3fd5 483d d423 0d3a
000003a0: 6e5f 753a bc58 8b3c a6fd 7e3d c7ee 91bc
000003b0: 6715 133c d4c5 4abd 1f8e 3e3b 04e8 f23d
000003c0: 0e73 69bd bd3f 9dbc 08e3 d03d 5c9f 323d
000003d0: 5393 173d 6541 8e3d d903 6e3c db43 80bc
000003e0: 7035 093e 52c1 9cbc 7587 a1bd 7d11 c6bd
000003f0: 4556 ed3b c1ba efbd 40f4 25bd 4025 5bbd
0.030864464 -0.025130868 -0.038052578 -0.03866588 0.023342503 0.0008858558 0.064847775 0.011931851
-0.025125235 -0.09304561 -0.03163403 0.044379015 0.013461762 -0.09421488 0.03051312 0.06420505
0.049856815 0.010346009 0.06280572 0.018026385 0.030116884 0.023576254 -0.032425225 0.06812905
0.0502526 0.0106362505 0.0048945667 0.0037453235 0.028355913 -0.08401279 0.11385012 0.065032676
0.0095317075 -0.014615493 0.0968659 0.019282302 -0.015303147 0.05854036 0.054726455 -0.056890007
0.066016026 0.06622308 -0.07069184 -0.036189646 -0.120738566 -0.08050512 0.023757791 -0.06954301
-0.062755436 0.07471458 0.045147654 -0.13243276 0.009553503 -0.010706249 -0.025424635 0.049696766
-0.0457146 -0.010802265 -0.024935782 -0.046121385 0.035694543 0.07529299 0.025536614 -0.06854504
0.011395276 -0.03187455 0.037484217 0.05160372 0.06514725 -0.12603559 0.06402836 0.018403001
0.030668521 -0.07027706 -0.09792078 -0.041009117 -0.04622088 0.0459899 -0.031673197 -0.09386743
0.052813597 -0.15585065 -0.05418037 -0.01105456 0.043256827 0.051715907 -0.033979062 -0.082302764
-0.027621424 0.08078483 0.07983876 0.03878765 -0.05612844 0.006224274 -0.044543784 0.0352478
-0.053493068 -0.035314757 -0.06574436 0.011453272 -0.08879828 -0.077215225 -0.0013100303 0.013175104
0.042301513 0.055893946 0.050979037 0.036463894 -0.038012154 0.10871783 0.0016355008 0.03651782
0.02898622 -0.074036 -0.0371869 0.08548294 0.067884706 0.06897632 0.048447445 -0.042770613
-0.047086667 0.07242489 -0.023820834 0.013870999 0.13504677 0.016652646 0.02717897 -0.041948963
-0.07359199 0.057702076 0.06143355 0.044138335 0.05353585 -0.07799242 0.049842115 -0.065066606
-0.018019678 -0.024879336 0.01925386 -0.08700903 0.034983724 -0.02579835 0.049505316 -0.054452043
0.022735115 -0.05445789 -0.039880287 0.11128918 -0.0063771647 -0.06132614 0.060803957 0.016495954
-0.012725682 -0.06504244 0.07530454 -0.025129462 -0.10881545 0.0262946 -0.09133415 0.0142600015
0.11526406 0.07931836 0.048194572 0.052457545 -0.03401994 -0.048870515 -0.008635831 0.0066691446
0.056519743 0.02812611 -0.012414612 0.031087479 0.06460202 0.056314245 0.03118631 -0.009865293
0.03279119 -0.098772295 -0.04297308 0.0861255 0.08424548 -0.0130576035 0.045349862 -0.075423345
-0.05515951 0.07617651 0.052171934 0.12676646 0.023267718 0.059504535 0.047477834 -0.09281787
-0.021596808 0.025499897 -0.05906485 0.047582597 0.04855221 -0.06919924 -0.124965005 -0.09805284
-0.062737375 0.071123555 -0.0553609 0.053125273 0.09560434 -0.10521845 -0.09915736 0.0043215454
0.06473971 0.019464448 0.030516895 0.024705943 0.11690169 -0.071192205 0.05907787 0.00027148108
0.01466144 -0.19399576 0.036947828 0.03982653 0.04091892 -0.0458361 -0.04408131 0.0026816463
0.0102148615 -0.072064064 -0.11662505 0.045829024 0.07270194 0.03744764 0.049031492 0.0005384062
0.00093602284 0.017010085 0.062253617 -0.017814053 0.008977271 -0.04950507 0.002907641 0.1186066
-0.05699449 -0.019195432 0.10199553 0.04360901 0.037005734 0.06946067 0.014527285 -0.015657356
0.13399291 -0.019135151 -0.078871645 -0.096713044 0.00724295 -0.11705542 -0.040516138 -0.05350232

action_model._continuous_distribution.mu.bias f4 [2]
00000000: bc8b 0c3b c968 353d
0.0021445593 0.044289384
